…
      sampler {
        min_scale: 0.3
        max_scale: 1
        min_aspect_ratio: 0.5
        max_aspect_ratio: 2
      }
      sample_constraint {
        min_jaccard_overlap: 0.9
      }
      max_sample: 1
      max_trials: 50
    }
    batch_sampler {
      sampler {
        min_scale: 0.3
        max_scale: 1
        min_aspect_ratio: 0.5
        max_aspect_ratio: 2
      }
      sample_constraint {
        max_jaccard_overlap: 1
      }
      max_sample: 1
      max_trials: 50
    }
    label_map_file: "data/MELON/labelmap_melon.prototxt"
  }
}
layer {
  name: "conv1_1"
  type: "Convolution"
  bottom: "data"
  top: "conv1_1"
  param {
    lr_mult: 1
    decay_mult: 1
  }
  param {
    lr_mult: 2
    decay_mult: 0
  }
  convolution_param {
    num_output: 64
    pad: 1
    kernel_size: 3
    weight_filler {
      type: "xavier"
    }
    bias_filler {
      type: "constant"
      value: 0
    }
  }
}
layer {
  name: "relu1_1"
  type: "ReLU"
  bottom: "conv1_1"
  top: "conv1_1"
}
layer {
  name: "conv1_2"
  type: "Convolution"
  bottom: "conv1_1"
  top: "conv1_2"
  param {
    lr_mult: 1
    decay_mult: 1
  }
  param {
    lr_mult: 2
    decay_mult: 0
  }
  convolution_param {
    num_output: 64
    pad: 1
    kernel_size: 3
    weight_filler {
      type: "xavier"
    }
    bias_filler {
      type: "constant"
      value: 0
    }
  }
}
layer {
  name: "relu1_2"
  type: "ReLU"
  bottom: "conv1_2"
  top: "conv1_2"
}
layer {
  name: "pool1"
  type: "Pooling"
  bottom: "conv1_2"
  top: "pool1"
  pooling_param {
    pool: MAX
    kernel_size: 2
    stride: 2
  }
}
layer {
  name: "conv2_1"
  type: "Convolution"
  bottom: "pool1"
  top: "conv2_1"
  param {
    lr_mult: 1
    decay_mult: 1
  }
  param {
    lr_mult: 2
    decay_mult: 0
  }
  convolution_param {
    num_output: 128
    pad: 1
    kernel_size: 3
    weight_filler {
      type: "xavier"
    }
    bias_filler {
      type: "constant"
      value: 0
    }
  }
}
layer {
  name: "relu2_1"
  type: "ReLU"
  bottom: "conv2_1"
  top: "conv2_1"
}
layer {
  name: "conv2_2"
  type: "Convolution"
  bottom: "conv2_1"
  top: "conv2_2"
  param {
    lr_mult: 1
    decay_mult: 1
  }
  param {
    lr_mult: 2
    decay_mult: 0
  }
  convolution_param {
    num_output: 128
    pad: 1
    kernel_size: 3
    weight_filler {
      type: "xavier"
    }
    bias_filler {
      type: "constant"
      value: 0
    }
  }
}
layer {
  name: "relu2_2"
  type: "ReLU"
  bottom: "conv2_2"
  top: "conv2_2"
}
layer {
  name: "pool2"
  type: "Pooling"
  bottom: "conv2_2"
  top: "pool2"
  pooling_param {
    pool: MAX
    kernel_size: 2
    stride: 2
  }
}
layer {
  name: "conv3_1"
  type: "Convolution"
  bottom: "pool2"
  top: "conv3_1"
  param {
    lr_mult: 1
    decay_mult: 1
  }
  param {
    lr_mult: 2
    decay_mult: 0
  }
  convolution_param {
    num_output: 256
    pad: 1
    kernel_size: 3
    weight_filler {
      type: "xavier"
    }
    bias_filler {
      type: "constant"
      value: 0
    }
  }
}
layer {
  name: "relu3_1"
  type: "ReLU"
  bottom: "conv3_1"
  top: "conv3_1"
}
layer {
  name: "conv3_2"
  type: "Convolution"
  bottom: "conv3_1"
  top: "conv3_2"
  param {
    lr_mult: 1
    decay_mult: 1
  }
  param {
    lr_mult: 2
    decay_mult: 0
  }
  convolution_param {
    num_output: 256
    pad: 1
    kernel_size: 3
    weight_filler {
      type: "xavier"
    }
    bias_filler {
      type: "constant"
      value: 0
    }
  }
}
layer {
  name: "relu3_2"
  type: "ReLU"
  bottom: "conv3_2"
  top: "conv3_2"
}
layer {
  name: "conv3_3"
  type: "Convolution"
  bottom: "conv3_2"
  top: "conv3_3"
  param {
    lr_mult: 1
    decay_mult: 1
  }
  param {
    lr_mult: 2
    decay_mult: 0
  }
  convolution_param {
    num_output: 256
    pad: 1
    kernel_size: 3
    weight_filler {
      type: "xavier"
    }
    bias_filler {
      type: "constant"
      value: 0
    }
  }
}
layer {
  name: "relu3_3"
  type: "ReLU"
  bottom: "conv3_3"
  top: "conv3_3"
}
layer {
  name: "pool3"
  type: "Pooling"
  bottom: "conv3_3"
  top: "pool3"
  pooling_param {
    pool: MAX
    kernel_size: 2
    stride: 2
  }
}
layer {
  name: "conv4_1"
  type: "Convolution"
  bottom: "pool3"
  top: "conv4_1"
  param {
    lr_mult: 1
    decay_mult: 1
  }
  param {
    lr_mult: 2
    decay_mult: 0
  }
  convolution_param {
    num_output: 512
    pad: 1
    kernel_size: 3
    weight_filler {
      type: "xavier"
    }
    bias_filler {
      type: "constant"
      value: 0
    }
  }
}
layer {
  name: "relu4_1"
  type: "ReLU"
  bottom: "conv4_1"
  top: "conv4_1"
}
layer {
  name: "conv4_2"
  type: "Convolution"
  bottom: "conv4_1"
  top: "conv4_2"
  param {
    lr_mult: 1
    decay_mult: 1
  }
  param {
    lr_mult: 2
    decay_mult: 0
  }
  convolution_param {
    num_output: 512
    pad: 1
    kernel_size: 3
    weight_filler {
      type: "xavier"
    }
    bias_filler {
      type: "constant"
      value: 0
    }
  }
}
layer {
  name: "relu4_2"
  type: "ReLU"
  bottom: "conv4_2"
  top: "conv4_2"
}
layer {
  name: "conv4_3"
  type: "Convolution"
  bottom: "conv4_2"
  top: "conv4_3"
  param {
    lr_mult: 1
    decay_mult: 1
  }
  param {
    lr_mult: 2
    decay_mult: 0
  }
  convolution_param {
    num_output: 512
    pad: 1
    kernel_size: 3
    weight_filler {
      type: "xavier"
    }
    bias_filler {
      type: "constant"
      value: 0
    }
  }
}
layer {
  name: "relu4_3"
  type: "ReLU"
  bottom: "conv4_3"
  top: "conv4_3"
}
layer {
  name: "pool4"
  type: "Pooling"
  bottom: "conv4_3"
  top: "pool4"
  pooling_param {
    pool: MAX
    kernel_size: 2
    stride: 2
  }
}
layer {
  name: "conv5_1"
  type: "Convolution"
  bottom: "pool4"
  top: "conv5_1"
  param {
    lr_mult: 1
    decay_mult: 1
  }
  param {
    lr_mult: 2
    decay_mult: 0
  }
  convolution_param {
    num_output: 512
    pad: 1
    kernel_size: 3
    weight_filler {
      type: "xavier"
    }
    bias_filler {
      type: "constant"
      value: 0
    }
    dilation: 1
  }
}
layer {
  name: "relu5_1"
  type: "ReLU"
  bottom: "conv5_1"
  top: "conv5_1"
}
layer {
  name: "conv5_2"
  type: "Convolution"
  bottom: "conv5_1"
  top: "conv5_2"
  param {
    lr_mult: 1
    decay_mult: 1
  }
  param {
    lr_mult: 2
    decay_mult: 0
  }
  convolution_param {
    num_output: 512
    pad: 1
    kernel_size: 3
    weight_filler {
      type: "xavier"
    }
    bias_filler {
      type: "constant"
      value: 0
    }
    dilation: 1
  }
}
layer {
  name: "relu5_2"
  type: "ReLU"
  bottom: "conv5_2"
  top: "conv5_2"
}
layer {
  name: "conv5_3"
  type: "Convolution"
  bottom: "conv5_2"
  top: "conv5_3"
  param {
    lr_mult: 1
    decay_mult: 1
  }
  param {
    lr_mult: 2
    decay_mult: 0
  }
  convolution_param {
    num_output: 512
    pad: 1
    kernel_size: 3
    weight_filler {
      type: "xavier"
    }
    bias_filler {
      type: "constant"
      value: 0
    }
    dilation: 1
  }
}
layer {
  name: "relu5_3"
  type: "ReLU"
  bottom: "conv5_3"
  top: "conv5_3"
}
layer {
  name: "pool5"
  type: "Pooling"
  bottom: "conv5_3"
  top: "pool5"
  pooling_param {
    pool: MAX
    kernel_size: 3
    stride: 1
    pad: 1
  }
}
layer {
  name: "fc6"
  type: "Convolution"
  bottom: "pool5"
  top: "fc6"
  param {
    lr_mult: 1
    decay_mult: 1
  }
  param {
    lr_mult: 2
    decay_mult: 0
  }
  convolution_param {
    num_output: 1024
    pad: 6
    kernel_size: 3
    weight_filler {
      type: "xavier"
    }
    bias_filler {
      type: "constant"
      value: 0
    }
    dilation: 6
  }
}
layer {
  name: "relu6"
  type: "ReLU"
  bottom: "fc6"
  top: "fc6"
}
layer {
  name: "fc7"
  type: "Convolution"
  bottom: "fc6"
  top: "fc7"
  param {
    lr_mult: 1
    decay_mult: 1
  }
  param {
    lr_mult: 2
    decay_mult: 0
  }
  convolution_param {
    num_output: 1024
    kernel_size: 1
    weight_filler {
      type: "xavier"
    }
    bias_filler {
      type: "constant"
      value: 0
    }
  }
}
layer {
  name: "relu7"
  type: "ReLU"
  bottom: "fc7"
  top: "fc7"
}
layer {
  name: "conv6_1"
  type: "Convolution"
  bottom: "fc7"
  top: "conv6_1"
  param {
    lr_mult: 1
    decay_mult: 1
  }
  param {
    lr_mult: 2
    decay_mult: 0
  }
  convolution_param {
    num_output: 256
    pad: 0
    kernel_size: 1
    stride: 1
    weight_filler {
      type: "xavier"
    }
    bias_filler {
      type: "constant"
      value: 0
    }
  }
}
layer {
  name: "conv6_1_relu"
  type: "ReLU"
  bottom: "conv6_1"
  top: "conv6_1"
}
layer {
  name: "conv6_2"
  type: "Convolution"
  bottom: "conv6_1"
  top: "conv6_2"
  param {
    lr_mult: 1
    decay_mult: 1
  }
  param {
    lr_mult: 2
    decay_mult: 0
  }
  convolution_param {
    num_output: 512
    pad: 1
    kernel_size: 3
    stride: 2
    weight_filler {
      type: "xavier"
    }
    bias_filler {
      type: "constant"
      value: 0
    }
  }
}
layer {
  name: "conv6_2_relu"
  type: "ReLU"
  bottom: "conv6_2"
  top: "conv6_2"
}
layer {
  name: "conv7_1"
  type: "Convolution"
  bottom: "conv6_2"
  top: "conv7_1"
  param {
    lr_mult: 1
    decay_mult: 1
  }
  param {
    lr_mult: 2
    decay_mult: 0
  }
  convolution_param {
    num_output: 128
    pad: 0
    kernel_size: 1
    stride: 1
    weight_filler {
      type: "xavier"
    }
    bias_filler {
      type: "constant"
      value: 0
    }
  }
}
layer {
  name: "conv7_1_relu"
  type: "ReLU"
  bottom: "conv7_1"
  top: "conv7_1"
}
layer {
  name: "conv7_2"
  type: "Convolution"
  bottom: "conv7_1"
  top: "conv7_2"
  param {
    lr_mult: 1
    decay_mult: 1
  }
  param {
    lr_mult: 2
    decay_mult: 0
  }
  convolution_param {
    num_output: 256
    pad: 1
    kernel_size: 3
    stride: 2
    weight_filler {
      type: "xavier"
    }
    bias_filler {
      type: "constant"
      value: 0
    }
  }
}
layer {
  name: "conv7_2_relu"
  type: "ReLU"
  bottom: "conv7_2"
  top: "conv7_2"
}
layer {
  name: "conv8_1"
  type: "Convolution"
  bottom: "conv7_2"
  top: "conv8_1"
  param {
    lr_mult: 1
    decay_mult: 1
  }
  param {
    lr_mult: 2
    decay_mult: 0
  }
  convolution_param {
    num_output: 128
    pad: 0
    kernel_size: 1
    stride: 1
    weight_filler {
      type: "xavier"
    }
    bias_filler {
      type: "constant"
      value: 0
    }
  }
}
layer {
  name: "conv8_1_relu"
  type: "ReLU"
  bottom: "conv8_1"
  top: "conv8_1"
}
layer {
  name: "conv8_2"
  type: "Convolution"
  bottom: "conv8_1"
  top: "conv8_2"
  param {
    lr_mult: 1
    decay_mult: 1
  }
  param {
    lr_mult: 2
    decay_mult: 0
  }
  convolution_param {
    num_output: 256
    pad: 0
    kernel_size: 3
    stride: 1
    weight_filler {
      type: "xavier"
    }
    bias_filler {
      type: "constant"
      value: 0
    }
  }
}
layer {
  name: "conv8_2_relu"
  type: "ReLU"
  bottom: "conv8_2"
  top: "conv8_2"
}
layer {
  name: "conv9_1"
  type: "Convolution"
  bottom: "conv8_2"
  top: "conv9_1"
  param {
    lr_mult: 1
    decay_mult: 1
  }
  param {
    lr_mult: 2
    decay_mult: 0
  }
  convolution_param {
    num_output: 128
    pad: 0
    kernel_size: 1
    stride: 1
    weight_filler {
      type: "xavier"
    }
    bias_filler {
      type: "constant"
      value: 0
    }
  }
}
layer {
  name: "conv9_1_relu"
  type: "ReLU"
  bottom: "conv9_1"
  top: "conv9_1"
}
layer {
  name: "conv9_2"
  type: "Convolution"
  bottom: "conv9_1"
  top: "conv9_2"
  param {
    lr_mult: 1
    decay_mult: 1
  }
  param {
    lr_mult: 2
    decay_mult: 0
  }
  convolution_param {
    num_output: 256
    pad: 0
    kernel_size: 3
    stride: 1
    weight_filler {
      type: "xavier"
    }
    bias_filler {
      type: "constant"
      value: 0
    }
  }
}
layer {
  name: "conv9_2_relu"
  type: "ReLU"
  bottom: "conv9_2"
  top: "conv9_2"
}
layer {
  name: "conv4_3_norm"
  type: "Normalize"
  bottom: "conv4_3"
  top: "conv4_3_norm"
  norm_param {
    across_spatial: false
    scale_filler {
      type: "constant"
      value: 20
    }
    channel_shared: false
  }
}
layer {
  name: "conv4_3_norm_mbox_loc"
  type: "Convolution"
  bottom: "conv4_3_norm"
  top: "conv4_3_norm_mbox_loc"
  param {
    lr_mult: 1
    decay_mult: 1
  }
  param {
    lr_mult: 2
    decay_mult: 0
  }
  convolution_param {
    num_output: 16
    pad: 1
    kernel_size: 3
    stride: 1
    weight_filler {
      type: "xavier"
    }
    bias_filler {
      type: "constant"
      value: 0
    }
  }
}
layer {
  name: "conv4_3_norm_mbox_loc_perm"
  type: "Permute"
  bottom: "conv4_3_norm_mbox_loc"
  top: "conv4_3_norm_mbox_loc_perm"
  permute_param {
    order: 0
    order: 2
    order: 3
    order: 1
  }
}
layer {
  name: "conv4_3_norm_mbox_loc_flat"
  type: "Flatten"
  bottom: "conv4_3_norm_mbox_loc_perm"
  top: "conv4_3_norm_mbox_loc_flat"
  flatten_param {
    axis: 1
  }
}
layer {
  name: "conv4_3_norm_mbox_conf"
  type: "Convolution"
  bottom: "conv4_3_norm"
  top: "conv4_3_norm_mbox_conf"
  param {
    lr_mult: 1
    decay_mult: 1
  }
  param {
    lr_mult: 2
    decay_mult: 0
  }
  convolution_param {
    num_output: 12
    pad: 1
    kernel_size: 3
    stride: 1
    weight_filler {
      type: "xavier"
    }
    bias_filler {
      type: "constant"
      value: 0
    }
  }
}
layer {
  name: "conv4_3_norm_mbox_conf_perm"
  type: "Permute"
  bottom: "conv4_3_norm_mbox_conf"
  top: "conv4_3_norm_mbox_conf_perm"
  permute_param {
    order: 0
    order: 2
    order: 3
    order: 1
  }
}
layer {
  name: "conv4_3_norm_mbox_conf_flat"
  type: "Flatten"
  bottom: "conv4_3_norm_mbox_conf_perm"
  top: "conv4_3_norm_mbox_conf_flat"
  flatten_param {
    axis: 1
  }
}
layer {
  name: "conv4_3_norm_mbox_priorbox"
  type: "PriorBox"
  bottom: "conv4_3_norm"
  bottom: "data"
  top: "conv4_3_norm_mbox_priorbox"
  prior_box_param {
    min_size: 30
    max_size: 60
    aspect_ratio: 2
    flip: true
    clip: false
    variance: 0.1
    variance: 0.1
    variance: 0.2
    variance: 0.2
    step: 8
    offset: 0.5
  }
}
layer {
  name: "fc7_mbox_loc"
  type: "Convolution"
  bottom: "fc7"
  top: "fc7_mbox_loc"
  param {
    lr_mult: 1
    decay_mult: 1
  }
  param {
    lr_mult: 2
    decay_mult: 0
  }
  convolution_param {
    num_output: 24
    pad: 1
    kernel_size: 3
    stride: 1
    weight_filler {
      type: "xavier"
    }
    bias_filler {
      type: "constant"
      value: 0
    }
  }
}
layer {
  name: "fc7_mbox_loc_perm"
  type: "Permute"
  bottom: "fc7_mbox_loc"
  top: "fc7_mbox_loc_perm"
  permute_param {
    order: 0
    order: 2
    order: 3
    order: 1
  }
}
layer {
  name: "fc7_mbox_loc_flat"
  type: "Flatten"
  bottom: "fc7_mbox_loc_perm"
  top: "fc7_mbox_loc_flat"
  flatten_param {
    axis: 1
  }
}
layer {
  name: "fc7_mbox_conf"
  type: "Convolution"
  bottom: "fc7"
  top: "fc7_mbox_conf"
  param {
    lr_mult: 1
    decay_mult: 1
  }
  param {
    lr_mult: 2
    decay_mult: 0
  }
  convolution_param {
    num_output: 18
    pad: 1
    kernel_size: 3
    stride: 1
    weight_filler {
      type: "xavier"
    }
    bias_filler {
      type: "constant"
      value: 0
    }
  }
}
layer {
  name: "fc7_mbox_conf_perm"
  type: "Permute"
  bottom: "fc7_mbox_conf"
  top: "fc7_mbox_conf_perm"
  permute_param {
    order: 0
    order: 2
    order: 3
    order: 1
  }
}
layer {
  name: "fc7_mbox_conf_flat"
  type: "Flatten"
  bottom: "fc7_mbox_conf_perm"
  top: "fc7_mbox_conf_flat"
  flatten_param {
    axis: 1
  }
}
layer {
  name: "fc7_mbox_priorbox"
  type: "PriorBox"
  bottom: "fc7"
  bottom: "data"
  top: "fc7_mbox_priorbox"
  prior_box_param {
    min_size: 60
    max_size: 111
    aspect_ratio: 2
    aspect_ratio: 3
    flip: true
    clip: false
    variance: 0.1
    variance: 0.1
    variance: 0.2
    variance: 0.2
    step: 16
    offset: 0.5
  }
}
layer {
  name: "conv6_2_mbox_loc"
  type: "Convolution"
  bottom: "conv6_2"
  top: "conv6_2_mbox_loc"
  param {
    lr_mult: 1
    decay_mult: 1
  }
  param {
    lr_mult: 2
    decay_mult: 0
  }
  convolution_param {
    num_output: 24
    pad: 1
    kernel_size: 3
    stride: 1
    weight_filler {
      type: "xavier"
    }
    bias_filler {
      type: "constant"
      value: 0
    }
  }
}
layer {
  name: "conv6_2_mbox_loc_perm"
  type: "Permute"
  bottom: "conv6_2_mbox_loc"
  top: "conv6_2_mbox_loc_perm"
  permute_param {
    order: 0
    order: 2
    order: 3
    order: 1
  }
}
layer {
  name: "conv6_2_mbox_loc_flat"
  type: "Flatten"
  bottom: "conv6_2_mbox_loc_perm"
  top: "conv6_2_mbox_loc_flat"
  flatten_param {
    axis: 1
  }
}
layer {
  name: "conv6_2_mbox_conf"
  type: "Convolution"
  bottom: "conv6_2"
  top: "conv6_2_mbox_conf"
  param {
    lr_mult: 1
    decay_mult: 1
  }
  param {
    lr_mult: 2
    decay_mult: 0
  }
  convolution_param {
    num_output: 18
    pad: 1
    kernel_size: 3
    stride: 1
    weight_filler {
      type: "xavier"
    }
    bias_filler {
      type: "constant"
      value: 0
    }
  }
}
layer {
  name: "conv6_2_mbox_conf_perm"
  type: "Permute"
  bottom: "conv6_2_mbox_conf"
  top: "conv6_2_mbox_conf_perm"
  permute_param {
    order: 0
    order: 2
    order: 3
    order: 1
  }
}
layer {
  name: "conv6_2_mbox_conf_flat"
  type: "Flatten"
  bottom: "conv6_2_mbox_conf_perm"
  top: "conv6_2_mbox_conf_flat"
  flatten_param {
    axis: 1
  }
}
layer {
  name: "conv6_2_mbox_priorbox"
  type: "PriorBox"
  bottom: "conv6_2"
  bottom: "data"
  top: "conv6_2_mbox_priorbox"
  prior_box_param {
    min_size: 111
    max_size: 162
    aspect_ratio: 2
    aspect_ratio: 3
    flip: true
    clip: false
    variance: 0.1
    variance: 0.1
    variance: 0.2
    variance: 0.2
    step: 32
    offset: 0.5
  }
}
layer {
  name: "conv7_2_mbox_loc"
  type: "Convolution"
  bottom: "conv7_2"
  top: "conv7_2_mbox_loc"
  param {
    lr_mult: 1
    decay_mult: 1
  }
  param {
    lr_mult: 2
    decay_mult: 0
  }
  convolution_param {
    num_output: 24
    pad: 1
    kernel_size: 3
    stride: 1
    weight_filler {
      type: "xavier"
    }
    bias_filler {
      type: "constant"
      value: 0
    }
  }
}
layer {
  name: "conv7_2_mbox_loc_perm"
  type: "Permute"
  bottom: "conv7_2_mbox_loc"
  top: "conv7_2_mbox_loc_perm"
  permute_param {
    order: 0
    order: 2
    order: 3
    order: 1
  }
}
layer {
  name: "conv7_2_mbox_loc_flat"
  type: "Flatten"
  bottom: "conv7_2_mbox_loc_perm"
  top: "conv7_2_mbox_loc_flat"
  flatten_param {
    axis: 1
  }
}
layer {
  name: "conv7_2_mbox_conf"
  type: "Convolution"
  bottom: "conv7_2"
  top: "conv7_2_mbox_conf"
  param {
    lr_mult: 1
    decay_mult: 1
  }
  param {
    lr_mult: 2
    decay_mult: 0
  }
  convolution_param {
    num_output: 18
    pad: 1
    kernel_size: 3
    stride: 1
    weight_filler {
      type: "xavier"
    }
    bias_filler {
      type: "constant"
      value: 0
    }
  }
}
layer {
  name: "conv7_2_mbox_conf_perm"
  type: "Permute"
  bottom: "conv7_2_mbox_conf"
  top: "conv7_2_mbox_conf_perm"
  permute_param {
    order: 0
    order: 2
    order: 3
    order: 1
  }
}
layer {
  name: "conv7_2_mbox_conf_flat"
  type: "Flatten"
  bottom: "conv7_2_mbox_conf_perm"
  top: "conv7_2_mbox_conf_flat"
  flatten_param {
    axis: 1
  }
}
layer {
  name: "conv7_2_mbox_priorbox"
  type: "PriorBox"
  bottom: "conv7_2"
  bottom: "data"
  top: "conv7_2_mbox_priorbox"
  prior_box_param {
    min_size: 162
    max_size: 213
    aspect_ratio: 2
    aspect_ratio: 3
    flip: true
    clip: false
    variance: 0.1
    variance: 0.1
    variance: 0.2
    variance: 0.2
    step: 64
    offset: 0.5
  }
}
layer {
  name: "conv8_2_mbox_loc"
  type: "Convolution"
  bottom: "conv8_2"
  top: "conv8_2_mbox_loc"
  param {
    lr_mult: 1
    decay_mult: 1
  }
  param {
    lr_mult: 2
    decay_mult: 0
  }
  convolution_param {
    num_output: 16
    pad: 1
    kernel_size: 3
    stride: 1
    weight_filler {
      type: "xavier"
    }
    bias_filler {
      type: "constant"
      value: 0
    }
  }
}
layer {
  name: "conv8_2_mbox_loc_perm"
  type: "Permute"
  bottom: "conv8_2_mbox_loc"
  top: "conv8_2_mbox_loc_perm"
  permute_param {
    order: 0
    order: 2
    order: 3
    order: 1
  }
}
layer {
  name: "conv8_2_mbox_loc_flat"
  type: "Flatten"
  bottom: "conv8_2_mbox_loc_perm"
  top: "conv8_2_mbox_loc_flat"
  flatten_param {
    axis: 1
  }
}
layer {
  name: "conv8_2_mbox_conf"
  type: "Convolution"
  bottom: "conv8_2"
  top: "conv8_2_mbox_conf"
  param {
    lr_mult: 1
    decay_mult: 1
  }
  param {
    lr_mult: 2
    decay_mult: 0
  }
  convolution_param {
    num_output: 12
    pad: 1
    kernel_size: 3
    stride: 1
    weight_filler {
      type: "xavier"
    }
    bias_filler {
      type: "constant"
      value: 0
    }
  }
}
layer {
  name: "conv8_2_mbox_conf_perm"
  type: "Permute"
  bottom: "conv8_2_mbox_conf"
  top: "conv8_2_mbox_conf_perm"
  permute_param {
    order: 0
    order: 2
    order: 3
    order: 1
  }
}
layer {
  name: "conv8_2_mbox_conf_flat"
  type: "Flatten"
  bottom: "conv8_2_mbox_conf_perm"
  top: "conv8_2_mbox_conf_flat"
  flatten_param {
    axis: 1
  }
}
layer {
  name: "conv8_2_mbox_priorbox"
  type: "PriorBox"
  bottom: "conv8_2"
  bottom: "data"
  top: "conv8_2_mbox_priorbox"
  prior_box_param {
    min_size: 213
    max_size: 264
    aspect_ratio: 2
    flip: true
    clip: false
    variance: 0.1
    variance: 0.1
    variance: 0.2
    variance: 0.2
    step: 100
    offset: 0.5
  }
}
layer {
  name: "conv9_2_mbox_loc"
  type: "Convolution"
  bottom: "conv9_2"
  top: "conv9_2_mbox_loc"
  param {
    lr_mult: 1
    decay_mult: 1
  }
  param {
    lr_mult: 2
    decay_mult: 0
  }
  convolution_param {
    num_output: 16
    pad: 1
    kernel_size: 3
    stride: 1
    weight_filler {
      type: "xavier"
    }
    bias_filler {
      type: "constant"
      value: 0
    }
  }
}
layer {
  name: "conv9_2_mbox_loc_perm"
  type: "Permute"
  bottom: "conv9_2_mbox_loc"
  top: "conv9_2_mbox_loc_perm"
  permute_param {
    order: 0
    order: 2
    order: 3
    order: 1
  }
}
layer {
  name: "conv9_2_mbox_loc_flat"
  type: "Flatten"
  bottom: "conv9_2_mbox_loc_perm"
  top: "conv9_2_mbox_loc_flat"
  flatten_param {
    axis: 1
  }
}
layer {
  name: "conv9_2_mbox_conf"
  type: "Convolution"
  bottom: "conv9_2"
  top: "conv9_2_mbox_conf"
  param {
    lr_mult: 1
    decay_mult: 1
  }
  param {
    lr_mult: 2
    decay_mult: 0
  }
  convolution_param {
    num_output: 12
    pad: 1
    kernel_size: 3
    stride: 1
    weight_filler {
      type: "xavier"
    }
    bias_filler {
      type: "constant"
      value: 0
    }
  }
}
layer {
  name: "conv9_2_mbox_conf_perm"
  type: "Permute"
  bottom: "conv9_2_mbox_conf"
  top: "conv9_2_mbox_conf_perm"
  permute_param {
    order: 0
    order: 2
    order: 3
    order: 1
  }
}
layer {
  name: "conv9_2_mbox_conf_flat"
  type: "Flatten"
  bottom: "conv9_2_mbox_conf_perm"
  top: "conv9_2_mbox_conf_flat"
  flatten_param {
    axis: 1
  }
}
layer {
  name: "conv9_2_mbox_priorbox"
  type: "PriorBox"
  bottom: "conv9_2"
  bottom: "data"
  top: "conv9_2_mbox_priorbox"
  prior_box_param {
    min_size: 264
    max_size: 315
    aspect_ratio: 2
    flip: true
    clip: false
    variance: 0.1
    variance: 0.1
    variance: 0.2
    variance: 0.2
    step: 300
    offset: 0.5
  }
}
layer {
  name: "mbox_loc"
  type: "Concat"
  bottom: "conv4_3_norm_mbox_loc_flat"
  bottom: "fc7_mbox_loc_flat"
  bottom: "conv6_2_mbox_loc_flat"
  bottom: "conv7_2_mbox_loc_flat"
  bottom: "conv8_2_mbox_loc_flat"
  bottom: "conv9_2_mbox_loc_flat"
  top: "mbox_loc"
  concat_param {
    axis: 1
  }
}
layer {
  name: "mbox_conf"
  type: "Concat"
  bottom: "conv4_3_norm_mbox_conf_flat"
  bottom: "fc7_mbox_conf_flat"
  bottom: "conv6_2_mbox_conf_flat"
  bottom: "conv7_2_mbox_conf_flat"
  bottom: "conv8_2_mbox_conf_flat"
  bottom: "conv9_2_mbox_conf_flat"
  top: "mbox_conf"
  concat_param {
    axis: 1
  }
}
layer {
  name: "mbox_priorbox"
  type: "Concat"
  bottom: "conv4_3_norm_mbox_priorbox"
  bottom: "fc7_mbox_priorbox"
  bottom: "conv6_2_mbox_priorbox"
  bottom: "conv7_2_mbox_priorbox"
  bottom: "conv8_2_mbox_priorbox"
  bottom: "conv9_2_mbox_priorbox"
  top: "mbox_priorbox"
  concat_param {
    axis: 2
  }
}
layer {
  name: "mbox_loss"
  type: "MultiBoxLoss"
  bottom: "mbox_loc"
  bottom: "mbox_conf"
  bottom: "mbox_priorbox"
  bottom: "label"
  top: "mbox_loss"
  include {
    phase: TRAIN
  }
  propagate_down: true
  propagate_down: true
  propagate_down: false
  propagate_down: false
  loss_param {
    normalization: VALID
  }
  multibox_loss_param {
    loc_loss_type: SMOOTH_L1
    conf_loss_type: SOFTMAX
    loc_weight: 1
    num_classes: 3
    share_location: true
    match_type: PER_PREDICTION
    overlap_threshold: 0.5
    use_prior_for_matching: true
    background_label_id: 0
    use_difficult_gt: true
    neg_pos_ratio: 3
    neg_overlap: 0.5
    code_type: CENTER_SIZE
    ignore_cross_boundary_bbox: false
    mining_type: MAX_NEGATIVE
  }
}
I1001 13:33:04.070390  3017 layer_factory.hpp:77] Creating layer data
I1001 13:33:04.070562  3017 net.cpp:100] Creating Layer data
I1001 13:33:04.070585  3017 net.cpp:408] data -> data
I1001 13:33:04.070624  3017 net.cpp:408] data -> label
I1001 13:33:04.071316  3026 db_lmdb.cpp:35] Opened lmdb examples/MELON/MELON_trainval_lmdb
I1001 13:33:04.079195  3017 annotated_data_layer.cpp:62] output data size: 30,3,300,300
I1001 13:33:04.135927  3017 net.cpp:150] Setting up data
I1001 13:33:04.135974  3017 net.cpp:157] Top shape: 30 3 300 300 (8100000)
I1001 13:33:04.135984  3017 net.cpp:157] Top shape: 1 1 1 8 (8)
I1001 13:33:04.136001  3017 net.cpp:165] Memory required for data: 32400032
I1001 13:33:04.136023  3017 layer_factory.hpp:77] Creating layer data_data_0_split
I1001 13:33:04.136039  3017 net.cpp:100] Creating Layer data_data_0_split
I1001 13:33:04.136051  3017 net.cpp:434] data_data_0_split <- data
I1001 13:33:04.136070  3017 net.cpp:408] data_data_0_split -> data_data_0_split_0
I1001 13:33:04.136086  3017 net.cpp:408] data_data_0_split -> data_data_0_split_1
I1001 13:33:04.136097  3017 net.cpp:408] data_data_0_split -> data_data_0_split_2
I1001 13:33:04.136108  3017 net.cpp:408] data_data_0_split -> data_data_0_split_3
I1001 13:33:04.136118  3017 net.cpp:408] data_data_0_split -> data_data_0_split_4
I1001 13:33:04.136128  3017 net.cpp:408] data_data_0_split -> data_data_0_split_5
I1001 13:33:04.136138  3017 net.cpp:408] data_data_0_split -> data_data_0_split_6
I1001 13:33:04.136219  3017 net.cpp:150] Setting up data_data_0_split
I1001 13:33:04.136231  3017 net.cpp:157] Top shape: 30 3 300 300 (8100000)
I1001 13:33:04.136240  3017 net.cpp:157] Top shape: 30 3 300 300 (8100000)
I1001 13:33:04.136248  3017 net.cpp:157] Top shape: 30 3 300 300 (8100000)
I1001 13:33:04.136256  3017 net.cpp:157] Top shape: 30 3 300 300 (8100000)
I1001 13:33:04.136265  3017 net.cpp:157] Top shape: 30 3 300 300 (8100000)
I1001 13:33:04.136272  3017 net.cpp:157] Top shape: 30 3 300 300 (8100000)
I1001 13:33:04.136281  3017 net.cpp:157] Top shape: 30 3 300 300 (8100000)
I1001 13:33:04.136288  3017 net.cpp:165] Memory required for data: 259200032
I1001 13:33:04.136296  3017 layer_factory.hpp:77] Creating layer conv1_1
I1001 13:33:04.136314  3017 net.cpp:100] Creating Layer conv1_1
I1001 13:33:04.136323  3017 net.cpp:434] conv1_1 <- data_data_0_split_0
I1001 13:33:04.136333  3017 net.cpp:408] conv1_1 -> conv1_1
I1001 13:33:04.137698  3017 net.cpp:150] Setting up conv1_1
I1001 13:33:04.137738  3017 net.cpp:157] Top shape: 30 64 300 300 (172800000)
I1001 13:33:04.137747  3017 net.cpp:165] Memory required for data: 950400032
I1001 13:33:04.137765  3017 layer_factory.hpp:77] Creating layer relu1_1
I1001 13:33:04.137779  3017 net.cpp:100] Creating Layer relu1_1
I1001 13:33:04.137789  3017 net.cpp:434] relu1_1 <- conv1_1
I1001 13:33:04.137799  3017 net.cpp:395] relu1_1 -> conv1_1 (in-place)
I1001 13:33:04.137811  3017 net.cpp:150] Setting up relu1_1
I1001 13:33:04.137820  3017 net.cpp:157] Top shape: 30 64 300 300 (172800000)
I1001 13:33:04.137827  3017 net.cpp:165] Memory required for data: 1641600032
I1001 13:33:04.137835  3017 layer_factory.hpp:77] Creating layer conv1_2
I1001 13:33:04.137850  3017 net.cpp:100] Creating Layer conv1_2
I1001 13:33:04.137858  3017 net.cpp:434] conv1_2 <- conv1_1
I1001 13:33:04.137867  3017 net.cpp:408] conv1_2 -> conv1_2
I1001 13:33:04.145200  3017 net.cpp:150] Setting up conv1_2
I1001 13:33:04.145225  3017 net.cpp:157] Top shape: 30 64 300 300 (172800000)
I1001 13:33:04.145227  3017 net.cpp:165] Memory required for data: 2332800032
I1001 13:33:04.145236  3017 layer_factory.hpp:77] Creating layer relu1_2
I1001 13:33:04.145243  3017 net.cpp:100] Creating Layer relu1_2
I1001 13:33:04.145247  3017 net.cpp:434] relu1_2 <- conv1_2
I1001 13:33:04.145251  3017 net.cpp:395] relu1_2 -> conv1_2 (in-place)
I1001 13:33:04.145256  3017 net.cpp:150] Setting up relu1_2
I1001 13:33:04.145259  3017 net.cpp:157] Top shape: 30 64 300 300 (172800000)
I1001 13:33:04.145262  3017 net.cpp:165] Memory required for data: 3024000032
I1001 13:33:04.145263  3017 layer_factory.hpp:77] Creating layer pool1
I1001 13:33:04.145267  3017 net.cpp:100] Creating Layer pool1
I1001 13:33:04.145270  3017 net.cpp:434] pool1 <- conv1_2
I1001 13:33:04.145273  3017 net.cpp:408] pool1 -> pool1
I1001 13:33:04.145321  3017 net.cpp:150] Setting up pool1
I1001 13:33:04.145325  3017 net.cpp:157] Top shape: 30 64 150 150 (43200000)
I1001 13:33:04.145326  3017 net.cpp:165] Memory required for data: 3196800032
I1001 13:33:04.145328  3017 layer_factory.hpp:77] Creating layer conv2_1
I1001 13:33:04.145336  3017 net.cpp:100] Creating Layer conv2_1
I1001 13:33:04.145339  3017 net.cpp:434] conv2_1 <- pool1
I1001 13:33:04.145341  3017 net.cpp:408] conv2_1 -> conv2_1
I1001 13:33:04.145824  3017 net.cpp:150] Setting up conv2_1
I1001 13:33:04.145829  3017 net.cpp:157] Top shape: 30 128 150 150 (86400000)
I1001 13:33:04.145831  3017 net.cpp:165] Memory required for data: 3542400032
I1001 13:33:04.145836  3017 layer_factory.hpp:77] Creating layer relu2_1
I1001 13:33:04.145841  3017 net.cpp:100] Creating Layer relu2_1
I1001 13:33:04.145843  3017 net.cpp:434] relu2_1 <- conv2_1
I1001 13:33:04.145846  3017 net.cpp:395] relu2_1 -> conv2_1 (in-place)
I1001 13:33:04.145850  3017 net.cpp:150] Setting up relu2_1
I1001 13:33:04.145853  3017 net.cpp:157] Top shape: 30 128 150 150 (86400000)
I1001 13:33:04.145855  3017 net.cpp:165] Memory required for data: 3888000032
I1001 13:33:04.145858  3017 layer_factory.hpp:77] Creating layer conv2_2
I1001 13:33:04.145862  3017 net.cpp:100] Creating Layer conv2_2
I1001 13:33:04.145864  3017 net.cpp:434] conv2_2 <- conv2_1
I1001 13:33:04.145869  3017 net.cpp:408] conv2_2 -> conv2_2
I1001 13:33:04.146589  3017 net.cpp:150] Setting up conv2_2
I1001 13:33:04.146596  3017 net.cpp:157] Top shape: 30 128 150 150 (86400000)
I1001 13:33:04.146598  3017 net.cpp:165] Memory required for data: 4233600032
I1001 13:33:04.146601  3017 layer_factory.hpp:77] Creating layer relu2_2
I1001 13:33:04.146605  3017 net.cpp:100] Creating Layer relu2_2
I1001 13:33:04.146607  3017 net.cpp:434] relu2_2 <- conv2_2
I1001 13:33:04.146611  3017 net.cpp:395] relu2_2 -> conv2_2 (in-place)
I1001 13:33:04.146616  3017 net.cpp:150] Setting up relu2_2
I1001 13:33:04.146618  3017 net.cpp:157] Top shape: 30 128 150 150 (86400000)
I1001 13:33:04.146622  3017 net.cpp:165] Memory required for data: 4579200032
I1001 13:33:04.146625  3017 layer_factory.hpp:77] Creating layer pool2
I1001 13:33:04.146627  3017 net.cpp:100] Creating Layer pool2
I1001 13:33:04.146630  3017 net.cpp:434] pool2 <- conv2_2
I1001 13:33:04.146632  3017 net.cpp:408] pool2 -> pool2
I1001 13:33:04.146656  3017 net.cpp:150] Setting up pool2
I1001 13:33:04.146661  3017 net.cpp:157] Top shape: 30 128 75 75 (21600000)
I1001 13:33:04.146662  3017 net.cpp:165] Memory required for data: 4665600032
I1001 13:33:04.146664  3017 layer_factory.hpp:77] Creating layer conv3_1
I1001 13:33:04.146670  3017 net.cpp:100] Creating Layer conv3_1
I1001 13:33:04.146673  3017 net.cpp:434] conv3_1 <- pool2
I1001 13:33:04.146677  3017 net.cpp:408] conv3_1 -> conv3_1
I1001 13:33:04.149333  3017 net.cpp:150] Setting up conv3_1
I1001 13:33:04.149353  3017 net.cpp:157] Top shape: 30 256 75 75 (43200000)
I1001 13:33:04.149355  3017 net.cpp:165] Memory required for data: 4838400032
I1001 13:33:04.149365  3017 layer_factory.hpp:77] Creating layer relu3_1
I1001 13:33:04.149374  3017 net.cpp:100] Creating Layer relu3_1
I1001 13:33:04.149377  3017 net.cpp:434] relu3_1 <- conv3_1
I1001 13:33:04.149381  3017 net.cpp:395] relu3_1 -> conv3_1 (in-place)
I1001 13:33:04.149389  3017 net.cpp:150] Setting up relu3_1
I1001 13:33:04.149391  3017 net.cpp:157] Top shape: 30 256 75 75 (43200000)
I1001 13:33:04.149394  3017 net.cpp:165] Memory required for data: 5011200032
I1001 13:33:04.149395  3017 layer_factory.hpp:77] Creating layer conv3_2
I1001 13:33:04.149405  3017 net.cpp:100] Creating Layer conv3_2
I1001 13:33:04.149407  3017 net.cpp:434] conv3_2 <- conv3_1
I1001 13:33:04.149411  3017 net.cpp:408] conv3_2 -> conv3_2
I1001 13:33:04.152437  3017 net.cpp:150] Setting up conv3_2
I1001 13:33:04.152452  3017 net.cpp:157] Top shape: 30 256 75 75 (43200000)
I1001 13:33:04.152456  3017 net.cpp:165] Memory required for data: 5184000032
I1001 13:33:04.152462  3017 layer_factory.hpp:77] Creating layer relu3_2
I1001 13:33:04.152468  3017 net.cpp:100] Creating Layer relu3_2
I1001 13:33:04.152472  3017 net.cpp:434] relu3_2 <- conv3_2
I1001 13:33:04.152477  3017 net.cpp:395] relu3_2 -> conv3_2 (in-place)
I1001 13:33:04.152482  3017 net.cpp:150] Setting up relu3_2
I1001 13:33:04.152485  3017 net.cpp:157] Top shape: 30 256 75 75 (43200000)
I1001 13:33:04.152487  3017 net.cpp:165] Memory required for data: 5356800032
I1001 13:33:04.152489  3017 layer_factory.hpp:77] Creating layer conv3_3
I1001 13:33:04.152510  3017 net.cpp:100] Creating Layer conv3_3
I1001 13:33:04.152514  3017 net.cpp:434] conv3_3 <- conv3_2
I1001 13:33:04.152518  3017 net.cpp:408] conv3_3 -> conv3_3
I1001 13:33:04.155601  3017 net.cpp:150] Setting up conv3_3
I1001 13:33:04.155617  3017 net.cpp:157] Top shape: 30 256 75 75 (43200000)
I1001 13:33:04.155620  3017 net.cpp:165] Memory required for data: 5529600032
I1001 13:33:04.155627  3017 layer_factory.hpp:77] Creating layer relu3_3
I1001 13:33:04.155635  3017 net.cpp:100] Creating Layer relu3_3
I1001 13:33:04.155639  3017 net.cpp:434] relu3_3 <- conv3_3
I1001 13:33:04.155643  3017 net.cpp:395] relu3_3 -> conv3_3 (in-place)
I1001 13:33:04.155649  3017 net.cpp:150] Setting up relu3_3
I1001 13:33:04.155653  3017 net.cpp:157] Top shape: 30 256 75 75 (43200000)
I1001 13:33:04.155655  3017 net.cpp:165] Memory required for data: 5702400032
I1001 13:33:04.155658  3017 layer_factory.hpp:77] Creating layer pool3
I1001 13:33:04.155663  3017 net.cpp:100] Creating Layer pool3
I1001 13:33:04.155666  3017 net.cpp:434] pool3 <- conv3_3
I1001 13:33:04.155669  3017 net.cpp:408] pool3 -> pool3
I1001 13:33:04.155696  3017 net.cpp:150] Setting up pool3
I1001 13:33:04.155700  3017 net.cpp:157] Top shape: 30 256 38 38 (11089920)
I1001 13:33:04.155702  3017 net.cpp:165] Memory required for data: 5746759712
I1001 13:33:04.155704  3017 layer_factory.hpp:77] Creating layer conv4_1
I1001 13:33:04.155711  3017 net.cpp:100] Creating Layer conv4_1
I1001 13:33:04.155714  3017 net.cpp:434] conv4_1 <- pool3
I1001 13:33:04.155717  3017 net.cpp:408] conv4_1 -> conv4_1
I1001 13:33:04.173012  3017 net.cpp:150] Setting up conv4_1
I1001 13:33:04.173034  3017 net.cpp:157] Top shape: 30 512 38 38 (22179840)
I1001 13:33:04.173036  3017 net.cpp:165] Memory required for data: 5835479072
I1001 13:33:04.173044  3017 layer_factory.hpp:77] Creating layer relu4_1
I1001 13:33:04.173053  3017 net.cpp:100] Creating Layer relu4_1
I1001 13:33:04.173056  3017 net.cpp:434] relu4_1 <- conv4_1
I1001 13:33:04.173060  3017 net.cpp:395] relu4_1 -> conv4_1 (in-place)
I1001 13:33:04.173068  3017 net.cpp:150] Setting up relu4_1
I1001 13:33:04.173070  3017 net.cpp:157] Top shape: 30 512 38 38 (22179840)
I1001 13:33:04.173072  3017 net.cpp:165] Memory required for data: 5924198432
I1001 13:33:04.173077  3017 layer_factory.hpp:77] Creating layer conv4_2
I1001 13:33:04.173084  3017 net.cpp:100] Creating Layer conv4_2
I1001 13:33:04.173086  3017 net.cpp:434] conv4_2 <- conv4_1
I1001 13:33:04.173090  3017 net.cpp:408] conv4_2 -> conv4_2
I1001 13:33:04.196362  3017 net.cpp:150] Setting up conv4_2
I1001 13:33:04.196385  3017 net.cpp:157] Top shape: 30 512 38 38 (22179840)
I1001 13:33:04.196389  3017 net.cpp:165] Memory required for data: 6012917792
I1001 13:33:04.196399  3017 layer_factory.hpp:77] Creating layer relu4_2
I1001 13:33:04.196408  3017 net.cpp:100] Creating Layer relu4_2
I1001 13:33:04.196413  3017 net.cpp:434] relu4_2 <- conv4_2
I1001 13:33:04.196418  3017 net.cpp:395] relu4_2 -> conv4_2 (in-place)
I1001 13:33:04.196424  3017 net.cpp:150] Setting up relu4_2
I1001 13:33:04.196427  3017 net.cpp:157] Top shape: 30 512 38 38 (22179840)
I1001 13:33:04.196429  3017 net.cpp:165] Memory required for data: 6101637152
I1001 13:33:04.196431  3017 layer_factory.hpp:77] Creating layer conv4_3
I1001 13:33:04.196439  3017 net.cpp:100] Creating Layer conv4_3
I1001 13:33:04.196442  3017 net.cpp:434] conv4_3 <- conv4_2
I1001 13:33:04.196445  3017 net.cpp:408] conv4_3 -> conv4_3
I1001 13:33:04.218346  3017 net.cpp:150] Setting up conv4_3
I1001 13:33:04.218374  3017 net.cpp:157] Top shape: 30 512 38 38 (22179840)
I1001 13:33:04.218376  3017 net.cpp:165] Memory required for data: 6190356512
I1001 13:33:04.218385  3017 layer_factory.hpp:77] Creating layer relu4_3
I1001 13:33:04.218395  3017 net.cpp:100] Creating Layer relu4_3
I1001 13:33:04.218400  3017 net.cpp:434] relu4_3 <- conv4_3
I1001 13:33:04.218406  3017 net.cpp:395] relu4_3 -> conv4_3 (in-place)
I1001 13:33:04.218413  3017 net.cpp:150] Setting up relu4_3
I1001 13:33:04.218417  3017 net.cpp:157] Top shape: 30 512 38 38 (22179840)
I1001 13:33:04.218439  3017 net.cpp:165] Memory required for data: 6279075872
I1001 13:33:04.218442  3017 layer_factory.hpp:77] Creating layer conv4_3_relu4_3_0_split
I1001 13:33:04.218451  3017 net.cpp:100] Creating Layer conv4_3_relu4_3_0_split
I1001 13:33:04.218453  3017 net.cpp:434] conv4_3_relu4_3_0_split <- conv4_3
I1001 13:33:04.218456  3017 net.cpp:408] conv4_3_relu4_3_0_split -> conv4_3_relu4_3_0_split_0
I1001 13:33:04.218463  3017 net.cpp:408] conv4_3_relu4_3_0_split -> conv4_3_relu4_3_0_split_1
I1001 13:33:04.218492  3017 net.cpp:150] Setting up conv4_3_relu4_3_0_split
I1001 13:33:04.218497  3017 net.cpp:157] Top shape: 30 512 38 38 (22179840)
I1001 13:33:04.218502  3017 net.cpp:157] Top shape: 30 512 38 38 (22179840)
I1001 13:33:04.218503  3017 net.cpp:165] Memory required for data: 6456514592
I1001 13:33:04.218505  3017 layer_factory.hpp:77] Creating layer pool4
I1001 13:33:04.218511  3017 net.cpp:100] Creating Layer pool4
I1001 13:33:04.218514  3017 net.cpp:434] pool4 <- conv4_3_relu4_3_0_split_0
I1001 13:33:04.218518  3017 net.cpp:408] pool4 -> pool4
I1001 13:33:04.218541  3017 net.cpp:150] Setting up pool4
I1001 13:33:04.218545  3017 net.cpp:157] Top shape: 30 512 19 19 (5544960)
I1001 13:33:04.218547  3017 net.cpp:165] Memory required for data: 6478694432
I1001 13:33:04.218550  3017 layer_factory.hpp:77] Creating layer conv5_1
I1001 13:33:04.218559  3017 net.cpp:100] Creating Layer conv5_1
I1001 13:33:04.218561  3017 net.cpp:434] conv5_1 <- pool4
I1001 13:33:04.218564  3017 net.cpp:408] conv5_1 -> conv5_1
I1001 13:33:04.245036  3017 net.cpp:150] Setting up conv5_1
I1001 13:33:04.245057  3017 net.cpp:157] Top shape: 30 512 19 19 (5544960)
I1001 13:33:04.245059  3017 net.cpp:165] Memory required for data: 6500874272
I1001 13:33:04.245066  3017 layer_factory.hpp:77] Creating layer relu5_1
I1001 13:33:04.245074  3017 net.cpp:100] Creating Layer relu5_1
I1001 13:33:04.245077  3017 net.cpp:434] relu5_1 <- conv5_1
I1001 13:33:04.245081  3017 net.cpp:395] relu5_1 -> conv5_1 (in-place)
I1001 13:33:04.245087  3017 net.cpp:150] Setting up relu5_1
I1001 13:33:04.245090  3017 net.cpp:157] Top shape: 30 512 19 19 (5544960)
I1001 13:33:04.245091  3017 net.cpp:165] Memory required for data: 6523054112
I1001 13:33:04.245093  3017 layer_factory.hpp:77] Creating layer conv5_2
I1001 13:33:04.245100  3017 net.cpp:100] Creating Layer conv5_2
I1001 13:33:04.245102  3017 net.cpp:434] conv5_2 <- conv5_1
I1001 13:33:04.245106  3017 net.cpp:408] conv5_2 -> conv5_2
I1001 13:33:04.268765  3017 net.cpp:150] Setting up conv5_2
I1001 13:33:04.268785  3017 net.cpp:157] Top shape: 30 512 19 19 (5544960)
I1001 13:33:04.268787  3017 net.cpp:165] Memory required for data: 6545233952
I1001 13:33:04.268795  3017 layer_factory.hpp:77] Creating layer relu5_2
I1001 13:33:04.268801  3017 net.cpp:100] Creating Layer relu5_2
I1001 13:33:04.268805  3017 net.cpp:434] relu5_2 <- conv5_2
I1001 13:33:04.268810  3017 net.cpp:395] relu5_2 -> conv5_2 (in-place)
I1001 13:33:04.268815  3017 net.cpp:150] Setting up relu5_2
I1001 13:33:04.268817  3017 net.cpp:157] Top shape: 30 512 19 19 (5544960)
I1001 13:33:04.268820  3017 net.cpp:165] Memory required for data: 6567413792
I1001 13:33:04.268821  3017 layer_factory.hpp:77] Creating layer conv5_3
I1001 13:33:04.268828  3017 net.cpp:100] Creating Layer conv5_3
I1001 13:33:04.268831  3017 net.cpp:434] conv5_3 <- conv5_2
I1001 13:33:04.268836  3017 net.cpp:408] conv5_3 -> conv5_3
I1001 13:33:04.288745  3017 net.cpp:150] Setting up conv5_3
I1001 13:33:04.288775  3017 net.cpp:157] Top shape: 30 512 19 19 (5544960)
I1001 13:33:04.288779  3017 net.cpp:165] Memory required for data: 6589593632
I1001 13:33:04.288786  3017 layer_factory.hpp:77] Creating layer relu5_3
I1001 13:33:04.288797  3017 net.cpp:100] Creating Layer relu5_3
I1001 13:33:04.288802  3017 net.cpp:434] relu5_3 <- conv5_3
I1001 13:33:04.288807  3017 net.cpp:395] relu5_3 -> conv5_3 (in-place)
I1001 13:33:04.288813  3017 net.cpp:150] Setting up relu5_3
I1001 13:33:04.288815  3017 net.cpp:157] Top shape: 30 512 19 19 (5544960)
I1001 13:33:04.298336  3017 net.cpp:165] Memory required for data: 6611773472
I1001 13:33:04.298341  3017 layer_factory.hpp:77] Creating layer pool5
I1001 13:33:04.298346  3017 net.cpp:100] Creating Layer pool5
I1001 13:33:04.298348  3017 net.cpp:434] pool5 <- conv5_3
I1001 13:33:04.298352  3017 net.cpp:408] pool5 -> pool5
I1001 13:33:04.298399  3017 net.cpp:150] Setting up pool5
I1001 13:33:04.298403  3017 net.cpp:157] Top shape: 30 512 19 19 (5544960)
I1001 13:33:04.298405  3017 net.cpp:165] Memory required for data: 6633953312
I1001 13:33:04.298408  3017 layer_factory.hpp:77] Creating layer fc6
I1001 13:33:04.298421  3017 net.cpp:100] Creating Layer fc6
I1001 13:33:04.298424  3017 net.cpp:434] fc6 <- pool5
I1001 13:33:04.298427  3017 net.cpp:408] fc6 -> fc6
I1001 13:33:04.344318  3017 net.cpp:150] Setting up fc6
I1001 13:33:04.344394  3017 net.cpp:157] Top shape: 30 1024 19 19 (11089920)
I1001 13:33:04.344398  3017 net.cpp:165] Memory required for data: 6678312992
I1001 13:33:04.344405  3017 layer_factory.hpp:77] Creating layer relu6
I1001 13:33:04.344414  3017 net.cpp:100] Creating Layer relu6
I1001 13:33:04.344419  3017 net.cpp:434] relu6 <- fc6
I1001 13:33:04.344422  3017 net.cpp:395] relu6 -> fc6 (in-place)
I1001 13:33:04.344429  3017 net.cpp:150] Setting up relu6
I1001 13:33:04.344434  3017 net.cpp:157] Top shape: 30 1024 19 19 (11089920)
I1001 13:33:04.344434  3017 net.cpp:165] Memory required for data: 6722672672
I1001 13:33:04.344436  3017 layer_factory.hpp:77] Creating layer fc7
I1001 13:33:04.344444  3017 net.cpp:100] Creating Layer fc7
I1001 13:33:04.344447  3017 net.cpp:434] fc7 <- fc6
I1001 13:33:04.344451  3017 net.cpp:408] fc7 -> fc7
I1001 13:33:04.349728  3017 net.cpp:150] Setting up fc7
I1001 13:33:04.349747  3017 net.cpp:157] Top shape: 30 1024 19 19 (11089920)
I1001 13:33:04.349750  3017 net.cpp:165] Memory required for data: 6767032352
I1001 13:33:04.349757  3017 layer_factory.hpp:77] Creating layer relu7
I1001 13:33:04.349764  3017 net.cpp:100] Creating Layer relu7
I1001 13:33:04.349768  3017 net.cpp:434] relu7 <- fc7
I1001 13:33:04.349772  3017 net.cpp:395] relu7 -> fc7 (in-place)
I1001 13:33:04.349781  3017 net.cpp:150] Setting up relu7
I1001 13:33:04.349784  3017 net.cpp:157] Top shape: 30 1024 19 19 (11089920)
I1001 13:33:04.349786  3017 net.cpp:165] Memory required for data: 6811392032
I1001 13:33:04.349787  3017 layer_factory.hpp:77] Creating layer fc7_relu7_0_split
I1001 13:33:04.349792  3017 net.cpp:100] Creating Layer fc7_relu7_0_split
I1001 13:33:04.349795  3017 net.cpp:434] fc7_relu7_0_split <- fc7
I1001 13:33:04.349799  3017 net.cpp:408] fc7_relu7_0_split -> fc7_relu7_0_split_0
I1001 13:33:04.349805  3017 net.cpp:408] fc7_relu7_0_split -> fc7_relu7_0_split_1
I1001 13:33:04.349812  3017 net.cpp:408] fc7_relu7_0_split -> fc7_relu7_0_split_2
I1001 13:33:04.349817  3017 net.cpp:408] fc7_relu7_0_split -> fc7_relu7_0_split_3
I1001 13:33:04.349860  3017 net.cpp:150] Setting up fc7_relu7_0_split
I1001 13:33:04.349865  3017 net.cpp:157] Top shape: 30 1024 19 19 (11089920)
I1001 13:33:04.349869  3017 net.cpp:157] Top shape: 30 1024 19 19 (11089920)
I1001 13:33:04.349872  3017 net.cpp:157] Top shape: 30 1024 19 19 (11089920)
I1001 13:33:04.349874  3017 net.cpp:157] Top shape: 30 1024 19 19 (11089920)
I1001 13:33:04.349876  3017 net.cpp:165] Memory required for data: 6988830752
I1001 13:33:04.349879  3017 layer_factory.hpp:77] Creating layer conv6_1
I1001 13:33:04.349886  3017 net.cpp:100] Creating Layer conv6_1
I1001 13:33:04.349889  3017 net.cpp:434] conv6_1 <- fc7_relu7_0_split_0
I1001 13:33:04.349895  3017 net.cpp:408] conv6_1 -> conv6_1
I1001 13:33:04.351727  3017 net.cpp:150] Setting up conv6_1
I1001 13:33:04.351739  3017 net.cpp:157] Top shape: 30 256 19 19 (2772480)
I1001 13:33:04.351742  3017 net.cpp:165] Memory required for data: 6999920672
I1001 13:33:04.351748  3017 layer_factory.hpp:77] Creating layer conv6_1_relu
I1001 13:33:04.351753  3017 net.cpp:100] Creating Layer conv6_1_relu
I1001 13:33:04.351758  3017 net.cpp:434] conv6_1_relu <- conv6_1
I1001 13:33:04.351761  3017 net.cpp:395] conv6_1_relu -> conv6_1 (in-place)
I1001 13:33:04.351779  3017 net.cpp:150] Setting up conv6_1_relu
I1001 13:33:04.351784  3017 net.cpp:157] Top shape: 30 256 19 19 (2772480)
I1001 13:33:04.351786  3017 net.cpp:165] Memory required for data: 7011010592
I1001 13:33:04.351788  3017 layer_factory.hpp:77] Creating layer conv6_2
I1001 13:33:04.351796  3017 net.cpp:100] Creating Layer conv6_2
I1001 13:33:04.351799  3017 net.cpp:434] conv6_2 <- conv6_1
I1001 13:33:04.351804  3017 net.cpp:408] conv6_2 -> conv6_2
I1001 13:33:04.366964  3017 net.cpp:150] Setting up conv6_2
I1001 13:33:04.366986  3017 net.cpp:157] Top shape: 30 512 10 10 (1536000)
I1001 13:33:04.366989  3017 net.cpp:165] Memory required for data: 7017154592
I1001 13:33:04.367002  3017 layer_factory.hpp:77] Creating layer conv6_2_relu
I1001 13:33:04.367009  3017 net.cpp:100] Creating Layer conv6_2_relu
I1001 13:33:04.367013  3017 net.cpp:434] conv6_2_relu <- conv6_2
I1001 13:33:04.367018  3017 net.cpp:395] conv6_2_relu -> conv6_2 (in-place)
I1001 13:33:04.367025  3017 net.cpp:150] Setting up conv6_2_relu
I1001 13:33:04.367028  3017 net.cpp:157] Top shape: 30 512 10 10 (1536000)
I1001 13:33:04.367030  3017 net.cpp:165] Memory required for data: 7023298592
I1001 13:33:04.367033  3017 layer_factory.hpp:77] Creating layer conv6_2_conv6_2_relu_0_split
I1001 13:33:04.367038  3017 net.cpp:100] Creating Layer conv6_2_conv6_2_relu_0_split
I1001 13:33:04.367041  3017 net.cpp:434] conv6_2_conv6_2_relu_0_split <- conv6_2
I1001 13:33:04.367045  3017 net.cpp:408] conv6_2_conv6_2_relu_0_split -> conv6_2_conv6_2_relu_0_split_0
I1001 13:33:04.367050  3017 net.cpp:408] conv6_2_conv6_2_relu_0_split -> conv6_2_conv6_2_relu_0_split_1
I1001 13:33:04.367055  3017 net.cpp:408] conv6_2_conv6_2_relu_0_split -> conv6_2_conv6_2_relu_0_split_2
I1001 13:33:04.367060  3017 net.cpp:408] conv6_2_conv6_2_relu_0_split -> conv6_2_conv6_2_relu_0_split_3
I1001 13:33:04.367105  3017 net.cpp:150] Setting up conv6_2_conv6_2_relu_0_split
I1001 13:33:04.367110  3017 net.cpp:157] Top shape: 30 512 10 10 (1536000)
I1001 13:33:04.367111  3017 net.cpp:157] Top shape: 30 512 10 10 (1536000)
I1001 13:33:04.367115  3017 net.cpp:157] Top shape: 30 512 10 10 (1536000)
I1001 13:33:04.367118  3017 net.cpp:157] Top shape: 30 512 10 10 (1536000)
I1001 13:33:04.367120  3017 net.cpp:165] Memory required for data: 7047874592
I1001 13:33:04.367122  3017 layer_factory.hpp:77] Creating layer conv7_1
I1001 13:33:04.367132  3017 net.cpp:100] Creating Layer conv7_1
I1001 13:33:04.367136  3017 net.cpp:434] conv7_1 <- conv6_2_conv6_2_relu_0_split_0
I1001 13:33:04.367139  3017 net.cpp:408] conv7_1 -> conv7_1
I1001 13:33:04.367547  3017 net.cpp:150] Setting up conv7_1
I1001 13:33:04.367552  3017 net.cpp:157] Top shape: 30 128 10 10 (384000)
I1001 13:33:04.367553  3017 net.cpp:165] Memory required for data: 7049410592
I1001 13:33:04.367558  3017 layer_factory.hpp:77] Creating layer conv7_1_relu
I1001 13:33:04.367563  3017 net.cpp:100] Creating Layer conv7_1_relu
I1001 13:33:04.367565  3017 net.cpp:434] conv7_1_relu <- conv7_1
I1001 13:33:04.367568  3017 net.cpp:395] conv7_1_relu -> conv7_1 (in-place)
I1001 13:33:04.367571  3017 net.cpp:150] Setting up conv7_1_relu
I1001 13:33:04.367574  3017 net.cpp:157] Top shape: 30 128 10 10 (384000)
I1001 13:33:04.367576  3017 net.cpp:165] Memory required for data: 7050946592
I1001 13:33:04.367578  3017 layer_factory.hpp:77] Creating layer conv7_2
I1001 13:33:04.367583  3017 net.cpp:100] Creating Layer conv7_2
I1001 13:33:04.367586  3017 net.cpp:434] conv7_2 <- conv7_1
I1001 13:33:04.367590  3017 net.cpp:408] conv7_2 -> conv7_2
I1001 13:33:04.369539  3017 net.cpp:150] Setting up conv7_2
I1001 13:33:04.369552  3017 net.cpp:157] Top shape: 30 256 5 5 (192000)
I1001 13:33:04.369554  3017 net.cpp:165] Memory required for data: 7051714592
I1001 13:33:04.369560  3017 layer_factory.hpp:77] Creating layer conv7_2_relu
I1001 13:33:04.369566  3017 net.cpp:100] Creating Layer conv7_2_relu
I1001 13:33:04.369570  3017 net.cpp:434] conv7_2_relu <- conv7_2
I1001 13:33:04.369572  3017 net.cpp:395] conv7_2_relu -> conv7_2 (in-place)
I1001 13:33:04.369592  3017 net.cpp:150] Setting up conv7_2_relu
I1001 13:33:04.369596  3017 net.cpp:157] Top shape: 30 256 5 5 (192000)
I1001 13:33:04.369597  3017 net.cpp:165] Memory required for data: 7052482592
I1001 13:33:04.369599  3017 layer_factory.hpp:77] Creating layer conv7_2_conv7_2_relu_0_split
I1001 13:33:04.369604  3017 net.cpp:100] Creating Layer conv7_2_conv7_2_relu_0_split
I1001 13:33:04.369607  3017 net.cpp:434] conv7_2_conv7_2_relu_0_split <- conv7_2
I1001 13:33:04.369613  3017 net.cpp:408] conv7_2_conv7_2_relu_0_split -> conv7_2_conv7_2_relu_0_split_0
I1001 13:33:04.369619  3017 net.cpp:408] conv7_2_conv7_2_relu_0_split -> conv7_2_conv7_2_relu_0_split_1
I1001 13:33:04.369624  3017 net.cpp:408] conv7_2_conv7_2_relu_0_split -> conv7_2_conv7_2_relu_0_split_2
I1001 13:33:04.369628  3017 net.cpp:408] conv7_2_conv7_2_relu_0_split -> conv7_2_conv7_2_relu_0_split_3
I1001 13:33:04.369673  3017 net.cpp:150] Setting up conv7_2_conv7_2_relu_0_split
I1001 13:33:04.369676  3017 net.cpp:157] Top shape: 30 256 5 5 (192000)
I1001 13:33:04.369679  3017 net.cpp:157] Top shape: 30 256 5 5 (192000)
I1001 13:33:04.369683  3017 net.cpp:157] Top shape: 30 256 5 5 (192000)
I1001 13:33:04.369686  3017 net.cpp:157] Top shape: 30 256 5 5 (192000)
I1001 13:33:04.369688  3017 net.cpp:165] Memory required for data: 7055554592
I1001 13:33:04.369690  3017 layer_factory.hpp:77] Creating layer conv8_1
I1001 13:33:04.369696  3017 net.cpp:100] Creating Layer conv8_1
I1001 13:33:04.369700  3017 net.cpp:434] conv8_1 <- conv7_2_conv7_2_relu_0_split_0
I1001 13:33:04.369704  3017 net.cpp:408] conv8_1 -> conv8_1
I1001 13:33:04.369977  3017 net.cpp:150] Setting up conv8_1
I1001 13:33:04.369983  3017 net.cpp:157] Top shape: 30 128 5 5 (96000)
I1001 13:33:04.369984  3017 net.cpp:165] Memory required for data: 7055938592
I1001 13:33:04.369988  3017 layer_factory.hpp:77] Creating layer conv8_1_relu
I1001 13:33:04.369997  3017 net.cpp:100] Creating Layer conv8_1_relu
I1001 13:33:04.369999  3017 net.cpp:434] conv8_1_relu <- conv8_1
I1001 13:33:04.370002  3017 net.cpp:395] conv8_1_relu -> conv8_1 (in-place)
I1001 13:33:04.370005  3017 net.cpp:150] Setting up conv8_1_relu
I1001 13:33:04.370009  3017 net.cpp:157] Top shape: 30 128 5 5 (96000)
I1001 13:33:04.370012  3017 net.cpp:165] Memory required for data: 7056322592
I1001 13:33:04.370013  3017 layer_factory.hpp:77] Creating layer conv8_2
I1001 13:33:04.370018  3017 net.cpp:100] Creating Layer conv8_2
I1001 13:33:04.370021  3017 net.cpp:434] conv8_2 <- conv8_1
I1001 13:33:04.370024  3017 net.cpp:408] conv8_2 -> conv8_2
I1001 13:33:04.383910  3017 net.cpp:150] Setting up conv8_2
I1001 13:33:04.383925  3017 net.cpp:157] Top shape: 30 256 3 3 (69120)
I1001 13:33:04.383927  3017 net.cpp:165] Memory required for data: 7056599072
I1001 13:33:04.383934  3017 layer_factory.hpp:77] Creating layer conv8_2_relu
I1001 13:33:04.383940  3017 net.cpp:100] Creating Layer conv8_2_relu
I1001 13:33:04.383944  3017 net.cpp:434] conv8_2_relu <- conv8_2
I1001 13:33:04.383949  3017 net.cpp:395] conv8_2_relu -> conv8_2 (in-place)
I1001 13:33:04.383955  3017 net.cpp:150] Setting up conv8_2_relu
I1001 13:33:04.383960  3017 net.cpp:157] Top shape: 30 256 3 3 (69120)
I1001 13:33:04.383961  3017 net.cpp:165] Memory required for data: 7056875552
I1001 13:33:04.383963  3017 layer_factory.hpp:77] Creating layer conv8_2_conv8_2_relu_0_split
I1001 13:33:04.383967  3017 net.cpp:100] Creating Layer conv8_2_conv8_2_relu_0_split
I1001 13:33:04.383970  3017 net.cpp:434] conv8_2_conv8_2_relu_0_split <- conv8_2
I1001 13:33:04.383975  3017 net.cpp:408] conv8_2_conv8_2_relu_0_split -> conv8_2_conv8_2_relu_0_split_0
I1001 13:33:04.383982  3017 net.cpp:408] conv8_2_conv8_2_relu_0_split -> conv8_2_conv8_2_relu_0_split_1
I1001 13:33:04.383987  3017 net.cpp:408] conv8_2_conv8_2_relu_0_split -> conv8_2_conv8_2_relu_0_split_2
I1001 13:33:04.383991  3017 net.cpp:408] conv8_2_conv8_2_relu_0_split -> conv8_2_conv8_2_relu_0_split_3
I1001 13:33:04.384035  3017 net.cpp:150] Setting up conv8_2_conv8_2_relu_0_split
I1001 13:33:04.384059  3017 net.cpp:157] Top shape: 30 256 3 3 (69120)
I1001 13:33:04.384063  3017 net.cpp:157] Top shape: 30 256 3 3 (69120)
I1001 13:33:04.384064  3017 net.cpp:157] Top shape: 30 256 3 3 (69120)
I1001 13:33:04.384068  3017 net.cpp:157] Top shape: 30 256 3 3 (69120)
I1001 13:33:04.384069  3017 net.cpp:165] Memory required for data: 7057981472
I1001 13:33:04.384071  3017 layer_factory.hpp:77] Creating layer conv9_1
I1001 13:33:04.384079  3017 net.cpp:100] Creating Layer conv9_1
I1001 13:33:04.384083  3017 net.cpp:434] conv9_1 <- conv8_2_conv8_2_relu_0_split_0
I1001 13:33:04.384086  3017 net.cpp:408] conv9_1 -> conv9_1
I1001 13:33:04.384363  3017 net.cpp:150] Setting up conv9_1
I1001 13:33:04.384368  3017 net.cpp:157] Top shape: 30 128 3 3 (34560)
I1001 13:33:04.384371  3017 net.cpp:165] Memory required for data: 7058119712
I1001 13:33:04.384373  3017 layer_factory.hpp:77] Creating layer conv9_1_relu
I1001 13:33:04.384377  3017 net.cpp:100] Creating Layer conv9_1_relu
I1001 13:33:04.384380  3017 net.cpp:434] conv9_1_relu <- conv9_1
I1001 13:33:04.384383  3017 net.cpp:395] conv9_1_relu -> conv9_1 (in-place)
I1001 13:33:04.384387  3017 net.cpp:150] Setting up conv9_1_relu
I1001 13:33:04.384390  3017 net.cpp:157] Top shape: 30 128 3 3 (34560)
I1001 13:33:04.384392  3017 net.cpp:165] Memory required for data: 7058257952
I1001 13:33:04.384394  3017 layer_factory.hpp:77] Creating layer conv9_2
I1001 13:33:04.384400  3017 net.cpp:100] Creating Layer conv9_2
I1001 13:33:04.384403  3017 net.cpp:434] conv9_2 <- conv9_1
I1001 13:33:04.384407  3017 net.cpp:408] conv9_2 -> conv9_2
I1001 13:33:04.386299  3017 net.cpp:150] Setting up conv9_2
I1001 13:33:04.386314  3017 net.cpp:157] Top shape: 30 256 1 1 (7680)
I1001 13:33:04.386317  3017 net.cpp:165] Memory required for data: 7058288672
I1001 13:33:04.386322  3017 layer_factory.hpp:77] Creating layer conv9_2_relu
I1001 13:33:04.386337  3017 net.cpp:100] Creating Layer conv9_2_relu
I1001 13:33:04.386342  3017 net.cpp:434] conv9_2_relu <- conv9_2
I1001 13:33:04.386345  3017 net.cpp:395] conv9_2_relu -> conv9_2 (in-place)
I1001 13:33:04.386351  3017 net.cpp:150] Setting up conv9_2_relu
I1001 13:33:04.386354  3017 net.cpp:157] Top shape: 30 256 1 1 (7680)
I1001 13:33:04.386355  3017 net.cpp:165] Memory required for data: 7058319392
I1001 13:33:04.386358  3017 layer_factory.hpp:77] Creating layer conv9_2_conv9_2_relu_0_split
I1001 13:33:04.386363  3017 net.cpp:100] Creating Layer conv9_2_conv9_2_relu_0_split
I1001 13:33:04.386365  3017 net.cpp:434] conv9_2_conv9_2_relu_0_split <- conv9_2
I1001 13:33:04.386368  3017 net.cpp:408] conv9_2_conv9_2_relu_0_split -> conv9_2_conv9_2_relu_0_split_0
I1001 13:33:04.386374  3017 net.cpp:408] conv9_2_conv9_2_relu_0_split -> conv9_2_conv9_2_relu_0_split_1
I1001 13:33:04.386379  3017 net.cpp:408] conv9_2_conv9_2_relu_0_split -> conv9_2_conv9_2_relu_0_split_2
I1001 13:33:04.386415  3017 net.cpp:150] Setting up conv9_2_conv9_2_relu_0_split
I1001 13:33:04.386418  3017 net.cpp:157] Top shape: 30 256 1 1 (7680)
I1001 13:33:04.386420  3017 net.cpp:157] Top shape: 30 256 1 1 (7680)
I1001 13:33:04.386423  3017 net.cpp:157] Top shape: 30 256 1 1 (7680)
I1001 13:33:04.386425  3017 net.cpp:165] Memory required for data: 7058411552
I1001 13:33:04.386426  3017 layer_factory.hpp:77] Creating layer conv4_3_norm
I1001 13:33:04.386433  3017 net.cpp:100] Creating Layer conv4_3_norm
I1001 13:33:04.386436  3017 net.cpp:434] conv4_3_norm <- conv4_3_relu4_3_0_split_1
I1001 13:33:04.386440  3017 net.cpp:408] conv4_3_norm -> conv4_3_norm
I1001 13:33:04.386556  3017 net.cpp:150] Setting up conv4_3_norm
I1001 13:33:04.386560  3017 net.cpp:157] Top shape: 30 512 38 38 (22179840)
I1001 13:33:04.386562  3017 net.cpp:165] Memory required for data: 7147130912
I1001 13:33:04.386565  3017 layer_factory.hpp:77] Creating layer conv4_3_norm_conv4_3_norm_0_split
I1001 13:33:04.386569  3017 net.cpp:100] Creating Layer conv4_3_norm_conv4_3_norm_0_split
I1001 13:33:04.386571  3017 net.cpp:434] conv4_3_norm_conv4_3_norm_0_split <- conv4_3_norm
I1001 13:33:04.386574  3017 net.cpp:408] conv4_3_norm_conv4_3_norm_0_split -> conv4_3_norm_conv4_3_norm_0_split_0
I1001 13:33:04.386592  3017 net.cpp:408] conv4_3_norm_conv4_3_norm_0_split -> conv4_3_norm_conv4_3_norm_0_split_1
I1001 13:33:04.386595  3017 net.cpp:408] conv4_3_norm_conv4_3_norm_0_split -> conv4_3_norm_conv4_3_norm_0_split_2
I1001 13:33:04.386626  3017 net.cpp:150] Setting up conv4_3_norm_conv4_3_norm_0_split
I1001 13:33:04.386631  3017 net.cpp:157] Top shape: 30 512 38 38 (22179840)
I1001 13:33:04.386633  3017 net.cpp:157] Top shape: 30 512 38 38 (22179840)
I1001 13:33:04.386636  3017 net.cpp:157] Top shape: 30 512 38 38 (22179840)
I1001 13:33:04.386637  3017 net.cpp:165] Memory required for data: 7413288992
I1001 13:33:04.386639  3017 layer_factory.hpp:77] Creating layer conv4_3_norm_mbox_loc
I1001 13:33:04.386646  3017 net.cpp:100] Creating Layer conv4_3_norm_mbox_loc
I1001 13:33:04.386648  3017 net.cpp:434] conv4_3_norm_mbox_loc <- conv4_3_norm_conv4_3_norm_0_split_0
I1001 13:33:04.386652  3017 net.cpp:408] conv4_3_norm_mbox_loc -> conv4_3_norm_mbox_loc
I1001 13:33:04.387086  3017 net.cpp:150] Setting up conv4_3_norm_mbox_loc
I1001 13:33:04.387090  3017 net.cpp:157] Top shape: 30 16 38 38 (693120)
I1001 13:33:04.387092  3017 net.cpp:165] Memory required for data: 7416061472
I1001 13:33:04.387096  3017 layer_factory.hpp:77] Creating layer conv4_3_norm_mbox_loc_perm
I1001 13:33:04.387101  3017 net.cpp:100] Creating Layer conv4_3_norm_mbox_loc_perm
I1001 13:33:04.387104  3017 net.cpp:434] conv4_3_norm_mbox_loc_perm <- conv4_3_norm_mbox_loc
I1001 13:33:04.387107  3017 net.cpp:408] conv4_3_norm_mbox_loc_perm -> conv4_3_norm_mbox_loc_perm
I1001 13:33:04.387176  3017 net.cpp:150] Setting up conv4_3_norm_mbox_loc_perm
I1001 13:33:04.387179  3017 net.cpp:157] Top shape: 30 38 38 16 (693120)
I1001 13:33:04.387181  3017 net.cpp:165] Memory required for data: 7418833952
I1001 13:33:04.387183  3017 layer_factory.hpp:77] Creating layer conv4_3_norm_mbox_loc_flat
I1001 13:33:04.387187  3017 net.cpp:100] Creating Layer conv4_3_norm_mbox_loc_flat
I1001 13:33:04.387190  3017 net.cpp:434] conv4_3_norm_mbox_loc_flat <- conv4_3_norm_mbox_loc_perm
I1001 13:33:04.387193  3017 net.cpp:408] conv4_3_norm_mbox_loc_flat -> conv4_3_norm_mbox_loc_flat
I1001 13:33:04.387212  3017 net.cpp:150] Setting up conv4_3_norm_mbox_loc_flat
I1001 13:33:04.387215  3017 net.cpp:157] Top shape: 30 23104 (693120)
I1001 13:33:04.387217  3017 net.cpp:165] Memory required for data: 7421606432
I1001 13:33:04.387219  3017 layer_factory.hpp:77] Creating layer conv4_3_norm_mbox_conf
I1001 13:33:04.387226  3017 net.cpp:100] Creating Layer conv4_3_norm_mbox_conf
I1001 13:33:04.387229  3017 net.cpp:434] conv4_3_norm_mbox_conf <- conv4_3_norm_conv4_3_norm_0_split_1
I1001 13:33:04.387233  3017 net.cpp:408] conv4_3_norm_mbox_conf -> conv4_3_norm_mbox_conf
I1001 13:33:04.387596  3017 net.cpp:150] Setting up conv4_3_norm_mbox_conf
I1001 13:33:04.387600  3017 net.cpp:157] Top shape: 30 12 38 38 (519840)
I1001 13:33:04.387603  3017 net.cpp:165] Memory required for data: 7423685792
I1001 13:33:04.387605  3017 layer_factory.hpp:77] Creating layer conv4_3_norm_mbox_conf_perm
I1001 13:33:04.387609  3017 net.cpp:100] Creating Layer conv4_3_norm_mbox_conf_perm
I1001 13:33:04.387611  3017 net.cpp:434] conv4_3_norm_mbox_conf_perm <- conv4_3_norm_mbox_conf
I1001 13:33:04.387615  3017 net.cpp:408] conv4_3_norm_mbox_conf_perm -> conv4_3_norm_mbox_conf_perm
I1001 13:33:04.387681  3017 net.cpp:150] Setting up conv4_3_norm_mbox_conf_perm
I1001 13:33:04.387686  3017 net.cpp:157] Top shape: 30 38 38 12 (519840)
I1001 13:33:04.387687  3017 net.cpp:165] Memory required for data: 7425765152
I1001 13:33:04.387689  3017 layer_factory.hpp:77] Creating layer conv4_3_norm_mbox_conf_flat
I1001 13:33:04.387693  3017 net.cpp:100] Creating Layer conv4_3_norm_mbox_conf_flat
I1001 13:33:04.387696  3017 net.cpp:434] conv4_3_norm_mbox_conf_flat <- conv4_3_norm_mbox_conf_perm
I1001 13:33:04.387699  3017 net.cpp:408] conv4_3_norm_mbox_conf_flat -> conv4_3_norm_mbox_conf_flat
I1001 13:33:04.387713  3017 net.cpp:150] Setting up conv4_3_norm_mbox_conf_flat
I1001 13:33:04.387723  3017 net.cpp:157] Top shape: 30 17328 (519840)
I1001 13:33:04.387725  3017 net.cpp:165] Memory required for data: 7427844512
I1001 13:33:04.387727  3017 layer_factory.hpp:77] Creating layer conv4_3_norm_mbox_priorbox
I1001 13:33:04.387733  3017 net.cpp:100] Creating Layer conv4_3_norm_mbox_priorbox
I1001 13:33:04.387735  3017 net.cpp:434] conv4_3_norm_mbox_priorbox <- conv4_3_norm_conv4_3_norm_0_split_2
I1001 13:33:04.387739  3017 net.cpp:434] conv4_3_norm_mbox_priorbox <- data_data_0_split_1
I1001 13:33:04.387743  3017 net.cpp:408] conv4_3_norm_mbox_priorbox -> conv4_3_norm_mbox_priorbox
I1001 13:33:04.387764  3017 net.cpp:150] Setting up conv4_3_norm_mbox_priorbox
I1001 13:33:04.387768  3017 net.cpp:157] Top shape: 1 2 23104 (46208)
I1001 13:33:04.387769  3017 net.cpp:165] Memory required for data: 7428029344
I1001 13:33:04.387770  3017 layer_factory.hpp:77] Creating layer fc7_mbox_loc
I1001 13:33:04.387776  3017 net.cpp:100] Creating Layer fc7_mbox_loc
I1001 13:33:04.387779  3017 net.cpp:434] fc7_mbox_loc <- fc7_relu7_0_split_1
I1001 13:33:04.387782  3017 net.cpp:408] fc7_mbox_loc -> fc7_mbox_loc
I1001 13:33:04.388753  3017 net.cpp:150] Setting up fc7_mbox_loc
I1001 13:33:04.388757  3017 net.cpp:157] Top shape: 30 24 19 19 (259920)
I1001 13:33:04.388759  3017 net.cpp:165] Memory required for data: 7429069024
I1001 13:33:04.388763  3017 layer_factory.hpp:77] Creating layer fc7_mbox_loc_perm
I1001 13:33:04.388767  3017 net.cpp:100] Creating Layer fc7_mbox_loc_perm
I1001 13:33:04.388769  3017 net.cpp:434] fc7_mbox_loc_perm <- fc7_mbox_loc
I1001 13:33:04.388773  3017 net.cpp:408] fc7_mbox_loc_perm -> fc7_mbox_loc_perm
I1001 13:33:04.388839  3017 net.cpp:150] Setting up fc7_mbox_loc_perm
I1001 13:33:04.388841  3017 net.cpp:157] Top shape: 30 19 19 24 (259920)
I1001 13:33:04.388844  3017 net.cpp:165] Memory required for data: 7430108704
I1001 13:33:04.388845  3017 layer_factory.hpp:77] Creating layer fc7_mbox_loc_flat
I1001 13:33:04.388849  3017 net.cpp:100] Creating Layer fc7_mbox_loc_flat
I1001 13:33:04.388851  3017 net.cpp:434] fc7_mbox_loc_flat <- fc7_mbox_loc_perm
I1001 13:33:04.388854  3017 net.cpp:408] fc7_mbox_loc_flat -> fc7_mbox_loc_flat
I1001 13:33:04.388870  3017 net.cpp:150] Setting up fc7_mbox_loc_flat
I1001 13:33:04.388872  3017 net.cpp:157] Top shape: 30 8664 (259920)
I1001 13:33:04.388875  3017 net.cpp:165] Memory required for data: 7431148384
I1001 13:33:04.388875  3017 layer_factory.hpp:77] Creating layer fc7_mbox_conf
I1001 13:33:04.388881  3017 net.cpp:100] Creating Layer fc7_mbox_conf
I1001 13:33:04.388883  3017 net.cpp:434] fc7_mbox_conf <- fc7_relu7_0_split_2
I1001 13:33:04.388887  3017 net.cpp:408] fc7_mbox_conf -> fc7_mbox_conf
I1001 13:33:04.389654  3017 net.cpp:150] Setting up fc7_mbox_conf
I1001 13:33:04.389658  3017 net.cpp:157] Top shape: 30 18 19 19 (194940)
I1001 13:33:04.389660  3017 net.cpp:165] Memory required for data: 7431928144
I1001 13:33:04.389663  3017 layer_factory.hpp:77] Creating layer fc7_mbox_conf_perm
I1001 13:33:04.389667  3017 net.cpp:100] Creating Layer fc7_mbox_conf_perm
I1001 13:33:04.389669  3017 net.cpp:434] fc7_mbox_conf_perm <- fc7_mbox_conf
I1001 13:33:04.389674  3017 net.cpp:408] fc7_mbox_conf_perm -> fc7_mbox_conf_perm
I1001 13:33:04.389739  3017 net.cpp:150] Setting up fc7_mbox_conf_perm
I1001 13:33:04.389742  3017 net.cpp:157] Top shape: 30 19 19 18 (194940)
I1001 13:33:04.389744  3017 net.cpp:165] Memory required for data: 7432707904
I1001 13:33:04.389746  3017 layer_factory.hpp:77] Creating layer fc7_mbox_conf_flat
I1001 13:33:04.389750  3017 net.cpp:100] Creating Layer fc7_mbox_conf_flat
I1001 13:33:04.389752  3017 net.cpp:434] fc7_mbox_conf_flat <- fc7_mbox_conf_perm
I1001 13:33:04.389756  3017 net.cpp:408] fc7_mbox_conf_flat -> fc7_mbox_conf_flat
I1001 13:33:04.389771  3017 net.cpp:150] Setting up fc7_mbox_conf_flat
I1001 13:33:04.389773  3017 net.cpp:157] Top shape: 30 6498 (194940)
I1001 13:33:04.389775  3017 net.cpp:165] Memory required for data: 7433487664
I1001 13:33:04.389777  3017 layer_factory.hpp:77] Creating layer fc7_mbox_priorbox
I1001 13:33:04.389791  3017 net.cpp:100] Creating Layer fc7_mbox_priorbox
I1001 13:33:04.389792  3017 net.cpp:434] fc7_mbox_priorbox <- fc7_relu7_0_split_3
I1001 13:33:04.389796  3017 net.cpp:434] fc7_mbox_priorbox <- data_data_0_split_2
I1001 13:33:04.389799  3017 net.cpp:408] fc7_mbox_priorbox -> fc7_mbox_priorbox
I1001 13:33:04.389816  3017 net.cpp:150] Setting up fc7_mbox_priorbox
I1001 13:33:04.389820  3017 net.cpp:157] Top shape: 1 2 8664 (17328)
I1001 13:33:04.389822  3017 net.cpp:165] Memory required for data: 7433556976
I1001 13:33:04.389823  3017 layer_factory.hpp:77] Creating layer conv6_2_mbox_loc
I1001 13:33:04.389829  3017 net.cpp:100] Creating Layer conv6_2_mbox_loc
I1001 13:33:04.389832  3017 net.cpp:434] conv6_2_mbox_loc <- conv6_2_conv6_2_relu_0_split_1
I1001 13:33:04.389837  3017 net.cpp:408] conv6_2_mbox_loc -> conv6_2_mbox_loc
I1001 13:33:04.390408  3017 net.cpp:150] Setting up conv6_2_mbox_loc
I1001 13:33:04.390413  3017 net.cpp:157] Top shape: 30 24 10 10 (72000)
I1001 13:33:04.390413  3017 net.cpp:165] Memory required for data: 7433844976
I1001 13:33:04.390417  3017 layer_factory.hpp:77] Creating layer conv6_2_mbox_loc_perm
I1001 13:33:04.390421  3017 net.cpp:100] Creating Layer conv6_2_mbox_loc_perm
I1001 13:33:04.390424  3017 net.cpp:434] conv6_2_mbox_loc_perm <- conv6_2_mbox_loc
I1001 13:33:04.390429  3017 net.cpp:408] conv6_2_mbox_loc_perm -> conv6_2_mbox_loc_perm
I1001 13:33:04.390493  3017 net.cpp:150] Setting up conv6_2_mbox_loc_perm
I1001 13:33:04.390498  3017 net.cpp:157] Top shape: 30 10 10 24 (72000)
I1001 13:33:04.390501  3017 net.cpp:165] Memory required for data: 7434132976
I1001 13:33:04.390503  3017 layer_factory.hpp:77] Creating layer conv6_2_mbox_loc_flat
I1001 13:33:04.390506  3017 net.cpp:100] Creating Layer conv6_2_mbox_loc_flat
I1001 13:33:04.390508  3017 net.cpp:434] conv6_2_mbox_loc_flat <- conv6_2_mbox_loc_perm
I1001 13:33:04.390512  3017 net.cpp:408] conv6_2_mbox_loc_flat -> conv6_2_mbox_loc_flat
I1001 13:33:04.390527  3017 net.cpp:150] Setting up conv6_2_mbox_loc_flat
I1001 13:33:04.390529  3017 net.cpp:157] Top shape: 30 2400 (72000)
I1001 13:33:04.390530  3017 net.cpp:165] Memory required for data: 7434420976
I1001 13:33:04.390532  3017 layer_factory.hpp:77] Creating layer conv6_2_mbox_conf
I1001 13:33:04.390538  3017 net.cpp:100] Creating Layer conv6_2_mbox_conf
I1001 13:33:04.390540  3017 net.cpp:434] conv6_2_mbox_conf <- conv6_2_conv6_2_relu_0_split_2
I1001 13:33:04.390544  3017 net.cpp:408] conv6_2_mbox_conf -> conv6_2_mbox_conf
I1001 13:33:04.391019  3017 net.cpp:150] Setting up conv6_2_mbox_conf
I1001 13:33:04.391023  3017 net.cpp:157] Top shape: 30 18 10 10 (54000)
I1001 13:33:04.391026  3017 net.cpp:165] Memory required for data: 7434636976
I1001 13:33:04.391028  3017 layer_factory.hpp:77] Creating layer conv6_2_mbox_conf_perm
I1001 13:33:04.391033  3017 net.cpp:100] Creating Layer conv6_2_mbox_conf_perm
I1001 13:33:04.391036  3017 net.cpp:434] conv6_2_mbox_conf_perm <- conv6_2_mbox_conf
I1001 13:33:04.391039  3017 net.cpp:408] conv6_2_mbox_conf_perm -> conv6_2_mbox_conf_perm
I1001 13:33:04.391105  3017 net.cpp:150] Setting up conv6_2_mbox_conf_perm
I1001 13:33:04.391109  3017 net.cpp:157] Top shape: 30 10 10 18 (54000)
I1001 13:33:04.391111  3017 net.cpp:165] Memory required for data: 7434852976
I1001 13:33:04.391113  3017 layer_factory.hpp:77] Creating layer conv6_2_mbox_conf_flat
I1001 13:33:04.391117  3017 net.cpp:100] Creating Layer conv6_2_mbox_conf_flat
I1001 13:33:04.391119  3017 net.cpp:434] conv6_2_mbox_conf_flat <- conv6_2_mbox_conf_perm
I1001 13:33:04.391122  3017 net.cpp:408] conv6_2_mbox_conf_flat -> conv6_2_mbox_conf_flat
I1001 13:33:04.391137  3017 net.cpp:150] Setting up conv6_2_mbox_conf_flat
I1001 13:33:04.391140  3017 net.cpp:157] Top shape: 30 1800 (54000)
I1001 13:33:04.391142  3017 net.cpp:165] Memory required for data: 7435068976
I1001 13:33:04.391144  3017 layer_factory.hpp:77] Creating layer conv6_2_mbox_priorbox
I1001 13:33:04.391149  3017 net.cpp:100] Creating Layer conv6_2_mbox_priorbox
I1001 13:33:04.391150  3017 net.cpp:434] conv6_2_mbox_priorbox <- conv6_2_conv6_2_relu_0_split_3
I1001 13:33:04.391166  3017 net.cpp:434] conv6_2_mbox_priorbox <- data_data_0_split_3
I1001 13:33:04.391170  3017 net.cpp:408] conv6_2_mbox_priorbox -> conv6_2_mbox_priorbox
I1001 13:33:04.391187  3017 net.cpp:150] Setting up conv6_2_mbox_priorbox
I1001 13:33:04.391191  3017 net.cpp:157] Top shape: 1 2 2400 (4800)
I1001 13:33:04.391192  3017 net.cpp:165] Memory required for data: 7435088176
I1001 13:33:04.391194  3017 layer_factory.hpp:77] Creating layer conv7_2_mbox_loc
I1001 13:33:04.391201  3017 net.cpp:100] Creating Layer conv7_2_mbox_loc
I1001 13:33:04.391203  3017 net.cpp:434] conv7_2_mbox_loc <- conv7_2_conv7_2_relu_0_split_1
I1001 13:33:04.391208  3017 net.cpp:408] conv7_2_mbox_loc -> conv7_2_mbox_loc
I1001 13:33:04.391568  3017 net.cpp:150] Setting up conv7_2_mbox_loc
I1001 13:33:04.391572  3017 net.cpp:157] Top shape: 30 24 5 5 (18000)
I1001 13:33:04.391574  3017 net.cpp:165] Memory required for data: 7435160176
I1001 13:33:04.391578  3017 layer_factory.hpp:77] Creating layer conv7_2_mbox_loc_perm
I1001 13:33:04.391582  3017 net.cpp:100] Creating Layer conv7_2_mbox_loc_perm
I1001 13:33:04.391585  3017 net.cpp:434] conv7_2_mbox_loc_perm <- conv7_2_mbox_loc
I1001 13:33:04.391588  3017 net.cpp:408] conv7_2_mbox_loc_perm -> conv7_2_mbox_loc_perm
I1001 13:33:04.391654  3017 net.cpp:150] Setting up conv7_2_mbox_loc_perm
I1001 13:33:04.391657  3017 net.cpp:157] Top shape: 30 5 5 24 (18000)
I1001 13:33:04.391659  3017 net.cpp:165] Memory required for data: 7435232176
I1001 13:33:04.391661  3017 layer_factory.hpp:77] Creating layer conv7_2_mbox_loc_flat
I1001 13:33:04.391665  3017 net.cpp:100] Creating Layer conv7_2_mbox_loc_flat
I1001 13:33:04.391667  3017 net.cpp:434] conv7_2_mbox_loc_flat <- conv7_2_mbox_loc_perm
I1001 13:33:04.391671  3017 net.cpp:408] conv7_2_mbox_loc_flat -> conv7_2_mbox_loc_flat
I1001 13:33:04.391686  3017 net.cpp:150] Setting up conv7_2_mbox_loc_flat
I1001 13:33:04.391690  3017 net.cpp:157] Top shape: 30 600 (18000)
I1001 13:33:04.391691  3017 net.cpp:165] Memory required for data: 7435304176
I1001 13:33:04.391693  3017 layer_factory.hpp:77] Creating layer conv7_2_mbox_conf
I1001 13:33:04.391698  3017 net.cpp:100] Creating Layer conv7_2_mbox_conf
I1001 13:33:04.391700  3017 net.cpp:434] conv7_2_mbox_conf <- conv7_2_conv7_2_relu_0_split_2
I1001 13:33:04.391705  3017 net.cpp:408] conv7_2_mbox_conf -> conv7_2_mbox_conf
I1001 13:33:04.392016  3017 net.cpp:150] Setting up conv7_2_mbox_conf
I1001 13:33:04.392020  3017 net.cpp:157] Top shape: 30 18 5 5 (13500)
I1001 13:33:04.392021  3017 net.cpp:165] Memory required for data: 7435358176
I1001 13:33:04.392025  3017 layer_factory.hpp:77] Creating layer conv7_2_mbox_conf_perm
I1001 13:33:04.392029  3017 net.cpp:100] Creating Layer conv7_2_mbox_conf_perm
I1001 13:33:04.392030  3017 net.cpp:434] conv7_2_mbox_conf_perm <- conv7_2_mbox_conf
I1001 13:33:04.392035  3017 net.cpp:408] conv7_2_mbox_conf_perm -> conv7_2_mbox_conf_perm
I1001 13:33:04.392101  3017 net.cpp:150] Setting up conv7_2_mbox_conf_perm
I1001 13:33:04.392104  3017 net.cpp:157] Top shape: 30 5 5 18 (13500)
I1001 13:33:04.392105  3017 net.cpp:165] Memory required for data: 7435412176
I1001 13:33:04.392107  3017 layer_factory.hpp:77] Creating layer conv7_2_mbox_conf_flat
I1001 13:33:04.392110  3017 net.cpp:100] Creating Layer conv7_2_mbox_conf_flat
I1001 13:33:04.392113  3017 net.cpp:434] conv7_2_mbox_conf_flat <- conv7_2_mbox_conf_perm
I1001 13:33:04.392117  3017 net.cpp:408] conv7_2_mbox_conf_flat -> conv7_2_mbox_conf_flat
I1001 13:33:04.392130  3017 net.cpp:150] Setting up conv7_2_mbox_conf_flat
I1001 13:33:04.392133  3017 net.cpp:157] Top shape: 30 450 (13500)
I1001 13:33:04.392135  3017 net.cpp:165] Memory required for data: 7435466176
I1001 13:33:04.392136  3017 layer_factory.hpp:77] Creating layer conv7_2_mbox_priorbox
I1001 13:33:04.392141  3017 net.cpp:100] Creating Layer conv7_2_mbox_priorbox
I1001 13:33:04.392143  3017 net.cpp:434] conv7_2_mbox_priorbox <- conv7_2_conv7_2_relu_0_split_3
I1001 13:33:04.392146  3017 net.cpp:434] conv7_2_mbox_priorbox <- data_data_0_split_4
I1001 13:33:04.392158  3017 net.cpp:408] conv7_2_mbox_priorbox -> conv7_2_mbox_priorbox
I1001 13:33:04.392179  3017 net.cpp:150] Setting up conv7_2_mbox_priorbox
I1001 13:33:04.392181  3017 net.cpp:157] Top shape: 1 2 600 (1200)
I1001 13:33:04.392182  3017 net.cpp:165] Memory required for data: 7435470976
I1001 13:33:04.392184  3017 layer_factory.hpp:77] Creating layer conv8_2_mbox_loc
I1001 13:33:04.392191  3017 net.cpp:100] Creating Layer conv8_2_mbox_loc
I1001 13:33:04.392194  3017 net.cpp:434] conv8_2_mbox_loc <- conv8_2_conv8_2_relu_0_split_1
I1001 13:33:04.392197  3017 net.cpp:408] conv8_2_mbox_loc -> conv8_2_mbox_loc
I1001 13:33:04.392489  3017 net.cpp:150] Setting up conv8_2_mbox_loc
I1001 13:33:04.392494  3017 net.cpp:157] Top shape: 30 16 3 3 (4320)
I1001 13:33:04.392496  3017 net.cpp:165] Memory required for data: 7435488256
I1001 13:33:04.392504  3017 layer_factory.hpp:77] Creating layer conv8_2_mbox_loc_perm
I1001 13:33:04.392508  3017 net.cpp:100] Creating Layer conv8_2_mbox_loc_perm
I1001 13:33:04.392509  3017 net.cpp:434] conv8_2_mbox_loc_perm <- conv8_2_mbox_loc
I1001 13:33:04.392514  3017 net.cpp:408] conv8_2_mbox_loc_perm -> conv8_2_mbox_loc_perm
I1001 13:33:04.392581  3017 net.cpp:150] Setting up conv8_2_mbox_loc_perm
I1001 13:33:04.392585  3017 net.cpp:157] Top shape: 30 3 3 16 (4320)
I1001 13:33:04.392586  3017 net.cpp:165] Memory required for data: 7435505536
I1001 13:33:04.392588  3017 layer_factory.hpp:77] Creating layer conv8_2_mbox_loc_flat
I1001 13:33:04.392592  3017 net.cpp:100] Creating Layer conv8_2_mbox_loc_flat
I1001 13:33:04.392596  3017 net.cpp:434] conv8_2_mbox_loc_flat <- conv8_2_mbox_loc_perm
I1001 13:33:04.392598  3017 net.cpp:408] conv8_2_mbox_loc_flat -> conv8_2_mbox_loc_flat
I1001 13:33:04.392613  3017 net.cpp:150] Setting up conv8_2_mbox_loc_flat
I1001 13:33:04.392616  3017 net.cpp:157] Top shape: 30 144 (4320)
I1001 13:33:04.392617  3017 net.cpp:165] Memory required for data: 7435522816
I1001 13:33:04.392619  3017 layer_factory.hpp:77] Creating layer conv8_2_mbox_conf
I1001 13:33:04.392624  3017 net.cpp:100] Creating Layer conv8_2_mbox_conf
I1001 13:33:04.392628  3017 net.cpp:434] conv8_2_mbox_conf <- conv8_2_conv8_2_relu_0_split_2
I1001 13:33:04.392632  3017 net.cpp:408] conv8_2_mbox_conf -> conv8_2_mbox_conf
I1001 13:33:04.392886  3017 net.cpp:150] Setting up conv8_2_mbox_conf
I1001 13:33:04.392890  3017 net.cpp:157] Top shape: 30 12 3 3 (3240)
I1001 13:33:04.392892  3017 net.cpp:165] Memory required for data: 7435535776
I1001 13:33:04.392895  3017 layer_factory.hpp:77] Creating layer conv8_2_mbox_conf_perm
I1001 13:33:04.392899  3017 net.cpp:100] Creating Layer conv8_2_mbox_conf_perm
I1001 13:33:04.392902  3017 net.cpp:434] conv8_2_mbox_conf_perm <- conv8_2_mbox_conf
I1001 13:33:04.392905  3017 net.cpp:408] conv8_2_mbox_conf_perm -> conv8_2_mbox_conf_perm
I1001 13:33:04.392971  3017 net.cpp:150] Setting up conv8_2_mbox_conf_perm
I1001 13:33:04.392973  3017 net.cpp:157] Top shape: 30 3 3 12 (3240)
I1001 13:33:04.392976  3017 net.cpp:165] Memory required for data: 7435548736
I1001 13:33:04.392977  3017 layer_factory.hpp:77] Creating layer conv8_2_mbox_conf_flat
I1001 13:33:04.392982  3017 net.cpp:100] Creating Layer conv8_2_mbox_conf_flat
I1001 13:33:04.392983  3017 net.cpp:434] conv8_2_mbox_conf_flat <- conv8_2_mbox_conf_perm
I1001 13:33:04.392987  3017 net.cpp:408] conv8_2_mbox_conf_flat -> conv8_2_mbox_conf_flat
I1001 13:33:04.393000  3017 net.cpp:150] Setting up conv8_2_mbox_conf_flat
I1001 13:33:04.393003  3017 net.cpp:157] Top shape: 30 108 (3240)
I1001 13:33:04.393005  3017 net.cpp:165] Memory required for data: 7435561696
I1001 13:33:04.393007  3017 layer_factory.hpp:77] Creating layer conv8_2_mbox_priorbox
I1001 13:33:04.393012  3017 net.cpp:100] Creating Layer conv8_2_mbox_priorbox
I1001 13:33:04.393014  3017 net.cpp:434] conv8_2_mbox_priorbox <- conv8_2_conv8_2_relu_0_split_3
I1001 13:33:04.393016  3017 net.cpp:434] conv8_2_mbox_priorbox <- data_data_0_split_5
I1001 13:33:04.393020  3017 net.cpp:408] conv8_2_mbox_priorbox -> conv8_2_mbox_priorbox
I1001 13:33:04.393044  3017 net.cpp:150] Setting up conv8_2_mbox_priorbox
I1001 13:33:04.393048  3017 net.cpp:157] Top shape: 1 2 144 (288)
I1001 13:33:04.393049  3017 net.cpp:165] Memory required for data: 7435562848
I1001 13:33:04.393051  3017 layer_factory.hpp:77] Creating layer conv9_2_mbox_loc
I1001 13:33:04.393056  3017 net.cpp:100] Creating Layer conv9_2_mbox_loc
I1001 13:33:04.393059  3017 net.cpp:434] conv9_2_mbox_loc <- conv9_2_conv9_2_relu_0_split_0
I1001 13:33:04.393064  3017 net.cpp:408] conv9_2_mbox_loc -> conv9_2_mbox_loc
I1001 13:33:04.393355  3017 net.cpp:150] Setting up conv9_2_mbox_loc
I1001 13:33:04.393359  3017 net.cpp:157] Top shape: 30 16 1 1 (480)
I1001 13:33:04.393360  3017 net.cpp:165] Memory required for data: 7435564768
I1001 13:33:04.393364  3017 layer_factory.hpp:77] Creating layer conv9_2_mbox_loc_perm
I1001 13:33:04.393368  3017 net.cpp:100] Creating Layer conv9_2_mbox_loc_perm
I1001 13:33:04.393370  3017 net.cpp:434] conv9_2_mbox_loc_perm <- conv9_2_mbox_loc
I1001 13:33:04.393374  3017 net.cpp:408] conv9_2_mbox_loc_perm -> conv9_2_mbox_loc_perm
I1001 13:33:04.393440  3017 net.cpp:150] Setting up conv9_2_mbox_loc_perm
I1001 13:33:04.393443  3017 net.cpp:157] Top shape: 30 1 1 16 (480)
I1001 13:33:04.393445  3017 net.cpp:165] Memory required for data: 7435566688
I1001 13:33:04.393447  3017 layer_factory.hpp:77] Creating layer conv9_2_mbox_loc_flat
I1001 13:33:04.393450  3017 net.cpp:100] Creating Layer conv9_2_mbox_loc_flat
I1001 13:33:04.393453  3017 net.cpp:434] conv9_2_mbox_loc_flat <- conv9_2_mbox_loc_perm
I1001 13:33:04.393456  3017 net.cpp:408] conv9_2_mbox_loc_flat -> conv9_2_mbox_loc_flat
I1001 13:33:04.393471  3017 net.cpp:150] Setting up conv9_2_mbox_loc_flat
I1001 13:33:04.393473  3017 net.cpp:157] Top shape: 30 16 (480)
I1001 13:33:04.393476  3017 net.cpp:165] Memory required for data: 7435568608
I1001 13:33:04.393477  3017 layer_factory.hpp:77] Creating layer conv9_2_mbox_conf
I1001 13:33:04.393482  3017 net.cpp:100] Creating Layer conv9_2_mbox_conf
I1001 13:33:04.393486  3017 net.cpp:434] conv9_2_mbox_conf <- conv9_2_conv9_2_relu_0_split_1
I1001 13:33:04.393488  3017 net.cpp:408] conv9_2_mbox_conf -> conv9_2_mbox_conf
I1001 13:33:04.393751  3017 net.cpp:150] Setting up conv9_2_mbox_conf
I1001 13:33:04.393754  3017 net.cpp:157] Top shape: 30 12 1 1 (360)
I1001 13:33:04.393756  3017 net.cpp:165] Memory required for data: 7435570048
I1001 13:33:04.393759  3017 layer_factory.hpp:77] Creating layer conv9_2_mbox_conf_perm
I1001 13:33:04.393762  3017 net.cpp:100] Creating Layer conv9_2_mbox_conf_perm
I1001 13:33:04.393766  3017 net.cpp:434] conv9_2_mbox_conf_perm <- conv9_2_mbox_conf
I1001 13:33:04.393769  3017 net.cpp:408] conv9_2_mbox_conf_perm -> conv9_2_mbox_conf_perm
I1001 13:33:04.393836  3017 net.cpp:150] Setting up conv9_2_mbox_conf_perm
I1001 13:33:04.393839  3017 net.cpp:157] Top shape: 30 1 1 12 (360)
I1001 13:33:04.393841  3017 net.cpp:165] Memory required for data: 7435571488
I1001 13:33:04.393842  3017 layer_factory.hpp:77] Creating layer conv9_2_mbox_conf_flat
I1001 13:33:04.393846  3017 net.cpp:100] Creating Layer conv9_2_mbox_conf_flat
I1001 13:33:04.393848  3017 net.cpp:434] conv9_2_mbox_conf_flat <- conv9_2_mbox_conf_perm
I1001 13:33:04.393852  3017 net.cpp:408] conv9_2_mbox_conf_flat -> conv9_2_mbox_conf_flat
I1001 13:33:04.393867  3017 net.cpp:150] Setting up conv9_2_mbox_conf_flat
I1001 13:33:04.393869  3017 net.cpp:157] Top shape: 30 12 (360)
I1001 13:33:04.393872  3017 net.cpp:165] Memory required for data: 7435572928
I1001 13:33:04.393873  3017 layer_factory.hpp:77] Creating layer conv9_2_mbox_priorbox
I1001 13:33:04.393877  3017 net.cpp:100] Creating Layer conv9_2_mbox_priorbox
I1001 13:33:04.393879  3017 net.cpp:434] conv9_2_mbox_priorbox <- conv9_2_conv9_2_relu_0_split_2
I1001 13:33:04.393882  3017 net.cpp:434] conv9_2_mbox_priorbox <- data_data_0_split_6
I1001 13:33:04.393887  3017 net.cpp:408] conv9_2_mbox_priorbox -> conv9_2_mbox_priorbox
I1001 13:33:04.393901  3017 net.cpp:150] Setting up conv9_2_mbox_priorbox
I1001 13:33:04.393911  3017 net.cpp:157] Top shape: 1 2 16 (32)
I1001 13:33:04.393913  3017 net.cpp:165] Memory required for data: 7435573056
I1001 13:33:04.393914  3017 layer_factory.hpp:77] Creating layer mbox_loc
I1001 13:33:04.393919  3017 net.cpp:100] Creating Layer mbox_loc
I1001 13:33:04.393923  3017 net.cpp:434] mbox_loc <- conv4_3_norm_mbox_loc_flat
I1001 13:33:04.393925  3017 net.cpp:434] mbox_loc <- fc7_mbox_loc_flat
I1001 13:33:04.393929  3017 net.cpp:434] mbox_loc <- conv6_2_mbox_loc_flat
I1001 13:33:04.393930  3017 net.cpp:434] mbox_loc <- conv7_2_mbox_loc_flat
I1001 13:33:04.393934  3017 net.cpp:434] mbox_loc <- conv8_2_mbox_loc_flat
I1001 13:33:04.393935  3017 net.cpp:434] mbox_loc <- conv9_2_mbox_loc_flat
I1001 13:33:04.393939  3017 net.cpp:408] mbox_loc -> mbox_loc
I1001 13:33:04.393960  3017 net.cpp:150] Setting up mbox_loc
I1001 13:33:04.393965  3017 net.cpp:157] Top shape: 30 34928 (1047840)
I1001 13:33:04.393965  3017 net.cpp:165] Memory required for data: 7439764416
I1001 13:33:04.393967  3017 layer_factory.hpp:77] Creating layer mbox_conf
I1001 13:33:04.393971  3017 net.cpp:100] Creating Layer mbox_conf
I1001 13:33:04.393973  3017 net.cpp:434] mbox_conf <- conv4_3_norm_mbox_conf_flat
I1001 13:33:04.393976  3017 net.cpp:434] mbox_conf <- fc7_mbox_conf_flat
I1001 13:33:04.393980  3017 net.cpp:434] mbox_conf <- conv6_2_mbox_conf_flat
I1001 13:33:04.393982  3017 net.cpp:434] mbox_conf <- conv7_2_mbox_conf_flat
I1001 13:33:04.393986  3017 net.cpp:434] mbox_conf <- conv8_2_mbox_conf_flat
I1001 13:33:04.393990  3017 net.cpp:434] mbox_conf <- conv9_2_mbox_conf_flat
I1001 13:33:04.393992  3017 net.cpp:408] mbox_conf -> mbox_conf
I1001 13:33:04.394006  3017 net.cpp:150] Setting up mbox_conf
I1001 13:33:04.394009  3017 net.cpp:157] Top shape: 30 26196 (785880)
I1001 13:33:04.394011  3017 net.cpp:165] Memory required for data: 7442907936
I1001 13:33:04.394013  3017 layer_factory.hpp:77] Creating layer mbox_priorbox
I1001 13:33:04.394017  3017 net.cpp:100] Creating Layer mbox_priorbox
I1001 13:33:04.394021  3017 net.cpp:434] mbox_priorbox <- conv4_3_norm_mbox_priorbox
I1001 13:33:04.394022  3017 net.cpp:434] mbox_priorbox <- fc7_mbox_priorbox
I1001 13:33:04.394026  3017 net.cpp:434] mbox_priorbox <- conv6_2_mbox_priorbox
I1001 13:33:04.394027  3017 net.cpp:434] mbox_priorbox <- conv7_2_mbox_priorbox
I1001 13:33:04.394031  3017 net.cpp:434] mbox_priorbox <- conv8_2_mbox_priorbox
I1001 13:33:04.394032  3017 net.cpp:434] mbox_priorbox <- conv9_2_mbox_priorbox
I1001 13:33:04.394037  3017 net.cpp:408] mbox_priorbox -> mbox_priorbox
I1001 13:33:04.394049  3017 net.cpp:150] Setting up mbox_priorbox
I1001 13:33:04.394052  3017 net.cpp:157] Top shape: 1 2 34928 (69856)
I1001 13:33:04.394054  3017 net.cpp:165] Memory required for data: 7443187360
I1001 13:33:04.394057  3017 layer_factory.hpp:77] Creating layer mbox_loss
I1001 13:33:04.394064  3017 net.cpp:100] Creating Layer mbox_loss
I1001 13:33:04.394067  3017 net.cpp:434] mbox_loss <- mbox_loc
I1001 13:33:04.394068  3017 net.cpp:434] mbox_loss <- mbox_conf
I1001 13:33:04.394071  3017 net.cpp:434] mbox_loss <- mbox_priorbox
…
state {
  phase: TEST
}
layer {
  name: "data"
  type: "AnnotatedData"
  top: "data"
  top: "label"
  include {
    phase: TEST
  }
  transform_param {
    mean_value: 104
    mean_value: 117
    mean_value: 123
    resize_param {
      prob: 1
      resize_mode: WARP
      height: 300
      width: 300
      interp_mode: LINEAR
    }
  }
  data_param {
    source: "examples/MELON/MELON_test_lmdb"
    batch_size: 4
    backend: LMDB
  }
  annotated_data_param {
    batch_sampler {
    }
    label_map_file: "data/MELON/labelmap_melon.prototxt"
  }
}
layer {
  name: "conv1_1"
  type: "Convolution"
  bottom: "data"
  top: "conv1_1"
  param {
    lr_mult: 1
    decay_mult: 1
  }
  param {
    lr_mult: 2
    decay_mult: 0
  }
  convolution_param {
    num_output: 64
    pad: 1
    kernel_size: 3
    weight_filler {
      type: "xavier"
    }
    bias_filler {
      type: "constant"
      value: 0
    }
  }
}
layer {
  name: "relu1_1"
  type: "ReLU"
  bottom: "conv1_1"
  top: "conv1_1"
}
layer {
  name: "conv1_2"
  type: "Convolution"
  bottom: "conv1_1"
  top: "conv1_2"
  param {
    lr_mult: 1
    decay_mult: 1
  }
  param {
    lr_mult: 2
    decay_mult: 0
  }
  convolution_param {
    num_output: 64
    pad: 1
    kernel_size: 3
    weight_filler {
      type: "xavier"
    }
    bias_filler {
      type: "constant"
      value: 0
    }
  }
}
layer {
  name: "relu1_2"
  type: "ReLU"
  bottom: "conv1_2"
  top: "conv1_2"
}
layer {
  name: "pool1"
  type: "Pooling"
  bottom: "conv1_2"
  top: "pool1"
  pooling_param {
    pool: MAX
    kernel_size: 2
    stride: 2
  }
}
layer {
  name: "conv2_1"
  type: "Convolution"
  bottom: "pool1"
  top: "conv2_1"
  param {
    lr_mult: 1
    decay_mult: 1
  }
  param {
    lr_mult: 2
    decay_mult: 0
  }
  convolution_param {
    num_output: 128
    pad: 1
    kernel_size: 3
    weight_filler {
      type: "xavier"
    }
    bias_filler {
      type: "constant"
      value: 0
    }
  }
}
layer {
  name: "relu2_1"
  type: "ReLU"
  bottom: "conv2_1"
  top: "conv2_1"
}
layer {
  name: "conv2_2"
  type: "Convolution"
  bottom: "conv2_1"
  top: "conv2_2"
  param {
    lr_mult: 1
    decay_mult: 1
  }
  param {
    lr_mult: 2
    decay_mult: 0
  }
  convolution_param {
    num_output: 128
    pad: 1
    kernel_size: 3
    weight_filler {
      type: "xavier"
    }
    bias_filler {
      type: "constant"
      value: 0
    }
  }
}
layer {
  name: "relu2_2"
  type: "ReLU"
  bottom: "conv2_2"
  top: "conv2_2"
}
layer {
  name: "pool2"
  type: "Pooling"
  bottom: "conv2_2"
  top: "pool2"
  pooling_param {
    pool: MAX
    kernel_size: 2
    stride: 2
  }
}
layer {
  name: "conv3_1"
  type: "Convolution"
  bottom: "pool2"
  top: "conv3_1"
  param {
    lr_mult: 1
    decay_mult: 1
  }
  param {
    lr_mult: 2
    decay_mult: 0
  }
  convolution_param {
    num_output: 256
    pad: 1
    kernel_size: 3
    weight_filler {
      type: "xavier"
    }
    bias_filler {
      type: "constant"
      value: 0
    }
  }
}
layer {
  name: "relu3_1"
  type: "ReLU"
  bottom: "conv3_1"
  top: "conv3_1"
}
layer {
  name: "conv3_2"
  type: "Convolution"
  bottom: "conv3_1"
  top: "conv3_2"
  param {
    lr_mult: 1
    decay_mult: 1
  }
  param {
    lr_mult: 2
    decay_mult: 0
  }
  convolution_param {
    num_output: 256
    pad: 1
    kernel_size: 3
    weight_filler {
      type: "xavier"
    }
    bias_filler {
      type: "constant"
      value: 0
    }
  }
}
layer {
  name: "relu3_2"
  type: "ReLU"
  bottom: "conv3_2"
  top: "conv3_2"
}
layer {
  name: "conv3_3"
  type: "Convolution"
  bottom: "conv3_2"
  top: "conv3_3"
  param {
    lr_mult: 1
    decay_mult: 1
  }
  param {
    lr_mult: 2
    decay_mult: 0
  }
  convolution_param {
    num_output: 256
    pad: 1
    kernel_size: 3
    weight_filler {
      type: "xavier"
    }
    bias_filler {
      type: "constant"
      value: 0
    }
  }
}
layer {
  name: "relu3_3"
  type: "ReLU"
  bottom: "conv3_3"
  top: "conv3_3"
}
layer {
  name: "pool3"
  type: "Pooling"
  bottom: "conv3_3"
  top: "pool3"
  pooling_param {
    pool: MAX
    kernel_size: 2
    stride: 2
  }
}
layer {
  name: "conv4_1"
  type: "Convolution"
  bottom: "pool3"
  top: "conv4_1"
  param {
    lr_mult: 1
    decay_mult: 1
  }
  param {
    lr_mult: 2
    decay_mult: 0
  }
  convolution_param {
    num_output: 512
    pad: 1
    kernel_size: 3
    weight_filler {
      type: "xavier"
    }
    bias_filler {
      type: "constant"
      value: 0
    }
  }
}
layer {
  name: "relu4_1"
  type: "ReLU"
  bottom: "conv4_1"
  top: "conv4_1"
}
layer {
  name: "conv4_2"
  type: "Convolution"
  bottom: "conv4_1"
  top: "conv4_2"
  param {
    lr_mult: 1
    decay_mult: 1
  }
  param {
    lr_mult: 2
    decay_mult: 0
  }
  convolution_param {
    num_output: 512
    pad: 1
    kernel_size: 3
    weight_filler {
      type: "xavier"
    }
    bias_filler {
      type: "constant"
      value: 0
    }
  }
}
layer {
  name: "relu4_2"
  type: "ReLU"
  bottom: "conv4_2"
  top: "conv4_2"
}
layer {
  name: "conv4_3"
  type: "Convolution"
  bottom: "conv4_2"
  top: "conv4_3"
  param {
    lr_mult: 1
    decay_mult: 1
  }
  param {
    lr_mult: 2
    decay_mult: 0
  }
  convolution_param {
    num_output: 512
    pad: 1
    kernel_size: 3
    weight_filler {
      type: "xavier"
    }
    bias_filler {
      type: "constant"
      value: 0
    }
  }
}
layer {
  name: "relu4_3"
  type: "ReLU"
  bottom: "conv4_3"
  top: "conv4_3"
}
layer {
  name: "pool4"
  type: "Pooling"
  bottom: "conv4_3"
  top: "pool4"
  pooling_param {
    pool: MAX
    kernel_size: 2
    stride: 2
  }
}
layer {
  name: "conv5_1"
  type: "Convolution"
  bottom: "pool4"
  top: "conv5_1"
  param {
    lr_mult: 1
    decay_mult: 1
  }
  param {
    lr_mult: 2
    decay_mult: 0
  }
  convolution_param {
    num_output: 512
    pad: 1
    kernel_size: 3
    weight_filler {
      type: "xavier"
    }
    bias_filler {
      type: "constant"
      value: 0
    }
    dilation: 1
  }
}
layer {
  name: "relu5_1"
  type: "ReLU"
  bottom: "conv5_1"
  top: "conv5_1"
}
layer {
  name: "conv5_2"
  type: "Convolution"
  bottom: "conv5_1"
  top: "conv5_2"
  param {
    lr_mult: 1
    decay_mult: 1
  }
  param {
    lr_mult: 2
    decay_mult: 0
  }
  convolution_param {
    num_output: 512
    pad: 1
    kernel_size: 3
    weight_filler {
      type: "xavier"
    }
    bias_filler {
      type: "constant"
      value: 0
    }
    dilation: 1
  }
}
layer {
  name: "relu5_2"
  type: "ReLU"
  bottom: "conv5_2"
  top: "conv5_2"
}
layer {
  name: "conv5_3"
  type: "Convolution"
  bottom: "conv5_2"
  top: "conv5_3"
  param {
    lr_mult: 1
    decay_mult: 1
  }
  param {
    lr_mult: 2
    decay_mult: 0
  }
  convolution_param {
    num_output: 512
    pad: 1
    kernel_size: 3
    weight_filler {
      type: "xavier"
    }
    bias_filler {
      type: "constant"
      value: 0
    }
    dilation: 1
  }
}
layer {
  name: "relu5_3"
  type: "ReLU"
  bottom: "conv5_3"
  top: "conv5_3"
}
layer {
  name: "pool5"
  type: "Pooling"
  bottom: "conv5_3"
  top: "pool5"
  pooling_param {
    pool: MAX
    kernel_size: 3
    stride: 1
    pad: 1
  }
}
layer {
  name: "fc6"
  type: "Convolution"
  bottom: "pool5"
  top: "fc6"
  param {
    lr_mult: 1
    decay_mult: 1
  }
  param {
    lr_mult: 2
    decay_mult: 0
  }
  convolution_param {
    num_output: 1024
    pad: 6
    kernel_size: 3
    weight_filler {
      type: "xavier"
    }
    bias_filler {
      type: "constant"
      value: 0
    }
    dilation: 6
  }
}
layer {
  name: "relu6"
  type: "ReLU"
  bottom: "fc6"
  top: "fc6"
}
layer {
  name: "fc7"
  type: "Convolution"
  bottom: "fc6"
  top: "fc7"
  param {
    lr_mult: 1
    decay_mult: 1
  }
  param {
    lr_mult: 2
    decay_mult: 0
  }
  convolution_param {
    num_output: 1024
    kernel_size: 1
    weight_filler {
      type: "xavier"
    }
    bias_filler {
      type: "constant"
      value: 0
    }
  }
}
layer {
  name: "relu7"
  type: "ReLU"
  bottom: "fc7"
  top: "fc7"
}
layer {
  name: "conv6_1"
  type: "Convolution"
  bottom: "fc7"
  top: "conv6_1"
  param {
    lr_mult: 1
    decay_mult: 1
  }
  param {
    lr_mult: 2
    decay_mult: 0
  }
  convolution_param {
    num_output: 256
    pad: 0
    kernel_size: 1
    stride: 1
    weight_filler {
      type: "xavier"
    }
    bias_filler {
      type: "constant"
      value: 0
    }
  }
}
layer {
  name: "conv6_1_relu"
  type: "ReLU"
  bottom: "conv6_1"
  top: "conv6_1"
}
layer {
  name: "conv6_2"
  type: "Convolution"
  bottom: "conv6_1"
  top: "conv6_2"
  param {
    lr_mult: 1
    decay_mult: 1
  }
  param {
    lr_mult: 2
    decay_mult: 0
  }
  convolution_param {
    num_output: 512
    pad: 1
    kernel_size: 3
    stride: 2
    weight_filler {
      type: "xavier"
    }
    bias_filler {
      type: "constant"
      value: 0
    }
  }
}
layer {
  name: "conv6_2_relu"
  type: "ReLU"
  bottom: "conv6_2"
  top: "conv6_2"
}
layer {
  name: "conv7_1"
  type: "Convolution"
  bottom: "conv6_2"
  top: "conv7_1"
  param {
    lr_mult: 1
    decay_mult: 1
  }
  param {
    lr_mult: 2
    decay_mult: 0
  }
  convolution_param {
    num_output: 128
    pad: 0
    kernel_size: 1
    stride: 1
    weight_filler {
      type: "xavier"
    }
    bias_filler {
      type: "constant"
      value: 0
    }
  }
}
layer {
  name: "conv7_1_relu"
  type: "ReLU"
  bottom: "conv7_1"
  top: "conv7_1"
}
layer {
  name: "conv7_2"
  type: "Convolution"
  bottom: "conv7_1"
  top: "conv7_2"
  param {
    lr_mult: 1
    decay_mult: 1
  }
  param {
    lr_mult: 2
    decay_mult: 0
  }
  convolution_param {
    num_output: 256
    pad: 1
    kernel_size: 3
    stride: 2
    weight_filler {
      type: "xavier"
    }
    bias_filler {
      type: "constant"
      value: 0
    }
  }
}
layer {
  name: "conv7_2_relu"
  type: "ReLU"
  bottom: "conv7_2"
  top: "conv7_2"
}
layer {
  name: "conv8_1"
  type: "Convolution"
  bottom: "conv7_2"
  top: "conv8_1"
  param {
    lr_mult: 1
    decay_mult: 1
  }
  param {
    lr_mult: 2
    decay_mult: 0
  }
  convolution_param {
    num_output: 128
    pad: 0
    kernel_size: 1
    stride: 1
    weight_filler {
      type: "xavier"
    }
    bias_filler {
      type: "constant"
      value: 0
    }
  }
}
layer {
  name: "conv8_1_relu"
  type: "ReLU"
  bottom: "conv8_1"
  top: "conv8_1"
}
layer {
  name: "conv8_2"
  type: "Convolution"
  bottom: "conv8_1"
  top: "conv8_2"
  param {
    lr_mult: 1
    decay_mult: 1
  }
  param {
    lr_mult: 2
    decay_mult: 0
  }
  convolution_param {
    num_output: 256
    pad: 0
    kernel_size: 3
    stride: 1
    weight_filler {
      type: "xavier"
    }
    bias_filler {
      type: "constant"
      value: 0
    }
  }
}
layer {
  name: "conv8_2_relu"
  type: "ReLU"
  bottom: "conv8_2"
  top: "conv8_2"
}
layer {
  name: "conv9_1"
  type: "Convolution"
  bottom: "conv8_2"
  top: "conv9_1"
  param {
    lr_mult: 1
    decay_mult: 1
  }
  param {
    lr_mult: 2
    decay_mult: 0
  }
  convolution_param {
    num_output: 128
    pad: 0
    kernel_size: 1
    stride: 1
    weight_filler {
      type: "xavier"
    }
    bias_filler {
      type: "constant"
      value: 0
    }
  }
}
layer {
  name: "conv9_1_relu"
  type: "ReLU"
  bottom: "conv9_1"
  top: "conv9_1"
}
layer {
  name: "conv9_2"
  type: "Convolution"
  bottom: "conv9_1"
  top: "conv9_2"
  param {
    lr_mult: 1
    decay_mult: 1
  }
  param {
    lr_mult: 2
    decay_mult: 0
  }
  convolution_param {
    num_output: 256
    pad: 0
    kernel_size: 3
    stride: 1
    weight_filler {
      type: "xavier"
    }
    bias_filler {
      type: "constant"
      value: 0
    }
  }
}
layer {
  name: "conv9_2_relu"
  type: "ReLU"
  bottom: "conv9_2"
  top: "conv9_2"
}
layer {
  name: "conv4_3_norm"
  type: "Normalize"
  bottom: "conv4_3"
  top: "conv4_3_norm"
  norm_param {
    across_spatial: false
    scale_filler {
      type: "constant"
      value: 20
    }
    channel_shared: false
  }
}
layer {
  name: "conv4_3_norm_mbox_loc"
  type: "Convolution"
  bottom: "conv4_3_norm"
  top: "conv4_3_norm_mbox_loc"
  param {
    lr_mult: 1
    decay_mult: 1
  }
  param {
    lr_mult: 2
    decay_mult: 0
  }
  convolution_param {
    num_output: 16
    pad: 1
    kernel_size: 3
    stride: 1
    weight_filler {
      type: "xavier"
    }
    bias_filler {
      type: "constant"
      value: 0
    }
  }
}
layer {
  name: "conv4_3_norm_mbox_loc_perm"
  type: "Permute"
  bottom: "conv4_3_norm_mbox_loc"
  top: "conv4_3_norm_mbox_loc_perm"
  permute_param {
    order: 0
    order: 2
    order: 3
    order: 1
  }
}
layer {
  name: "conv4_3_norm_mbox_loc_flat"
  type: "Flatten"
  bottom: "conv4_3_norm_mbox_loc_perm"
  top: "conv4_3_norm_mbox_loc_flat"
  flatten_param {
    axis: 1
  }
}
layer {
  name: "conv4_3_norm_mbox_conf"
  type: "Convolution"
  bottom: "conv4_3_norm"
  top: "conv4_3_norm_mbox_conf"
  param {
    lr_mult: 1
    decay_mult: 1
  }
  param {
    lr_mult: 2
    decay_mult: 0
  }
  convolution_param {
    num_output: 12
    pad: 1
    kernel_size: 3
    stride: 1
    weight_filler {
      type: "xavier"
    }
    bias_filler {
      type: "constant"
      value: 0
    }
  }
}
layer {
  name: "conv4_3_norm_mbox_conf_perm"
  type: "Permute"
  bottom: "conv4_3_norm_mbox_conf"
  top: "conv4_3_norm_mbox_conf_perm"
  permute_param {
    order: 0
    order: 2
    order: 3
    order: 1
  }
}
layer {
  name: "conv4_3_norm_mbox_conf_flat"
  type: "Flatten"
  bottom: "conv4_3_norm_mbox_conf_perm"
  top: "conv4_3_norm_mbox_conf_flat"
  flatten_param {
    axis: 1
  }
}
layer {
  name: "conv4_3_norm_mbox_priorbox"
  type: "PriorBox"
  bottom: "conv4_3_norm"
  bottom: "data"
  top: "conv4_3_norm_mbox_priorbox"
  prior_box_param {
    min_size: 30
    max_size: 60
    aspect_ratio: 2
    flip: true
    clip: false
    variance: 0.1
    variance: 0.1
    variance: 0.2
    variance: 0.2
    step: 8
    offset: 0.5
  }
}
layer {
  name: "fc7_mbox_loc"
  type: "Convolution"
  bottom: "fc7"
  top: "fc7_mbox_loc"
  param {
    lr_mult: 1
    decay_mult: 1
  }
  param {
    lr_mult: 2
    decay_mult: 0
  }
  convolution_param {
    num_output: 24
    pad: 1
    kernel_size: 3
    stride: 1
    weight_filler {
      type: "xavier"
    }
    bias_filler {
      type: "constant"
      value: 0
    }
  }
}
layer {
  name: "fc7_mbox_loc_perm"
  type: "Permute"
  bottom: "fc7_mbox_loc"
  top: "fc7_mbox_loc_perm"
  permute_param {
    order: 0
    order: 2
    order: 3
    order: 1
  }
}
layer {
  name: "fc7_mbox_loc_flat"
  type: "Flatten"
  bottom: "fc7_mbox_loc_perm"
  top: "fc7_mbox_loc_flat"
  flatten_param {
    axis: 1
  }
}
layer {
  name: "fc7_mbox_conf"
  type: "Convolution"
  bottom: "fc7"
  top: "fc7_mbox_conf"
  param {
    lr_mult: 1
    decay_mult: 1
  }
  param {
    lr_mult: 2
    decay_mult: 0
  }
  convolution_param {
    num_output: 18
    pad: 1
    kernel_size: 3
    stride: 1
    weight_filler {
      type: "xavier"
    }
    bias_filler {
      type: "constant"
      value: 0
    }
  }
}
layer {
  name: "fc7_mbox_conf_perm"
  type: "Permute"
  bottom: "fc7_mbox_conf"
  top: "fc7_mbox_conf_perm"
  permute_param {
    order: 0
    order: 2
    order: 3
    order: 1
  }
}
layer {
  name: "fc7_mbox_conf_flat"
  type: "Flatten"
  bottom: "fc7_mbox_conf_perm"
  top: "fc7_mbox_conf_flat"
  flatten_param {
    axis: 1
  }
}
layer {
  name: "fc7_mbox_priorbox"
  type: "PriorBox"
  bottom: "fc7"
  bottom: "data"
  top: "fc7_mbox_priorbox"
  prior_box_param {
    min_size: 60
    max_size: 111
    aspect_ratio: 2
    aspect_ratio: 3
    flip: true
    clip: false
    variance: 0.1
    variance: 0.1
    variance: 0.2
    variance: 0.2
    step: 16
    offset: 0.5
  }
}
layer {
  name: "conv6_2_mbox_loc"
  type: "Convolution"
  bottom: "conv6_2"
  top: "conv6_2_mbox_loc"
  param {
    lr_mult: 1
    decay_mult: 1
  }
  param {
    lr_mult: 2
    decay_mult: 0
  }
  convolution_param {
    num_output: 24
    pad: 1
    kernel_size: 3
    stride: 1
    weight_filler {
      type: "xavier"
    }
    bias_filler {
      type: "constant"
      value: 0
    }
  }
}
layer {
  name: "conv6_2_mbox_loc_perm"
  type: "Permute"
  bottom: "conv6_2_mbox_loc"
  top: "conv6_2_mbox_loc_perm"
  permute_param {
    order: 0
    order: 2
    order: 3
    order: 1
  }
}
layer {
  name: "conv6_2_mbox_loc_flat"
  type: "Flatten"
  bottom: "conv6_2_mbox_loc_perm"
  top: "conv6_2_mbox_loc_flat"
  flatten_param {
    axis: 1
  }
}
layer {
  name: "conv6_2_mbox_conf"
  type: "Convolution"
  bottom: "conv6_2"
  top: "conv6_2_mbox_conf"
  param {
    lr_mult: 1
    decay_mult: 1
  }
  param {
    lr_mult: 2
    decay_mult: 0
  }
  convolution_param {
    num_output: 18
    pad: 1
    kernel_size: 3
    stride: 1
    weight_filler {
      type: "xavier"
    }
    bias_filler {
      type: "constant"
      value: 0
    }
  }
}
layer {
  name: "conv6_2_mbox_conf_perm"
  type: "Permute"
  bottom: "conv6_2_mbox_conf"
  top: "conv6_2_mbox_conf_perm"
  permute_param {
    order: 0
    order: 2
    order: 3
    order: 1
  }
}
layer {
  name: "conv6_2_mbox_conf_flat"
  type: "Flatten"
  bottom: "conv6_2_mbox_conf_perm"
  top: "conv6_2_mbox_conf_flat"
  flatten_param {
    axis: 1
  }
}
layer {
  name: "conv6_2_mbox_priorbox"
  type: "PriorBox"
  bottom: "conv6_2"
  bottom: "data"
  top: "conv6_2_mbox_priorbox"
  prior_box_param {
    min_size: 111
    max_size: 162
    aspect_ratio: 2
    aspect_ratio: 3
    flip: true
    clip: false
    variance: 0.1
    variance: 0.1
    variance: 0.2
    variance: 0.2
    step: 32
    offset: 0.5
  }
}
layer {
  name: "conv7_2_mbox_loc"
  type: "Convolution"
  bottom: "conv7_2"
  top: "conv7_2_mbox_loc"
  param {
    lr_mult: 1
    decay_mult: 1
  }
  param {
    lr_mult: 2
    decay_mult: 0
  }
  convolution_param {
    num_output: 24
    pad: 1
    kernel_size: 3
    stride: 1
    weight_filler {
      type: "xavier"
    }
    bias_filler {
      type: "constant"
      value: 0
    }
  }
}
layer {
  name: "conv7_2_mbox_loc_perm"
  type: "Permute"
  bottom: "conv7_2_mbox_loc"
  top: "conv7_2_mbox_loc_perm"
  permute_param {
    order: 0
    order: 2
    order: 3
    order: 1
  }
}
layer {
  name: "conv7_2_mbox_loc_flat"
  type: "Flatten"
  bottom: "conv7_2_mbox_loc_perm"
  top: "conv7_2_mbox_loc_flat"
  flatten_param {
    axis: 1
  }
}
layer {
  name: "conv7_2_mbox_conf"
  type: "Convolution"
  bottom: "conv7_2"
  top: "conv7_2_mbox_conf"
  param {
    lr_mult: 1
    decay_mult: 1
  }
  param {
    lr_mult: 2
    decay_mult: 0
  }
  convolution_param {
    num_output: 18
    pad: 1
    kernel_size: 3
    stride: 1
    weight_filler {
      type: "xavier"
    }
    bias_filler {
      type: "constant"
      value: 0
    }
  }
}
layer {
  name: "conv7_2_mbox_conf_perm"
  type: "Permute"
  bottom: "conv7_2_mbox_conf"
  top: "conv7_2_mbox_conf_perm"
  permute_param {
    order: 0
    order: 2
    order: 3
    order: 1
  }
}
layer {
  name: "conv7_2_mbox_conf_flat"
  type: "Flatten"
  bottom: "conv7_2_mbox_conf_perm"
  top: "conv7_2_mbox_conf_flat"
  flatten_param {
    axis: 1
  }
}
layer {
  name: "conv7_2_mbox_priorbox"
  type: "PriorBox"
  bottom: "conv7_2"
  bottom: "data"
  top: "conv7_2_mbox_priorbox"
  prior_box_param {
    min_size: 162
    max_size: 213
    aspect_ratio: 2
    aspect_ratio: 3
    flip: true
    clip: false
    variance: 0.1
    variance: 0.1
    variance: 0.2
    variance: 0.2
    step: 64
    offset: 0.5
  }
}
layer {
  name: "conv8_2_mbox_loc"
  type: "Convolution"
  bottom: "conv8_2"
  top: "conv8_2_mbox_loc"
  param {
    lr_mult: 1
    decay_mult: 1
  }
  param {
    lr_mult: 2
    decay_mult: 0
  }
  convolution_param {
    num_output: 16
    pad: 1
    kernel_size: 3
    stride: 1
    weight_filler {
      type: "xavier"
    }
    bias_filler {
      type: "constant"
      value: 0
    }
  }
}
layer {
  name: "conv8_2_mbox_loc_perm"
  type: "Permute"
  bottom: "conv8_2_mbox_loc"
  top: "conv8_2_mbox_loc_perm"
  permute_param {
    order: 0
    order: 2
    order: 3
    order: 1
  }
}
layer {
  name: "conv8_2_mbox_loc_flat"
  type: "Flatten"
  bottom: "conv8_2_mbox_loc_perm"
  top: "conv8_2_mbox_loc_flat"
  flatten_param {
    axis: 1
  }
}
layer {
  name: "conv8_2_mbox_conf"
  type: "Convolution"
  bottom: "conv8_2"
  top: "conv8_2_mbox_conf"
  param {
    lr_mult: 1
    decay_mult: 1
  }
  param {
    lr_mult: 2
    decay_mult: 0
  }
  convolution_param {
    num_output: 12
    pad: 1
    kernel_size: 3
    stride: 1
    weight_filler {
      type: "xavier"
    }
    bias_filler {
      type: "constant"
      value: 0
    }
  }
}
layer {
  name: "conv8_2_mbox_conf_perm"
  type: "Permute"
  bottom: "conv8_2_mbox_conf"
  top: "conv8_2_mbox_conf_perm"
  permute_param {
    order: 0
    order: 2
    order: 3
    order: 1
  }
}
layer {
  name: "conv8_2_mbox_conf_flat"
  type: "Flatten"
  bottom: "conv8_2_mbox_conf_perm"
  top: "conv8_2_mbox_conf_flat"
  flatten_param {
    axis: 1
  }
}
layer {
  name: "conv8_2_mbox_priorbox"
  type: "PriorBox"
  bottom: "conv8_2"
  bottom: "data"
  top: "conv8_2_mbox_priorbox"
  prior_box_param {
    min_size: 213
    max_size: 264
    aspect_ratio: 2
    flip: true
    clip: false
    variance: 0.1
    variance: 0.1
    variance: 0.2
    variance: 0.2
    step: 100
    offset: 0.5
  }
}
layer {
  name: "conv9_2_mbox_loc"
  type: "Convolution"
  bottom: "conv9_2"
  top: "conv9_2_mbox_loc"
  param {
    lr_mult: 1
    decay_mult: 1
  }
  param {
    lr_mult: 2
    decay_mult: 0
  }
  convolution_param {
    num_output: 16
    pad: 1
    kernel_size: 3
    stride: 1
    weight_filler {
      type: "xavier"
    }
    bias_filler {
      type: "constant"
      value: 0
    }
  }
}
layer {
  name: "conv9_2_mbox_loc_perm"
  type: "Permute"
  bottom: "conv9_2_mbox_loc"
  top: "conv9_2_mbox_loc_perm"
  permute_param {
    order: 0
    order: 2
    order: 3
    order: 1
  }
}
layer {
  name: "conv9_2_mbox_loc_flat"
  type: "Flatten"
  bottom: "conv9_2_mbox_loc_perm"
  top: "conv9_2_mbox_loc_flat"
  flatten_param {
    axis: 1
  }
}
layer {
  name: "conv9_2_mbox_conf"
  type: "Convolution"
  bottom: "conv9_2"
  top: "conv9_2_mbox_conf"
  param {
    lr_mult: 1
    decay_mult: 1
  }
  param {
    lr_mult: 2
    decay_mult: 0
  }
  convolution_param {
    num_output: 12
    pad: 1
    kernel_size: 3
    stride: 1
    weight_filler {
      type: "xavier"
    }
    bias_filler {
      type: "constant"
      value: 0
    }
  }
}
layer {
  name: "conv9_2_mbox_conf_perm"
  type: "Permute"
  bottom: "conv9_2_mbox_conf"
  top: "conv9_2_mbox_conf_perm"
  permute_param {
    order: 0
    order: 2
    order: 3
    order: 1
  }
}
layer {
  name: "conv9_2_mbox_conf_flat"
  type: "Flatten"
  bottom: "conv9_2_mbox_conf_perm"
  top: "conv9_2_mbox_conf_flat"
  flatten_param {
    axis: 1
  }
}
layer {
  name: "conv9_2_mbox_priorbox"
  type: "PriorBox"
  bottom: "conv9_2"
  bottom: "data"
  top: "conv9_2_mbox_priorbox"
  prior_box_param {
    min_size: 264
    max_size: 315
    aspect_ratio: 2
    flip: true
    clip: false
    variance: 0.1
    variance: 0.1
    variance: 0.2
    variance: 0.2
    step: 300
    offset: 0.5
  }
}
layer {
  name: "mbox_loc"
  type: "Concat"
  bottom: "conv4_3_norm_mbox_loc_flat"
  bottom: "fc7_mbox_loc_flat"
  bottom: "conv6_2_mbox_loc_flat"
  bottom: "conv7_2_mbox_loc_flat"
  bottom: "conv8_2_mbox_loc_flat"
  bottom: "conv9_2_mbox_loc_flat"
  top: "mbox_loc"
  concat_param {
    axis: 1
  }
}
layer {
  name: "mbox_conf"
  type: "Concat"
  bottom: "conv4_3_norm_mbox_conf_flat"
  bottom: "fc7_mbox_conf_flat"
  bottom: "conv6_2_mbox_conf_flat"
  bottom: "conv7_2_mbox_conf_flat"
  bottom: "conv8_2_mbox_conf_flat"
  bottom: "conv9_2_mbox_conf_flat"
  top: "mbox_conf"
  concat_param {
    axis: 1
  }
}
layer {
  name: "mbox_priorbox"
  type: "Concat"
  bottom: "conv4_3_norm_mbox_priorbox"
  bottom: "fc7_mbox_priorbox"
  bottom: "conv6_2_mbox_priorbox"
  bottom: "conv7_2_mbox_priorbox"
  bottom: "conv8_2_mbox_priorbox"
  bottom: "conv9_2_mbox_priorbox"
  top: "mbox_priorbox"
  concat_param {
    axis: 2
  }
}
layer {
  name: "mbox_conf_reshape"
  type: "Reshape"
  bottom: "mbox_conf"
  top: "mbox_conf_reshape"
  reshape_param {
    shape {
      dim: 0
      dim: -1
      dim: 3
    }
  }
}
layer {
  name: "mbox_conf_softmax"
  type: "Softmax"
  bottom: "mbox_conf_reshape"
  top: "mbox_conf_softmax"
  softmax_param {
    axis: 2
  }
}
layer {
  name: "mbox_conf_flatten"
  type: "Flatten"
  bottom: "mbox_conf_softmax"
  top: "mbox_conf_flatten"
  flatten_param {
    axis: 1
  }
}
layer {
  name: "detection_out"
  type: "DetectionOutput"
  bottom: "mbox_loc"
  bottom: "mbox_conf_flatten"
  bottom: "mbox_priorbox"
  top: "detection_out"
  include {
    phase: TEST
  }
  detection_output_param {
    num_classes: 3
    share_location: true
    background_label_id: 0
    nms_param {
      nms_threshold: 0.45
      top_k: 400
    }
    save_output_param {
      output_directory: "/home/rjperias/data/VOCdevkit/results/VOC2007/SSD_300x300/Main"
      output_name_prefix: "comp4_det_test_"
      output_format: "VOC"
      label_map_file: "data/MELON/labelmap_melon.prototxt"
      name_size_file: "data/MELON/test_name_size.txt"
      num_test_image: 80
    }
    code_type: CENTER_SIZE
    keep_top_k: 200
    confidence_threshold: 0.01
  }
}
layer {
  name: "detection_eval"
  type: "DetectionEvaluate"
  bottom: "detection_out"
  bottom: "label"
  top: "detection_eval"
  include {
    phase: TEST
  }
  detection_evaluate_param {
    num_classes: 3
    background_label_id: 0
    overlap_threshold: 0.5
    evaluate_difficult_gt: false
    name_size_file: "data/MELON/test_name_size.txt"
  }
}
I1001 13:33:04.400902  3017 layer_factory.hpp:77] Creating layer data
I1001 13:33:04.401044  3017 net.cpp:100] Creating Layer data
I1001 13:33:04.401051  3017 net.cpp:408] data -> data
I1001 13:33:04.401060  3017 net.cpp:408] data -> label
I1001 13:33:04.408887  3032 db_lmdb.cpp:35] Opened lmdb examples/MELON/MELON_test_lmdb
I1001 13:33:04.410034  3017 annotated_data_layer.cpp:62] output data size: 4,3,300,300
I1001 13:33:04.434885  3017 net.cpp:150] Setting up data
I1001 13:33:04.434911  3017 net.cpp:157] Top shape: 4 3 300 300 (1080000)
I1001 13:33:04.434913  3017 net.cpp:157] Top shape: 1 1 1 8 (8)
I1001 13:33:04.434916  3017 net.cpp:165] Memory required for data: 4320032
I1001 13:33:04.434921  3017 layer_factory.hpp:77] Creating layer data_data_0_split
I1001 13:33:04.434931  3017 net.cpp:100] Creating Layer data_data_0_split
I1001 13:33:04.434934  3017 net.cpp:434] data_data_0_split <- data
I1001 13:33:04.434940  3017 net.cpp:408] data_data_0_split -> data_data_0_split_0
I1001 13:33:04.434947  3017 net.cpp:408] data_data_0_split -> data_data_0_split_1
I1001 13:33:04.434952  3017 net.cpp:408] data_data_0_split -> data_data_0_split_2
I1001 13:33:04.434955  3017 net.cpp:408] data_data_0_split -> data_data_0_split_3
I1001 13:33:04.434959  3017 net.cpp:408] data_data_0_split -> data_data_0_split_4
I1001 13:33:04.434963  3017 net.cpp:408] data_data_0_split -> data_data_0_split_5
I1001 13:33:04.434967  3017 net.cpp:408] data_data_0_split -> data_data_0_split_6
I1001 13:33:04.435052  3017 net.cpp:150] Setting up data_data_0_split
I1001 13:33:04.435058  3017 net.cpp:157] Top shape: 4 3 300 300 (1080000)
I1001 13:33:04.435061  3017 net.cpp:157] Top shape: 4 3 300 300 (1080000)
I1001 13:33:04.435063  3017 net.cpp:157] Top shape: 4 3 300 300 (1080000)
I1001 13:33:04.435066  3017 net.cpp:157] Top shape: 4 3 300 300 (1080000)
I1001 13:33:04.435070  3017 net.cpp:157] Top shape: 4 3 300 300 (1080000)
I1001 13:33:04.435073  3017 net.cpp:157] Top shape: 4 3 300 300 (1080000)
I1001 13:33:04.435075  3017 net.cpp:157] Top shape: 4 3 300 300 (1080000)
I1001 13:33:04.435077  3017 net.cpp:165] Memory required for data: 34560032
I1001 13:33:04.435096  3017 layer_factory.hpp:77] Creating layer conv1_1
I1001 13:33:04.435103  3017 net.cpp:100] Creating Layer conv1_1
I1001 13:33:04.435106  3017 net.cpp:434] conv1_1 <- data_data_0_split_0
I1001 13:33:04.435111  3017 net.cpp:408] conv1_1 -> conv1_1
I1001 13:33:04.435346  3017 net.cpp:150] Setting up conv1_1
I1001 13:33:04.435353  3017 net.cpp:157] Top shape: 4 64 300 300 (23040000)
I1001 13:33:04.435354  3017 net.cpp:165] Memory required for data: 126720032
I1001 13:33:04.435360  3017 layer_factory.hpp:77] Creating layer relu1_1
I1001 13:33:04.435365  3017 net.cpp:100] Creating Layer relu1_1
I1001 13:33:04.435369  3017 net.cpp:434] relu1_1 <- conv1_1
I1001 13:33:04.435371  3017 net.cpp:395] relu1_1 -> conv1_1 (in-place)
I1001 13:33:04.435374  3017 net.cpp:150] Setting up relu1_1
I1001 13:33:04.435379  3017 net.cpp:157] Top shape: 4 64 300 300 (23040000)
I1001 13:33:04.435379  3017 net.cpp:165] Memory required for data: 218880032
I1001 13:33:04.435381  3017 layer_factory.hpp:77] Creating layer conv1_2
I1001 13:33:04.435386  3017 net.cpp:100] Creating Layer conv1_2
I1001 13:33:04.435389  3017 net.cpp:434] conv1_2 <- conv1_1
I1001 13:33:04.435392  3017 net.cpp:408] conv1_2 -> conv1_2
I1001 13:33:04.436517  3017 net.cpp:150] Setting up conv1_2
I1001 13:33:04.436532  3017 net.cpp:157] Top shape: 4 64 300 300 (23040000)
I1001 13:33:04.436535  3017 net.cpp:165] Memory required for data: 311040032
I1001 13:33:04.436542  3017 layer_factory.hpp:77] Creating layer relu1_2
I1001 13:33:04.436548  3017 net.cpp:100] Creating Layer relu1_2
I1001 13:33:04.436553  3017 net.cpp:434] relu1_2 <- conv1_2
I1001 13:33:04.436555  3017 net.cpp:395] relu1_2 -> conv1_2 (in-place)
I1001 13:33:04.436561  3017 net.cpp:150] Setting up relu1_2
I1001 13:33:04.436565  3017 net.cpp:157] Top shape: 4 64 300 300 (23040000)
I1001 13:33:04.436568  3017 net.cpp:165] Memory required for data: 403200032
I1001 13:33:04.436569  3017 layer_factory.hpp:77] Creating layer pool1
I1001 13:33:04.436573  3017 net.cpp:100] Creating Layer pool1
I1001 13:33:04.436575  3017 net.cpp:434] pool1 <- conv1_2
I1001 13:33:04.436578  3017 net.cpp:408] pool1 -> pool1
I1001 13:33:04.436605  3017 net.cpp:150] Setting up pool1
I1001 13:33:04.436609  3017 net.cpp:157] Top shape: 4 64 150 150 (5760000)
I1001 13:33:04.436611  3017 net.cpp:165] Memory required for data: 426240032
I1001 13:33:04.436614  3017 layer_factory.hpp:77] Creating layer conv2_1
I1001 13:33:04.436619  3017 net.cpp:100] Creating Layer conv2_1
I1001 13:33:04.436622  3017 net.cpp:434] conv2_1 <- pool1
I1001 13:33:04.436626  3017 net.cpp:408] conv2_1 -> conv2_1
I1001 13:33:04.437072  3017 net.cpp:150] Setting up conv2_1
I1001 13:33:04.437077  3017 net.cpp:157] Top shape: 4 128 150 150 (11520000)
I1001 13:33:04.437079  3017 net.cpp:165] Memory required for data: 472320032
I1001 13:33:04.437084  3017 layer_factory.hpp:77] Creating layer relu2_1
I1001 13:33:04.437088  3017 net.cpp:100] Creating Layer relu2_1
I1001 13:33:04.437093  3017 net.cpp:434] relu2_1 <- conv2_1
I1001 13:33:04.437094  3017 net.cpp:395] relu2_1 -> conv2_1 (in-place)
I1001 13:33:04.437098  3017 net.cpp:150] Setting up relu2_1
I1001 13:33:04.437103  3017 net.cpp:157] Top shape: 4 128 150 150 (11520000)
I1001 13:33:04.437103  3017 net.cpp:165] Memory required for data: 518400032
I1001 13:33:04.437105  3017 layer_factory.hpp:77] Creating layer conv2_2
I1001 13:33:04.437110  3017 net.cpp:100] Creating Layer conv2_2
I1001 13:33:04.437114  3017 net.cpp:434] conv2_2 <- conv2_1
I1001 13:33:04.437116  3017 net.cpp:408] conv2_2 -> conv2_2
I1001 13:33:04.438621  3017 net.cpp:150] Setting up conv2_2
I1001 13:33:04.438634  3017 net.cpp:157] Top shape: 4 128 150 150 (11520000)
I1001 13:33:04.438637  3017 net.cpp:165] Memory required for data: 564480032
I1001 13:33:04.438642  3017 layer_factory.hpp:77] Creating layer relu2_2
I1001 13:33:04.438647  3017 net.cpp:100] Creating Layer relu2_2
I1001 13:33:04.438650  3017 net.cpp:434] relu2_2 <- conv2_2
I1001 13:33:04.438653  3017 net.cpp:395] relu2_2 -> conv2_2 (in-place)
I1001 13:33:04.438673  3017 net.cpp:150] Setting up relu2_2
I1001 13:33:04.438675  3017 net.cpp:157] Top shape: 4 128 150 150 (11520000)
I1001 13:33:04.438678  3017 net.cpp:165] Memory required for data: 610560032
I1001 13:33:04.438679  3017 layer_factory.hpp:77] Creating layer pool2
I1001 13:33:04.438683  3017 net.cpp:100] Creating Layer pool2
I1001 13:33:04.438685  3017 net.cpp:434] pool2 <- conv2_2
I1001 13:33:04.438688  3017 net.cpp:408] pool2 -> pool2
I1001 13:33:04.438714  3017 net.cpp:150] Setting up pool2
I1001 13:33:04.438716  3017 net.cpp:157] Top shape: 4 128 75 75 (2880000)
I1001 13:33:04.438719  3017 net.cpp:165] Memory required for data: 622080032
I1001 13:33:04.438720  3017 layer_factory.hpp:77] Creating layer conv3_1
I1001 13:33:04.438727  3017 net.cpp:100] Creating Layer conv3_1
I1001 13:33:04.438730  3017 net.cpp:434] conv3_1 <- pool2
I1001 13:33:04.438732  3017 net.cpp:408] conv3_1 -> conv3_1
I1001 13:33:04.439998  3017 net.cpp:150] Setting up conv3_1
I1001 13:33:04.440007  3017 net.cpp:157] Top shape: 4 256 75 75 (5760000)
I1001 13:33:04.440009  3017 net.cpp:165] Memory required for data: 645120032
I1001 13:33:04.440017  3017 layer_factory.hpp:77] Creating layer relu3_1
I1001 13:33:04.440021  3017 net.cpp:100] Creating Layer relu3_1
I1001 13:33:04.440024  3017 net.cpp:434] relu3_1 <- conv3_1
I1001 13:33:04.440027  3017 net.cpp:395] relu3_1 -> conv3_1 (in-place)
I1001 13:33:04.440030  3017 net.cpp:150] Setting up relu3_1
I1001 13:33:04.440033  3017 net.cpp:157] Top shape: 4 256 75 75 (5760000)
I1001 13:33:04.440035  3017 net.cpp:165] Memory required for data: 668160032
I1001 13:33:04.440037  3017 layer_factory.hpp:77] Creating layer conv3_2
I1001 13:33:04.440042  3017 net.cpp:100] Creating Layer conv3_2
I1001 13:33:04.440043  3017 net.cpp:434] conv3_2 <- conv3_1
I1001 13:33:04.440047  3017 net.cpp:408] conv3_2 -> conv3_2
I1001 13:33:04.443397  3017 net.cpp:150] Setting up conv3_2
I1001 13:33:04.443418  3017 net.cpp:157] Top shape: 4 256 75 75 (5760000)
I1001 13:33:04.443421  3017 net.cpp:165] Memory required for data: 691200032
I1001 13:33:04.443428  3017 layer_factory.hpp:77] Creating layer relu3_2
I1001 13:33:04.443434  3017 net.cpp:100] Creating Layer relu3_2
I1001 13:33:04.443439  3017 net.cpp:434] relu3_2 <- conv3_2
I1001 13:33:04.443442  3017 net.cpp:395] relu3_2 -> conv3_2 (in-place)
I1001 13:33:04.443449  3017 net.cpp:150] Setting up relu3_2
I1001 13:33:04.443452  3017 net.cpp:157] Top shape: 4 256 75 75 (5760000)
I1001 13:33:04.443454  3017 net.cpp:165] Memory required for data: 714240032
I1001 13:33:04.443456  3017 layer_factory.hpp:77] Creating layer conv3_3
I1001 13:33:04.443464  3017 net.cpp:100] Creating Layer conv3_3
I1001 13:33:04.443466  3017 net.cpp:434] conv3_3 <- conv3_2
I1001 13:33:04.443470  3017 net.cpp:408] conv3_3 -> conv3_3
I1001 13:33:04.453483  3017 net.cpp:150] Setting up conv3_3
I1001 13:33:04.453508  3017 net.cpp:157] Top shape: 4 256 75 75 (5760000)
I1001 13:33:04.453510  3017 net.cpp:165] Memory required for data: 737280032
I1001 13:33:04.453518  3017 layer_factory.hpp:77] Creating layer relu3_3
I1001 13:33:04.453526  3017 net.cpp:100] Creating Layer relu3_3
I1001 13:33:04.453531  3017 net.cpp:434] relu3_3 <- conv3_3
I1001 13:33:04.453536  3017 net.cpp:395] relu3_3 -> conv3_3 (in-place)
I1001 13:33:04.453542  3017 net.cpp:150] Setting up relu3_3
I1001 13:33:04.453546  3017 net.cpp:157] Top shape: 4 256 75 75 (5760000)
I1001 13:33:04.453547  3017 net.cpp:165] Memory required for data: 760320032
I1001 13:33:04.453548  3017 layer_factory.hpp:77] Creating layer pool3
I1001 13:33:04.453553  3017 net.cpp:100] Creating Layer pool3
I1001 13:33:04.453555  3017 net.cpp:434] pool3 <- conv3_3
I1001 13:33:04.453559  3017 net.cpp:408] pool3 -> pool3
I1001 13:33:04.453588  3017 net.cpp:150] Setting up pool3
I1001 13:33:04.453590  3017 net.cpp:157] Top shape: 4 256 38 38 (1478656)
I1001 13:33:04.453593  3017 net.cpp:165] Memory required for data: 766234656
I1001 13:33:04.453594  3017 layer_factory.hpp:77] Creating layer conv4_1
I1001 13:33:04.453603  3017 net.cpp:100] Creating Layer conv4_1
I1001 13:33:04.453630  3017 net.cpp:434] conv4_1 <- pool3
I1001 13:33:04.453634  3017 net.cpp:408] conv4_1 -> conv4_1
I1001 13:33:04.464081  3017 net.cpp:150] Setting up conv4_1
I1001 13:33:04.464104  3017 net.cpp:157] Top shape: 4 512 38 38 (2957312)
I1001 13:33:04.464107  3017 net.cpp:165] Memory required for data: 778063904
I1001 13:33:04.464114  3017 layer_factory.hpp:77] Creating layer relu4_1
I1001 13:33:04.464121  3017 net.cpp:100] Creating Layer relu4_1
I1001 13:33:04.464125  3017 net.cpp:434] relu4_1 <- conv4_1
I1001 13:33:04.464129  3017 net.cpp:395] relu4_1 -> conv4_1 (in-place)
I1001 13:33:04.464138  3017 net.cpp:150] Setting up relu4_1
I1001 13:33:04.464141  3017 net.cpp:157] Top shape: 4 512 38 38 (2957312)
I1001 13:33:04.464143  3017 net.cpp:165] Memory required for data: 789893152
I1001 13:33:04.464145  3017 layer_factory.hpp:77] Creating layer conv4_2
I1001 13:33:04.464151  3017 net.cpp:100] Creating Layer conv4_2
I1001 13:33:04.464154  3017 net.cpp:434] conv4_2 <- conv4_1
I1001 13:33:04.464159  3017 net.cpp:408] conv4_2 -> conv4_2
I1001 13:33:04.482146  3017 net.cpp:150] Setting up conv4_2
I1001 13:33:04.482172  3017 net.cpp:157] Top shape: 4 512 38 38 (2957312)
I1001 13:33:04.482173  3017 net.cpp:165] Memory required for data: 801722400
I1001 13:33:04.482185  3017 layer_factory.hpp:77] Creating layer relu4_2
I1001 13:33:04.482193  3017 net.cpp:100] Creating Layer relu4_2
I1001 13:33:04.482197  3017 net.cpp:434] relu4_2 <- conv4_2
I1001 13:33:04.482203  3017 net.cpp:395] relu4_2 -> conv4_2 (in-place)
I1001 13:33:04.482209  3017 net.cpp:150] Setting up relu4_2
I1001 13:33:04.482213  3017 net.cpp:157] Top shape: 4 512 38 38 (2957312)
I1001 13:33:04.482214  3017 net.cpp:165] Memory required for data: 813551648
I1001 13:33:04.482218  3017 layer_factory.hpp:77] Creating layer conv4_3
I1001 13:33:04.482225  3017 net.cpp:100] Creating Layer conv4_3
I1001 13:33:04.482228  3017 net.cpp:434] conv4_3 <- conv4_2
I1001 13:33:04.482231  3017 net.cpp:408] conv4_3 -> conv4_3
I1001 13:33:04.507447  3017 net.cpp:150] Setting up conv4_3
I1001 13:33:04.507472  3017 net.cpp:157] Top shape: 4 512 38 38 (2957312)
I1001 13:33:04.507473  3017 net.cpp:165] Memory required for data: 825380896
I1001 13:33:04.507480  3017 layer_factory.hpp:77] Creating layer relu4_3
I1001 13:33:04.507488  3017 net.cpp:100] Creating Layer relu4_3
I1001 13:33:04.507491  3017 net.cpp:434] relu4_3 <- conv4_3
I1001 13:33:04.507495  3017 net.cpp:395] relu4_3 -> conv4_3 (in-place)
I1001 13:33:04.507503  3017 net.cpp:150] Setting up relu4_3
I1001 13:33:04.507505  3017 net.cpp:157] Top shape: 4 512 38 38 (2957312)
I1001 13:33:04.507508  3017 net.cpp:165] Memory required for data: 837210144
I1001 13:33:04.507509  3017 layer_factory.hpp:77] Creating layer conv4_3_relu4_3_0_split
I1001 13:33:04.507513  3017 net.cpp:100] Creating Layer conv4_3_relu4_3_0_split
I1001 13:33:04.507516  3017 net.cpp:434] conv4_3_relu4_3_0_split <- conv4_3
I1001 13:33:04.507520  3017 net.cpp:408] conv4_3_relu4_3_0_split -> conv4_3_relu4_3_0_split_0
I1001 13:33:04.507524  3017 net.cpp:408] conv4_3_relu4_3_0_split -> conv4_3_relu4_3_0_split_1
I1001 13:33:04.507550  3017 net.cpp:150] Setting up conv4_3_relu4_3_0_split
I1001 13:33:04.507555  3017 net.cpp:157] Top shape: 4 512 38 38 (2957312)
I1001 13:33:04.507557  3017 net.cpp:157] Top shape: 4 512 38 38 (2957312)
I1001 13:33:04.507558  3017 net.cpp:165] Memory required for data: 860868640
I1001 13:33:04.507561  3017 layer_factory.hpp:77] Creating layer pool4
I1001 13:33:04.507565  3017 net.cpp:100] Creating Layer pool4
I1001 13:33:04.507568  3017 net.cpp:434] pool4 <- conv4_3_relu4_3_0_split_0
I1001 13:33:04.507572  3017 net.cpp:408] pool4 -> pool4
I1001 13:33:04.507596  3017 net.cpp:150] Setting up pool4
I1001 13:33:04.507599  3017 net.cpp:157] Top shape: 4 512 19 19 (739328)
I1001 13:33:04.507601  3017 net.cpp:165] Memory required for data: 863825952
I1001 13:33:04.507603  3017 layer_factory.hpp:77] Creating layer conv5_1
I1001 13:33:04.507611  3017 net.cpp:100] Creating Layer conv5_1
I1001 13:33:04.507613  3017 net.cpp:434] conv5_1 <- pool4
I1001 13:33:04.518348  3017 net.cpp:408] conv5_1 -> conv5_1
I1001 13:33:04.529767  3017 net.cpp:150] Setting up conv5_1
I1001 13:33:04.529788  3017 net.cpp:157] Top shape: 4 512 19 19 (739328)
I1001 13:33:04.529790  3017 net.cpp:165] Memory required for data: 866783264
I1001 13:33:04.529798  3017 layer_factory.hpp:77] Creating layer relu5_1
I1001 13:33:04.529804  3017 net.cpp:100] Creating Layer relu5_1
I1001 13:33:04.529808  3017 net.cpp:434] relu5_1 <- conv5_1
I1001 13:33:04.529814  3017 net.cpp:395] relu5_1 -> conv5_1 (in-place)
I1001 13:33:04.529819  3017 net.cpp:150] Setting up relu5_1
I1001 13:33:04.529824  3017 net.cpp:157] Top shape: 4 512 19 19 (739328)
I1001 13:33:04.529825  3017 net.cpp:165] Memory required for data: 869740576
I1001 13:33:04.529827  3017 layer_factory.hpp:77] Creating layer conv5_2
I1001 13:33:04.529834  3017 net.cpp:100] Creating Layer conv5_2
I1001 13:33:04.529836  3017 net.cpp:434] conv5_2 <- conv5_1
I1001 13:33:04.529839  3017 net.cpp:408] conv5_2 -> conv5_2
I1001 13:33:04.553439  3017 net.cpp:150] Setting up conv5_2
I1001 13:33:04.553464  3017 net.cpp:157] Top shape: 4 512 19 19 (739328)
I1001 13:33:04.553467  3017 net.cpp:165] Memory required for data: 872697888
I1001 13:33:04.553474  3017 layer_factory.hpp:77] Creating layer relu5_2
I1001 13:33:04.553483  3017 net.cpp:100] Creating Layer relu5_2
I1001 13:33:04.553485  3017 net.cpp:434] relu5_2 <- conv5_2
I1001 13:33:04.553490  3017 net.cpp:395] relu5_2 -> conv5_2 (in-place)
I1001 13:33:04.553498  3017 net.cpp:150] Setting up relu5_2
I1001 13:33:04.553501  3017 net.cpp:157] Top shape: 4 512 19 19 (739328)
I1001 13:33:04.553503  3017 net.cpp:165] Memory required for data: 875655200
I1001 13:33:04.553505  3017 layer_factory.hpp:77] Creating layer conv5_3
I1001 13:33:04.553512  3017 net.cpp:100] Creating Layer conv5_3
I1001 13:33:04.553515  3017 net.cpp:434] conv5_3 <- conv5_2
I1001 13:33:04.553519  3017 net.cpp:408] conv5_3 -> conv5_3
I1001 13:33:04.576864  3017 net.cpp:150] Setting up conv5_3
I1001 13:33:04.576886  3017 net.cpp:157] Top shape: 4 512 19 19 (739328)
I1001 13:33:04.576889  3017 net.cpp:165] Memory required for data: 878612512
I1001 13:33:04.576896  3017 layer_factory.hpp:77] Creating layer relu5_3
I1001 13:33:04.576906  3017 net.cpp:100] Creating Layer relu5_3
I1001 13:33:04.576910  3017 net.cpp:434] relu5_3 <- conv5_3
I1001 13:33:04.576915  3017 net.cpp:395] relu5_3 -> conv5_3 (in-place)
I1001 13:33:04.576921  3017 net.cpp:150] Setting up relu5_3
I1001 13:33:04.576925  3017 net.cpp:157] Top shape: 4 512 19 19 (739328)
I1001 13:33:04.576925  3017 net.cpp:165] Memory required for data: 881569824
I1001 13:33:04.576927  3017 layer_factory.hpp:77] Creating layer pool5
I1001 13:33:04.576932  3017 net.cpp:100] Creating Layer pool5
I1001 13:33:04.576934  3017 net.cpp:434] pool5 <- conv5_3
I1001 13:33:04.576936  3017 net.cpp:408] pool5 -> pool5
I1001 13:33:04.576967  3017 net.cpp:150] Setting up pool5
I1001 13:33:04.576972  3017 net.cpp:157] Top shape: 4 512 19 19 (739328)
I1001 13:33:04.576973  3017 net.cpp:165] Memory required for data: 884527136
I1001 13:33:04.576975  3017 layer_factory.hpp:77] Creating layer fc6
I1001 13:33:04.576982  3017 net.cpp:100] Creating Layer fc6
I1001 13:33:04.576984  3017 net.cpp:434] fc6 <- pool5
I1001 13:33:04.576988  3017 net.cpp:408] fc6 -> fc6
I1001 13:33:04.620890  3017 net.cpp:150] Setting up fc6
I1001 13:33:04.620918  3017 net.cpp:157] Top shape: 4 1024 19 19 (1478656)
I1001 13:33:04.620920  3017 net.cpp:165] Memory required for data: 890441760
I1001 13:33:04.620929  3017 layer_factory.hpp:77] Creating layer relu6
I1001 13:33:04.620937  3017 net.cpp:100] Creating Layer relu6
I1001 13:33:04.620941  3017 net.cpp:434] relu6 <- fc6
I1001 13:33:04.620946  3017 net.cpp:395] relu6 -> fc6 (in-place)
I1001 13:33:04.620954  3017 net.cpp:150] Setting up relu6
I1001 13:33:04.620957  3017 net.cpp:157] Top shape: 4 1024 19 19 (1478656)
I1001 13:33:04.620959  3017 net.cpp:165] Memory required for data: 896356384
I1001 13:33:04.620961  3017 layer_factory.hpp:77] Creating layer fc7
I1001 13:33:04.626353  3017 net.cpp:100] Creating Layer fc7
I1001 13:33:04.626364  3017 net.cpp:434] fc7 <- fc6
I1001 13:33:04.626380  3017 net.cpp:408] fc7 -> fc7
I1001 13:33:04.640900  3017 net.cpp:150] Setting up fc7
I1001 13:33:04.640944  3017 net.cpp:157] Top shape: 4 1024 19 19 (1478656)
I1001 13:33:04.640954  3017 net.cpp:165] Memory required for data: 902271008
I1001 13:33:04.640965  3017 layer_factory.hpp:77] Creating layer relu7
I1001 13:33:04.640978  3017 net.cpp:100] Creating Layer relu7
I1001 13:33:04.640987  3017 net.cpp:434] relu7 <- fc7
I1001 13:33:04.640998  3017 net.cpp:395] relu7 -> fc7 (in-place)
I1001 13:33:04.641010  3017 net.cpp:150] Setting up relu7
I1001 13:33:04.641018  3017 net.cpp:157] Top shape: 4 1024 19 19 (1478656)
I1001 13:33:04.641026  3017 net.cpp:165] Memory required for data: 908185632
I1001 13:33:04.641033  3017 layer_factory.hpp:77] Creating layer fc7_relu7_0_split
I1001 13:33:04.641043  3017 net.cpp:100] Creating Layer fc7_relu7_0_split
I1001 13:33:04.641052  3017 net.cpp:434] fc7_relu7_0_split <- fc7
I1001 13:33:04.641062  3017 net.cpp:408] fc7_relu7_0_split -> fc7_relu7_0_split_0
I1001 13:33:04.641073  3017 net.cpp:408] fc7_relu7_0_split -> fc7_relu7_0_split_1
I1001 13:33:04.641086  3017 net.cpp:408] fc7_relu7_0_split -> fc7_relu7_0_split_2
I1001 13:33:04.641098  3017 net.cpp:408] fc7_relu7_0_split -> fc7_relu7_0_split_3
I1001 13:33:04.641160  3017 net.cpp:150] Setting up fc7_relu7_0_split
I1001 13:33:04.641172  3017 net.cpp:157] Top shape: 4 1024 19 19 (1478656)
I1001 13:33:04.641181  3017 net.cpp:157] Top shape: 4 1024 19 19 (1478656)
I1001 13:33:04.641191  3017 net.cpp:157] Top shape: 4 1024 19 19 (1478656)
I1001 13:33:04.641198  3017 net.cpp:157] Top shape: 4 1024 19 19 (1478656)
I1001 13:33:04.641206  3017 net.cpp:165] Memory required for data: 931844128
I1001 13:33:04.641213  3017 layer_factory.hpp:77] Creating layer conv6_1
I1001 13:33:04.641227  3017 net.cpp:100] Creating Layer conv6_1
I1001 13:33:04.641235  3017 net.cpp:434] conv6_1 <- fc7_relu7_0_split_0
I1001 13:33:04.641247  3017 net.cpp:408] conv6_1 -> conv6_1
I1001 13:33:04.643151  3017 net.cpp:150] Setting up conv6_1
I1001 13:33:04.643177  3017 net.cpp:157] Top shape: 4 256 19 19 (369664)
I1001 13:33:04.643185  3017 net.cpp:165] Memory required for data: 933322784
I1001 13:33:04.643196  3017 layer_factory.hpp:77] Creating layer conv6_1_relu
I1001 13:33:04.643206  3017 net.cpp:100] Creating Layer conv6_1_relu
I1001 13:33:04.643215  3017 net.cpp:434] conv6_1_relu <- conv6_1
I1001 13:33:04.643225  3017 net.cpp:395] conv6_1_relu -> conv6_1 (in-place)
I1001 13:33:04.643236  3017 net.cpp:150] Setting up conv6_1_relu
I1001 13:33:04.643245  3017 net.cpp:157] Top shape: 4 256 19 19 (369664)
I1001 13:33:04.643252  3017 net.cpp:165] Memory required for data: 934801440
I1001 13:33:04.643260  3017 layer_factory.hpp:77] Creating layer conv6_2
I1001 13:33:04.643273  3017 net.cpp:100] Creating Layer conv6_2
I1001 13:33:04.643282  3017 net.cpp:434] conv6_2 <- conv6_1
I1001 13:33:04.643292  3017 net.cpp:408] conv6_2 -> conv6_2
I1001 13:33:04.654304  3017 net.cpp:150] Setting up conv6_2
I1001 13:33:04.654371  3017 net.cpp:157] Top shape: 4 512 10 10 (204800)
I1001 13:33:04.654381  3017 net.cpp:165] Memory required for data: 935620640
I1001 13:33:04.654398  3017 layer_factory.hpp:77] Creating layer conv6_2_relu
I1001 13:33:04.654412  3017 net.cpp:100] Creating Layer conv6_2_relu
I1001 13:33:04.654420  3017 net.cpp:434] conv6_2_relu <- conv6_2
I1001 13:33:04.654430  3017 net.cpp:395] conv6_2_relu -> conv6_2 (in-place)
I1001 13:33:04.654444  3017 net.cpp:150] Setting up conv6_2_relu
I1001 13:33:04.654454  3017 net.cpp:157] Top shape: 4 512 10 10 (204800)
I1001 13:33:04.654461  3017 net.cpp:165] Memory required for data: 936439840
I1001 13:33:04.654469  3017 layer_factory.hpp:77] Creating layer conv6_2_conv6_2_relu_0_split
I1001 13:33:04.654479  3017 net.cpp:100] Creating Layer conv6_2_conv6_2_relu_0_split
I1001 13:33:04.654487  3017 net.cpp:434] conv6_2_conv6_2_relu_0_split <- conv6_2
I1001 13:33:04.654507  3017 net.cpp:408] conv6_2_conv6_2_relu_0_split -> conv6_2_conv6_2_relu_0_split_0
I1001 13:33:04.654526  3017 net.cpp:408] conv6_2_conv6_2_relu_0_split -> conv6_2_conv6_2_relu_0_split_1
I1001 13:33:04.654537  3017 net.cpp:408] conv6_2_conv6_2_relu_0_split -> conv6_2_conv6_2_relu_0_split_2
I1001 13:33:04.654548  3017 net.cpp:408] conv6_2_conv6_2_relu_0_split -> conv6_2_conv6_2_relu_0_split_3
I1001 13:33:04.654608  3017 net.cpp:150] Setting up conv6_2_conv6_2_relu_0_split
I1001 13:33:04.654620  3017 net.cpp:157] Top shape: 4 512 10 10 (204800)
I1001 13:33:04.654628  3017 net.cpp:157] Top shape: 4 512 10 10 (204800)
I1001 13:33:04.654637  3017 net.cpp:157] Top shape: 4 512 10 10 (204800)
I1001 13:33:04.654645  3017 net.cpp:157] Top shape: 4 512 10 10 (204800)
I1001 13:33:04.654652  3017 net.cpp:165] Memory required for data: 939716640
I1001 13:33:04.654660  3017 layer_factory.hpp:77] Creating layer conv7_1
I1001 13:33:04.654675  3017 net.cpp:100] Creating Layer conv7_1
I1001 13:33:04.654685  3017 net.cpp:434] conv7_1 <- conv6_2_conv6_2_relu_0_split_0
I1001 13:33:04.654695  3017 net.cpp:408] conv7_1 -> conv7_1
I1001 13:33:04.655133  3017 net.cpp:150] Setting up conv7_1
I1001 13:33:04.655146  3017 net.cpp:157] Top shape: 4 128 10 10 (51200)
I1001 13:33:04.655154  3017 net.cpp:165] Memory required for data: 939921440
I1001 13:33:04.655164  3017 layer_factory.hpp:77] Creating layer conv7_1_relu
I1001 13:33:04.655172  3017 net.cpp:100] Creating Layer conv7_1_relu
I1001 13:33:04.655180  3017 net.cpp:434] conv7_1_relu <- conv7_1
I1001 13:33:04.655189  3017 net.cpp:395] conv7_1_relu -> conv7_1 (in-place)
I1001 13:33:04.655200  3017 net.cpp:150] Setting up conv7_1_relu
I1001 13:33:04.655208  3017 net.cpp:157] Top shape: 4 128 10 10 (51200)
I1001 13:33:04.655215  3017 net.cpp:165] Memory required for data: 940126240
I1001 13:33:04.655223  3017 layer_factory.hpp:77] Creating layer conv7_2
I1001 13:33:04.655234  3017 net.cpp:100] Creating Layer conv7_2
I1001 13:33:04.655243  3017 net.cpp:434] conv7_2 <- conv7_1
I1001 13:33:04.655254  3017 net.cpp:408] conv7_2 -> conv7_2
I1001 13:33:04.657218  3017 net.cpp:150] Setting up conv7_2
I1001 13:33:04.657246  3017 net.cpp:157] Top shape: 4 256 5 5 (25600)
I1001 13:33:04.657254  3017 net.cpp:165] Memory required for data: 940228640
I1001 13:33:04.657265  3017 layer_factory.hpp:77] Creating layer conv7_2_relu
I1001 13:33:04.657277  3017 net.cpp:100] Creating Layer conv7_2_relu
I1001 13:33:04.657287  3017 net.cpp:434] conv7_2_relu <- conv7_2
I1001 13:33:04.657296  3017 net.cpp:395] conv7_2_relu -> conv7_2 (in-place)
I1001 13:33:04.657307  3017 net.cpp:150] Setting up conv7_2_relu
I1001 13:33:04.657316  3017 net.cpp:157] Top shape: 4 256 5 5 (25600)
I1001 13:33:04.657323  3017 net.cpp:165] Memory required for data: 940331040
I1001 13:33:04.657331  3017 layer_factory.hpp:77] Creating layer conv7_2_conv7_2_relu_0_split
I1001 13:33:04.657341  3017 net.cpp:100] Creating Layer conv7_2_conv7_2_relu_0_split
I1001 13:33:04.657349  3017 net.cpp:434] conv7_2_conv7_2_relu_0_split <- conv7_2
I1001 13:33:04.657361  3017 net.cpp:408] conv7_2_conv7_2_relu_0_split -> conv7_2_conv7_2_relu_0_split_0
I1001 13:33:04.657371  3017 net.cpp:408] conv7_2_conv7_2_relu_0_split -> conv7_2_conv7_2_relu_0_split_1
I1001 13:33:04.657382  3017 net.cpp:408] conv7_2_conv7_2_relu_0_split -> conv7_2_conv7_2_relu_0_split_2
I1001 13:33:04.657392  3017 net.cpp:408] conv7_2_conv7_2_relu_0_split -> conv7_2_conv7_2_relu_0_split_3
I1001 13:33:04.657452  3017 net.cpp:150] Setting up conv7_2_conv7_2_relu_0_split
I1001 13:33:04.657464  3017 net.cpp:157] Top shape: 4 256 5 5 (25600)
I1001 13:33:04.657474  3017 net.cpp:157] Top shape: 4 256 5 5 (25600)
I1001 13:33:04.657485  3017 net.cpp:157] Top shape: 4 256 5 5 (25600)
I1001 13:33:04.657493  3017 net.cpp:157] Top shape: 4 256 5 5 (25600)
I1001 13:33:04.657500  3017 net.cpp:165] Memory required for data: 940740640
I1001 13:33:04.657508  3017 layer_factory.hpp:77] Creating layer conv8_1
I1001 13:33:04.657521  3017 net.cpp:100] Creating Layer conv8_1
I1001 13:33:04.657536  3017 net.cpp:434] conv8_1 <- conv7_2_conv7_2_relu_0_split_0
I1001 13:33:04.657552  3017 net.cpp:408] conv8_1 -> conv8_1
I1001 13:33:04.657858  3017 net.cpp:150] Setting up conv8_1
I1001 13:33:04.657872  3017 net.cpp:157] Top shape: 4 128 5 5 (12800)
I1001 13:33:04.657879  3017 net.cpp:165] Memory required for data: 940791840
I1001 13:33:04.657889  3017 layer_factory.hpp:77] Creating layer conv8_1_relu
I1001 13:33:04.657898  3017 net.cpp:100] Creating Layer conv8_1_relu
I1001 13:33:04.657907  3017 net.cpp:434] conv8_1_relu <- conv8_1
I1001 13:33:04.657917  3017 net.cpp:395] conv8_1_relu -> conv8_1 (in-place)
I1001 13:33:04.657925  3017 net.cpp:150] Setting up conv8_1_relu
I1001 13:33:04.657934  3017 net.cpp:157] Top shape: 4 128 5 5 (12800)
I1001 13:33:04.657943  3017 net.cpp:165] Memory required for data: 940843040
I1001 13:33:04.657949  3017 layer_factory.hpp:77] Creating layer conv8_2
I1001 13:33:04.657961  3017 net.cpp:100] Creating Layer conv8_2
I1001 13:33:04.657969  3017 net.cpp:434] conv8_2 <- conv8_1
I1001 13:33:04.657980  3017 net.cpp:408] conv8_2 -> conv8_2
I1001 13:33:04.659888  3017 net.cpp:150] Setting up conv8_2
I1001 13:33:04.659919  3017 net.cpp:157] Top shape: 4 256 3 3 (9216)
I1001 13:33:04.659927  3017 net.cpp:165] Memory required for data: 940879904
I1001 13:33:04.659940  3017 layer_factory.hpp:77] Creating layer conv8_2_relu
I1001 13:33:04.659950  3017 net.cpp:100] Creating Layer conv8_2_relu
I1001 13:33:04.659958  3017 net.cpp:434] conv8_2_relu <- conv8_2
I1001 13:33:04.659970  3017 net.cpp:395] conv8_2_relu -> conv8_2 (in-place)
I1001 13:33:04.659981  3017 net.cpp:150] Setting up conv8_2_relu
I1001 13:33:04.659989  3017 net.cpp:157] Top shape: 4 256 3 3 (9216)
I1001 13:33:04.659997  3017 net.cpp:165] Memory required for data: 940916768
I1001 13:33:04.660004  3017 layer_factory.hpp:77] Creating layer conv8_2_conv8_2_relu_0_split
I1001 13:33:04.660014  3017 net.cpp:100] Creating Layer conv8_2_conv8_2_relu_0_split
I1001 13:33:04.660022  3017 net.cpp:434] conv8_2_conv8_2_relu_0_split <- conv8_2
I1001 13:33:04.660033  3017 net.cpp:408] conv8_2_conv8_2_relu_0_split -> conv8_2_conv8_2_relu_0_split_0
I1001 13:33:04.660044  3017 net.cpp:408] conv8_2_conv8_2_relu_0_split -> conv8_2_conv8_2_relu_0_split_1
I1001 13:33:04.660055  3017 net.cpp:408] conv8_2_conv8_2_relu_0_split -> conv8_2_conv8_2_relu_0_split_2
I1001 13:33:04.660065  3017 net.cpp:408] conv8_2_conv8_2_relu_0_split -> conv8_2_conv8_2_relu_0_split_3
I1001 13:33:04.660130  3017 net.cpp:150] Setting up conv8_2_conv8_2_relu_0_split
I1001 13:33:04.660140  3017 net.cpp:157] Top shape: 4 256 3 3 (9216)
I1001 13:33:04.660149  3017 net.cpp:157] Top shape: 4 256 3 3 (9216)
I1001 13:33:04.660157  3017 net.cpp:157] Top shape: 4 256 3 3 (9216)
I1001 13:33:04.660166  3017 net.cpp:157] Top shape: 4 256 3 3 (9216)
I1001 13:33:04.660173  3017 net.cpp:165] Memory required for data: 941064224
I1001 13:33:04.660181  3017 layer_factory.hpp:77] Creating layer conv9_1
I1001 13:33:04.660194  3017 net.cpp:100] Creating Layer conv9_1
I1001 13:33:04.660202  3017 net.cpp:434] conv9_1 <- conv8_2_conv8_2_relu_0_split_0
I1001 13:33:04.660213  3017 net.cpp:408] conv9_1 -> conv9_1
I1001 13:33:04.660516  3017 net.cpp:150] Setting up conv9_1
I1001 13:33:04.660529  3017 net.cpp:157] Top shape: 4 128 3 3 (4608)
I1001 13:33:04.660537  3017 net.cpp:165] Memory required for data: 941082656
I1001 13:33:04.660547  3017 layer_factory.hpp:77] Creating layer conv9_1_relu
I1001 13:33:04.660557  3017 net.cpp:100] Creating Layer conv9_1_relu
I1001 13:33:04.660565  3017 net.cpp:434] conv9_1_relu <- conv9_1
I1001 13:33:04.660575  3017 net.cpp:395] conv9_1_relu -> conv9_1 (in-place)
I1001 13:33:04.660585  3017 net.cpp:150] Setting up conv9_1_relu
I1001 13:33:04.660593  3017 net.cpp:157] Top shape: 4 128 3 3 (4608)
I1001 13:33:04.660601  3017 net.cpp:165] Memory required for data: 941101088
I1001 13:33:04.660609  3017 layer_factory.hpp:77] Creating layer conv9_2
I1001 13:33:04.660620  3017 net.cpp:100] Creating Layer conv9_2
I1001 13:33:04.660629  3017 net.cpp:434] conv9_2 <- conv9_1
I1001 13:33:04.660645  3017 net.cpp:408] conv9_2 -> conv9_2
I1001 13:33:04.666973  3017 net.cpp:150] Setting up conv9_2
I1001 13:33:04.667014  3017 net.cpp:157] Top shape: 4 256 1 1 (1024)
I1001 13:33:04.667023  3017 net.cpp:165] Memory required for data: 941105184
I1001 13:33:04.667038  3017 layer_factory.hpp:77] Creating layer conv9_2_relu
I1001 13:33:04.667052  3017 net.cpp:100] Creating Layer conv9_2_relu
I1001 13:33:04.667062  3017 net.cpp:434] conv9_2_relu <- conv9_2
I1001 13:33:04.667074  3017 net.cpp:395] conv9_2_relu -> conv9_2 (in-place)
I1001 13:33:04.667086  3017 net.cpp:150] Setting up conv9_2_relu
I1001 13:33:04.667095  3017 net.cpp:157] Top shape: 4 256 1 1 (1024)
I1001 13:33:04.667102  3017 net.cpp:165] Memory required for data: 941109280
I1001 13:33:04.667110  3017 layer_factory.hpp:77] Creating layer conv9_2_conv9_2_relu_0_split
I1001 13:33:04.667120  3017 net.cpp:100] Creating Layer conv9_2_conv9_2_relu_0_split
I1001 13:33:04.667129  3017 net.cpp:434] conv9_2_conv9_2_relu_0_split <- conv9_2
I1001 13:33:04.667140  3017 net.cpp:408] conv9_2_conv9_2_relu_0_split -> conv9_2_conv9_2_relu_0_split_0
I1001 13:33:04.667151  3017 net.cpp:408] conv9_2_conv9_2_relu_0_split -> conv9_2_conv9_2_relu_0_split_1
I1001 13:33:04.667162  3017 net.cpp:408] conv9_2_conv9_2_relu_0_split -> conv9_2_conv9_2_relu_0_split_2
I1001 13:33:04.667212  3017 net.cpp:150] Setting up conv9_2_conv9_2_relu_0_split
I1001 13:33:04.667224  3017 net.cpp:157] Top shape: 4 256 1 1 (1024)
I1001 13:33:04.667232  3017 net.cpp:157] Top shape: 4 256 1 1 (1024)
I1001 13:33:04.667240  3017 net.cpp:157] Top shape: 4 256 1 1 (1024)
I1001 13:33:04.667248  3017 net.cpp:165] Memory required for data: 941121568
I1001 13:33:04.667255  3017 layer_factory.hpp:77] Creating layer conv4_3_norm
I1001 13:33:04.667266  3017 net.cpp:100] Creating Layer conv4_3_norm
I1001 13:33:04.667274  3017 net.cpp:434] conv4_3_norm <- conv4_3_relu4_3_0_split_1
I1001 13:33:04.667291  3017 net.cpp:408] conv4_3_norm -> conv4_3_norm
I1001 13:33:04.667421  3017 net.cpp:150] Setting up conv4_3_norm
I1001 13:33:04.667434  3017 net.cpp:157] Top shape: 4 512 38 38 (2957312)
I1001 13:33:04.667441  3017 net.cpp:165] Memory required for data: 952950816
I1001 13:33:04.667450  3017 layer_factory.hpp:77] Creating layer conv4_3_norm_conv4_3_norm_0_split
I1001 13:33:04.667461  3017 net.cpp:100] Creating Layer conv4_3_norm_conv4_3_norm_0_split
I1001 13:33:04.667469  3017 net.cpp:434] conv4_3_norm_conv4_3_norm_0_split <- conv4_3_norm
I1001 13:33:04.667479  3017 net.cpp:408] conv4_3_norm_conv4_3_norm_0_split -> conv4_3_norm_conv4_3_norm_0_split_0
I1001 13:33:04.667490  3017 net.cpp:408] conv4_3_norm_conv4_3_norm_0_split -> conv4_3_norm_conv4_3_norm_0_split_1
I1001 13:33:04.667500  3017 net.cpp:408] conv4_3_norm_conv4_3_norm_0_split -> conv4_3_norm_conv4_3_norm_0_split_2
I1001 13:33:04.667544  3017 net.cpp:150] Setting up conv4_3_norm_conv4_3_norm_0_split
I1001 13:33:04.667556  3017 net.cpp:157] Top shape: 4 512 38 38 (2957312)
I1001 13:33:04.667563  3017 net.cpp:157] Top shape: 4 512 38 38 (2957312)
I1001 13:33:04.667572  3017 net.cpp:157] Top shape: 4 512 38 38 (2957312)
I1001 13:33:04.667579  3017 net.cpp:165] Memory required for data: 988438560
I1001 13:33:04.667587  3017 layer_factory.hpp:77] Creating layer conv4_3_norm_mbox_loc
I1001 13:33:04.667600  3017 net.cpp:100] Creating Layer conv4_3_norm_mbox_loc
I1001 13:33:04.667608  3017 net.cpp:434] conv4_3_norm_mbox_loc <- conv4_3_norm_conv4_3_norm_0_split_0
I1001 13:33:04.667619  3017 net.cpp:408] conv4_3_norm_mbox_loc -> conv4_3_norm_mbox_loc
I1001 13:33:04.668077  3017 net.cpp:150] Setting up conv4_3_norm_mbox_loc
I1001 13:33:04.668090  3017 net.cpp:157] Top shape: 4 16 38 38 (92416)
I1001 13:33:04.668098  3017 net.cpp:165] Memory required for data: 988808224
I1001 13:33:04.668107  3017 layer_factory.hpp:77] Creating layer conv4_3_norm_mbox_loc_perm
I1001 13:33:04.668119  3017 net.cpp:100] Creating Layer conv4_3_norm_mbox_loc_perm
I1001 13:33:04.668128  3017 net.cpp:434] conv4_3_norm_mbox_loc_perm <- conv4_3_norm_mbox_loc
I1001 13:33:04.668138  3017 net.cpp:408] conv4_3_norm_mbox_loc_perm -> conv4_3_norm_mbox_loc_perm
I1001 13:33:04.668236  3017 net.cpp:150] Setting up conv4_3_norm_mbox_loc_perm
I1001 13:33:04.668248  3017 net.cpp:157] Top shape: 4 38 38 16 (92416)
I1001 13:33:04.668256  3017 net.cpp:165] Memory required for data: 989177888
I1001 13:33:04.668263  3017 layer_factory.hpp:77] Creating layer conv4_3_norm_mbox_loc_flat
I1001 13:33:04.668274  3017 net.cpp:100] Creating Layer conv4_3_norm_mbox_loc_flat
I1001 13:33:04.668282  3017 net.cpp:434] conv4_3_norm_mbox_loc_flat <- conv4_3_norm_mbox_loc_perm
I1001 13:33:04.668292  3017 net.cpp:408] conv4_3_norm_mbox_loc_flat -> conv4_3_norm_mbox_loc_flat
I1001 13:33:04.668321  3017 net.cpp:150] Setting up conv4_3_norm_mbox_loc_flat
I1001 13:33:04.668332  3017 net.cpp:157] Top shape: 4 23104 (92416)
I1001 13:33:04.668340  3017 net.cpp:165] Memory required for data: 989547552
I1001 13:33:04.668347  3017 layer_factory.hpp:77] Creating layer conv4_3_norm_mbox_conf
I1001 13:33:04.668365  3017 net.cpp:100] Creating Layer conv4_3_norm_mbox_conf
I1001 13:33:04.668375  3017 net.cpp:434] conv4_3_norm_mbox_conf <- conv4_3_norm_conv4_3_norm_0_split_1
I1001 13:33:04.668385  3017 net.cpp:408] conv4_3_norm_mbox_conf -> conv4_3_norm_mbox_conf
I1001 13:33:04.668777  3017 net.cpp:150] Setting up conv4_3_norm_mbox_conf
I1001 13:33:04.668790  3017 net.cpp:157] Top shape: 4 12 38 38 (69312)
I1001 13:33:04.668798  3017 net.cpp:165] Memory required for data: 989824800
I1001 13:33:04.668807  3017 layer_factory.hpp:77] Creating layer conv4_3_norm_mbox_conf_perm
I1001 13:33:04.668818  3017 net.cpp:100] Creating Layer conv4_3_norm_mbox_conf_perm
I1001 13:33:04.668828  3017 net.cpp:434] conv4_3_norm_mbox_conf_perm <- conv4_3_norm_mbox_conf
I1001 13:33:04.668836  3017 net.cpp:408] conv4_3_norm_mbox_conf_perm -> conv4_3_norm_mbox_conf_perm
I1001 13:33:04.668922  3017 net.cpp:150] Setting up conv4_3_norm_mbox_conf_perm
I1001 13:33:04.668934  3017 net.cpp:157] Top shape: 4 38 38 12 (69312)
I1001 13:33:04.668942  3017 net.cpp:165] Memory required for data: 990102048
I1001 13:33:04.668949  3017 layer_factory.hpp:77] Creating layer conv4_3_norm_mbox_conf_flat
I1001 13:33:04.668958  3017 net.cpp:100] Creating Layer conv4_3_norm_mbox_conf_flat
I1001 13:33:04.668967  3017 net.cpp:434] conv4_3_norm_mbox_conf_flat <- conv4_3_norm_mbox_conf_perm
I1001 13:33:04.668977  3017 net.cpp:408] conv4_3_norm_mbox_conf_flat -> conv4_3_norm_mbox_conf_flat
I1001 13:33:04.669004  3017 net.cpp:150] Setting up conv4_3_norm_mbox_conf_flat
I1001 13:33:04.669014  3017 net.cpp:157] Top shape: 4 17328 (69312)
I1001 13:33:04.669023  3017 net.cpp:165] Memory required for data: 990379296
I1001 13:33:04.669029  3017 layer_factory.hpp:77] Creating layer conv4_3_norm_mbox_priorbox
I1001 13:33:04.669040  3017 net.cpp:100] Creating Layer conv4_3_norm_mbox_priorbox
I1001 13:33:04.669049  3017 net.cpp:434] conv4_3_norm_mbox_priorbox <- conv4_3_norm_conv4_3_norm_0_split_2
I1001 13:33:04.669057  3017 net.cpp:434] conv4_3_norm_mbox_priorbox <- data_data_0_split_1
I1001 13:33:04.669068  3017 net.cpp:408] conv4_3_norm_mbox_priorbox -> conv4_3_norm_mbox_priorbox
I1001 13:33:04.669096  3017 net.cpp:150] Setting up conv4_3_norm_mbox_priorbox
I1001 13:33:04.669107  3017 net.cpp:157] Top shape: 1 2 23104 (46208)
I1001 13:33:04.669116  3017 net.cpp:165] Memory required for data: 990564128
I1001 13:33:04.669123  3017 layer_factory.hpp:77] Creating layer fc7_mbox_loc
I1001 13:33:04.669136  3017 net.cpp:100] Creating Layer fc7_mbox_loc
I1001 13:33:04.669143  3017 net.cpp:434] fc7_mbox_loc <- fc7_relu7_0_split_1
I1001 13:33:04.669153  3017 net.cpp:408] fc7_mbox_loc -> fc7_mbox_loc
I1001 13:33:04.670146  3017 net.cpp:150] Setting up fc7_mbox_loc
I1001 13:33:04.670161  3017 net.cpp:157] Top shape: 4 24 19 19 (34656)
I1001 13:33:04.670167  3017 net.cpp:165] Memory required for data: 990702752
I1001 13:33:04.670177  3017 layer_factory.hpp:77] Creating layer fc7_mbox_loc_perm
I1001 13:33:04.670187  3017 net.cpp:100] Creating Layer fc7_mbox_loc_perm
I1001 13:33:04.670197  3017 net.cpp:434] fc7_mbox_loc_perm <- fc7_mbox_loc
I1001 13:33:04.670212  3017 net.cpp:408] fc7_mbox_loc_perm -> fc7_mbox_loc_perm
I1001 13:33:04.670300  3017 net.cpp:150] Setting up fc7_mbox_loc_perm
I1001 13:33:04.670311  3017 net.cpp:157] Top shape: 4 19 19 24 (34656)
I1001 13:33:04.670318  3017 net.cpp:165] Memory required for data: 990841376
I1001 13:33:04.670334  3017 layer_factory.hpp:77] Creating layer fc7_mbox_loc_flat
I1001 13:33:04.670347  3017 net.cpp:100] Creating Layer fc7_mbox_loc_flat
I1001 13:33:04.670356  3017 net.cpp:434] fc7_mbox_loc_flat <- fc7_mbox_loc_perm
I1001 13:33:04.670366  3017 net.cpp:408] fc7_mbox_loc_flat -> fc7_mbox_loc_flat
I1001 13:33:04.670397  3017 net.cpp:150] Setting up fc7_mbox_loc_flat
I1001 13:33:04.670408  3017 net.cpp:157] Top shape: 4 8664 (34656)
I1001 13:33:04.670415  3017 net.cpp:165] Memory required for data: 990980000
I1001 13:33:04.670423  3017 layer_factory.hpp:77] Creating layer fc7_mbox_conf
I1001 13:33:04.670435  3017 net.cpp:100] Creating Layer fc7_mbox_conf
I1001 13:33:04.670444  3017 net.cpp:434] fc7_mbox_conf <- fc7_relu7_0_split_2
I1001 13:33:04.670455  3017 net.cpp:408] fc7_mbox_conf -> fc7_mbox_conf
I1001 13:33:04.671257  3017 net.cpp:150] Setting up fc7_mbox_conf
I1001 13:33:04.671270  3017 net.cpp:157] Top shape: 4 18 19 19 (25992)
I1001 13:33:04.671278  3017 net.cpp:165] Memory required for data: 991083968
I1001 13:33:04.671288  3017 layer_factory.hpp:77] Creating layer fc7_mbox_conf_perm
I1001 13:33:04.671298  3017 net.cpp:100] Creating Layer fc7_mbox_conf_perm
I1001 13:33:04.671306  3017 net.cpp:434] fc7_mbox_conf_perm <- fc7_mbox_conf
I1001 13:33:04.671316  3017 net.cpp:408] fc7_mbox_conf_perm -> fc7_mbox_conf_perm
I1001 13:33:04.671398  3017 net.cpp:150] Setting up fc7_mbox_conf_perm
I1001 13:33:04.671411  3017 net.cpp:157] Top shape: 4 19 19 18 (25992)
I1001 13:33:04.671417  3017 net.cpp:165] Memory required for data: 991187936
I1001 13:33:04.671425  3017 layer_factory.hpp:77] Creating layer fc7_mbox_conf_flat
I1001 13:33:04.671435  3017 net.cpp:100] Creating Layer fc7_mbox_conf_flat
I1001 13:33:04.671443  3017 net.cpp:434] fc7_mbox_conf_flat <- fc7_mbox_conf_perm
I1001 13:33:04.671453  3017 net.cpp:408] fc7_mbox_conf_flat -> fc7_mbox_conf_flat
I1001 13:33:04.671480  3017 net.cpp:150] Setting up fc7_mbox_conf_flat
I1001 13:33:04.671490  3017 net.cpp:157] Top shape: 4 6498 (25992)
I1001 13:33:04.671499  3017 net.cpp:165] Memory required for data: 991291904
I1001 13:33:04.671507  3017 layer_factory.hpp:77] Creating layer fc7_mbox_priorbox
I1001 13:33:04.671517  3017 net.cpp:100] Creating Layer fc7_mbox_priorbox
I1001 13:33:04.671525  3017 net.cpp:434] fc7_mbox_priorbox <- fc7_relu7_0_split_3
I1001 13:33:04.671537  3017 net.cpp:434] fc7_mbox_priorbox <- data_data_0_split_2
I1001 13:33:04.671547  3017 net.cpp:408] fc7_mbox_priorbox -> fc7_mbox_priorbox
I1001 13:33:04.671576  3017 net.cpp:150] Setting up fc7_mbox_priorbox
I1001 13:33:04.671586  3017 net.cpp:157] Top shape: 1 2 8664 (17328)
I1001 13:33:04.671594  3017 net.cpp:165] Memory required for data: 991361216
I1001 13:33:04.671602  3017 layer_factory.hpp:77] Creating layer conv6_2_mbox_loc
I1001 13:33:04.671614  3017 net.cpp:100] Creating Layer conv6_2_mbox_loc
I1001 13:33:04.671623  3017 net.cpp:434] conv6_2_mbox_loc <- conv6_2_conv6_2_relu_0_split_1
I1001 13:33:04.671633  3017 net.cpp:408] conv6_2_mbox_loc -> conv6_2_mbox_loc
I1001 13:33:04.672228  3017 net.cpp:150] Setting up conv6_2_mbox_loc
I1001 13:33:04.672241  3017 net.cpp:157] Top shape: 4 24 10 10 (9600)
I1001 13:33:04.672250  3017 net.cpp:165] Memory required for data: 991399616
I1001 13:33:04.672258  3017 layer_factory.hpp:77] Creating layer conv6_2_mbox_loc_perm
I1001 13:33:04.672268  3017 net.cpp:100] Creating Layer conv6_2_mbox_loc_perm
I1001 13:33:04.672276  3017 net.cpp:434] conv6_2_mbox_loc_perm <- conv6_2_mbox_loc
I1001 13:33:04.672287  3017 net.cpp:408] conv6_2_mbox_loc_perm -> conv6_2_mbox_loc_perm
I1001 13:33:04.672370  3017 net.cpp:150] Setting up conv6_2_mbox_loc_perm
I1001 13:33:04.672382  3017 net.cpp:157] Top shape: 4 10 10 24 (9600)
I1001 13:33:04.672390  3017 net.cpp:165] Memory required for data: 991438016
I1001 13:33:04.672415  3017 layer_factory.hpp:77] Creating layer conv6_2_mbox_loc_flat
I1001 13:33:04.672425  3017 net.cpp:100] Creating Layer conv6_2_mbox_loc_flat
I1001 13:33:04.672433  3017 net.cpp:434] conv6_2_mbox_loc_flat <- conv6_2_mbox_loc_perm
I1001 13:33:04.672444  3017 net.cpp:408] conv6_2_mbox_loc_flat -> conv6_2_mbox_loc_flat
I1001 13:33:04.672471  3017 net.cpp:150] Setting up conv6_2_mbox_loc_flat
I1001 13:33:04.672480  3017 net.cpp:157] Top shape: 4 2400 (9600)
I1001 13:33:04.672488  3017 net.cpp:165] Memory required for data: 991476416
I1001 13:33:04.672495  3017 layer_factory.hpp:77] Creating layer conv6_2_mbox_conf
I1001 13:33:04.672508  3017 net.cpp:100] Creating Layer conv6_2_mbox_conf
I1001 13:33:04.672518  3017 net.cpp:434] conv6_2_mbox_conf <- conv6_2_conv6_2_relu_0_split_2
I1001 13:33:04.672528  3017 net.cpp:408] conv6_2_mbox_conf -> conv6_2_mbox_conf
I1001 13:33:04.673019  3017 net.cpp:150] Setting up conv6_2_mbox_conf
I1001 13:33:04.673032  3017 net.cpp:157] Top shape: 4 18 10 10 (7200)
I1001 13:33:04.673039  3017 net.cpp:165] Memory required for data: 991505216
I1001 13:33:04.673049  3017 layer_factory.hpp:77] Creating layer conv6_2_mbox_conf_perm
I1001 13:33:04.673060  3017 net.cpp:100] Creating Layer conv6_2_mbox_conf_perm
I1001 13:33:04.673069  3017 net.cpp:434] conv6_2_mbox_conf_perm <- conv6_2_mbox_conf
I1001 13:33:04.673079  3017 net.cpp:408] conv6_2_mbox_conf_perm -> conv6_2_mbox_conf_perm
I1001 13:33:04.673164  3017 net.cpp:150] Setting up conv6_2_mbox_conf_perm
I1001 13:33:04.673177  3017 net.cpp:157] Top shape: 4 10 10 18 (7200)
I1001 13:33:04.673183  3017 net.cpp:165] Memory required for data: 991534016
I1001 13:33:04.673192  3017 layer_factory.hpp:77] Creating layer conv6_2_mbox_conf_flat
I1001 13:33:04.673202  3017 net.cpp:100] Creating Layer conv6_2_mbox_conf_flat
I1001 13:33:04.673210  3017 net.cpp:434] conv6_2_mbox_conf_flat <- conv6_2_mbox_conf_perm
I1001 13:33:04.673220  3017 net.cpp:408] conv6_2_mbox_conf_flat -> conv6_2_mbox_conf_flat
I1001 13:33:04.673251  3017 net.cpp:150] Setting up conv6_2_mbox_conf_flat
I1001 13:33:04.673261  3017 net.cpp:157] Top shape: 4 1800 (7200)
I1001 13:33:04.673269  3017 net.cpp:165] Memory required for data: 991562816
I1001 13:33:04.673276  3017 layer_factory.hpp:77] Creating layer conv6_2_mbox_priorbox
I1001 13:33:04.673287  3017 net.cpp:100] Creating Layer conv6_2_mbox_priorbox
I1001 13:33:04.673295  3017 net.cpp:434] conv6_2_mbox_priorbox <- conv6_2_conv6_2_relu_0_split_3
I1001 13:33:04.673305  3017 net.cpp:434] conv6_2_mbox_priorbox <- data_data_0_split_3
I1001 13:33:04.673315  3017 net.cpp:408] conv6_2_mbox_priorbox -> conv6_2_mbox_priorbox
I1001 13:33:04.673341  3017 net.cpp:150] Setting up conv6_2_mbox_priorbox
I1001 13:33:04.673352  3017 net.cpp:157] Top shape: 1 2 2400 (4800)
I1001 13:33:04.673359  3017 net.cpp:165] Memory required for data: 991582016
I1001 13:33:04.673368  3017 layer_factory.hpp:77] Creating layer conv7_2_mbox_loc
I1001 13:33:04.673382  3017 net.cpp:100] Creating Layer conv7_2_mbox_loc
I1001 13:33:04.673390  3017 net.cpp:434] conv7_2_mbox_loc <- conv7_2_conv7_2_relu_0_split_1
I1001 13:33:04.673401  3017 net.cpp:408] conv7_2_mbox_loc -> conv7_2_mbox_loc
I1001 13:33:04.673785  3017 net.cpp:150] Setting up conv7_2_mbox_loc
I1001 13:33:04.673799  3017 net.cpp:157] Top shape: 4 24 5 5 (2400)
I1001 13:33:04.673805  3017 net.cpp:165] Memory required for data: 991591616
I1001 13:33:04.673815  3017 layer_factory.hpp:77] Creating layer conv7_2_mbox_loc_perm
I1001 13:33:04.673825  3017 net.cpp:100] Creating Layer conv7_2_mbox_loc_perm
I1001 13:33:04.673833  3017 net.cpp:434] conv7_2_mbox_loc_perm <- conv7_2_mbox_loc
I1001 13:33:04.673843  3017 net.cpp:408] conv7_2_mbox_loc_perm -> conv7_2_mbox_loc_perm
I1001 13:33:04.673926  3017 net.cpp:150] Setting up conv7_2_mbox_loc_perm
I1001 13:33:04.673938  3017 net.cpp:157] Top shape: 4 5 5 24 (2400)
I1001 13:33:04.673945  3017 net.cpp:165] Memory required for data: 991601216
I1001 13:33:04.673952  3017 layer_factory.hpp:77] Creating layer conv7_2_mbox_loc_flat
I1001 13:33:04.673969  3017 net.cpp:100] Creating Layer conv7_2_mbox_loc_flat
I1001 13:33:04.673982  3017 net.cpp:434] conv7_2_mbox_loc_flat <- conv7_2_mbox_loc_perm
I1001 13:33:04.673992  3017 net.cpp:408] conv7_2_mbox_loc_flat -> conv7_2_mbox_loc_flat
I1001 13:33:04.674018  3017 net.cpp:150] Setting up conv7_2_mbox_loc_flat
I1001 13:33:04.674029  3017 net.cpp:157] Top shape: 4 600 (2400)
I1001 13:33:04.674036  3017 net.cpp:165] Memory required for data: 991610816
I1001 13:33:04.674044  3017 layer_factory.hpp:77] Creating layer conv7_2_mbox_conf
I1001 13:33:04.674057  3017 net.cpp:100] Creating Layer conv7_2_mbox_conf
I1001 13:33:04.674065  3017 net.cpp:434] conv7_2_mbox_conf <- conv7_2_conv7_2_relu_0_split_2
I1001 13:33:04.674077  3017 net.cpp:408] conv7_2_mbox_conf -> conv7_2_mbox_conf
I1001 13:33:04.674422  3017 net.cpp:150] Setting up conv7_2_mbox_conf
I1001 13:33:04.674437  3017 net.cpp:157] Top shape: 4 18 5 5 (1800)
I1001 13:33:04.674445  3017 net.cpp:165] Memory required for data: 991618016
I1001 13:33:04.674454  3017 layer_factory.hpp:77] Creating layer conv7_2_mbox_conf_perm
I1001 13:33:04.674465  3017 net.cpp:100] Creating Layer conv7_2_mbox_conf_perm
I1001 13:33:04.674474  3017 net.cpp:434] conv7_2_mbox_conf_perm <- conv7_2_mbox_conf
I1001 13:33:04.674484  3017 net.cpp:408] conv7_2_mbox_conf_perm -> conv7_2_mbox_conf_perm
I1001 13:33:04.674569  3017 net.cpp:150] Setting up conv7_2_mbox_conf_perm
I1001 13:33:04.674582  3017 net.cpp:157] Top shape: 4 5 5 18 (1800)
I1001 13:33:04.674588  3017 net.cpp:165] Memory required for data: 991625216
I1001 13:33:04.674597  3017 layer_factory.hpp:77] Creating layer conv7_2_mbox_conf_flat
I1001 13:33:04.674607  3017 net.cpp:100] Creating Layer conv7_2_mbox_conf_flat
I1001 13:33:04.674614  3017 net.cpp:434] conv7_2_mbox_conf_flat <- conv7_2_mbox_conf_perm
I1001 13:33:04.674625  3017 net.cpp:408] conv7_2_mbox_conf_flat -> conv7_2_mbox_conf_flat
I1001 13:33:04.674651  3017 net.cpp:150] Setting up conv7_2_mbox_conf_flat
I1001 13:33:04.674662  3017 net.cpp:157] Top shape: 4 450 (1800)
I1001 13:33:04.674669  3017 net.cpp:165] Memory required for data: 991632416
I1001 13:33:04.674679  3017 layer_factory.hpp:77] Creating layer conv7_2_mbox_priorbox
I1001 13:33:04.674690  3017 net.cpp:100] Creating Layer conv7_2_mbox_priorbox
I1001 13:33:04.674698  3017 net.cpp:434] conv7_2_mbox_priorbox <- conv7_2_conv7_2_relu_0_split_3
I1001 13:33:04.674706  3017 net.cpp:434] conv7_2_mbox_priorbox <- data_data_0_split_4
I1001 13:33:04.674718  3017 net.cpp:408] conv7_2_mbox_priorbox -> conv7_2_mbox_priorbox
I1001 13:33:04.674746  3017 net.cpp:150] Setting up conv7_2_mbox_priorbox
I1001 13:33:04.674757  3017 net.cpp:157] Top shape: 1 2 600 (1200)
I1001 13:33:04.674763  3017 net.cpp:165] Memory required for data: 991637216
I1001 13:33:04.674770  3017 layer_factory.hpp:77] Creating layer conv8_2_mbox_loc
I1001 13:33:04.674785  3017 net.cpp:100] Creating Layer conv8_2_mbox_loc
I1001 13:33:04.674795  3017 net.cpp:434] conv8_2_mbox_loc <- conv8_2_conv8_2_relu_0_split_1
I1001 13:33:04.674806  3017 net.cpp:408] conv8_2_mbox_loc -> conv8_2_mbox_loc
I1001 13:33:04.675127  3017 net.cpp:150] Setting up conv8_2_mbox_loc
I1001 13:33:04.675139  3017 net.cpp:157] Top shape: 4 16 3 3 (576)
I1001 13:33:04.675148  3017 net.cpp:165] Memory required for data: 991639520
I1001 13:33:04.675160  3017 layer_factory.hpp:77] Creating layer conv8_2_mbox_loc_perm
I1001 13:33:04.675171  3017 net.cpp:100] Creating Layer conv8_2_mbox_loc_perm
I1001 13:33:04.675180  3017 net.cpp:434] conv8_2_mbox_loc_perm <- conv8_2_mbox_loc
I1001 13:33:04.675189  3017 net.cpp:408] conv8_2_mbox_loc_perm -> conv8_2_mbox_loc_perm
I1001 13:33:04.675279  3017 net.cpp:150] Setting up conv8_2_mbox_loc_perm
I1001 13:33:04.675292  3017 net.cpp:157] Top shape: 4 3 3 16 (576)
I1001 13:33:04.675298  3017 net.cpp:165] Memory required for data: 991641824
I1001 13:33:04.675307  3017 layer_factory.hpp:77] Creating layer conv8_2_mbox_loc_flat
I1001 13:33:04.675317  3017 net.cpp:100] Creating Layer conv8_2_mbox_loc_flat
I1001 13:33:04.675325  3017 net.cpp:434] conv8_2_mbox_loc_flat <- conv8_2_mbox_loc_perm
I1001 13:33:04.675344  3017 net.cpp:408] conv8_2_mbox_loc_flat -> conv8_2_mbox_loc_flat
I1001 13:33:04.675371  3017 net.cpp:150] Setting up conv8_2_mbox_loc_flat
I1001 13:33:04.675382  3017 net.cpp:157] Top shape: 4 144 (576)
I1001 13:33:04.675390  3017 net.cpp:165] Memory required for data: 991644128
I1001 13:33:04.675397  3017 layer_factory.hpp:77] Creating layer conv8_2_mbox_conf
I1001 13:33:04.675410  3017 net.cpp:100] Creating Layer conv8_2_mbox_conf
I1001 13:33:04.675417  3017 net.cpp:434] conv8_2_mbox_conf <- conv8_2_conv8_2_relu_0_split_2
I1001 13:33:04.675429  3017 net.cpp:408] conv8_2_mbox_conf -> conv8_2_mbox_conf
I1001 13:33:04.675714  3017 net.cpp:150] Setting up conv8_2_mbox_conf
I1001 13:33:04.675726  3017 net.cpp:157] Top shape: 4 12 3 3 (432)
I1001 13:33:04.675734  3017 net.cpp:165] Memory required for data: 991645856
I1001 13:33:04.675743  3017 layer_factory.hpp:77] Creating layer conv8_2_mbox_conf_perm
I1001 13:33:04.675753  3017 net.cpp:100] Creating Layer conv8_2_mbox_conf_perm
I1001 13:33:04.675762  3017 net.cpp:434] conv8_2_mbox_conf_perm <- conv8_2_mbox_conf
I1001 13:33:04.675771  3017 net.cpp:408] conv8_2_mbox_conf_perm -> conv8_2_mbox_conf_perm
I1001 13:33:04.675858  3017 net.cpp:150] Setting up conv8_2_mbox_conf_perm
I1001 13:33:04.675868  3017 net.cpp:157] Top shape: 4 3 3 12 (432)
I1001 13:33:04.675876  3017 net.cpp:165] Memory required for data: 991647584
I1001 13:33:04.675884  3017 layer_factory.hpp:77] Creating layer conv8_2_mbox_conf_flat
I1001 13:33:04.675894  3017 net.cpp:100] Creating Layer conv8_2_mbox_conf_flat
I1001 13:33:04.675902  3017 net.cpp:434] conv8_2_mbox_conf_flat <- conv8_2_mbox_conf_perm
I1001 13:33:04.675912  3017 net.cpp:408] conv8_2_mbox_conf_flat -> conv8_2_mbox_conf_flat
I1001 13:33:04.675938  3017 net.cpp:150] Setting up conv8_2_mbox_conf_flat
I1001 13:33:04.675948  3017 net.cpp:157] Top shape: 4 108 (432)
I1001 13:33:04.675956  3017 net.cpp:165] Memory required for data: 991649312
I1001 13:33:04.675963  3017 layer_factory.hpp:77] Creating layer conv8_2_mbox_priorbox
I1001 13:33:04.675974  3017 net.cpp:100] Creating Layer conv8_2_mbox_priorbox
I1001 13:33:04.675983  3017 net.cpp:434] conv8_2_mbox_priorbox <- conv8_2_conv8_2_relu_0_split_3
I1001 13:33:04.675992  3017 net.cpp:434] conv8_2_mbox_priorbox <- data_data_0_split_5
I1001 13:33:04.676002  3017 net.cpp:408] conv8_2_mbox_priorbox -> conv8_2_mbox_priorbox
I1001 13:33:04.676030  3017 net.cpp:150] Setting up conv8_2_mbox_priorbox
I1001 13:33:04.676041  3017 net.cpp:157] Top shape: 1 2 144 (288)
I1001 13:33:04.676049  3017 net.cpp:165] Memory required for data: 991650464
I1001 13:33:04.676056  3017 layer_factory.hpp:77] Creating layer conv9_2_mbox_loc
I1001 13:33:04.676069  3017 net.cpp:100] Creating Layer conv9_2_mbox_loc
I1001 13:33:04.676077  3017 net.cpp:434] conv9_2_mbox_loc <- conv9_2_conv9_2_relu_0_split_0
I1001 13:33:04.676089  3017 net.cpp:408] conv9_2_mbox_loc -> conv9_2_mbox_loc
I1001 13:33:04.676404  3017 net.cpp:150] Setting up conv9_2_mbox_loc
I1001 13:33:04.676416  3017 net.cpp:157] Top shape: 4 16 1 1 (64)
I1001 13:33:04.676424  3017 net.cpp:165] Memory required for data: 991650720
I1001 13:33:04.676434  3017 layer_factory.hpp:77] Creating layer conv9_2_mbox_loc_perm
I1001 13:33:04.676445  3017 net.cpp:100] Creating Layer conv9_2_mbox_loc_perm
I1001 13:33:04.676452  3017 net.cpp:434] conv9_2_mbox_loc_perm <- conv9_2_mbox_loc
I1001 13:33:04.676462  3017 net.cpp:408] conv9_2_mbox_loc_perm -> conv9_2_mbox_loc_perm
I1001 13:33:04.676546  3017 net.cpp:150] Setting up conv9_2_mbox_loc_perm
I1001 13:33:04.676558  3017 net.cpp:157] Top shape: 4 1 1 16 (64)
I1001 13:33:04.676565  3017 net.cpp:165] Memory required for data: 991650976
I1001 13:33:04.676573  3017 layer_factory.hpp:77] Creating layer conv9_2_mbox_loc_flat
I1001 13:33:04.676584  3017 net.cpp:100] Creating Layer conv9_2_mbox_loc_flat
I1001 13:33:04.676592  3017 net.cpp:434] conv9_2_mbox_loc_flat <- conv9_2_mbox_loc_perm
I1001 13:33:04.676601  3017 net.cpp:408] conv9_2_mbox_loc_flat -> conv9_2_mbox_loc_flat
I1001 13:33:04.676635  3017 net.cpp:150] Setting up conv9_2_mbox_loc_flat
I1001 13:33:04.676651  3017 net.cpp:157] Top shape: 4 16 (64)
I1001 13:33:04.676657  3017 net.cpp:165] Memory required for data: 991651232
I1001 13:33:04.676664  3017 layer_factory.hpp:77] Creating layer conv9_2_mbox_conf
I1001 13:33:04.676676  3017 net.cpp:100] Creating Layer conv9_2_mbox_conf
I1001 13:33:04.676686  3017 net.cpp:434] conv9_2_mbox_conf <- conv9_2_conv9_2_relu_0_split_1
I1001 13:33:04.676697  3017 net.cpp:408] conv9_2_mbox_conf -> conv9_2_mbox_conf
I1001 13:33:04.676982  3017 net.cpp:150] Setting up conv9_2_mbox_conf
I1001 13:33:04.676995  3017 net.cpp:157] Top shape: 4 12 1 1 (48)
I1001 13:33:04.677002  3017 net.cpp:165] Memory required for data: 991651424
I1001 13:33:04.677012  3017 layer_factory.hpp:77] Creating layer conv9_2_mbox_conf_perm
I1001 13:33:04.677067  3017 net.cpp:100] Creating Layer conv9_2_mbox_conf_perm
I1001 13:33:04.677083  3017 net.cpp:434] conv9_2_mbox_conf_perm <- conv9_2_mbox_conf
I1001 13:33:04.677095  3017 net.cpp:408] conv9_2_mbox_conf_perm -> conv9_2_mbox_conf_perm
I1001 13:33:04.677181  3017 net.cpp:150] Setting up conv9_2_mbox_conf_perm
I1001 13:33:04.677193  3017 net.cpp:157] Top shape: 4 1 1 12 (48)
I1001 13:33:04.677201  3017 net.cpp:165] Memory required for data: 991651616
I1001 13:33:04.677208  3017 layer_factory.hpp:77] Creating layer conv9_2_mbox_conf_flat
I1001 13:33:04.677217  3017 net.cpp:100] Creating Layer conv9_2_mbox_conf_flat
I1001 13:33:04.677225  3017 net.cpp:434] conv9_2_mbox_conf_flat <- conv9_2_mbox_conf_perm
I1001 13:33:04.677237  3017 net.cpp:408] conv9_2_mbox_conf_flat -> conv9_2_mbox_conf_flat
I1001 13:33:04.677261  3017 net.cpp:150] Setting up conv9_2_mbox_conf_flat
I1001 13:33:04.677271  3017 net.cpp:157] Top shape: 4 12 (48)
I1001 13:33:04.677279  3017 net.cpp:165] Memory required for data: 991651808
I1001 13:33:04.677286  3017 layer_factory.hpp:77] Creating layer conv9_2_mbox_priorbox
I1001 13:33:04.677297  3017 net.cpp:100] Creating Layer conv9_2_mbox_priorbox
I1001 13:33:04.677305  3017 net.cpp:434] conv9_2_mbox_priorbox <- conv9_2_conv9_2_relu_0_split_2
I1001 13:33:04.677314  3017 net.cpp:434] conv9_2_mbox_priorbox <- data_data_0_split_6
I1001 13:33:04.677325  3017 net.cpp:408] conv9_2_mbox_priorbox -> conv9_2_mbox_priorbox
I1001 13:33:04.677351  3017 net.cpp:150] Setting up conv9_2_mbox_priorbox
I1001 13:33:04.677361  3017 net.cpp:157] Top shape: 1 2 16 (32)
I1001 13:33:04.677368  3017 net.cpp:165] Memory required for data: 991651936
I1001 13:33:04.677376  3017 layer_factory.hpp:77] Creating layer mbox_loc
I1001 13:33:04.677387  3017 net.cpp:100] Creating Layer mbox_loc
I1001 13:33:04.677397  3017 net.cpp:434] mbox_loc <- conv4_3_norm_mbox_loc_flat
I1001 13:33:04.677405  3017 net.cpp:434] mbox_loc <- fc7_mbox_loc_flat
I1001 13:33:04.677414  3017 net.cpp:434] mbox_loc <- conv6_2_mbox_loc_flat
I1001 13:33:04.677423  3017 net.cpp:434] mbox_loc <- conv7_2_mbox_loc_flat
I1001 13:33:04.677430  3017 net.cpp:434] mbox_loc <- conv8_2_mbox_loc_flat
I1001 13:33:04.677439  3017 net.cpp:434] mbox_loc <- conv9_2_mbox_loc_flat
I1001 13:33:04.677450  3017 net.cpp:408] mbox_loc -> mbox_loc
I1001 13:33:04.677476  3017 net.cpp:150] Setting up mbox_loc
I1001 13:33:04.677487  3017 net.cpp:157] Top shape: 4 34928 (139712)
I1001 13:33:04.677495  3017 net.cpp:165] Memory required for data: 992210784
I1001 13:33:04.677503  3017 layer_factory.hpp:77] Creating layer mbox_conf
I1001 13:33:04.677513  3017 net.cpp:100] Creating Layer mbox_conf
I1001 13:33:04.677521  3017 net.cpp:434] mbox_conf <- conv4_3_norm_mbox_conf_flat
I1001 13:33:04.677531  3017 net.cpp:434] mbox_conf <- fc7_mbox_conf_flat
I1001 13:33:04.677539  3017 net.cpp:434] mbox_conf <- conv6_2_mbox_conf_flat
I1001 13:33:04.677547  3017 net.cpp:434] mbox_conf <- conv7_2_mbox_conf_flat
I1001 13:33:04.677556  3017 net.cpp:434] mbox_conf <- conv8_2_mbox_conf_flat
I1001 13:33:04.677564  3017 net.cpp:434] mbox_conf <- conv9_2_mbox_conf_flat
I1001 13:33:04.677574  3017 net.cpp:408] mbox_conf -> mbox_conf
I1001 13:33:04.677606  3017 net.cpp:150] Setting up mbox_conf
I1001 13:33:04.677621  3017 net.cpp:157] Top shape: 4 26196 (104784)
I1001 13:33:04.677628  3017 net.cpp:165] Memory required for data: 992629920
I1001 13:33:04.677636  3017 layer_factory.hpp:77] Creating layer mbox_priorbox
I1001 13:33:04.677649  3017 net.cpp:100] Creating Layer mbox_priorbox
I1001 13:33:04.677657  3017 net.cpp:434] mbox_priorbox <- conv4_3_norm_mbox_priorbox
I1001 13:33:04.677666  3017 net.cpp:434] mbox_priorbox <- fc7_mbox_priorbox
I1001 13:33:04.677675  3017 net.cpp:434] mbox_priorbox <- conv6_2_mbox_priorbox
I1001 13:33:04.677683  3017 net.cpp:434] mbox_priorbox <- conv7_2_mbox_priorbox
I1001 13:33:04.677691  3017 net.cpp:434] mbox_priorbox <- conv8_2_mbox_priorbox
I1001 13:33:04.677700  3017 net.cpp:434] mbox_priorbox <- conv9_2_mbox_priorbox
I1001 13:33:04.677709  3017 net.cpp:408] mbox_priorbox -> mbox_priorbox
I1001 13:33:04.677736  3017 net.cpp:150] Setting up mbox_priorbox
I1001 13:33:04.677747  3017 net.cpp:157] Top shape: 1 2 34928 (69856)
I1001 13:33:04.677753  3017 net.cpp:165] Memory required for data: 992909344
I1001 13:33:04.677762  3017 layer_factory.hpp:77] Creating layer mbox_conf_reshape
I1001 13:33:04.677772  3017 net.cpp:100] Creating Layer mbox_conf_reshape
I1001 13:33:04.677780  3017 net.cpp:434] mbox_conf_reshape <- mbox_conf
I1001 13:33:04.677789  3017 net.cpp:408] mbox_conf_reshape -> mbox_conf_reshape
I1001 13:33:04.677824  3017 net.cpp:150] Setting up mbox_conf_reshape
I1001 13:33:04.677835  3017 net.cpp:157] Top shape: 4 8732 3 (104784)
I1001 13:33:04.677844  3017 net.cpp:165] Memory required for data: 993328480
I1001 13:33:04.677850  3017 layer_factory.hpp:77] Creating layer mbox_conf_softmax
I1001 13:33:04.677860  3017 net.cpp:100] Creating Layer mbox_conf_softmax
I1001 13:33:04.677868  3017 net.cpp:434] mbox_conf_softmax <- mbox_conf_reshape
I1001 13:33:04.677878  3017 net.cpp:408] mbox_conf_softmax -> mbox_conf_softmax
I1001 13:33:04.677932  3017 net.cpp:150] Setting up mbox_conf_softmax
I1001 13:33:04.677942  3017 net.cpp:157] Top shape: 4 8732 3 (104784)
I1001 13:33:04.677949  3017 net.cpp:165] Memory required for data: 993747616
I1001 13:33:04.677958  3017 layer_factory.hpp:77] Creating layer mbox_conf_flatten
I1001 13:33:04.677966  3017 net.cpp:100] Creating Layer mbox_conf_flatten
I1001 13:33:04.677974  3017 net.cpp:434] mbox_conf_flatten <- mbox_conf_softmax
I1001 13:33:04.677984  3017 net.cpp:408] mbox_conf_flatten -> mbox_conf_flatten
I1001 13:33:04.678011  3017 net.cpp:150] Setting up mbox_conf_flatten
I1001 13:33:04.678022  3017 net.cpp:157] Top shape: 4 26196 (104784)
I1001 13:33:04.678030  3017 net.cpp:165] Memory required for data: 994166752
I1001 13:33:04.678037  3017 layer_factory.hpp:77] Creating layer detection_out
I1001 13:33:04.678052  3017 net.cpp:100] Creating Layer detection_out
I1001 13:33:04.678061  3017 net.cpp:434] detection_out <- mbox_loc
I1001 13:33:04.678069  3017 net.cpp:434] detection_out <- mbox_conf_flatten
I1001 13:33:04.678078  3017 net.cpp:434] detection_out <- mbox_priorbox
I1001 13:33:04.678092  3017 net.cpp:408] detection_out -> detection_out
W1001 13:33:04.678133  3017 detection_output_layer.cpp:49] Failed to create directory: /home/rjperias/data/VOCdevkit/results/VOC2007/SSD_300x300/Main
I1001 13:33:04.678414  3017 net.cpp:150] Setting up detection_out
I1001 13:33:04.678431  3017 net.cpp:157] Top shape: 1 1 1 7 (7)
I1001 13:33:04.678438  3017 net.cpp:165] Memory required for data: 994166780
I1001 13:33:04.678447  3017 layer_factory.hpp:77] Creating layer detection_eval
I1001 13:33:04.678457  3017 net.cpp:100] Creating Layer detection_eval
I1001 13:33:04.678465  3017 net.cpp:434] detection_eval <- detection_out
I1001 13:33:04.678473  3017 net.cpp:434] detection_eval <- label
I1001 13:33:04.678483  3017 net.cpp:408] detection_eval -> detection_eval
I1001 13:33:04.678550  3017 net.cpp:150] Setting up detection_eval
I1001 13:33:04.678561  3017 net.cpp:157] Top shape: 1 1 3 5 (15)
I1001 13:33:04.678570  3017 net.cpp:165] Memory required for data: 994166840
I1001 13:33:04.678576  3017 net.cpp:228] detection_eval does not need backward computation.
I1001 13:33:04.678598  3017 net.cpp:228] detection_out does not need backward computation.
I1001 13:33:04.678607  3017 net.cpp:228] mbox_conf_flatten does not need backward computation.
I1001 13:33:04.678616  3017 net.cpp:228] mbox_conf_softmax does not need backward computation.
…
