…
      sampler {
        min_scale: 0.3
        max_scale: 1
        min_aspect_ratio: 0.5
        max_aspect_ratio: 2
      }
      sample_constraint {
        min_jaccard_overlap: 0.9
      }
      max_sample: 1
      max_trials: 50
    }
    batch_sampler {
      sampler {
        min_scale: 0.3
        max_scale: 1
        min_aspect_ratio: 0.5
        max_aspect_ratio: 2
      }
      sample_constraint {
        max_jaccard_overlap: 1
      }
      max_sample: 1
      max_trials: 50
    }
    label_map_file: "data/MELON/labelmap_melon.prototxt"
  }
}
layer {
  name: "conv1_1"
  type: "Convolution"
  bottom: "data"
  top: "conv1_1"
  param {
    lr_mult: 1
    decay_mult: 1
  }
  param {
    lr_mult: 2
    decay_mult: 0
  }
  convolution_param {
    num_output: 64
    pad: 1
    kernel_size: 3
    weight_filler {
      type: "xavier"
    }
    bias_filler {
      type: "constant"
      value: 0
    }
  }
}
layer {
  name: "relu1_1"
  type: "ReLU"
  bottom: "conv1_1"
  top: "conv1_1"
}
layer {
  name: "conv1_2"
  type: "Convolution"
  bottom: "conv1_1"
  top: "conv1_2"
  param {
    lr_mult: 1
    decay_mult: 1
  }
  param {
    lr_mult: 2
    decay_mult: 0
  }
  convolution_param {
    num_output: 64
    pad: 1
    kernel_size: 3
    weight_filler {
      type: "xavier"
    }
    bias_filler {
      type: "constant"
      value: 0
    }
  }
}
layer {
  name: "relu1_2"
  type: "ReLU"
  bottom: "conv1_2"
  top: "conv1_2"
}
layer {
  name: "pool1"
  type: "Pooling"
  bottom: "conv1_2"
  top: "pool1"
  pooling_param {
    pool: MAX
    kernel_size: 2
    stride: 2
  }
}
layer {
  name: "conv2_1"
  type: "Convolution"
  bottom: "pool1"
  top: "conv2_1"
  param {
    lr_mult: 1
    decay_mult: 1
  }
  param {
    lr_mult: 2
    decay_mult: 0
  }
  convolution_param {
    num_output: 128
    pad: 1
    kernel_size: 3
    weight_filler {
      type: "xavier"
    }
    bias_filler {
      type: "constant"
      value: 0
    }
  }
}
layer {
  name: "relu2_1"
  type: "ReLU"
  bottom: "conv2_1"
  top: "conv2_1"
}
layer {
  name: "conv2_2"
  type: "Convolution"
  bottom: "conv2_1"
  top: "conv2_2"
  param {
    lr_mult: 1
    decay_mult: 1
  }
  param {
    lr_mult: 2
    decay_mult: 0
  }
  convolution_param {
    num_output: 128
    pad: 1
    kernel_size: 3
    weight_filler {
      type: "xavier"
    }
    bias_filler {
      type: "constant"
      value: 0
    }
  }
}
layer {
  name: "relu2_2"
  type: "ReLU"
  bottom: "conv2_2"
  top: "conv2_2"
}
layer {
  name: "pool2"
  type: "Pooling"
  bottom: "conv2_2"
  top: "pool2"
  pooling_param {
    pool: MAX
    kernel_size: 2
    stride: 2
  }
}
layer {
  name: "conv3_1"
  type: "Convolution"
  bottom: "pool2"
  top: "conv3_1"
  param {
    lr_mult: 1
    decay_mult: 1
  }
  param {
    lr_mult: 2
    decay_mult: 0
  }
  convolution_param {
    num_output: 256
    pad: 1
    kernel_size: 3
    weight_filler {
      type: "xavier"
    }
    bias_filler {
      type: "constant"
      value: 0
    }
  }
}
layer {
  name: "relu3_1"
  type: "ReLU"
  bottom: "conv3_1"
  top: "conv3_1"
}
layer {
  name: "conv3_2"
  type: "Convolution"
  bottom: "conv3_1"
  top: "conv3_2"
  param {
    lr_mult: 1
    decay_mult: 1
  }
  param {
    lr_mult: 2
    decay_mult: 0
  }
  convolution_param {
    num_output: 256
    pad: 1
    kernel_size: 3
    weight_filler {
      type: "xavier"
    }
    bias_filler {
      type: "constant"
      value: 0
    }
  }
}
layer {
  name: "relu3_2"
  type: "ReLU"
  bottom: "conv3_2"
  top: "conv3_2"
}
layer {
  name: "conv3_3"
  type: "Convolution"
  bottom: "conv3_2"
  top: "conv3_3"
  param {
    lr_mult: 1
    decay_mult: 1
  }
  param {
    lr_mult: 2
    decay_mult: 0
  }
  convolution_param {
    num_output: 256
    pad: 1
    kernel_size: 3
    weight_filler {
      type: "xavier"
    }
    bias_filler {
      type: "constant"
      value: 0
    }
  }
}
layer {
  name: "relu3_3"
  type: "ReLU"
  bottom: "conv3_3"
  top: "conv3_3"
}
layer {
  name: "pool3"
  type: "Pooling"
  bottom: "conv3_3"
  top: "pool3"
  pooling_param {
    pool: MAX
    kernel_size: 2
    stride: 2
  }
}
layer {
  name: "conv4_1"
  type: "Convolution"
  bottom: "pool3"
  top: "conv4_1"
  param {
    lr_mult: 1
    decay_mult: 1
  }
  param {
    lr_mult: 2
    decay_mult: 0
  }
  convolution_param {
    num_output: 512
    pad: 1
    kernel_size: 3
    weight_filler {
      type: "xavier"
    }
    bias_filler {
      type: "constant"
      value: 0
    }
  }
}
layer {
  name: "relu4_1"
  type: "ReLU"
  bottom: "conv4_1"
  top: "conv4_1"
}
layer {
  name: "conv4_2"
  type: "Convolution"
  bottom: "conv4_1"
  top: "conv4_2"
  param {
    lr_mult: 1
    decay_mult: 1
  }
  param {
    lr_mult: 2
    decay_mult: 0
  }
  convolution_param {
    num_output: 512
    pad: 1
    kernel_size: 3
    weight_filler {
      type: "xavier"
    }
    bias_filler {
      type: "constant"
      value: 0
    }
  }
}
layer {
  name: "relu4_2"
  type: "ReLU"
  bottom: "conv4_2"
  top: "conv4_2"
}
layer {
  name: "conv4_3"
  type: "Convolution"
  bottom: "conv4_2"
  top: "conv4_3"
  param {
    lr_mult: 1
    decay_mult: 1
  }
  param {
    lr_mult: 2
    decay_mult: 0
  }
  convolution_param {
    num_output: 512
    pad: 1
    kernel_size: 3
    weight_filler {
      type: "xavier"
    }
    bias_filler {
      type: "constant"
      value: 0
    }
  }
}
layer {
  name: "relu4_3"
  type: "ReLU"
  bottom: "conv4_3"
  top: "conv4_3"
}
layer {
  name: "pool4"
  type: "Pooling"
  bottom: "conv4_3"
  top: "pool4"
  pooling_param {
    pool: MAX
    kernel_size: 2
    stride: 2
  }
}
layer {
  name: "conv5_1"
  type: "Convolution"
  bottom: "pool4"
  top: "conv5_1"
  param {
    lr_mult: 1
    decay_mult: 1
  }
  param {
    lr_mult: 2
    decay_mult: 0
  }
  convolution_param {
    num_output: 512
    pad: 1
    kernel_size: 3
    weight_filler {
      type: "xavier"
    }
    bias_filler {
      type: "constant"
      value: 0
    }
    dilation: 1
  }
}
layer {
  name: "relu5_1"
  type: "ReLU"
  bottom: "conv5_1"
  top: "conv5_1"
}
layer {
  name: "conv5_2"
  type: "Convolution"
  bottom: "conv5_1"
  top: "conv5_2"
  param {
    lr_mult: 1
    decay_mult: 1
  }
  param {
    lr_mult: 2
    decay_mult: 0
  }
  convolution_param {
    num_output: 512
    pad: 1
    kernel_size: 3
    weight_filler {
      type: "xavier"
    }
    bias_filler {
      type: "constant"
      value: 0
    }
    dilation: 1
  }
}
layer {
  name: "relu5_2"
  type: "ReLU"
  bottom: "conv5_2"
  top: "conv5_2"
}
layer {
  name: "conv5_3"
  type: "Convolution"
  bottom: "conv5_2"
  top: "conv5_3"
  param {
    lr_mult: 1
    decay_mult: 1
  }
  param {
    lr_mult: 2
    decay_mult: 0
  }
  convolution_param {
    num_output: 512
    pad: 1
    kernel_size: 3
    weight_filler {
      type: "xavier"
    }
    bias_filler {
      type: "constant"
      value: 0
    }
    dilation: 1
  }
}
layer {
  name: "relu5_3"
  type: "ReLU"
  bottom: "conv5_3"
  top: "conv5_3"
}
layer {
  name: "pool5"
  type: "Pooling"
  bottom: "conv5_3"
  top: "pool5"
  pooling_param {
    pool: MAX
    kernel_size: 3
    stride: 1
    pad: 1
  }
}
layer {
  name: "fc6"
  type: "Convolution"
  bottom: "pool5"
  top: "fc6"
  param {
    lr_mult: 1
    decay_mult: 1
  }
  param {
    lr_mult: 2
    decay_mult: 0
  }
  convolution_param {
    num_output: 1024
    pad: 6
    kernel_size: 3
    weight_filler {
      type: "xavier"
    }
    bias_filler {
      type: "constant"
      value: 0
    }
    dilation: 6
  }
}
layer {
  name: "relu6"
  type: "ReLU"
  bottom: "fc6"
  top: "fc6"
}
layer {
  name: "fc7"
  type: "Convolution"
  bottom: "fc6"
  top: "fc7"
  param {
    lr_mult: 1
    decay_mult: 1
  }
  param {
    lr_mult: 2
    decay_mult: 0
  }
  convolution_param {
    num_output: 1024
    kernel_size: 1
    weight_filler {
      type: "xavier"
    }
    bias_filler {
      type: "constant"
      value: 0
    }
  }
}
layer {
  name: "relu7"
  type: "ReLU"
  bottom: "fc7"
  top: "fc7"
}
layer {
  name: "conv6_1"
  type: "Convolution"
  bottom: "fc7"
  top: "conv6_1"
  param {
    lr_mult: 1
    decay_mult: 1
  }
  param {
    lr_mult: 2
    decay_mult: 0
  }
  convolution_param {
    num_output: 256
    pad: 0
    kernel_size: 1
    stride: 1
    weight_filler {
      type: "xavier"
    }
    bias_filler {
      type: "constant"
      value: 0
    }
  }
}
layer {
  name: "conv6_1_relu"
  type: "ReLU"
  bottom: "conv6_1"
  top: "conv6_1"
}
layer {
  name: "conv6_2"
  type: "Convolution"
  bottom: "conv6_1"
  top: "conv6_2"
  param {
    lr_mult: 1
    decay_mult: 1
  }
  param {
    lr_mult: 2
    decay_mult: 0
  }
  convolution_param {
    num_output: 512
    pad: 1
    kernel_size: 3
    stride: 2
    weight_filler {
      type: "xavier"
    }
    bias_filler {
      type: "constant"
      value: 0
    }
  }
}
layer {
  name: "conv6_2_relu"
  type: "ReLU"
  bottom: "conv6_2"
  top: "conv6_2"
}
layer {
  name: "conv7_1"
  type: "Convolution"
  bottom: "conv6_2"
  top: "conv7_1"
  param {
    lr_mult: 1
    decay_mult: 1
  }
  param {
    lr_mult: 2
    decay_mult: 0
  }
  convolution_param {
    num_output: 128
    pad: 0
    kernel_size: 1
    stride: 1
    weight_filler {
      type: "xavier"
    }
    bias_filler {
      type: "constant"
      value: 0
    }
  }
}
layer {
  name: "conv7_1_relu"
  type: "ReLU"
  bottom: "conv7_1"
  top: "conv7_1"
}
layer {
  name: "conv7_2"
  type: "Convolution"
  bottom: "conv7_1"
  top: "conv7_2"
  param {
    lr_mult: 1
    decay_mult: 1
  }
  param {
    lr_mult: 2
    decay_mult: 0
  }
  convolution_param {
    num_output: 256
    pad: 1
    kernel_size: 3
    stride: 2
    weight_filler {
      type: "xavier"
    }
    bias_filler {
      type: "constant"
      value: 0
    }
  }
}
layer {
  name: "conv7_2_relu"
  type: "ReLU"
  bottom: "conv7_2"
  top: "conv7_2"
}
layer {
  name: "conv8_1"
  type: "Convolution"
  bottom: "conv7_2"
  top: "conv8_1"
  param {
    lr_mult: 1
    decay_mult: 1
  }
  param {
    lr_mult: 2
    decay_mult: 0
  }
  convolution_param {
    num_output: 128
    pad: 0
    kernel_size: 1
    stride: 1
    weight_filler {
      type: "xavier"
    }
    bias_filler {
      type: "constant"
      value: 0
    }
  }
}
layer {
  name: "conv8_1_relu"
  type: "ReLU"
  bottom: "conv8_1"
  top: "conv8_1"
}
layer {
  name: "conv8_2"
  type: "Convolution"
  bottom: "conv8_1"
  top: "conv8_2"
  param {
    lr_mult: 1
    decay_mult: 1
  }
  param {
    lr_mult: 2
    decay_mult: 0
  }
  convolution_param {
    num_output: 256
    pad: 0
    kernel_size: 3
    stride: 1
    weight_filler {
      type: "xavier"
    }
    bias_filler {
      type: "constant"
      value: 0
    }
  }
}
layer {
  name: "conv8_2_relu"
  type: "ReLU"
  bottom: "conv8_2"
  top: "conv8_2"
}
layer {
  name: "conv9_1"
  type: "Convolution"
  bottom: "conv8_2"
  top: "conv9_1"
  param {
    lr_mult: 1
    decay_mult: 1
  }
  param {
    lr_mult: 2
    decay_mult: 0
  }
  convolution_param {
    num_output: 128
    pad: 0
    kernel_size: 1
    stride: 1
    weight_filler {
      type: "xavier"
    }
    bias_filler {
      type: "constant"
      value: 0
    }
  }
}
layer {
  name: "conv9_1_relu"
  type: "ReLU"
  bottom: "conv9_1"
  top: "conv9_1"
}
layer {
  name: "conv9_2"
  type: "Convolution"
  bottom: "conv9_1"
  top: "conv9_2"
  param {
    lr_mult: 1
    decay_mult: 1
  }
  param {
    lr_mult: 2
    decay_mult: 0
  }
  convolution_param {
    num_output: 256
    pad: 0
    kernel_size: 3
    stride: 1
    weight_filler {
      type: "xavier"
    }
    bias_filler {
      type: "constant"
      value: 0
    }
  }
}
layer {
  name: "conv9_2_relu"
  type: "ReLU"
  bottom: "conv9_2"
  top: "conv9_2"
}
layer {
  name: "conv4_3_norm"
  type: "Normalize"
  bottom: "conv4_3"
  top: "conv4_3_norm"
  norm_param {
    across_spatial: false
    scale_filler {
      type: "constant"
      value: 20
    }
    channel_shared: false
  }
}
layer {
  name: "conv4_3_norm_mbox_loc"
  type: "Convolution"
  bottom: "conv4_3_norm"
  top: "conv4_3_norm_mbox_loc"
  param {
    lr_mult: 1
    decay_mult: 1
  }
  param {
    lr_mult: 2
    decay_mult: 0
  }
  convolution_param {
    num_output: 16
    pad: 1
    kernel_size: 3
    stride: 1
    weight_filler {
      type: "xavier"
    }
    bias_filler {
      type: "constant"
      value: 0
    }
  }
}
layer {
  name: "conv4_3_norm_mbox_loc_perm"
  type: "Permute"
  bottom: "conv4_3_norm_mbox_loc"
  top: "conv4_3_norm_mbox_loc_perm"
  permute_param {
    order: 0
    order: 2
    order: 3
    order: 1
  }
}
layer {
  name: "conv4_3_norm_mbox_loc_flat"
  type: "Flatten"
  bottom: "conv4_3_norm_mbox_loc_perm"
  top: "conv4_3_norm_mbox_loc_flat"
  flatten_param {
    axis: 1
  }
}
layer {
  name: "conv4_3_norm_mbox_conf"
  type: "Convolution"
  bottom: "conv4_3_norm"
  top: "conv4_3_norm_mbox_conf"
  param {
    lr_mult: 1
    decay_mult: 1
  }
  param {
    lr_mult: 2
    decay_mult: 0
  }
  convolution_param {
    num_output: 12
    pad: 1
    kernel_size: 3
    stride: 1
    weight_filler {
      type: "xavier"
    }
    bias_filler {
      type: "constant"
      value: 0
    }
  }
}
layer {
  name: "conv4_3_norm_mbox_conf_perm"
  type: "Permute"
  bottom: "conv4_3_norm_mbox_conf"
  top: "conv4_3_norm_mbox_conf_perm"
  permute_param {
    order: 0
    order: 2
    order: 3
    order: 1
  }
}
layer {
  name: "conv4_3_norm_mbox_conf_flat"
  type: "Flatten"
  bottom: "conv4_3_norm_mbox_conf_perm"
  top: "conv4_3_norm_mbox_conf_flat"
  flatten_param {
    axis: 1
  }
}
layer {
  name: "conv4_3_norm_mbox_priorbox"
  type: "PriorBox"
  bottom: "conv4_3_norm"
  bottom: "data"
  top: "conv4_3_norm_mbox_priorbox"
  prior_box_param {
    min_size: 30
    max_size: 60
    aspect_ratio: 2
    flip: true
    clip: false
    variance: 0.1
    variance: 0.1
    variance: 0.2
    variance: 0.2
    step: 8
    offset: 0.5
  }
}
layer {
  name: "fc7_mbox_loc"
  type: "Convolution"
  bottom: "fc7"
  top: "fc7_mbox_loc"
  param {
    lr_mult: 1
    decay_mult: 1
  }
  param {
    lr_mult: 2
    decay_mult: 0
  }
  convolution_param {
    num_output: 24
    pad: 1
    kernel_size: 3
    stride: 1
    weight_filler {
      type: "xavier"
    }
    bias_filler {
      type: "constant"
      value: 0
    }
  }
}
layer {
  name: "fc7_mbox_loc_perm"
  type: "Permute"
  bottom: "fc7_mbox_loc"
  top: "fc7_mbox_loc_perm"
  permute_param {
    order: 0
    order: 2
    order: 3
    order: 1
  }
}
layer {
  name: "fc7_mbox_loc_flat"
  type: "Flatten"
  bottom: "fc7_mbox_loc_perm"
  top: "fc7_mbox_loc_flat"
  flatten_param {
    axis: 1
  }
}
layer {
  name: "fc7_mbox_conf"
  type: "Convolution"
  bottom: "fc7"
  top: "fc7_mbox_conf"
  param {
    lr_mult: 1
    decay_mult: 1
  }
  param {
    lr_mult: 2
    decay_mult: 0
  }
  convolution_param {
    num_output: 18
    pad: 1
    kernel_size: 3
    stride: 1
    weight_filler {
      type: "xavier"
    }
    bias_filler {
      type: "constant"
      value: 0
    }
  }
}
layer {
  name: "fc7_mbox_conf_perm"
  type: "Permute"
  bottom: "fc7_mbox_conf"
  top: "fc7_mbox_conf_perm"
  permute_param {
    order: 0
    order: 2
    order: 3
    order: 1
  }
}
layer {
  name: "fc7_mbox_conf_flat"
  type: "Flatten"
  bottom: "fc7_mbox_conf_perm"
  top: "fc7_mbox_conf_flat"
  flatten_param {
    axis: 1
  }
}
layer {
  name: "fc7_mbox_priorbox"
  type: "PriorBox"
  bottom: "fc7"
  bottom: "data"
  top: "fc7_mbox_priorbox"
  prior_box_param {
    min_size: 60
    max_size: 111
    aspect_ratio: 2
    aspect_ratio: 3
    flip: true
    clip: false
    variance: 0.1
    variance: 0.1
    variance: 0.2
    variance: 0.2
    step: 16
    offset: 0.5
  }
}
layer {
  name: "conv6_2_mbox_loc"
  type: "Convolution"
  bottom: "conv6_2"
  top: "conv6_2_mbox_loc"
  param {
    lr_mult: 1
    decay_mult: 1
  }
  param {
    lr_mult: 2
    decay_mult: 0
  }
  convolution_param {
    num_output: 24
    pad: 1
    kernel_size: 3
    stride: 1
    weight_filler {
      type: "xavier"
    }
    bias_filler {
      type: "constant"
      value: 0
    }
  }
}
layer {
  name: "conv6_2_mbox_loc_perm"
  type: "Permute"
  bottom: "conv6_2_mbox_loc"
  top: "conv6_2_mbox_loc_perm"
  permute_param {
    order: 0
    order: 2
    order: 3
    order: 1
  }
}
layer {
  name: "conv6_2_mbox_loc_flat"
  type: "Flatten"
  bottom: "conv6_2_mbox_loc_perm"
  top: "conv6_2_mbox_loc_flat"
  flatten_param {
    axis: 1
  }
}
layer {
  name: "conv6_2_mbox_conf"
  type: "Convolution"
  bottom: "conv6_2"
  top: "conv6_2_mbox_conf"
  param {
    lr_mult: 1
    decay_mult: 1
  }
  param {
    lr_mult: 2
    decay_mult: 0
  }
  convolution_param {
    num_output: 18
    pad: 1
    kernel_size: 3
    stride: 1
    weight_filler {
      type: "xavier"
    }
    bias_filler {
      type: "constant"
      value: 0
    }
  }
}
layer {
  name: "conv6_2_mbox_conf_perm"
  type: "Permute"
  bottom: "conv6_2_mbox_conf"
  top: "conv6_2_mbox_conf_perm"
  permute_param {
    order: 0
    order: 2
    order: 3
    order: 1
  }
}
layer {
  name: "conv6_2_mbox_conf_flat"
  type: "Flatten"
  bottom: "conv6_2_mbox_conf_perm"
  top: "conv6_2_mbox_conf_flat"
  flatten_param {
    axis: 1
  }
}
layer {
  name: "conv6_2_mbox_priorbox"
  type: "PriorBox"
  bottom: "conv6_2"
  bottom: "data"
  top: "conv6_2_mbox_priorbox"
  prior_box_param {
    min_size: 111
    max_size: 162
    aspect_ratio: 2
    aspect_ratio: 3
    flip: true
    clip: false
    variance: 0.1
    variance: 0.1
    variance: 0.2
    variance: 0.2
    step: 32
    offset: 0.5
  }
}
layer {
  name: "conv7_2_mbox_loc"
  type: "Convolution"
  bottom: "conv7_2"
  top: "conv7_2_mbox_loc"
  param {
    lr_mult: 1
    decay_mult: 1
  }
  param {
    lr_mult: 2
    decay_mult: 0
  }
  convolution_param {
    num_output: 24
    pad: 1
    kernel_size: 3
    stride: 1
    weight_filler {
      type: "xavier"
    }
    bias_filler {
      type: "constant"
      value: 0
    }
  }
}
layer {
  name: "conv7_2_mbox_loc_perm"
  type: "Permute"
  bottom: "conv7_2_mbox_loc"
  top: "conv7_2_mbox_loc_perm"
  permute_param {
    order: 0
    order: 2
    order: 3
    order: 1
  }
}
layer {
  name: "conv7_2_mbox_loc_flat"
  type: "Flatten"
  bottom: "conv7_2_mbox_loc_perm"
  top: "conv7_2_mbox_loc_flat"
  flatten_param {
    axis: 1
  }
}
layer {
  name: "conv7_2_mbox_conf"
  type: "Convolution"
  bottom: "conv7_2"
  top: "conv7_2_mbox_conf"
  param {
    lr_mult: 1
    decay_mult: 1
  }
  param {
    lr_mult: 2
    decay_mult: 0
  }
  convolution_param {
    num_output: 18
    pad: 1
    kernel_size: 3
    stride: 1
    weight_filler {
      type: "xavier"
    }
    bias_filler {
      type: "constant"
      value: 0
    }
  }
}
layer {
  name: "conv7_2_mbox_conf_perm"
  type: "Permute"
  bottom: "conv7_2_mbox_conf"
  top: "conv7_2_mbox_conf_perm"
  permute_param {
    order: 0
    order: 2
    order: 3
    order: 1
  }
}
layer {
  name: "conv7_2_mbox_conf_flat"
  type: "Flatten"
  bottom: "conv7_2_mbox_conf_perm"
  top: "conv7_2_mbox_conf_flat"
  flatten_param {
    axis: 1
  }
}
layer {
  name: "conv7_2_mbox_priorbox"
  type: "PriorBox"
  bottom: "conv7_2"
  bottom: "data"
  top: "conv7_2_mbox_priorbox"
  prior_box_param {
    min_size: 162
    max_size: 213
    aspect_ratio: 2
    aspect_ratio: 3
    flip: true
    clip: false
    variance: 0.1
    variance: 0.1
    variance: 0.2
    variance: 0.2
    step: 64
    offset: 0.5
  }
}
layer {
  name: "conv8_2_mbox_loc"
  type: "Convolution"
  bottom: "conv8_2"
  top: "conv8_2_mbox_loc"
  param {
    lr_mult: 1
    decay_mult: 1
  }
  param {
    lr_mult: 2
    decay_mult: 0
  }
  convolution_param {
    num_output: 16
    pad: 1
    kernel_size: 3
    stride: 1
    weight_filler {
      type: "xavier"
    }
    bias_filler {
      type: "constant"
      value: 0
    }
  }
}
layer {
  name: "conv8_2_mbox_loc_perm"
  type: "Permute"
  bottom: "conv8_2_mbox_loc"
  top: "conv8_2_mbox_loc_perm"
  permute_param {
    order: 0
    order: 2
    order: 3
    order: 1
  }
}
layer {
  name: "conv8_2_mbox_loc_flat"
  type: "Flatten"
  bottom: "conv8_2_mbox_loc_perm"
  top: "conv8_2_mbox_loc_flat"
  flatten_param {
    axis: 1
  }
}
layer {
  name: "conv8_2_mbox_conf"
  type: "Convolution"
  bottom: "conv8_2"
  top: "conv8_2_mbox_conf"
  param {
    lr_mult: 1
    decay_mult: 1
  }
  param {
    lr_mult: 2
    decay_mult: 0
  }
  convolution_param {
    num_output: 12
    pad: 1
    kernel_size: 3
    stride: 1
    weight_filler {
      type: "xavier"
    }
    bias_filler {
      type: "constant"
      value: 0
    }
  }
}
layer {
  name: "conv8_2_mbox_conf_perm"
  type: "Permute"
  bottom: "conv8_2_mbox_conf"
  top: "conv8_2_mbox_conf_perm"
  permute_param {
    order: 0
    order: 2
    order: 3
    order: 1
  }
}
layer {
  name: "conv8_2_mbox_conf_flat"
  type: "Flatten"
  bottom: "conv8_2_mbox_conf_perm"
  top: "conv8_2_mbox_conf_flat"
  flatten_param {
    axis: 1
  }
}
layer {
  name: "conv8_2_mbox_priorbox"
  type: "PriorBox"
  bottom: "conv8_2"
  bottom: "data"
  top: "conv8_2_mbox_priorbox"
  prior_box_param {
    min_size: 213
    max_size: 264
    aspect_ratio: 2
    flip: true
    clip: false
    variance: 0.1
    variance: 0.1
    variance: 0.2
    variance: 0.2
    step: 100
    offset: 0.5
  }
}
layer {
  name: "conv9_2_mbox_loc"
  type: "Convolution"
  bottom: "conv9_2"
  top: "conv9_2_mbox_loc"
  param {
    lr_mult: 1
    decay_mult: 1
  }
  param {
    lr_mult: 2
    decay_mult: 0
  }
  convolution_param {
    num_output: 16
    pad: 1
    kernel_size: 3
    stride: 1
    weight_filler {
      type: "xavier"
    }
    bias_filler {
      type: "constant"
      value: 0
    }
  }
}
layer {
  name: "conv9_2_mbox_loc_perm"
  type: "Permute"
  bottom: "conv9_2_mbox_loc"
  top: "conv9_2_mbox_loc_perm"
  permute_param {
    order: 0
    order: 2
    order: 3
    order: 1
  }
}
layer {
  name: "conv9_2_mbox_loc_flat"
  type: "Flatten"
  bottom: "conv9_2_mbox_loc_perm"
  top: "conv9_2_mbox_loc_flat"
  flatten_param {
    axis: 1
  }
}
layer {
  name: "conv9_2_mbox_conf"
  type: "Convolution"
  bottom: "conv9_2"
  top: "conv9_2_mbox_conf"
  param {
    lr_mult: 1
    decay_mult: 1
  }
  param {
    lr_mult: 2
    decay_mult: 0
  }
  convolution_param {
    num_output: 12
    pad: 1
    kernel_size: 3
    stride: 1
    weight_filler {
      type: "xavier"
    }
    bias_filler {
      type: "constant"
      value: 0
    }
  }
}
layer {
  name: "conv9_2_mbox_conf_perm"
  type: "Permute"
  bottom: "conv9_2_mbox_conf"
  top: "conv9_2_mbox_conf_perm"
  permute_param {
    order: 0
    order: 2
    order: 3
    order: 1
  }
}
layer {
  name: "conv9_2_mbox_conf_flat"
  type: "Flatten"
  bottom: "conv9_2_mbox_conf_perm"
  top: "conv9_2_mbox_conf_flat"
  flatten_param {
    axis: 1
  }
}
layer {
  name: "conv9_2_mbox_priorbox"
  type: "PriorBox"
  bottom: "conv9_2"
  bottom: "data"
  top: "conv9_2_mbox_priorbox"
  prior_box_param {
    min_size: 264
    max_size: 315
    aspect_ratio: 2
    flip: true
    clip: false
    variance: 0.1
    variance: 0.1
    variance: 0.2
    variance: 0.2
    step: 300
    offset: 0.5
  }
}
layer {
  name: "mbox_loc"
  type: "Concat"
  bottom: "conv4_3_norm_mbox_loc_flat"
  bottom: "fc7_mbox_loc_flat"
  bottom: "conv6_2_mbox_loc_flat"
  bottom: "conv7_2_mbox_loc_flat"
  bottom: "conv8_2_mbox_loc_flat"
  bottom: "conv9_2_mbox_loc_flat"
  top: "mbox_loc"
  concat_param {
    axis: 1
  }
}
layer {
  name: "mbox_conf"
  type: "Concat"
  bottom: "conv4_3_norm_mbox_conf_flat"
  bottom: "fc7_mbox_conf_flat"
  bottom: "conv6_2_mbox_conf_flat"
  bottom: "conv7_2_mbox_conf_flat"
  bottom: "conv8_2_mbox_conf_flat"
  bottom: "conv9_2_mbox_conf_flat"
  top: "mbox_conf"
  concat_param {
    axis: 1
  }
}
layer {
  name: "mbox_priorbox"
  type: "Concat"
  bottom: "conv4_3_norm_mbox_priorbox"
  bottom: "fc7_mbox_priorbox"
  bottom: "conv6_2_mbox_priorbox"
  bottom: "conv7_2_mbox_priorbox"
  bottom: "conv8_2_mbox_priorbox"
  bottom: "conv9_2_mbox_priorbox"
  top: "mbox_priorbox"
  concat_param {
    axis: 2
  }
}
layer {
  name: "mbox_loss"
  type: "MultiBoxLoss"
  bottom: "mbox_loc"
  bottom: "mbox_conf"
  bottom: "mbox_priorbox"
  bottom: "label"
  top: "mbox_loss"
  include {
    phase: TRAIN
  }
  propagate_down: true
  propagate_down: true
  propagate_down: false
  propagate_down: false
  loss_param {
    normalization: VALID
  }
  multibox_loss_param {
    loc_loss_type: SMOOTH_L1
    conf_loss_type: SOFTMAX
    loc_weight: 1
    num_classes: 3
    share_location: true
    match_type: PER_PREDICTION
    overlap_threshold: 0.5
    use_prior_for_matching: true
    background_label_id: 0
    use_difficult_gt: true
    neg_pos_ratio: 3
    neg_overlap: 0.5
    code_type: CENTER_SIZE
    ignore_cross_boundary_bbox: false
    mining_type: MAX_NEGATIVE
  }
}
I1002 11:44:21.154405 15796 layer_factory.hpp:77] Creating layer data
I1002 11:44:21.154563 15796 net.cpp:100] Creating Layer data
I1002 11:44:21.154573 15796 net.cpp:408] data -> data
I1002 11:44:21.154608 15796 net.cpp:408] data -> label
I1002 11:44:21.155329 15807 db_lmdb.cpp:35] Opened lmdb examples/MELON/MELON_trainval_lmdb
I1002 11:44:21.162959 15796 annotated_data_layer.cpp:62] output data size: 10,3,300,300
I1002 11:44:21.176936 15796 net.cpp:150] Setting up data
I1002 11:44:21.176957 15796 net.cpp:157] Top shape: 10 3 300 300 (2700000)
I1002 11:44:21.176961 15796 net.cpp:157] Top shape: 1 1 1 8 (8)
I1002 11:44:21.176964 15796 net.cpp:165] Memory required for data: 10800032
I1002 11:44:21.176993 15796 layer_factory.hpp:77] Creating layer data_data_0_split
I1002 11:44:21.177004 15796 net.cpp:100] Creating Layer data_data_0_split
I1002 11:44:21.177009 15796 net.cpp:434] data_data_0_split <- data
I1002 11:44:21.177021 15796 net.cpp:408] data_data_0_split -> data_data_0_split_0
I1002 11:44:21.177028 15796 net.cpp:408] data_data_0_split -> data_data_0_split_1
I1002 11:44:21.177034 15796 net.cpp:408] data_data_0_split -> data_data_0_split_2
I1002 11:44:21.177040 15796 net.cpp:408] data_data_0_split -> data_data_0_split_3
I1002 11:44:21.177044 15796 net.cpp:408] data_data_0_split -> data_data_0_split_4
I1002 11:44:21.177047 15796 net.cpp:408] data_data_0_split -> data_data_0_split_5
I1002 11:44:21.177052 15796 net.cpp:408] data_data_0_split -> data_data_0_split_6
I1002 11:44:21.177134 15796 net.cpp:150] Setting up data_data_0_split
I1002 11:44:21.177140 15796 net.cpp:157] Top shape: 10 3 300 300 (2700000)
I1002 11:44:21.177143 15796 net.cpp:157] Top shape: 10 3 300 300 (2700000)
I1002 11:44:21.177145 15796 net.cpp:157] Top shape: 10 3 300 300 (2700000)
I1002 11:44:21.177148 15796 net.cpp:157] Top shape: 10 3 300 300 (2700000)
I1002 11:44:21.177150 15796 net.cpp:157] Top shape: 10 3 300 300 (2700000)
I1002 11:44:21.177153 15796 net.cpp:157] Top shape: 10 3 300 300 (2700000)
I1002 11:44:21.177155 15796 net.cpp:157] Top shape: 10 3 300 300 (2700000)
I1002 11:44:21.177157 15796 net.cpp:165] Memory required for data: 86400032
I1002 11:44:21.177160 15796 layer_factory.hpp:77] Creating layer conv1_1
I1002 11:44:21.177173 15796 net.cpp:100] Creating Layer conv1_1
I1002 11:44:21.177175 15796 net.cpp:434] conv1_1 <- data_data_0_split_0
I1002 11:44:21.177179 15796 net.cpp:408] conv1_1 -> conv1_1
I1002 11:44:21.178689 15796 net.cpp:150] Setting up conv1_1
I1002 11:44:21.178707 15796 net.cpp:157] Top shape: 10 64 300 300 (57600000)
I1002 11:44:21.178709 15796 net.cpp:165] Memory required for data: 316800032
I1002 11:44:21.178722 15796 layer_factory.hpp:77] Creating layer relu1_1
I1002 11:44:21.178730 15796 net.cpp:100] Creating Layer relu1_1
I1002 11:44:21.178733 15796 net.cpp:434] relu1_1 <- conv1_1
I1002 11:44:21.178737 15796 net.cpp:395] relu1_1 -> conv1_1 (in-place)
I1002 11:44:21.178743 15796 net.cpp:150] Setting up relu1_1
I1002 11:44:21.178745 15796 net.cpp:157] Top shape: 10 64 300 300 (57600000)
I1002 11:44:21.178747 15796 net.cpp:165] Memory required for data: 547200032
I1002 11:44:21.178750 15796 layer_factory.hpp:77] Creating layer conv1_2
I1002 11:44:21.178757 15796 net.cpp:100] Creating Layer conv1_2
I1002 11:44:21.178759 15796 net.cpp:434] conv1_2 <- conv1_1
I1002 11:44:21.178762 15796 net.cpp:408] conv1_2 -> conv1_2
I1002 11:44:21.180506 15796 net.cpp:150] Setting up conv1_2
I1002 11:44:21.180528 15796 net.cpp:157] Top shape: 10 64 300 300 (57600000)
I1002 11:44:21.180531 15796 net.cpp:165] Memory required for data: 777600032
I1002 11:44:21.180541 15796 layer_factory.hpp:77] Creating layer relu1_2
I1002 11:44:21.180548 15796 net.cpp:100] Creating Layer relu1_2
I1002 11:44:21.180555 15796 net.cpp:434] relu1_2 <- conv1_2
I1002 11:44:21.180560 15796 net.cpp:395] relu1_2 -> conv1_2 (in-place)
I1002 11:44:21.180570 15796 net.cpp:150] Setting up relu1_2
I1002 11:44:21.180573 15796 net.cpp:157] Top shape: 10 64 300 300 (57600000)
I1002 11:44:21.180575 15796 net.cpp:165] Memory required for data: 1008000032
I1002 11:44:21.180577 15796 layer_factory.hpp:77] Creating layer pool1
I1002 11:44:21.180582 15796 net.cpp:100] Creating Layer pool1
I1002 11:44:21.180586 15796 net.cpp:434] pool1 <- conv1_2
I1002 11:44:21.180589 15796 net.cpp:408] pool1 -> pool1
I1002 11:44:21.180630 15796 net.cpp:150] Setting up pool1
I1002 11:44:21.180635 15796 net.cpp:157] Top shape: 10 64 150 150 (14400000)
I1002 11:44:21.180640 15796 net.cpp:165] Memory required for data: 1065600032
I1002 11:44:21.180642 15796 layer_factory.hpp:77] Creating layer conv2_1
I1002 11:44:21.180650 15796 net.cpp:100] Creating Layer conv2_1
I1002 11:44:21.180655 15796 net.cpp:434] conv2_1 <- pool1
I1002 11:44:21.180658 15796 net.cpp:408] conv2_1 -> conv2_1
I1002 11:44:21.181114 15796 net.cpp:150] Setting up conv2_1
I1002 11:44:21.181119 15796 net.cpp:157] Top shape: 10 128 150 150 (28800000)
I1002 11:44:21.181121 15796 net.cpp:165] Memory required for data: 1180800032
I1002 11:44:21.181126 15796 layer_factory.hpp:77] Creating layer relu2_1
I1002 11:44:21.181131 15796 net.cpp:100] Creating Layer relu2_1
I1002 11:44:21.181133 15796 net.cpp:434] relu2_1 <- conv2_1
I1002 11:44:21.181140 15796 net.cpp:395] relu2_1 -> conv2_1 (in-place)
I1002 11:44:21.181144 15796 net.cpp:150] Setting up relu2_1
I1002 11:44:21.181147 15796 net.cpp:157] Top shape: 10 128 150 150 (28800000)
I1002 11:44:21.181149 15796 net.cpp:165] Memory required for data: 1296000032
I1002 11:44:21.181151 15796 layer_factory.hpp:77] Creating layer conv2_2
I1002 11:44:21.181155 15796 net.cpp:100] Creating Layer conv2_2
I1002 11:44:21.181161 15796 net.cpp:434] conv2_2 <- conv2_1
I1002 11:44:21.181165 15796 net.cpp:408] conv2_2 -> conv2_2
I1002 11:44:21.181849 15796 net.cpp:150] Setting up conv2_2
I1002 11:44:21.181854 15796 net.cpp:157] Top shape: 10 128 150 150 (28800000)
I1002 11:44:21.181856 15796 net.cpp:165] Memory required for data: 1411200032
I1002 11:44:21.181860 15796 layer_factory.hpp:77] Creating layer relu2_2
I1002 11:44:21.181864 15796 net.cpp:100] Creating Layer relu2_2
I1002 11:44:21.181865 15796 net.cpp:434] relu2_2 <- conv2_2
I1002 11:44:21.181867 15796 net.cpp:395] relu2_2 -> conv2_2 (in-place)
I1002 11:44:21.181871 15796 net.cpp:150] Setting up relu2_2
I1002 11:44:21.181874 15796 net.cpp:157] Top shape: 10 128 150 150 (28800000)
I1002 11:44:21.181876 15796 net.cpp:165] Memory required for data: 1526400032
I1002 11:44:21.181877 15796 layer_factory.hpp:77] Creating layer pool2
I1002 11:44:21.181880 15796 net.cpp:100] Creating Layer pool2
I1002 11:44:21.181882 15796 net.cpp:434] pool2 <- conv2_2
I1002 11:44:21.181885 15796 net.cpp:408] pool2 -> pool2
I1002 11:44:21.181907 15796 net.cpp:150] Setting up pool2
I1002 11:44:21.181910 15796 net.cpp:157] Top shape: 10 128 75 75 (7200000)
I1002 11:44:21.181912 15796 net.cpp:165] Memory required for data: 1555200032
I1002 11:44:21.181915 15796 layer_factory.hpp:77] Creating layer conv3_1
I1002 11:44:21.181919 15796 net.cpp:100] Creating Layer conv3_1
I1002 11:44:21.181921 15796 net.cpp:434] conv3_1 <- pool2
I1002 11:44:21.181924 15796 net.cpp:408] conv3_1 -> conv3_1
I1002 11:44:21.184440 15796 net.cpp:150] Setting up conv3_1
I1002 11:44:21.184460 15796 net.cpp:157] Top shape: 10 256 75 75 (14400000)
I1002 11:44:21.184463 15796 net.cpp:165] Memory required for data: 1612800032
I1002 11:44:21.184474 15796 layer_factory.hpp:77] Creating layer relu3_1
I1002 11:44:21.184481 15796 net.cpp:100] Creating Layer relu3_1
I1002 11:44:21.184485 15796 net.cpp:434] relu3_1 <- conv3_1
I1002 11:44:21.184490 15796 net.cpp:395] relu3_1 -> conv3_1 (in-place)
I1002 11:44:21.184496 15796 net.cpp:150] Setting up relu3_1
I1002 11:44:21.184499 15796 net.cpp:157] Top shape: 10 256 75 75 (14400000)
I1002 11:44:21.184501 15796 net.cpp:165] Memory required for data: 1670400032
I1002 11:44:21.184504 15796 layer_factory.hpp:77] Creating layer conv3_2
I1002 11:44:21.184512 15796 net.cpp:100] Creating Layer conv3_2
I1002 11:44:21.184514 15796 net.cpp:434] conv3_2 <- conv3_1
I1002 11:44:21.184518 15796 net.cpp:408] conv3_2 -> conv3_2
I1002 11:44:21.187644 15796 net.cpp:150] Setting up conv3_2
I1002 11:44:21.187666 15796 net.cpp:157] Top shape: 10 256 75 75 (14400000)
I1002 11:44:21.187669 15796 net.cpp:165] Memory required for data: 1728000032
I1002 11:44:21.187675 15796 layer_factory.hpp:77] Creating layer relu3_2
I1002 11:44:21.187682 15796 net.cpp:100] Creating Layer relu3_2
I1002 11:44:21.187685 15796 net.cpp:434] relu3_2 <- conv3_2
I1002 11:44:21.187692 15796 net.cpp:395] relu3_2 -> conv3_2 (in-place)
I1002 11:44:21.187698 15796 net.cpp:150] Setting up relu3_2
I1002 11:44:21.187700 15796 net.cpp:157] Top shape: 10 256 75 75 (14400000)
I1002 11:44:21.187702 15796 net.cpp:165] Memory required for data: 1785600032
I1002 11:44:21.187705 15796 layer_factory.hpp:77] Creating layer conv3_3
I1002 11:44:21.187733 15796 net.cpp:100] Creating Layer conv3_3
I1002 11:44:21.187736 15796 net.cpp:434] conv3_3 <- conv3_2
I1002 11:44:21.187738 15796 net.cpp:408] conv3_3 -> conv3_3
I1002 11:44:21.190968 15796 net.cpp:150] Setting up conv3_3
I1002 11:44:21.190987 15796 net.cpp:157] Top shape: 10 256 75 75 (14400000)
I1002 11:44:21.190989 15796 net.cpp:165] Memory required for data: 1843200032
I1002 11:44:21.190995 15796 layer_factory.hpp:77] Creating layer relu3_3
I1002 11:44:21.191004 15796 net.cpp:100] Creating Layer relu3_3
I1002 11:44:21.191006 15796 net.cpp:434] relu3_3 <- conv3_3
I1002 11:44:21.191011 15796 net.cpp:395] relu3_3 -> conv3_3 (in-place)
I1002 11:44:21.191016 15796 net.cpp:150] Setting up relu3_3
I1002 11:44:21.191020 15796 net.cpp:157] Top shape: 10 256 75 75 (14400000)
I1002 11:44:21.191021 15796 net.cpp:165] Memory required for data: 1900800032
I1002 11:44:21.191022 15796 layer_factory.hpp:77] Creating layer pool3
I1002 11:44:21.191027 15796 net.cpp:100] Creating Layer pool3
I1002 11:44:21.191030 15796 net.cpp:434] pool3 <- conv3_3
I1002 11:44:21.191033 15796 net.cpp:408] pool3 -> pool3
I1002 11:44:21.191058 15796 net.cpp:150] Setting up pool3
I1002 11:44:21.191061 15796 net.cpp:157] Top shape: 10 256 38 38 (3696640)
I1002 11:44:21.191063 15796 net.cpp:165] Memory required for data: 1915586592
I1002 11:44:21.191066 15796 layer_factory.hpp:77] Creating layer conv4_1
I1002 11:44:21.191072 15796 net.cpp:100] Creating Layer conv4_1
I1002 11:44:21.191074 15796 net.cpp:434] conv4_1 <- pool3
I1002 11:44:21.191077 15796 net.cpp:408] conv4_1 -> conv4_1
I1002 11:44:21.198348 15796 net.cpp:150] Setting up conv4_1
I1002 11:44:21.198369 15796 net.cpp:157] Top shape: 10 512 38 38 (7393280)
I1002 11:44:21.198371 15796 net.cpp:165] Memory required for data: 1945159712
I1002 11:44:21.198379 15796 layer_factory.hpp:77] Creating layer relu4_1
I1002 11:44:21.198387 15796 net.cpp:100] Creating Layer relu4_1
I1002 11:44:21.198391 15796 net.cpp:434] relu4_1 <- conv4_1
I1002 11:44:21.198395 15796 net.cpp:395] relu4_1 -> conv4_1 (in-place)
I1002 11:44:21.198401 15796 net.cpp:150] Setting up relu4_1
I1002 11:44:21.198405 15796 net.cpp:157] Top shape: 10 512 38 38 (7393280)
I1002 11:44:21.198406 15796 net.cpp:165] Memory required for data: 1974732832
I1002 11:44:21.198408 15796 layer_factory.hpp:77] Creating layer conv4_2
I1002 11:44:21.198416 15796 net.cpp:100] Creating Layer conv4_2
I1002 11:44:21.198418 15796 net.cpp:434] conv4_2 <- conv4_1
I1002 11:44:21.198422 15796 net.cpp:408] conv4_2 -> conv4_2
I1002 11:44:21.210876 15796 net.cpp:150] Setting up conv4_2
I1002 11:44:21.210922 15796 net.cpp:157] Top shape: 10 512 38 38 (7393280)
I1002 11:44:21.210929 15796 net.cpp:165] Memory required for data: 2004305952
I1002 11:44:21.210944 15796 layer_factory.hpp:77] Creating layer relu4_2
I1002 11:44:21.210958 15796 net.cpp:100] Creating Layer relu4_2
I1002 11:44:21.210968 15796 net.cpp:434] relu4_2 <- conv4_2
I1002 11:44:21.210978 15796 net.cpp:395] relu4_2 -> conv4_2 (in-place)
I1002 11:44:21.210994 15796 net.cpp:150] Setting up relu4_2
I1002 11:44:21.211002 15796 net.cpp:157] Top shape: 10 512 38 38 (7393280)
I1002 11:44:21.211009 15796 net.cpp:165] Memory required for data: 2033879072
I1002 11:44:21.211016 15796 layer_factory.hpp:77] Creating layer conv4_3
I1002 11:44:21.211030 15796 net.cpp:100] Creating Layer conv4_3
I1002 11:44:21.211038 15796 net.cpp:434] conv4_3 <- conv4_2
I1002 11:44:21.211047 15796 net.cpp:408] conv4_3 -> conv4_3
I1002 11:44:21.223750 15796 net.cpp:150] Setting up conv4_3
I1002 11:44:21.223798 15796 net.cpp:157] Top shape: 10 512 38 38 (7393280)
I1002 11:44:21.223806 15796 net.cpp:165] Memory required for data: 2063452192
I1002 11:44:21.223817 15796 layer_factory.hpp:77] Creating layer relu4_3
I1002 11:44:21.223832 15796 net.cpp:100] Creating Layer relu4_3
I1002 11:44:21.223840 15796 net.cpp:434] relu4_3 <- conv4_3
I1002 11:44:21.223850 15796 net.cpp:395] relu4_3 -> conv4_3 (in-place)
I1002 11:44:21.223861 15796 net.cpp:150] Setting up relu4_3
I1002 11:44:21.223876 15796 net.cpp:157] Top shape: 10 512 38 38 (7393280)
I1002 11:44:21.223902 15796 net.cpp:165] Memory required for data: 2093025312
I1002 11:44:21.223909 15796 layer_factory.hpp:77] Creating layer conv4_3_relu4_3_0_split
I1002 11:44:21.223920 15796 net.cpp:100] Creating Layer conv4_3_relu4_3_0_split
I1002 11:44:21.223928 15796 net.cpp:434] conv4_3_relu4_3_0_split <- conv4_3
I1002 11:44:21.223937 15796 net.cpp:408] conv4_3_relu4_3_0_split -> conv4_3_relu4_3_0_split_0
I1002 11:44:21.223949 15796 net.cpp:408] conv4_3_relu4_3_0_split -> conv4_3_relu4_3_0_split_1
I1002 11:44:21.223984 15796 net.cpp:150] Setting up conv4_3_relu4_3_0_split
I1002 11:44:21.223994 15796 net.cpp:157] Top shape: 10 512 38 38 (7393280)
I1002 11:44:21.224002 15796 net.cpp:157] Top shape: 10 512 38 38 (7393280)
I1002 11:44:21.224009 15796 net.cpp:165] Memory required for data: 2152171552
I1002 11:44:21.224016 15796 layer_factory.hpp:77] Creating layer pool4
I1002 11:44:21.224027 15796 net.cpp:100] Creating Layer pool4
I1002 11:44:21.224035 15796 net.cpp:434] pool4 <- conv4_3_relu4_3_0_split_0
I1002 11:44:21.224043 15796 net.cpp:408] pool4 -> pool4
I1002 11:44:21.224076 15796 net.cpp:150] Setting up pool4
I1002 11:44:21.224086 15796 net.cpp:157] Top shape: 10 512 19 19 (1848320)
I1002 11:44:21.224093 15796 net.cpp:165] Memory required for data: 2159564832
I1002 11:44:21.224102 15796 layer_factory.hpp:77] Creating layer conv5_1
I1002 11:44:21.224114 15796 net.cpp:100] Creating Layer conv5_1
I1002 11:44:21.224123 15796 net.cpp:434] conv5_1 <- pool4
I1002 11:44:21.224131 15796 net.cpp:408] conv5_1 -> conv5_1
I1002 11:44:21.238312 15796 net.cpp:150] Setting up conv5_1
I1002 11:44:21.238337 15796 net.cpp:157] Top shape: 10 512 19 19 (1848320)
I1002 11:44:21.238338 15796 net.cpp:165] Memory required for data: 2166958112
I1002 11:44:21.238345 15796 layer_factory.hpp:77] Creating layer relu5_1
I1002 11:44:21.238353 15796 net.cpp:100] Creating Layer relu5_1
I1002 11:44:21.238356 15796 net.cpp:434] relu5_1 <- conv5_1
I1002 11:44:21.238360 15796 net.cpp:395] relu5_1 -> conv5_1 (in-place)
I1002 11:44:21.238366 15796 net.cpp:150] Setting up relu5_1
I1002 11:44:21.238387 15796 net.cpp:157] Top shape: 10 512 19 19 (1848320)
I1002 11:44:21.238395 15796 net.cpp:165] Memory required for data: 2174351392
I1002 11:44:21.238404 15796 layer_factory.hpp:77] Creating layer conv5_2
I1002 11:44:21.238425 15796 net.cpp:100] Creating Layer conv5_2
I1002 11:44:21.238430 15796 net.cpp:434] conv5_2 <- conv5_1
I1002 11:44:21.238435 15796 net.cpp:408] conv5_2 -> conv5_2
I1002 11:44:21.250368 15796 net.cpp:150] Setting up conv5_2
I1002 11:44:21.250396 15796 net.cpp:157] Top shape: 10 512 19 19 (1848320)
I1002 11:44:21.250397 15796 net.cpp:165] Memory required for data: 2181744672
I1002 11:44:21.250406 15796 layer_factory.hpp:77] Creating layer relu5_2
I1002 11:44:21.250414 15796 net.cpp:100] Creating Layer relu5_2
I1002 11:44:21.250418 15796 net.cpp:434] relu5_2 <- conv5_2
I1002 11:44:21.250425 15796 net.cpp:395] relu5_2 -> conv5_2 (in-place)
I1002 11:44:21.250432 15796 net.cpp:150] Setting up relu5_2
I1002 11:44:21.250455 15796 net.cpp:157] Top shape: 10 512 19 19 (1848320)
I1002 11:44:21.250463 15796 net.cpp:165] Memory required for data: 2189137952
I1002 11:44:21.250471 15796 layer_factory.hpp:77] Creating layer conv5_3
I1002 11:44:21.250485 15796 net.cpp:100] Creating Layer conv5_3
I1002 11:44:21.250494 15796 net.cpp:434] conv5_3 <- conv5_2
I1002 11:44:21.250510 15796 net.cpp:408] conv5_3 -> conv5_3
I1002 11:44:21.262224 15796 net.cpp:150] Setting up conv5_3
I1002 11:44:21.262248 15796 net.cpp:157] Top shape: 10 512 19 19 (1848320)
I1002 11:44:21.262250 15796 net.cpp:165] Memory required for data: 2196531232
I1002 11:44:21.262259 15796 layer_factory.hpp:77] Creating layer relu5_3
I1002 11:44:21.262269 15796 net.cpp:100] Creating Layer relu5_3
I1002 11:44:21.262272 15796 net.cpp:434] relu5_3 <- conv5_3
I1002 11:44:21.262277 15796 net.cpp:395] relu5_3 -> conv5_3 (in-place)
I1002 11:44:21.262284 15796 net.cpp:150] Setting up relu5_3
I1002 11:44:21.262286 15796 net.cpp:157] Top shape: 10 512 19 19 (1848320)
I1002 11:44:21.262326 15796 net.cpp:165] Memory required for data: 2203924512
I1002 11:44:21.262333 15796 layer_factory.hpp:77] Creating layer pool5
I1002 11:44:21.262343 15796 net.cpp:100] Creating Layer pool5
I1002 11:44:21.262351 15796 net.cpp:434] pool5 <- conv5_3
I1002 11:44:21.262360 15796 net.cpp:408] pool5 -> pool5
I1002 11:44:21.262398 15796 net.cpp:150] Setting up pool5
I1002 11:44:21.262404 15796 net.cpp:157] Top shape: 10 512 19 19 (1848320)
I1002 11:44:21.262405 15796 net.cpp:165] Memory required for data: 2211317792
I1002 11:44:21.262408 15796 layer_factory.hpp:77] Creating layer fc6
I1002 11:44:21.262415 15796 net.cpp:100] Creating Layer fc6
I1002 11:44:21.262428 15796 net.cpp:434] fc6 <- pool5
I1002 11:44:21.262439 15796 net.cpp:408] fc6 -> fc6
I1002 11:44:21.285334 15796 net.cpp:150] Setting up fc6
I1002 11:44:21.285356 15796 net.cpp:157] Top shape: 10 1024 19 19 (3696640)
I1002 11:44:21.285358 15796 net.cpp:165] Memory required for data: 2226104352
I1002 11:44:21.285365 15796 layer_factory.hpp:77] Creating layer relu6
I1002 11:44:21.285374 15796 net.cpp:100] Creating Layer relu6
I1002 11:44:21.285377 15796 net.cpp:434] relu6 <- fc6
I1002 11:44:21.285382 15796 net.cpp:395] relu6 -> fc6 (in-place)
I1002 11:44:21.285388 15796 net.cpp:150] Setting up relu6
I1002 11:44:21.285392 15796 net.cpp:157] Top shape: 10 1024 19 19 (3696640)
I1002 11:44:21.285392 15796 net.cpp:165] Memory required for data: 2240890912
I1002 11:44:21.285394 15796 layer_factory.hpp:77] Creating layer fc7
I1002 11:44:21.285403 15796 net.cpp:100] Creating Layer fc7
I1002 11:44:21.285404 15796 net.cpp:434] fc7 <- fc6
I1002 11:44:21.285408 15796 net.cpp:408] fc7 -> fc7
I1002 11:44:21.290968 15796 net.cpp:150] Setting up fc7
I1002 11:44:21.291023 15796 net.cpp:157] Top shape: 10 1024 19 19 (3696640)
I1002 11:44:21.291034 15796 net.cpp:165] Memory required for data: 2255677472
I1002 11:44:21.291049 15796 layer_factory.hpp:77] Creating layer relu7
I1002 11:44:21.291064 15796 net.cpp:100] Creating Layer relu7
I1002 11:44:21.291074 15796 net.cpp:434] relu7 <- fc7
I1002 11:44:21.291085 15796 net.cpp:395] relu7 -> fc7 (in-place)
I1002 11:44:21.291096 15796 net.cpp:150] Setting up relu7
I1002 11:44:21.291105 15796 net.cpp:157] Top shape: 10 1024 19 19 (3696640)
I1002 11:44:21.291113 15796 net.cpp:165] Memory required for data: 2270464032
I1002 11:44:21.291121 15796 layer_factory.hpp:77] Creating layer fc7_relu7_0_split
I1002 11:44:21.291133 15796 net.cpp:100] Creating Layer fc7_relu7_0_split
I1002 11:44:21.291142 15796 net.cpp:434] fc7_relu7_0_split <- fc7
I1002 11:44:21.291152 15796 net.cpp:408] fc7_relu7_0_split -> fc7_relu7_0_split_0
I1002 11:44:21.291163 15796 net.cpp:408] fc7_relu7_0_split -> fc7_relu7_0_split_1
I1002 11:44:21.291180 15796 net.cpp:408] fc7_relu7_0_split -> fc7_relu7_0_split_2
I1002 11:44:21.291193 15796 net.cpp:408] fc7_relu7_0_split -> fc7_relu7_0_split_3
I1002 11:44:21.291246 15796 net.cpp:150] Setting up fc7_relu7_0_split
I1002 11:44:21.291258 15796 net.cpp:157] Top shape: 10 1024 19 19 (3696640)
I1002 11:44:21.291268 15796 net.cpp:157] Top shape: 10 1024 19 19 (3696640)
I1002 11:44:21.291276 15796 net.cpp:157] Top shape: 10 1024 19 19 (3696640)
I1002 11:44:21.291285 15796 net.cpp:157] Top shape: 10 1024 19 19 (3696640)
I1002 11:44:21.291293 15796 net.cpp:165] Memory required for data: 2329610272
I1002 11:44:21.291301 15796 layer_factory.hpp:77] Creating layer conv6_1
I1002 11:44:21.291316 15796 net.cpp:100] Creating Layer conv6_1
I1002 11:44:21.291326 15796 net.cpp:434] conv6_1 <- fc7_relu7_0_split_0
I1002 11:44:21.291337 15796 net.cpp:408] conv6_1 -> conv6_1
I1002 11:44:21.293280 15796 net.cpp:150] Setting up conv6_1
I1002 11:44:21.293298 15796 net.cpp:157] Top shape: 10 256 19 19 (924160)
I1002 11:44:21.293300 15796 net.cpp:165] Memory required for data: 2333306912
I1002 11:44:21.293306 15796 layer_factory.hpp:77] Creating layer conv6_1_relu
I1002 11:44:21.293314 15796 net.cpp:100] Creating Layer conv6_1_relu
I1002 11:44:21.293318 15796 net.cpp:434] conv6_1_relu <- conv6_1
I1002 11:44:21.293321 15796 net.cpp:395] conv6_1_relu -> conv6_1 (in-place)
I1002 11:44:21.293346 15796 net.cpp:150] Setting up conv6_1_relu
I1002 11:44:21.293349 15796 net.cpp:157] Top shape: 10 256 19 19 (924160)
I1002 11:44:21.293351 15796 net.cpp:165] Memory required for data: 2337003552
I1002 11:44:21.293354 15796 layer_factory.hpp:77] Creating layer conv6_2
I1002 11:44:21.293361 15796 net.cpp:100] Creating Layer conv6_2
I1002 11:44:21.293364 15796 net.cpp:434] conv6_2 <- conv6_1
I1002 11:44:21.293366 15796 net.cpp:408] conv6_2 -> conv6_2
I1002 11:44:21.299352 15796 net.cpp:150] Setting up conv6_2
I1002 11:44:21.299382 15796 net.cpp:157] Top shape: 10 512 10 10 (512000)
I1002 11:44:21.299386 15796 net.cpp:165] Memory required for data: 2339051552
I1002 11:44:21.299398 15796 layer_factory.hpp:77] Creating layer conv6_2_relu
I1002 11:44:21.299407 15796 net.cpp:100] Creating Layer conv6_2_relu
I1002 11:44:21.299410 15796 net.cpp:434] conv6_2_relu <- conv6_2
I1002 11:44:21.299415 15796 net.cpp:395] conv6_2_relu -> conv6_2 (in-place)
I1002 11:44:21.299422 15796 net.cpp:150] Setting up conv6_2_relu
I1002 11:44:21.299424 15796 net.cpp:157] Top shape: 10 512 10 10 (512000)
I1002 11:44:21.299427 15796 net.cpp:165] Memory required for data: 2341099552
I1002 11:44:21.299428 15796 layer_factory.hpp:77] Creating layer conv6_2_conv6_2_relu_0_split
I1002 11:44:21.299434 15796 net.cpp:100] Creating Layer conv6_2_conv6_2_relu_0_split
I1002 11:44:21.299437 15796 net.cpp:434] conv6_2_conv6_2_relu_0_split <- conv6_2
I1002 11:44:21.299439 15796 net.cpp:408] conv6_2_conv6_2_relu_0_split -> conv6_2_conv6_2_relu_0_split_0
I1002 11:44:21.299444 15796 net.cpp:408] conv6_2_conv6_2_relu_0_split -> conv6_2_conv6_2_relu_0_split_1
I1002 11:44:21.299448 15796 net.cpp:408] conv6_2_conv6_2_relu_0_split -> conv6_2_conv6_2_relu_0_split_2
I1002 11:44:21.299453 15796 net.cpp:408] conv6_2_conv6_2_relu_0_split -> conv6_2_conv6_2_relu_0_split_3
I1002 11:44:21.299496 15796 net.cpp:150] Setting up conv6_2_conv6_2_relu_0_split
I1002 11:44:21.299499 15796 net.cpp:157] Top shape: 10 512 10 10 (512000)
I1002 11:44:21.299501 15796 net.cpp:157] Top shape: 10 512 10 10 (512000)
I1002 11:44:21.299504 15796 net.cpp:157] Top shape: 10 512 10 10 (512000)
I1002 11:44:21.299506 15796 net.cpp:157] Top shape: 10 512 10 10 (512000)
I1002 11:44:21.299509 15796 net.cpp:165] Memory required for data: 2349291552
I1002 11:44:21.299510 15796 layer_factory.hpp:77] Creating layer conv7_1
I1002 11:44:21.299520 15796 net.cpp:100] Creating Layer conv7_1
I1002 11:44:21.299522 15796 net.cpp:434] conv7_1 <- conv6_2_conv6_2_relu_0_split_0
I1002 11:44:21.299527 15796 net.cpp:408] conv7_1 -> conv7_1
I1002 11:44:21.299939 15796 net.cpp:150] Setting up conv7_1
I1002 11:44:21.299943 15796 net.cpp:157] Top shape: 10 128 10 10 (128000)
I1002 11:44:21.299945 15796 net.cpp:165] Memory required for data: 2349803552
I1002 11:44:21.299948 15796 layer_factory.hpp:77] Creating layer conv7_1_relu
I1002 11:44:21.299952 15796 net.cpp:100] Creating Layer conv7_1_relu
I1002 11:44:21.299954 15796 net.cpp:434] conv7_1_relu <- conv7_1
I1002 11:44:21.299957 15796 net.cpp:395] conv7_1_relu -> conv7_1 (in-place)
I1002 11:44:21.299962 15796 net.cpp:150] Setting up conv7_1_relu
I1002 11:44:21.299963 15796 net.cpp:157] Top shape: 10 128 10 10 (128000)
I1002 11:44:21.299965 15796 net.cpp:165] Memory required for data: 2350315552
I1002 11:44:21.299968 15796 layer_factory.hpp:77] Creating layer conv7_2
I1002 11:44:21.299973 15796 net.cpp:100] Creating Layer conv7_2
I1002 11:44:21.299974 15796 net.cpp:434] conv7_2 <- conv7_1
I1002 11:44:21.299978 15796 net.cpp:408] conv7_2 -> conv7_2
I1002 11:44:21.302168 15796 net.cpp:150] Setting up conv7_2
I1002 11:44:21.302184 15796 net.cpp:157] Top shape: 10 256 5 5 (64000)
I1002 11:44:21.302186 15796 net.cpp:165] Memory required for data: 2350571552
I1002 11:44:21.302192 15796 layer_factory.hpp:77] Creating layer conv7_2_relu
I1002 11:44:21.302199 15796 net.cpp:100] Creating Layer conv7_2_relu
I1002 11:44:21.302203 15796 net.cpp:434] conv7_2_relu <- conv7_2
I1002 11:44:21.302207 15796 net.cpp:395] conv7_2_relu -> conv7_2 (in-place)
I1002 11:44:21.302232 15796 net.cpp:150] Setting up conv7_2_relu
I1002 11:44:21.302237 15796 net.cpp:157] Top shape: 10 256 5 5 (64000)
I1002 11:44:21.302238 15796 net.cpp:165] Memory required for data: 2350827552
I1002 11:44:21.302240 15796 layer_factory.hpp:77] Creating layer conv7_2_conv7_2_relu_0_split
I1002 11:44:21.302247 15796 net.cpp:100] Creating Layer conv7_2_conv7_2_relu_0_split
I1002 11:44:21.302248 15796 net.cpp:434] conv7_2_conv7_2_relu_0_split <- conv7_2
I1002 11:44:21.302253 15796 net.cpp:408] conv7_2_conv7_2_relu_0_split -> conv7_2_conv7_2_relu_0_split_0
I1002 11:44:21.302256 15796 net.cpp:408] conv7_2_conv7_2_relu_0_split -> conv7_2_conv7_2_relu_0_split_1
I1002 11:44:21.302261 15796 net.cpp:408] conv7_2_conv7_2_relu_0_split -> conv7_2_conv7_2_relu_0_split_2
I1002 11:44:21.302265 15796 net.cpp:408] conv7_2_conv7_2_relu_0_split -> conv7_2_conv7_2_relu_0_split_3
I1002 11:44:21.302314 15796 net.cpp:150] Setting up conv7_2_conv7_2_relu_0_split
I1002 11:44:21.302317 15796 net.cpp:157] Top shape: 10 256 5 5 (64000)
I1002 11:44:21.302320 15796 net.cpp:157] Top shape: 10 256 5 5 (64000)
I1002 11:44:21.302322 15796 net.cpp:157] Top shape: 10 256 5 5 (64000)
I1002 11:44:21.302325 15796 net.cpp:157] Top shape: 10 256 5 5 (64000)
I1002 11:44:21.302326 15796 net.cpp:165] Memory required for data: 2351851552
I1002 11:44:21.302328 15796 layer_factory.hpp:77] Creating layer conv8_1
I1002 11:44:21.302335 15796 net.cpp:100] Creating Layer conv8_1
I1002 11:44:21.302338 15796 net.cpp:434] conv8_1 <- conv7_2_conv7_2_relu_0_split_0
I1002 11:44:21.302341 15796 net.cpp:408] conv8_1 -> conv8_1
I1002 11:44:21.302613 15796 net.cpp:150] Setting up conv8_1
I1002 11:44:21.302618 15796 net.cpp:157] Top shape: 10 128 5 5 (32000)
I1002 11:44:21.302619 15796 net.cpp:165] Memory required for data: 2351979552
I1002 11:44:21.302623 15796 layer_factory.hpp:77] Creating layer conv8_1_relu
I1002 11:44:21.302626 15796 net.cpp:100] Creating Layer conv8_1_relu
I1002 11:44:21.302628 15796 net.cpp:434] conv8_1_relu <- conv8_1
I1002 11:44:21.302631 15796 net.cpp:395] conv8_1_relu -> conv8_1 (in-place)
I1002 11:44:21.302634 15796 net.cpp:150] Setting up conv8_1_relu
I1002 11:44:21.302636 15796 net.cpp:157] Top shape: 10 128 5 5 (32000)
I1002 11:44:21.302639 15796 net.cpp:165] Memory required for data: 2352107552
I1002 11:44:21.302640 15796 layer_factory.hpp:77] Creating layer conv8_2
I1002 11:44:21.302645 15796 net.cpp:100] Creating Layer conv8_2
I1002 11:44:21.302647 15796 net.cpp:434] conv8_2 <- conv8_1
I1002 11:44:21.302650 15796 net.cpp:408] conv8_2 -> conv8_2
I1002 11:44:21.304664 15796 net.cpp:150] Setting up conv8_2
I1002 11:44:21.304698 15796 net.cpp:157] Top shape: 10 256 3 3 (23040)
I1002 11:44:21.304708 15796 net.cpp:165] Memory required for data: 2352199712
I1002 11:44:21.304720 15796 layer_factory.hpp:77] Creating layer conv8_2_relu
I1002 11:44:21.304734 15796 net.cpp:100] Creating Layer conv8_2_relu
I1002 11:44:21.304745 15796 net.cpp:434] conv8_2_relu <- conv8_2
I1002 11:44:21.304756 15796 net.cpp:395] conv8_2_relu -> conv8_2 (in-place)
I1002 11:44:21.304769 15796 net.cpp:150] Setting up conv8_2_relu
I1002 11:44:21.304777 15796 net.cpp:157] Top shape: 10 256 3 3 (23040)
I1002 11:44:21.304785 15796 net.cpp:165] Memory required for data: 2352291872
I1002 11:44:21.304793 15796 layer_factory.hpp:77] Creating layer conv8_2_conv8_2_relu_0_split
I1002 11:44:21.304821 15796 net.cpp:100] Creating Layer conv8_2_conv8_2_relu_0_split
I1002 11:44:21.304833 15796 net.cpp:434] conv8_2_conv8_2_relu_0_split <- conv8_2
I1002 11:44:21.304847 15796 net.cpp:408] conv8_2_conv8_2_relu_0_split -> conv8_2_conv8_2_relu_0_split_0
I1002 11:44:21.304859 15796 net.cpp:408] conv8_2_conv8_2_relu_0_split -> conv8_2_conv8_2_relu_0_split_1
I1002 11:44:21.304872 15796 net.cpp:408] conv8_2_conv8_2_relu_0_split -> conv8_2_conv8_2_relu_0_split_2
I1002 11:44:21.304884 15796 net.cpp:408] conv8_2_conv8_2_relu_0_split -> conv8_2_conv8_2_relu_0_split_3
I1002 11:44:21.304940 15796 net.cpp:150] Setting up conv8_2_conv8_2_relu_0_split
I1002 11:44:21.304957 15796 net.cpp:157] Top shape: 10 256 3 3 (23040)
I1002 11:44:21.304975 15796 net.cpp:157] Top shape: 10 256 3 3 (23040)
I1002 11:44:21.304983 15796 net.cpp:157] Top shape: 10 256 3 3 (23040)
I1002 11:44:21.304992 15796 net.cpp:157] Top shape: 10 256 3 3 (23040)
I1002 11:44:21.304999 15796 net.cpp:165] Memory required for data: 2352660512
I1002 11:44:21.305007 15796 layer_factory.hpp:77] Creating layer conv9_1
I1002 11:44:21.305022 15796 net.cpp:100] Creating Layer conv9_1
I1002 11:44:21.305032 15796 net.cpp:434] conv9_1 <- conv8_2_conv8_2_relu_0_split_0
I1002 11:44:21.305045 15796 net.cpp:408] conv9_1 -> conv9_1
I1002 11:44:21.305333 15796 net.cpp:150] Setting up conv9_1
I1002 11:44:21.305347 15796 net.cpp:157] Top shape: 10 128 3 3 (11520)
I1002 11:44:21.305356 15796 net.cpp:165] Memory required for data: 2352706592
I1002 11:44:21.305366 15796 layer_factory.hpp:77] Creating layer conv9_1_relu
I1002 11:44:21.305375 15796 net.cpp:100] Creating Layer conv9_1_relu
I1002 11:44:21.305383 15796 net.cpp:434] conv9_1_relu <- conv9_1
I1002 11:44:21.305393 15796 net.cpp:395] conv9_1_relu -> conv9_1 (in-place)
I1002 11:44:21.305404 15796 net.cpp:150] Setting up conv9_1_relu
I1002 11:44:21.305413 15796 net.cpp:157] Top shape: 10 128 3 3 (11520)
I1002 11:44:21.305420 15796 net.cpp:165] Memory required for data: 2352752672
I1002 11:44:21.305428 15796 layer_factory.hpp:77] Creating layer conv9_2
I1002 11:44:21.305441 15796 net.cpp:100] Creating Layer conv9_2
I1002 11:44:21.305449 15796 net.cpp:434] conv9_2 <- conv9_1
I1002 11:44:21.305459 15796 net.cpp:408] conv9_2 -> conv9_2
I1002 11:44:21.307546 15796 net.cpp:150] Setting up conv9_2
I1002 11:44:21.307566 15796 net.cpp:157] Top shape: 10 256 1 1 (2560)
I1002 11:44:21.307569 15796 net.cpp:165] Memory required for data: 2352762912
I1002 11:44:21.307574 15796 layer_factory.hpp:77] Creating layer conv9_2_relu
I1002 11:44:21.307585 15796 net.cpp:100] Creating Layer conv9_2_relu
I1002 11:44:21.307590 15796 net.cpp:434] conv9_2_relu <- conv9_2
I1002 11:44:21.307595 15796 net.cpp:395] conv9_2_relu -> conv9_2 (in-place)
I1002 11:44:21.307601 15796 net.cpp:150] Setting up conv9_2_relu
I1002 11:44:21.307605 15796 net.cpp:157] Top shape: 10 256 1 1 (2560)
I1002 11:44:21.307606 15796 net.cpp:165] Memory required for data: 2352773152
I1002 11:44:21.307610 15796 layer_factory.hpp:77] Creating layer conv9_2_conv9_2_relu_0_split
I1002 11:44:21.307615 15796 net.cpp:100] Creating Layer conv9_2_conv9_2_relu_0_split
I1002 11:44:21.307617 15796 net.cpp:434] conv9_2_conv9_2_relu_0_split <- conv9_2
I1002 11:44:21.307622 15796 net.cpp:408] conv9_2_conv9_2_relu_0_split -> conv9_2_conv9_2_relu_0_split_0
I1002 11:44:21.307627 15796 net.cpp:408] conv9_2_conv9_2_relu_0_split -> conv9_2_conv9_2_relu_0_split_1
I1002 11:44:21.307632 15796 net.cpp:408] conv9_2_conv9_2_relu_0_split -> conv9_2_conv9_2_relu_0_split_2
I1002 11:44:21.307667 15796 net.cpp:150] Setting up conv9_2_conv9_2_relu_0_split
I1002 11:44:21.307670 15796 net.cpp:157] Top shape: 10 256 1 1 (2560)
I1002 11:44:21.307673 15796 net.cpp:157] Top shape: 10 256 1 1 (2560)
I1002 11:44:21.307675 15796 net.cpp:157] Top shape: 10 256 1 1 (2560)
I1002 11:44:21.307677 15796 net.cpp:165] Memory required for data: 2352803872
I1002 11:44:21.307679 15796 layer_factory.hpp:77] Creating layer conv4_3_norm
I1002 11:44:21.307687 15796 net.cpp:100] Creating Layer conv4_3_norm
I1002 11:44:21.307689 15796 net.cpp:434] conv4_3_norm <- conv4_3_relu4_3_0_split_1
I1002 11:44:21.307693 15796 net.cpp:408] conv4_3_norm -> conv4_3_norm
I1002 11:44:21.307802 15796 net.cpp:150] Setting up conv4_3_norm
I1002 11:44:21.307806 15796 net.cpp:157] Top shape: 10 512 38 38 (7393280)
I1002 11:44:21.307807 15796 net.cpp:165] Memory required for data: 2382376992
I1002 11:44:21.307811 15796 layer_factory.hpp:77] Creating layer conv4_3_norm_conv4_3_norm_0_split
I1002 11:44:21.307813 15796 net.cpp:100] Creating Layer conv4_3_norm_conv4_3_norm_0_split
I1002 11:44:21.307816 15796 net.cpp:434] conv4_3_norm_conv4_3_norm_0_split <- conv4_3_norm
I1002 11:44:21.307818 15796 net.cpp:408] conv4_3_norm_conv4_3_norm_0_split -> conv4_3_norm_conv4_3_norm_0_split_0
I1002 11:44:21.307839 15796 net.cpp:408] conv4_3_norm_conv4_3_norm_0_split -> conv4_3_norm_conv4_3_norm_0_split_1
I1002 11:44:21.307842 15796 net.cpp:408] conv4_3_norm_conv4_3_norm_0_split -> conv4_3_norm_conv4_3_norm_0_split_2
I1002 11:44:21.307874 15796 net.cpp:150] Setting up conv4_3_norm_conv4_3_norm_0_split
I1002 11:44:21.307878 15796 net.cpp:157] Top shape: 10 512 38 38 (7393280)
I1002 11:44:21.307880 15796 net.cpp:157] Top shape: 10 512 38 38 (7393280)
I1002 11:44:21.307883 15796 net.cpp:157] Top shape: 10 512 38 38 (7393280)
I1002 11:44:21.307884 15796 net.cpp:165] Memory required for data: 2471096352
I1002 11:44:21.307886 15796 layer_factory.hpp:77] Creating layer conv4_3_norm_mbox_loc
I1002 11:44:21.307894 15796 net.cpp:100] Creating Layer conv4_3_norm_mbox_loc
I1002 11:44:21.307896 15796 net.cpp:434] conv4_3_norm_mbox_loc <- conv4_3_norm_conv4_3_norm_0_split_0
I1002 11:44:21.307900 15796 net.cpp:408] conv4_3_norm_mbox_loc -> conv4_3_norm_mbox_loc
I1002 11:44:21.308348 15796 net.cpp:150] Setting up conv4_3_norm_mbox_loc
I1002 11:44:21.308352 15796 net.cpp:157] Top shape: 10 16 38 38 (231040)
I1002 11:44:21.308354 15796 net.cpp:165] Memory required for data: 2472020512
I1002 11:44:21.308358 15796 layer_factory.hpp:77] Creating layer conv4_3_norm_mbox_loc_perm
I1002 11:44:21.308363 15796 net.cpp:100] Creating Layer conv4_3_norm_mbox_loc_perm
I1002 11:44:21.308365 15796 net.cpp:434] conv4_3_norm_mbox_loc_perm <- conv4_3_norm_mbox_loc
I1002 11:44:21.308370 15796 net.cpp:408] conv4_3_norm_mbox_loc_perm -> conv4_3_norm_mbox_loc_perm
I1002 11:44:21.308440 15796 net.cpp:150] Setting up conv4_3_norm_mbox_loc_perm
I1002 11:44:21.308444 15796 net.cpp:157] Top shape: 10 38 38 16 (231040)
I1002 11:44:21.308445 15796 net.cpp:165] Memory required for data: 2472944672
I1002 11:44:21.308447 15796 layer_factory.hpp:77] Creating layer conv4_3_norm_mbox_loc_flat
I1002 11:44:21.308451 15796 net.cpp:100] Creating Layer conv4_3_norm_mbox_loc_flat
I1002 11:44:21.308454 15796 net.cpp:434] conv4_3_norm_mbox_loc_flat <- conv4_3_norm_mbox_loc_perm
I1002 11:44:21.308456 15796 net.cpp:408] conv4_3_norm_mbox_loc_flat -> conv4_3_norm_mbox_loc_flat
I1002 11:44:21.308476 15796 net.cpp:150] Setting up conv4_3_norm_mbox_loc_flat
I1002 11:44:21.308480 15796 net.cpp:157] Top shape: 10 23104 (231040)
I1002 11:44:21.308480 15796 net.cpp:165] Memory required for data: 2473868832
I1002 11:44:21.308482 15796 layer_factory.hpp:77] Creating layer conv4_3_norm_mbox_conf
I1002 11:44:21.308490 15796 net.cpp:100] Creating Layer conv4_3_norm_mbox_conf
I1002 11:44:21.308491 15796 net.cpp:434] conv4_3_norm_mbox_conf <- conv4_3_norm_conv4_3_norm_0_split_1
I1002 11:44:21.308495 15796 net.cpp:408] conv4_3_norm_mbox_conf -> conv4_3_norm_mbox_conf
I1002 11:44:21.308866 15796 net.cpp:150] Setting up conv4_3_norm_mbox_conf
I1002 11:44:21.308871 15796 net.cpp:157] Top shape: 10 12 38 38 (173280)
I1002 11:44:21.308872 15796 net.cpp:165] Memory required for data: 2474561952
I1002 11:44:21.308876 15796 layer_factory.hpp:77] Creating layer conv4_3_norm_mbox_conf_perm
I1002 11:44:21.308879 15796 net.cpp:100] Creating Layer conv4_3_norm_mbox_conf_perm
I1002 11:44:21.308882 15796 net.cpp:434] conv4_3_norm_mbox_conf_perm <- conv4_3_norm_mbox_conf
I1002 11:44:21.308885 15796 net.cpp:408] conv4_3_norm_mbox_conf_perm -> conv4_3_norm_mbox_conf_perm
I1002 11:44:21.308953 15796 net.cpp:150] Setting up conv4_3_norm_mbox_conf_perm
I1002 11:44:21.308955 15796 net.cpp:157] Top shape: 10 38 38 12 (173280)
I1002 11:44:21.308957 15796 net.cpp:165] Memory required for data: 2475255072
I1002 11:44:21.308959 15796 layer_factory.hpp:77] Creating layer conv4_3_norm_mbox_conf_flat
I1002 11:44:21.308962 15796 net.cpp:100] Creating Layer conv4_3_norm_mbox_conf_flat
I1002 11:44:21.308965 15796 net.cpp:434] conv4_3_norm_mbox_conf_flat <- conv4_3_norm_mbox_conf_perm
I1002 11:44:21.308969 15796 net.cpp:408] conv4_3_norm_mbox_conf_flat -> conv4_3_norm_mbox_conf_flat
I1002 11:44:21.308982 15796 net.cpp:150] Setting up conv4_3_norm_mbox_conf_flat
I1002 11:44:21.308985 15796 net.cpp:157] Top shape: 10 17328 (173280)
I1002 11:44:21.308995 15796 net.cpp:165] Memory required for data: 2475948192
I1002 11:44:21.308997 15796 layer_factory.hpp:77] Creating layer conv4_3_norm_mbox_priorbox
I1002 11:44:21.309001 15796 net.cpp:100] Creating Layer conv4_3_norm_mbox_priorbox
I1002 11:44:21.309005 15796 net.cpp:434] conv4_3_norm_mbox_priorbox <- conv4_3_norm_conv4_3_norm_0_split_2
I1002 11:44:21.309007 15796 net.cpp:434] conv4_3_norm_mbox_priorbox <- data_data_0_split_1
I1002 11:44:21.309011 15796 net.cpp:408] conv4_3_norm_mbox_priorbox -> conv4_3_norm_mbox_priorbox
I1002 11:44:21.309031 15796 net.cpp:150] Setting up conv4_3_norm_mbox_priorbox
I1002 11:44:21.309033 15796 net.cpp:157] Top shape: 1 2 23104 (46208)
I1002 11:44:21.309036 15796 net.cpp:165] Memory required for data: 2476133024
I1002 11:44:21.309037 15796 layer_factory.hpp:77] Creating layer fc7_mbox_loc
I1002 11:44:21.309043 15796 net.cpp:100] Creating Layer fc7_mbox_loc
I1002 11:44:21.309046 15796 net.cpp:434] fc7_mbox_loc <- fc7_relu7_0_split_1
I1002 11:44:21.309049 15796 net.cpp:408] fc7_mbox_loc -> fc7_mbox_loc
I1002 11:44:21.310014 15796 net.cpp:150] Setting up fc7_mbox_loc
I1002 11:44:21.310020 15796 net.cpp:157] Top shape: 10 24 19 19 (86640)
I1002 11:44:21.310021 15796 net.cpp:165] Memory required for data: 2476479584
I1002 11:44:21.310025 15796 layer_factory.hpp:77] Creating layer fc7_mbox_loc_perm
I1002 11:44:21.310030 15796 net.cpp:100] Creating Layer fc7_mbox_loc_perm
I1002 11:44:21.310032 15796 net.cpp:434] fc7_mbox_loc_perm <- fc7_mbox_loc
I1002 11:44:21.310035 15796 net.cpp:408] fc7_mbox_loc_perm -> fc7_mbox_loc_perm
I1002 11:44:21.310101 15796 net.cpp:150] Setting up fc7_mbox_loc_perm
I1002 11:44:21.310104 15796 net.cpp:157] Top shape: 10 19 19 24 (86640)
I1002 11:44:21.310106 15796 net.cpp:165] Memory required for data: 2476826144
I1002 11:44:21.310108 15796 layer_factory.hpp:77] Creating layer fc7_mbox_loc_flat
I1002 11:44:21.310112 15796 net.cpp:100] Creating Layer fc7_mbox_loc_flat
I1002 11:44:21.310114 15796 net.cpp:434] fc7_mbox_loc_flat <- fc7_mbox_loc_perm
I1002 11:44:21.310117 15796 net.cpp:408] fc7_mbox_loc_flat -> fc7_mbox_loc_flat
I1002 11:44:21.310132 15796 net.cpp:150] Setting up fc7_mbox_loc_flat
I1002 11:44:21.310134 15796 net.cpp:157] Top shape: 10 8664 (86640)
I1002 11:44:21.310137 15796 net.cpp:165] Memory required for data: 2477172704
I1002 11:44:21.310138 15796 layer_factory.hpp:77] Creating layer fc7_mbox_conf
I1002 11:44:21.310143 15796 net.cpp:100] Creating Layer fc7_mbox_conf
I1002 11:44:21.310147 15796 net.cpp:434] fc7_mbox_conf <- fc7_relu7_0_split_2
I1002 11:44:21.310150 15796 net.cpp:408] fc7_mbox_conf -> fc7_mbox_conf
I1002 11:44:21.310925 15796 net.cpp:150] Setting up fc7_mbox_conf
I1002 11:44:21.310930 15796 net.cpp:157] Top shape: 10 18 19 19 (64980)
I1002 11:44:21.310931 15796 net.cpp:165] Memory required for data: 2477432624
I1002 11:44:21.310936 15796 layer_factory.hpp:77] Creating layer fc7_mbox_conf_perm
I1002 11:44:21.310942 15796 net.cpp:100] Creating Layer fc7_mbox_conf_perm
I1002 11:44:21.310945 15796 net.cpp:434] fc7_mbox_conf_perm <- fc7_mbox_conf
I1002 11:44:21.310950 15796 net.cpp:408] fc7_mbox_conf_perm -> fc7_mbox_conf_perm
I1002 11:44:21.311022 15796 net.cpp:150] Setting up fc7_mbox_conf_perm
I1002 11:44:21.311024 15796 net.cpp:157] Top shape: 10 19 19 18 (64980)
I1002 11:44:21.311026 15796 net.cpp:165] Memory required for data: 2477692544
I1002 11:44:21.311028 15796 layer_factory.hpp:77] Creating layer fc7_mbox_conf_flat
I1002 11:44:21.311031 15796 net.cpp:100] Creating Layer fc7_mbox_conf_flat
I1002 11:44:21.311033 15796 net.cpp:434] fc7_mbox_conf_flat <- fc7_mbox_conf_perm
I1002 11:44:21.311038 15796 net.cpp:408] fc7_mbox_conf_flat -> fc7_mbox_conf_flat
I1002 11:44:21.311053 15796 net.cpp:150] Setting up fc7_mbox_conf_flat
I1002 11:44:21.311054 15796 net.cpp:157] Top shape: 10 6498 (64980)
I1002 11:44:21.311056 15796 net.cpp:165] Memory required for data: 2477952464
I1002 11:44:21.311058 15796 layer_factory.hpp:77] Creating layer fc7_mbox_priorbox
I1002 11:44:21.311062 15796 net.cpp:100] Creating Layer fc7_mbox_priorbox
I1002 11:44:21.311074 15796 net.cpp:434] fc7_mbox_priorbox <- fc7_relu7_0_split_3
I1002 11:44:21.311076 15796 net.cpp:434] fc7_mbox_priorbox <- data_data_0_split_2
I1002 11:44:21.311081 15796 net.cpp:408] fc7_mbox_priorbox -> fc7_mbox_priorbox
I1002 11:44:21.311098 15796 net.cpp:150] Setting up fc7_mbox_priorbox
I1002 11:44:21.311101 15796 net.cpp:157] Top shape: 1 2 8664 (17328)
I1002 11:44:21.311102 15796 net.cpp:165] Memory required for data: 2478021776
I1002 11:44:21.311105 15796 layer_factory.hpp:77] Creating layer conv6_2_mbox_loc
I1002 11:44:21.311115 15796 net.cpp:100] Creating Layer conv6_2_mbox_loc
I1002 11:44:21.311118 15796 net.cpp:434] conv6_2_mbox_loc <- conv6_2_conv6_2_relu_0_split_1
I1002 11:44:21.311122 15796 net.cpp:408] conv6_2_mbox_loc -> conv6_2_mbox_loc
I1002 11:44:21.311693 15796 net.cpp:150] Setting up conv6_2_mbox_loc
I1002 11:44:21.311699 15796 net.cpp:157] Top shape: 10 24 10 10 (24000)
I1002 11:44:21.311702 15796 net.cpp:165] Memory required for data: 2478117776
I1002 11:44:21.311705 15796 layer_factory.hpp:77] Creating layer conv6_2_mbox_loc_perm
I1002 11:44:21.311710 15796 net.cpp:100] Creating Layer conv6_2_mbox_loc_perm
I1002 11:44:21.311714 15796 net.cpp:434] conv6_2_mbox_loc_perm <- conv6_2_mbox_loc
I1002 11:44:21.311718 15796 net.cpp:408] conv6_2_mbox_loc_perm -> conv6_2_mbox_loc_perm
I1002 11:44:21.311786 15796 net.cpp:150] Setting up conv6_2_mbox_loc_perm
I1002 11:44:21.311790 15796 net.cpp:157] Top shape: 10 10 10 24 (24000)
I1002 11:44:21.311792 15796 net.cpp:165] Memory required for data: 2478213776
I1002 11:44:21.311794 15796 layer_factory.hpp:77] Creating layer conv6_2_mbox_loc_flat
I1002 11:44:21.311797 15796 net.cpp:100] Creating Layer conv6_2_mbox_loc_flat
I1002 11:44:21.311800 15796 net.cpp:434] conv6_2_mbox_loc_flat <- conv6_2_mbox_loc_perm
I1002 11:44:21.311803 15796 net.cpp:408] conv6_2_mbox_loc_flat -> conv6_2_mbox_loc_flat
I1002 11:44:21.311817 15796 net.cpp:150] Setting up conv6_2_mbox_loc_flat
I1002 11:44:21.311820 15796 net.cpp:157] Top shape: 10 2400 (24000)
I1002 11:44:21.311822 15796 net.cpp:165] Memory required for data: 2478309776
I1002 11:44:21.311823 15796 layer_factory.hpp:77] Creating layer conv6_2_mbox_conf
I1002 11:44:21.311830 15796 net.cpp:100] Creating Layer conv6_2_mbox_conf
I1002 11:44:21.311831 15796 net.cpp:434] conv6_2_mbox_conf <- conv6_2_conv6_2_relu_0_split_2
I1002 11:44:21.311836 15796 net.cpp:408] conv6_2_mbox_conf -> conv6_2_mbox_conf
I1002 11:44:21.312302 15796 net.cpp:150] Setting up conv6_2_mbox_conf
I1002 11:44:21.312309 15796 net.cpp:157] Top shape: 10 18 10 10 (18000)
I1002 11:44:21.312310 15796 net.cpp:165] Memory required for data: 2478381776
I1002 11:44:21.312314 15796 layer_factory.hpp:77] Creating layer conv6_2_mbox_conf_perm
I1002 11:44:21.312319 15796 net.cpp:100] Creating Layer conv6_2_mbox_conf_perm
I1002 11:44:21.312320 15796 net.cpp:434] conv6_2_mbox_conf_perm <- conv6_2_mbox_conf
I1002 11:44:21.312325 15796 net.cpp:408] conv6_2_mbox_conf_perm -> conv6_2_mbox_conf_perm
I1002 11:44:21.312394 15796 net.cpp:150] Setting up conv6_2_mbox_conf_perm
I1002 11:44:21.312399 15796 net.cpp:157] Top shape: 10 10 10 18 (18000)
I1002 11:44:21.312400 15796 net.cpp:165] Memory required for data: 2478453776
I1002 11:44:21.312402 15796 layer_factory.hpp:77] Creating layer conv6_2_mbox_conf_flat
I1002 11:44:21.312407 15796 net.cpp:100] Creating Layer conv6_2_mbox_conf_flat
I1002 11:44:21.312409 15796 net.cpp:434] conv6_2_mbox_conf_flat <- conv6_2_mbox_conf_perm
I1002 11:44:21.312412 15796 net.cpp:408] conv6_2_mbox_conf_flat -> conv6_2_mbox_conf_flat
I1002 11:44:21.312427 15796 net.cpp:150] Setting up conv6_2_mbox_conf_flat
I1002 11:44:21.312429 15796 net.cpp:157] Top shape: 10 1800 (18000)
I1002 11:44:21.312430 15796 net.cpp:165] Memory required for data: 2478525776
I1002 11:44:21.312433 15796 layer_factory.hpp:77] Creating layer conv6_2_mbox_priorbox
I1002 11:44:21.312438 15796 net.cpp:100] Creating Layer conv6_2_mbox_priorbox
I1002 11:44:21.312439 15796 net.cpp:434] conv6_2_mbox_priorbox <- conv6_2_conv6_2_relu_0_split_3
I1002 11:44:21.312450 15796 net.cpp:434] conv6_2_mbox_priorbox <- data_data_0_split_3
I1002 11:44:21.312454 15796 net.cpp:408] conv6_2_mbox_priorbox -> conv6_2_mbox_priorbox
I1002 11:44:21.312471 15796 net.cpp:150] Setting up conv6_2_mbox_priorbox
I1002 11:44:21.312474 15796 net.cpp:157] Top shape: 1 2 2400 (4800)
I1002 11:44:21.312476 15796 net.cpp:165] Memory required for data: 2478544976
I1002 11:44:21.312479 15796 layer_factory.hpp:77] Creating layer conv7_2_mbox_loc
I1002 11:44:21.312484 15796 net.cpp:100] Creating Layer conv7_2_mbox_loc
I1002 11:44:21.312485 15796 net.cpp:434] conv7_2_mbox_loc <- conv7_2_conv7_2_relu_0_split_1
I1002 11:44:21.312491 15796 net.cpp:408] conv7_2_mbox_loc -> conv7_2_mbox_loc
I1002 11:44:21.312856 15796 net.cpp:150] Setting up conv7_2_mbox_loc
I1002 11:44:21.312861 15796 net.cpp:157] Top shape: 10 24 5 5 (6000)
I1002 11:44:21.312863 15796 net.cpp:165] Memory required for data: 2478568976
I1002 11:44:21.312868 15796 layer_factory.hpp:77] Creating layer conv7_2_mbox_loc_perm
I1002 11:44:21.312873 15796 net.cpp:100] Creating Layer conv7_2_mbox_loc_perm
I1002 11:44:21.312876 15796 net.cpp:434] conv7_2_mbox_loc_perm <- conv7_2_mbox_loc
I1002 11:44:21.312880 15796 net.cpp:408] conv7_2_mbox_loc_perm -> conv7_2_mbox_loc_perm
I1002 11:44:21.312947 15796 net.cpp:150] Setting up conv7_2_mbox_loc_perm
I1002 11:44:21.312952 15796 net.cpp:157] Top shape: 10 5 5 24 (6000)
I1002 11:44:21.312953 15796 net.cpp:165] Memory required for data: 2478592976
I1002 11:44:21.312955 15796 layer_factory.hpp:77] Creating layer conv7_2_mbox_loc_flat
I1002 11:44:21.312959 15796 net.cpp:100] Creating Layer conv7_2_mbox_loc_flat
I1002 11:44:21.312963 15796 net.cpp:434] conv7_2_mbox_loc_flat <- conv7_2_mbox_loc_perm
I1002 11:44:21.312965 15796 net.cpp:408] conv7_2_mbox_loc_flat -> conv7_2_mbox_loc_flat
I1002 11:44:21.312979 15796 net.cpp:150] Setting up conv7_2_mbox_loc_flat
I1002 11:44:21.312983 15796 net.cpp:157] Top shape: 10 600 (6000)
I1002 11:44:21.312983 15796 net.cpp:165] Memory required for data: 2478616976
I1002 11:44:21.312985 15796 layer_factory.hpp:77] Creating layer conv7_2_mbox_conf
I1002 11:44:21.312990 15796 net.cpp:100] Creating Layer conv7_2_mbox_conf
I1002 11:44:21.312994 15796 net.cpp:434] conv7_2_mbox_conf <- conv7_2_conv7_2_relu_0_split_2
I1002 11:44:21.312997 15796 net.cpp:408] conv7_2_mbox_conf -> conv7_2_mbox_conf
I1002 11:44:21.313307 15796 net.cpp:150] Setting up conv7_2_mbox_conf
I1002 11:44:21.313311 15796 net.cpp:157] Top shape: 10 18 5 5 (4500)
I1002 11:44:21.313313 15796 net.cpp:165] Memory required for data: 2478634976
I1002 11:44:21.313316 15796 layer_factory.hpp:77] Creating layer conv7_2_mbox_conf_perm
I1002 11:44:21.313321 15796 net.cpp:100] Creating Layer conv7_2_mbox_conf_perm
I1002 11:44:21.313324 15796 net.cpp:434] conv7_2_mbox_conf_perm <- conv7_2_mbox_conf
I1002 11:44:21.313328 15796 net.cpp:408] conv7_2_mbox_conf_perm -> conv7_2_mbox_conf_perm
I1002 11:44:21.313397 15796 net.cpp:150] Setting up conv7_2_mbox_conf_perm
I1002 11:44:21.313402 15796 net.cpp:157] Top shape: 10 5 5 18 (4500)
I1002 11:44:21.313403 15796 net.cpp:165] Memory required for data: 2478652976
I1002 11:44:21.313405 15796 layer_factory.hpp:77] Creating layer conv7_2_mbox_conf_flat
I1002 11:44:21.313410 15796 net.cpp:100] Creating Layer conv7_2_mbox_conf_flat
I1002 11:44:21.313412 15796 net.cpp:434] conv7_2_mbox_conf_flat <- conv7_2_mbox_conf_perm
I1002 11:44:21.313416 15796 net.cpp:408] conv7_2_mbox_conf_flat -> conv7_2_mbox_conf_flat
I1002 11:44:21.313429 15796 net.cpp:150] Setting up conv7_2_mbox_conf_flat
I1002 11:44:21.313432 15796 net.cpp:157] Top shape: 10 450 (4500)
I1002 11:44:21.313433 15796 net.cpp:165] Memory required for data: 2478670976
I1002 11:44:21.313436 15796 layer_factory.hpp:77] Creating layer conv7_2_mbox_priorbox
I1002 11:44:21.313439 15796 net.cpp:100] Creating Layer conv7_2_mbox_priorbox
I1002 11:44:21.313444 15796 net.cpp:434] conv7_2_mbox_priorbox <- conv7_2_conv7_2_relu_0_split_3
I1002 11:44:21.313447 15796 net.cpp:434] conv7_2_mbox_priorbox <- data_data_0_split_4
I1002 11:44:21.313458 15796 net.cpp:408] conv7_2_mbox_priorbox -> conv7_2_mbox_priorbox
I1002 11:44:21.313475 15796 net.cpp:150] Setting up conv7_2_mbox_priorbox
I1002 11:44:21.313478 15796 net.cpp:157] Top shape: 1 2 600 (1200)
I1002 11:44:21.313480 15796 net.cpp:165] Memory required for data: 2478675776
I1002 11:44:21.313482 15796 layer_factory.hpp:77] Creating layer conv8_2_mbox_loc
I1002 11:44:21.313488 15796 net.cpp:100] Creating Layer conv8_2_mbox_loc
I1002 11:44:21.313489 15796 net.cpp:434] conv8_2_mbox_loc <- conv8_2_conv8_2_relu_0_split_1
I1002 11:44:21.313493 15796 net.cpp:408] conv8_2_mbox_loc -> conv8_2_mbox_loc
I1002 11:44:21.313792 15796 net.cpp:150] Setting up conv8_2_mbox_loc
I1002 11:44:21.313797 15796 net.cpp:157] Top shape: 10 16 3 3 (1440)
I1002 11:44:21.313799 15796 net.cpp:165] Memory required for data: 2478681536
I1002 11:44:21.313807 15796 layer_factory.hpp:77] Creating layer conv8_2_mbox_loc_perm
I1002 11:44:21.313812 15796 net.cpp:100] Creating Layer conv8_2_mbox_loc_perm
I1002 11:44:21.313815 15796 net.cpp:434] conv8_2_mbox_loc_perm <- conv8_2_mbox_loc
I1002 11:44:21.313820 15796 net.cpp:408] conv8_2_mbox_loc_perm -> conv8_2_mbox_loc_perm
I1002 11:44:21.313891 15796 net.cpp:150] Setting up conv8_2_mbox_loc_perm
I1002 11:44:21.313896 15796 net.cpp:157] Top shape: 10 3 3 16 (1440)
I1002 11:44:21.313899 15796 net.cpp:165] Memory required for data: 2478687296
I1002 11:44:21.313900 15796 layer_factory.hpp:77] Creating layer conv8_2_mbox_loc_flat
I1002 11:44:21.313904 15796 net.cpp:100] Creating Layer conv8_2_mbox_loc_flat
I1002 11:44:21.313905 15796 net.cpp:434] conv8_2_mbox_loc_flat <- conv8_2_mbox_loc_perm
I1002 11:44:21.313910 15796 net.cpp:408] conv8_2_mbox_loc_flat -> conv8_2_mbox_loc_flat
I1002 11:44:21.313923 15796 net.cpp:150] Setting up conv8_2_mbox_loc_flat
I1002 11:44:21.313926 15796 net.cpp:157] Top shape: 10 144 (1440)
I1002 11:44:21.313927 15796 net.cpp:165] Memory required for data: 2478693056
I1002 11:44:21.313930 15796 layer_factory.hpp:77] Creating layer conv8_2_mbox_conf
I1002 11:44:21.313951 15796 net.cpp:100] Creating Layer conv8_2_mbox_conf
I1002 11:44:21.313952 15796 net.cpp:434] conv8_2_mbox_conf <- conv8_2_conv8_2_relu_0_split_2
I1002 11:44:21.313956 15796 net.cpp:408] conv8_2_mbox_conf -> conv8_2_mbox_conf
I1002 11:44:21.314218 15796 net.cpp:150] Setting up conv8_2_mbox_conf
I1002 11:44:21.314224 15796 net.cpp:157] Top shape: 10 12 3 3 (1080)
I1002 11:44:21.314225 15796 net.cpp:165] Memory required for data: 2478697376
I1002 11:44:21.314229 15796 layer_factory.hpp:77] Creating layer conv8_2_mbox_conf_perm
I1002 11:44:21.314234 15796 net.cpp:100] Creating Layer conv8_2_mbox_conf_perm
I1002 11:44:21.314235 15796 net.cpp:434] conv8_2_mbox_conf_perm <- conv8_2_mbox_conf
I1002 11:44:21.314239 15796 net.cpp:408] conv8_2_mbox_conf_perm -> conv8_2_mbox_conf_perm
I1002 11:44:21.314307 15796 net.cpp:150] Setting up conv8_2_mbox_conf_perm
I1002 11:44:21.314328 15796 net.cpp:157] Top shape: 10 3 3 12 (1080)
I1002 11:44:21.314332 15796 net.cpp:165] Memory required for data: 2478701696
I1002 11:44:21.314334 15796 layer_factory.hpp:77] Creating layer conv8_2_mbox_conf_flat
I1002 11:44:21.314340 15796 net.cpp:100] Creating Layer conv8_2_mbox_conf_flat
I1002 11:44:21.314342 15796 net.cpp:434] conv8_2_mbox_conf_flat <- conv8_2_mbox_conf_perm
I1002 11:44:21.314347 15796 net.cpp:408] conv8_2_mbox_conf_flat -> conv8_2_mbox_conf_flat
I1002 11:44:21.314370 15796 net.cpp:150] Setting up conv8_2_mbox_conf_flat
I1002 11:44:21.314373 15796 net.cpp:157] Top shape: 10 108 (1080)
I1002 11:44:21.314374 15796 net.cpp:165] Memory required for data: 2478706016
I1002 11:44:21.314378 15796 layer_factory.hpp:77] Creating layer conv8_2_mbox_priorbox
I1002 11:44:21.314381 15796 net.cpp:100] Creating Layer conv8_2_mbox_priorbox
I1002 11:44:21.314384 15796 net.cpp:434] conv8_2_mbox_priorbox <- conv8_2_conv8_2_relu_0_split_3
I1002 11:44:21.314386 15796 net.cpp:434] conv8_2_mbox_priorbox <- data_data_0_split_5
I1002 11:44:21.314390 15796 net.cpp:408] conv8_2_mbox_priorbox -> conv8_2_mbox_priorbox
I1002 11:44:21.314417 15796 net.cpp:150] Setting up conv8_2_mbox_priorbox
I1002 11:44:21.314420 15796 net.cpp:157] Top shape: 1 2 144 (288)
I1002 11:44:21.314422 15796 net.cpp:165] Memory required for data: 2478707168
I1002 11:44:21.314424 15796 layer_factory.hpp:77] Creating layer conv9_2_mbox_loc
I1002 11:44:21.314432 15796 net.cpp:100] Creating Layer conv9_2_mbox_loc
I1002 11:44:21.314435 15796 net.cpp:434] conv9_2_mbox_loc <- conv9_2_conv9_2_relu_0_split_0
I1002 11:44:21.314441 15796 net.cpp:408] conv9_2_mbox_loc -> conv9_2_mbox_loc
I1002 11:44:21.314738 15796 net.cpp:150] Setting up conv9_2_mbox_loc
I1002 11:44:21.314743 15796 net.cpp:157] Top shape: 10 16 1 1 (160)
I1002 11:44:21.314744 15796 net.cpp:165] Memory required for data: 2478707808
I1002 11:44:21.314749 15796 layer_factory.hpp:77] Creating layer conv9_2_mbox_loc_perm
I1002 11:44:21.314754 15796 net.cpp:100] Creating Layer conv9_2_mbox_loc_perm
I1002 11:44:21.314757 15796 net.cpp:434] conv9_2_mbox_loc_perm <- conv9_2_mbox_loc
I1002 11:44:21.314761 15796 net.cpp:408] conv9_2_mbox_loc_perm -> conv9_2_mbox_loc_perm
I1002 11:44:21.314829 15796 net.cpp:150] Setting up conv9_2_mbox_loc_perm
I1002 11:44:21.314832 15796 net.cpp:157] Top shape: 10 1 1 16 (160)
I1002 11:44:21.314834 15796 net.cpp:165] Memory required for data: 2478708448
I1002 11:44:21.314836 15796 layer_factory.hpp:77] Creating layer conv9_2_mbox_loc_flat
I1002 11:44:21.314841 15796 net.cpp:100] Creating Layer conv9_2_mbox_loc_flat
I1002 11:44:21.314843 15796 net.cpp:434] conv9_2_mbox_loc_flat <- conv9_2_mbox_loc_perm
I1002 11:44:21.314846 15796 net.cpp:408] conv9_2_mbox_loc_flat -> conv9_2_mbox_loc_flat
I1002 11:44:21.314860 15796 net.cpp:150] Setting up conv9_2_mbox_loc_flat
I1002 11:44:21.314863 15796 net.cpp:157] Top shape: 10 16 (160)
I1002 11:44:21.314864 15796 net.cpp:165] Memory required for data: 2478709088
I1002 11:44:21.314867 15796 layer_factory.hpp:77] Creating layer conv9_2_mbox_conf
I1002 11:44:21.314872 15796 net.cpp:100] Creating Layer conv9_2_mbox_conf
I1002 11:44:21.314874 15796 net.cpp:434] conv9_2_mbox_conf <- conv9_2_conv9_2_relu_0_split_1
I1002 11:44:21.314879 15796 net.cpp:408] conv9_2_mbox_conf -> conv9_2_mbox_conf
I1002 11:44:21.315147 15796 net.cpp:150] Setting up conv9_2_mbox_conf
I1002 11:44:21.315165 15796 net.cpp:157] Top shape: 10 12 1 1 (120)
I1002 11:44:21.315172 15796 net.cpp:165] Memory required for data: 2478709568
I1002 11:44:21.315183 15796 layer_factory.hpp:77] Creating layer conv9_2_mbox_conf_perm
I1002 11:44:21.315196 15796 net.cpp:100] Creating Layer conv9_2_mbox_conf_perm
I1002 11:44:21.315204 15796 net.cpp:434] conv9_2_mbox_conf_perm <- conv9_2_mbox_conf
I1002 11:44:21.315217 15796 net.cpp:408] conv9_2_mbox_conf_perm -> conv9_2_mbox_conf_perm
I1002 11:44:21.315297 15796 net.cpp:150] Setting up conv9_2_mbox_conf_perm
I1002 11:44:21.315302 15796 net.cpp:157] Top shape: 10 1 1 12 (120)
I1002 11:44:21.315304 15796 net.cpp:165] Memory required for data: 2478710048
I1002 11:44:21.315307 15796 layer_factory.hpp:77] Creating layer conv9_2_mbox_conf_flat
I1002 11:44:21.315311 15796 net.cpp:100] Creating Layer conv9_2_mbox_conf_flat
I1002 11:44:21.315315 15796 net.cpp:434] conv9_2_mbox_conf_flat <- conv9_2_mbox_conf_perm
I1002 11:44:21.315318 15796 net.cpp:408] conv9_2_mbox_conf_flat -> conv9_2_mbox_conf_flat
I1002 11:44:21.315335 15796 net.cpp:150] Setting up conv9_2_mbox_conf_flat
I1002 11:44:21.315338 15796 net.cpp:157] Top shape: 10 12 (120)
I1002 11:44:21.315340 15796 net.cpp:165] Memory required for data: 2478710528
I1002 11:44:21.315341 15796 layer_factory.hpp:77] Creating layer conv9_2_mbox_priorbox
I1002 11:44:21.315346 15796 net.cpp:100] Creating Layer conv9_2_mbox_priorbox
I1002 11:44:21.315348 15796 net.cpp:434] conv9_2_mbox_priorbox <- conv9_2_conv9_2_relu_0_split_2
I1002 11:44:21.315351 15796 net.cpp:434] conv9_2_mbox_priorbox <- data_data_0_split_6
I1002 11:44:21.315356 15796 net.cpp:408] conv9_2_mbox_priorbox -> conv9_2_mbox_priorbox
I1002 11:44:21.315371 15796 net.cpp:150] Setting up conv9_2_mbox_priorbox
I1002 11:44:21.315374 15796 net.cpp:157] Top shape: 1 2 16 (32)
I1002 11:44:21.315383 15796 net.cpp:165] Memory required for data: 2478710656
I1002 11:44:21.315385 15796 layer_factory.hpp:77] Creating layer mbox_loc
I1002 11:44:21.315390 15796 net.cpp:100] Creating Layer mbox_loc
I1002 11:44:21.315393 15796 net.cpp:434] mbox_loc <- conv4_3_norm_mbox_loc_flat
I1002 11:44:21.315397 15796 net.cpp:434] mbox_loc <- fc7_mbox_loc_flat
I1002 11:44:21.315399 15796 net.cpp:434] mbox_loc <- conv6_2_mbox_loc_flat
I1002 11:44:21.315402 15796 net.cpp:434] mbox_loc <- conv7_2_mbox_loc_flat
I1002 11:44:21.315404 15796 net.cpp:434] mbox_loc <- conv8_2_mbox_loc_flat
I1002 11:44:21.315407 15796 net.cpp:434] mbox_loc <- conv9_2_mbox_loc_flat
I1002 11:44:21.315410 15796 net.cpp:408] mbox_loc -> mbox_loc
I1002 11:44:21.315431 15796 net.cpp:150] Setting up mbox_loc
I1002 11:44:21.315434 15796 net.cpp:157] Top shape: 10 34928 (349280)
I1002 11:44:21.315435 15796 net.cpp:165] Memory required for data: 2480107776
I1002 11:44:21.315438 15796 layer_factory.hpp:77] Creating layer mbox_conf
I1002 11:44:21.315444 15796 net.cpp:100] Creating Layer mbox_conf
I1002 11:44:21.315448 15796 net.cpp:434] mbox_conf <- conv4_3_norm_mbox_conf_flat
I1002 11:44:21.315450 15796 net.cpp:434] mbox_conf <- fc7_mbox_conf_flat
I1002 11:44:21.315454 15796 net.cpp:434] mbox_conf <- conv6_2_mbox_conf_flat
I1002 11:44:21.315455 15796 net.cpp:434] mbox_conf <- conv7_2_mbox_conf_flat
I1002 11:44:21.315459 15796 net.cpp:434] mbox_conf <- conv8_2_mbox_conf_flat
I1002 11:44:21.315460 15796 net.cpp:434] mbox_conf <- conv9_2_mbox_conf_flat
I1002 11:44:21.315464 15796 net.cpp:408] mbox_conf -> mbox_conf
I1002 11:44:21.315479 15796 net.cpp:150] Setting up mbox_conf
I1002 11:44:21.315482 15796 net.cpp:157] Top shape: 10 26196 (261960)
I1002 11:44:21.315485 15796 net.cpp:165] Memory required for data: 2481155616
I1002 11:44:21.315486 15796 layer_factory.hpp:77] Creating layer mbox_priorbox
I1002 11:44:21.315490 15796 net.cpp:100] Creating Layer mbox_priorbox
I1002 11:44:21.315491 15796 net.cpp:434] mbox_priorbox <- conv4_3_norm_mbox_priorbox
I1002 11:44:21.315495 15796 net.cpp:434] mbox_priorbox <- fc7_mbox_priorbox
I1002 11:44:21.315497 15796 net.cpp:434] mbox_priorbox <- conv6_2_mbox_priorbox
I1002 11:44:21.315500 15796 net.cpp:434] mbox_priorbox <- conv7_2_mbox_priorbox
I1002 11:44:21.315502 15796 net.cpp:434] mbox_priorbox <- conv8_2_mbox_priorbox
I1002 11:44:21.315505 15796 net.cpp:434] mbox_priorbox <- conv9_2_mbox_priorbox
I1002 11:44:21.315508 15796 net.cpp:408] mbox_priorbox -> mbox_priorbox
I1002 11:44:21.315522 15796 net.cpp:150] Setting up mbox_priorbox
I1002 11:44:21.315526 15796 net.cpp:157] Top shape: 1 2 34928 (69856)
I1002 11:44:21.315526 15796 net.cpp:165] Memory required for data: 2481435040
I1002 11:44:21.315528 15796 layer_factory.hpp:77] Creating layer mbox_loss
I1002 11:44:21.315541 15796 net.cpp:100] Creating Layer mbox_loss
I1002 11:44:21.315543 15796 net.cpp:434] mbox_loss <- mbox_loc
I1002 11:44:21.315546 15796 net.cpp:434] mbox_loss <- mbox_conf
I1002 11:44:21.315548 15796 net.cpp:434] mbox_loss <- mbox_priorbox
…
state {
  phase: TEST
}
layer {
  name: "data"
  type: "AnnotatedData"
  top: "data"
  top: "label"
  include {
    phase: TEST
  }
  transform_param {
    mean_value: 104
    mean_value: 117
    mean_value: 123
    resize_param {
      prob: 1
      resize_mode: WARP
      height: 300
      width: 300
      interp_mode: LINEAR
    }
  }
  data_param {
    source: "examples/MELON/MELON_test_lmdb"
    batch_size: 4
    backend: LMDB
  }
  annotated_data_param {
    batch_sampler {
    }
    label_map_file: "data/MELON/labelmap_melon.prototxt"
  }
}
layer {
  name: "conv1_1"
  type: "Convolution"
  bottom: "data"
  top: "conv1_1"
  param {
    lr_mult: 1
    decay_mult: 1
  }
  param {
    lr_mult: 2
    decay_mult: 0
  }
  convolution_param {
    num_output: 64
    pad: 1
    kernel_size: 3
    weight_filler {
      type: "xavier"
    }
    bias_filler {
      type: "constant"
      value: 0
    }
  }
}
layer {
  name: "relu1_1"
  type: "ReLU"
  bottom: "conv1_1"
  top: "conv1_1"
}
layer {
  name: "conv1_2"
  type: "Convolution"
  bottom: "conv1_1"
  top: "conv1_2"
  param {
    lr_mult: 1
    decay_mult: 1
  }
  param {
    lr_mult: 2
    decay_mult: 0
  }
  convolution_param {
    num_output: 64
    pad: 1
    kernel_size: 3
    weight_filler {
      type: "xavier"
    }
    bias_filler {
      type: "constant"
      value: 0
    }
  }
}
layer {
  name: "relu1_2"
  type: "ReLU"
  bottom: "conv1_2"
  top: "conv1_2"
}
layer {
  name: "pool1"
  type: "Pooling"
  bottom: "conv1_2"
  top: "pool1"
  pooling_param {
    pool: MAX
    kernel_size: 2
    stride: 2
  }
}
layer {
  name: "conv2_1"
  type: "Convolution"
  bottom: "pool1"
  top: "conv2_1"
  param {
    lr_mult: 1
    decay_mult: 1
  }
  param {
    lr_mult: 2
    decay_mult: 0
  }
  convolution_param {
    num_output: 128
    pad: 1
    kernel_size: 3
    weight_filler {
      type: "xavier"
    }
    bias_filler {
      type: "constant"
      value: 0
    }
  }
}
layer {
  name: "relu2_1"
  type: "ReLU"
  bottom: "conv2_1"
  top: "conv2_1"
}
layer {
  name: "conv2_2"
  type: "Convolution"
  bottom: "conv2_1"
  top: "conv2_2"
  param {
    lr_mult: 1
    decay_mult: 1
  }
  param {
    lr_mult: 2
    decay_mult: 0
  }
  convolution_param {
    num_output: 128
    pad: 1
    kernel_size: 3
    weight_filler {
      type: "xavier"
    }
    bias_filler {
      type: "constant"
      value: 0
    }
  }
}
layer {
  name: "relu2_2"
  type: "ReLU"
  bottom: "conv2_2"
  top: "conv2_2"
}
layer {
  name: "pool2"
  type: "Pooling"
  bottom: "conv2_2"
  top: "pool2"
  pooling_param {
    pool: MAX
    kernel_size: 2
    stride: 2
  }
}
layer {
  name: "conv3_1"
  type: "Convolution"
  bottom: "pool2"
  top: "conv3_1"
  param {
    lr_mult: 1
    decay_mult: 1
  }
  param {
    lr_mult: 2
    decay_mult: 0
  }
  convolution_param {
    num_output: 256
    pad: 1
    kernel_size: 3
    weight_filler {
      type: "xavier"
    }
    bias_filler {
      type: "constant"
      value: 0
    }
  }
}
layer {
  name: "relu3_1"
  type: "ReLU"
  bottom: "conv3_1"
  top: "conv3_1"
}
layer {
  name: "conv3_2"
  type: "Convolution"
  bottom: "conv3_1"
  top: "conv3_2"
  param {
    lr_mult: 1
    decay_mult: 1
  }
  param {
    lr_mult: 2
    decay_mult: 0
  }
  convolution_param {
    num_output: 256
    pad: 1
    kernel_size: 3
    weight_filler {
      type: "xavier"
    }
    bias_filler {
      type: "constant"
      value: 0
    }
  }
}
layer {
  name: "relu3_2"
  type: "ReLU"
  bottom: "conv3_2"
  top: "conv3_2"
}
layer {
  name: "conv3_3"
  type: "Convolution"
  bottom: "conv3_2"
  top: "conv3_3"
  param {
    lr_mult: 1
    decay_mult: 1
  }
  param {
    lr_mult: 2
    decay_mult: 0
  }
  convolution_param {
    num_output: 256
    pad: 1
    kernel_size: 3
    weight_filler {
      type: "xavier"
    }
    bias_filler {
      type: "constant"
      value: 0
    }
  }
}
layer {
  name: "relu3_3"
  type: "ReLU"
  bottom: "conv3_3"
  top: "conv3_3"
}
layer {
  name: "pool3"
  type: "Pooling"
  bottom: "conv3_3"
  top: "pool3"
  pooling_param {
    pool: MAX
    kernel_size: 2
    stride: 2
  }
}
layer {
  name: "conv4_1"
  type: "Convolution"
  bottom: "pool3"
  top: "conv4_1"
  param {
    lr_mult: 1
    decay_mult: 1
  }
  param {
    lr_mult: 2
    decay_mult: 0
  }
  convolution_param {
    num_output: 512
    pad: 1
    kernel_size: 3
    weight_filler {
      type: "xavier"
    }
    bias_filler {
      type: "constant"
      value: 0
    }
  }
}
layer {
  name: "relu4_1"
  type: "ReLU"
  bottom: "conv4_1"
  top: "conv4_1"
}
layer {
  name: "conv4_2"
  type: "Convolution"
  bottom: "conv4_1"
  top: "conv4_2"
  param {
    lr_mult: 1
    decay_mult: 1
  }
  param {
    lr_mult: 2
    decay_mult: 0
  }
  convolution_param {
    num_output: 512
    pad: 1
    kernel_size: 3
    weight_filler {
      type: "xavier"
    }
    bias_filler {
      type: "constant"
      value: 0
    }
  }
}
layer {
  name: "relu4_2"
  type: "ReLU"
  bottom: "conv4_2"
  top: "conv4_2"
}
layer {
  name: "conv4_3"
  type: "Convolution"
  bottom: "conv4_2"
  top: "conv4_3"
  param {
    lr_mult: 1
    decay_mult: 1
  }
  param {
    lr_mult: 2
    decay_mult: 0
  }
  convolution_param {
    num_output: 512
    pad: 1
    kernel_size: 3
    weight_filler {
      type: "xavier"
    }
    bias_filler {
      type: "constant"
      value: 0
    }
  }
}
layer {
  name: "relu4_3"
  type: "ReLU"
  bottom: "conv4_3"
  top: "conv4_3"
}
layer {
  name: "pool4"
  type: "Pooling"
  bottom: "conv4_3"
  top: "pool4"
  pooling_param {
    pool: MAX
    kernel_size: 2
    stride: 2
  }
}
layer {
  name: "conv5_1"
  type: "Convolution"
  bottom: "pool4"
  top: "conv5_1"
  param {
    lr_mult: 1
    decay_mult: 1
  }
  param {
    lr_mult: 2
    decay_mult: 0
  }
  convolution_param {
    num_output: 512
    pad: 1
    kernel_size: 3
    weight_filler {
      type: "xavier"
    }
    bias_filler {
      type: "constant"
      value: 0
    }
    dilation: 1
  }
}
layer {
  name: "relu5_1"
  type: "ReLU"
  bottom: "conv5_1"
  top: "conv5_1"
}
layer {
  name: "conv5_2"
  type: "Convolution"
  bottom: "conv5_1"
  top: "conv5_2"
  param {
    lr_mult: 1
    decay_mult: 1
  }
  param {
    lr_mult: 2
    decay_mult: 0
  }
  convolution_param {
    num_output: 512
    pad: 1
    kernel_size: 3
    weight_filler {
      type: "xavier"
    }
    bias_filler {
      type: "constant"
      value: 0
    }
    dilation: 1
  }
}
layer {
  name: "relu5_2"
  type: "ReLU"
  bottom: "conv5_2"
  top: "conv5_2"
}
layer {
  name: "conv5_3"
  type: "Convolution"
  bottom: "conv5_2"
  top: "conv5_3"
  param {
    lr_mult: 1
    decay_mult: 1
  }
  param {
    lr_mult: 2
    decay_mult: 0
  }
  convolution_param {
    num_output: 512
    pad: 1
    kernel_size: 3
    weight_filler {
      type: "xavier"
    }
    bias_filler {
      type: "constant"
      value: 0
    }
    dilation: 1
  }
}
layer {
  name: "relu5_3"
  type: "ReLU"
  bottom: "conv5_3"
  top: "conv5_3"
}
layer {
  name: "pool5"
  type: "Pooling"
  bottom: "conv5_3"
  top: "pool5"
  pooling_param {
    pool: MAX
    kernel_size: 3
    stride: 1
    pad: 1
  }
}
layer {
  name: "fc6"
  type: "Convolution"
  bottom: "pool5"
  top: "fc6"
  param {
    lr_mult: 1
    decay_mult: 1
  }
  param {
    lr_mult: 2
    decay_mult: 0
  }
  convolution_param {
    num_output: 1024
    pad: 6
    kernel_size: 3
    weight_filler {
      type: "xavier"
    }
    bias_filler {
      type: "constant"
      value: 0
    }
    dilation: 6
  }
}
layer {
  name: "relu6"
  type: "ReLU"
  bottom: "fc6"
  top: "fc6"
}
layer {
  name: "fc7"
  type: "Convolution"
  bottom: "fc6"
  top: "fc7"
  param {
    lr_mult: 1
    decay_mult: 1
  }
  param {
    lr_mult: 2
    decay_mult: 0
  }
  convolution_param {
    num_output: 1024
    kernel_size: 1
    weight_filler {
      type: "xavier"
    }
    bias_filler {
      type: "constant"
      value: 0
    }
  }
}
layer {
  name: "relu7"
  type: "ReLU"
  bottom: "fc7"
  top: "fc7"
}
layer {
  name: "conv6_1"
  type: "Convolution"
  bottom: "fc7"
  top: "conv6_1"
  param {
    lr_mult: 1
    decay_mult: 1
  }
  param {
    lr_mult: 2
    decay_mult: 0
  }
  convolution_param {
    num_output: 256
    pad: 0
    kernel_size: 1
    stride: 1
    weight_filler {
      type: "xavier"
    }
    bias_filler {
      type: "constant"
      value: 0
    }
  }
}
layer {
  name: "conv6_1_relu"
  type: "ReLU"
  bottom: "conv6_1"
  top: "conv6_1"
}
layer {
  name: "conv6_2"
  type: "Convolution"
  bottom: "conv6_1"
  top: "conv6_2"
  param {
    lr_mult: 1
    decay_mult: 1
  }
  param {
    lr_mult: 2
    decay_mult: 0
  }
  convolution_param {
    num_output: 512
    pad: 1
    kernel_size: 3
    stride: 2
    weight_filler {
      type: "xavier"
    }
    bias_filler {
      type: "constant"
      value: 0
    }
  }
}
layer {
  name: "conv6_2_relu"
  type: "ReLU"
  bottom: "conv6_2"
  top: "conv6_2"
}
layer {
  name: "conv7_1"
  type: "Convolution"
  bottom: "conv6_2"
  top: "conv7_1"
  param {
    lr_mult: 1
    decay_mult: 1
  }
  param {
    lr_mult: 2
    decay_mult: 0
  }
  convolution_param {
    num_output: 128
    pad: 0
    kernel_size: 1
    stride: 1
    weight_filler {
      type: "xavier"
    }
    bias_filler {
      type: "constant"
      value: 0
    }
  }
}
layer {
  name: "conv7_1_relu"
  type: "ReLU"
  bottom: "conv7_1"
  top: "conv7_1"
}
layer {
  name: "conv7_2"
  type: "Convolution"
  bottom: "conv7_1"
  top: "conv7_2"
  param {
    lr_mult: 1
    decay_mult: 1
  }
  param {
    lr_mult: 2
    decay_mult: 0
  }
  convolution_param {
    num_output: 256
    pad: 1
    kernel_size: 3
    stride: 2
    weight_filler {
      type: "xavier"
    }
    bias_filler {
      type: "constant"
      value: 0
    }
  }
}
layer {
  name: "conv7_2_relu"
  type: "ReLU"
  bottom: "conv7_2"
  top: "conv7_2"
}
layer {
  name: "conv8_1"
  type: "Convolution"
  bottom: "conv7_2"
  top: "conv8_1"
  param {
    lr_mult: 1
    decay_mult: 1
  }
  param {
    lr_mult: 2
    decay_mult: 0
  }
  convolution_param {
    num_output: 128
    pad: 0
    kernel_size: 1
    stride: 1
    weight_filler {
      type: "xavier"
    }
    bias_filler {
      type: "constant"
      value: 0
    }
  }
}
layer {
  name: "conv8_1_relu"
  type: "ReLU"
  bottom: "conv8_1"
  top: "conv8_1"
}
layer {
  name: "conv8_2"
  type: "Convolution"
  bottom: "conv8_1"
  top: "conv8_2"
  param {
    lr_mult: 1
    decay_mult: 1
  }
  param {
    lr_mult: 2
    decay_mult: 0
  }
  convolution_param {
    num_output: 256
    pad: 0
    kernel_size: 3
    stride: 1
    weight_filler {
      type: "xavier"
    }
    bias_filler {
      type: "constant"
      value: 0
    }
  }
}
layer {
  name: "conv8_2_relu"
  type: "ReLU"
  bottom: "conv8_2"
  top: "conv8_2"
}
layer {
  name: "conv9_1"
  type: "Convolution"
  bottom: "conv8_2"
  top: "conv9_1"
  param {
    lr_mult: 1
    decay_mult: 1
  }
  param {
    lr_mult: 2
    decay_mult: 0
  }
  convolution_param {
    num_output: 128
    pad: 0
    kernel_size: 1
    stride: 1
    weight_filler {
      type: "xavier"
    }
    bias_filler {
      type: "constant"
      value: 0
    }
  }
}
layer {
  name: "conv9_1_relu"
  type: "ReLU"
  bottom: "conv9_1"
  top: "conv9_1"
}
layer {
  name: "conv9_2"
  type: "Convolution"
  bottom: "conv9_1"
  top: "conv9_2"
  param {
    lr_mult: 1
    decay_mult: 1
  }
  param {
    lr_mult: 2
    decay_mult: 0
  }
  convolution_param {
    num_output: 256
    pad: 0
    kernel_size: 3
    stride: 1
    weight_filler {
      type: "xavier"
    }
    bias_filler {
      type: "constant"
      value: 0
    }
  }
}
layer {
  name: "conv9_2_relu"
  type: "ReLU"
  bottom: "conv9_2"
  top: "conv9_2"
}
layer {
  name: "conv4_3_norm"
  type: "Normalize"
  bottom: "conv4_3"
  top: "conv4_3_norm"
  norm_param {
    across_spatial: false
    scale_filler {
      type: "constant"
      value: 20
    }
    channel_shared: false
  }
}
layer {
  name: "conv4_3_norm_mbox_loc"
  type: "Convolution"
  bottom: "conv4_3_norm"
  top: "conv4_3_norm_mbox_loc"
  param {
    lr_mult: 1
    decay_mult: 1
  }
  param {
    lr_mult: 2
    decay_mult: 0
  }
  convolution_param {
    num_output: 16
    pad: 1
    kernel_size: 3
    stride: 1
    weight_filler {
      type: "xavier"
    }
    bias_filler {
      type: "constant"
      value: 0
    }
  }
}
layer {
  name: "conv4_3_norm_mbox_loc_perm"
  type: "Permute"
  bottom: "conv4_3_norm_mbox_loc"
  top: "conv4_3_norm_mbox_loc_perm"
  permute_param {
    order: 0
    order: 2
    order: 3
    order: 1
  }
}
layer {
  name: "conv4_3_norm_mbox_loc_flat"
  type: "Flatten"
  bottom: "conv4_3_norm_mbox_loc_perm"
  top: "conv4_3_norm_mbox_loc_flat"
  flatten_param {
    axis: 1
  }
}
layer {
  name: "conv4_3_norm_mbox_conf"
  type: "Convolution"
  bottom: "conv4_3_norm"
  top: "conv4_3_norm_mbox_conf"
  param {
    lr_mult: 1
    decay_mult: 1
  }
  param {
    lr_mult: 2
    decay_mult: 0
  }
  convolution_param {
    num_output: 12
    pad: 1
    kernel_size: 3
    stride: 1
    weight_filler {
      type: "xavier"
    }
    bias_filler {
      type: "constant"
      value: 0
    }
  }
}
layer {
  name: "conv4_3_norm_mbox_conf_perm"
  type: "Permute"
  bottom: "conv4_3_norm_mbox_conf"
  top: "conv4_3_norm_mbox_conf_perm"
  permute_param {
    order: 0
    order: 2
    order: 3
    order: 1
  }
}
layer {
  name: "conv4_3_norm_mbox_conf_flat"
  type: "Flatten"
  bottom: "conv4_3_norm_mbox_conf_perm"
  top: "conv4_3_norm_mbox_conf_flat"
  flatten_param {
    axis: 1
  }
}
layer {
  name: "conv4_3_norm_mbox_priorbox"
  type: "PriorBox"
  bottom: "conv4_3_norm"
  bottom: "data"
  top: "conv4_3_norm_mbox_priorbox"
  prior_box_param {
    min_size: 30
    max_size: 60
    aspect_ratio: 2
    flip: true
    clip: false
    variance: 0.1
    variance: 0.1
    variance: 0.2
    variance: 0.2
    step: 8
    offset: 0.5
  }
}
layer {
  name: "fc7_mbox_loc"
  type: "Convolution"
  bottom: "fc7"
  top: "fc7_mbox_loc"
  param {
    lr_mult: 1
    decay_mult: 1
  }
  param {
    lr_mult: 2
    decay_mult: 0
  }
  convolution_param {
    num_output: 24
    pad: 1
    kernel_size: 3
    stride: 1
    weight_filler {
      type: "xavier"
    }
    bias_filler {
      type: "constant"
      value: 0
    }
  }
}
layer {
  name: "fc7_mbox_loc_perm"
  type: "Permute"
  bottom: "fc7_mbox_loc"
  top: "fc7_mbox_loc_perm"
  permute_param {
    order: 0
    order: 2
    order: 3
    order: 1
  }
}
layer {
  name: "fc7_mbox_loc_flat"
  type: "Flatten"
  bottom: "fc7_mbox_loc_perm"
  top: "fc7_mbox_loc_flat"
  flatten_param {
    axis: 1
  }
}
layer {
  name: "fc7_mbox_conf"
  type: "Convolution"
  bottom: "fc7"
  top: "fc7_mbox_conf"
  param {
    lr_mult: 1
    decay_mult: 1
  }
  param {
    lr_mult: 2
    decay_mult: 0
  }
  convolution_param {
    num_output: 18
    pad: 1
    kernel_size: 3
    stride: 1
    weight_filler {
      type: "xavier"
    }
    bias_filler {
      type: "constant"
      value: 0
    }
  }
}
layer {
  name: "fc7_mbox_conf_perm"
  type: "Permute"
  bottom: "fc7_mbox_conf"
  top: "fc7_mbox_conf_perm"
  permute_param {
    order: 0
    order: 2
    order: 3
    order: 1
  }
}
layer {
  name: "fc7_mbox_conf_flat"
  type: "Flatten"
  bottom: "fc7_mbox_conf_perm"
  top: "fc7_mbox_conf_flat"
  flatten_param {
    axis: 1
  }
}
layer {
  name: "fc7_mbox_priorbox"
  type: "PriorBox"
  bottom: "fc7"
  bottom: "data"
  top: "fc7_mbox_priorbox"
  prior_box_param {
    min_size: 60
    max_size: 111
    aspect_ratio: 2
    aspect_ratio: 3
    flip: true
    clip: false
    variance: 0.1
    variance: 0.1
    variance: 0.2
    variance: 0.2
    step: 16
    offset: 0.5
  }
}
layer {
  name: "conv6_2_mbox_loc"
  type: "Convolution"
  bottom: "conv6_2"
  top: "conv6_2_mbox_loc"
  param {
    lr_mult: 1
    decay_mult: 1
  }
  param {
    lr_mult: 2
    decay_mult: 0
  }
  convolution_param {
    num_output: 24
    pad: 1
    kernel_size: 3
    stride: 1
    weight_filler {
      type: "xavier"
    }
    bias_filler {
      type: "constant"
      value: 0
    }
  }
}
layer {
  name: "conv6_2_mbox_loc_perm"
  type: "Permute"
  bottom: "conv6_2_mbox_loc"
  top: "conv6_2_mbox_loc_perm"
  permute_param {
    order: 0
    order: 2
    order: 3
    order: 1
  }
}
layer {
  name: "conv6_2_mbox_loc_flat"
  type: "Flatten"
  bottom: "conv6_2_mbox_loc_perm"
  top: "conv6_2_mbox_loc_flat"
  flatten_param {
    axis: 1
  }
}
layer {
  name: "conv6_2_mbox_conf"
  type: "Convolution"
  bottom: "conv6_2"
  top: "conv6_2_mbox_conf"
  param {
    lr_mult: 1
    decay_mult: 1
  }
  param {
    lr_mult: 2
    decay_mult: 0
  }
  convolution_param {
    num_output: 18
    pad: 1
    kernel_size: 3
    stride: 1
    weight_filler {
      type: "xavier"
    }
    bias_filler {
      type: "constant"
      value: 0
    }
  }
}
layer {
  name: "conv6_2_mbox_conf_perm"
  type: "Permute"
  bottom: "conv6_2_mbox_conf"
  top: "conv6_2_mbox_conf_perm"
  permute_param {
    order: 0
    order: 2
    order: 3
    order: 1
  }
}
layer {
  name: "conv6_2_mbox_conf_flat"
  type: "Flatten"
  bottom: "conv6_2_mbox_conf_perm"
  top: "conv6_2_mbox_conf_flat"
  flatten_param {
    axis: 1
  }
}
layer {
  name: "conv6_2_mbox_priorbox"
  type: "PriorBox"
  bottom: "conv6_2"
  bottom: "data"
  top: "conv6_2_mbox_priorbox"
  prior_box_param {
    min_size: 111
    max_size: 162
    aspect_ratio: 2
    aspect_ratio: 3
    flip: true
    clip: false
    variance: 0.1
    variance: 0.1
    variance: 0.2
    variance: 0.2
    step: 32
    offset: 0.5
  }
}
layer {
  name: "conv7_2_mbox_loc"
  type: "Convolution"
  bottom: "conv7_2"
  top: "conv7_2_mbox_loc"
  param {
    lr_mult: 1
    decay_mult: 1
  }
  param {
    lr_mult: 2
    decay_mult: 0
  }
  convolution_param {
    num_output: 24
    pad: 1
    kernel_size: 3
    stride: 1
    weight_filler {
      type: "xavier"
    }
    bias_filler {
      type: "constant"
      value: 0
    }
  }
}
layer {
  name: "conv7_2_mbox_loc_perm"
  type: "Permute"
  bottom: "conv7_2_mbox_loc"
  top: "conv7_2_mbox_loc_perm"
  permute_param {
    order: 0
    order: 2
    order: 3
    order: 1
  }
}
layer {
  name: "conv7_2_mbox_loc_flat"
  type: "Flatten"
  bottom: "conv7_2_mbox_loc_perm"
  top: "conv7_2_mbox_loc_flat"
  flatten_param {
    axis: 1
  }
}
layer {
  name: "conv7_2_mbox_conf"
  type: "Convolution"
  bottom: "conv7_2"
  top: "conv7_2_mbox_conf"
  param {
    lr_mult: 1
    decay_mult: 1
  }
  param {
    lr_mult: 2
    decay_mult: 0
  }
  convolution_param {
    num_output: 18
    pad: 1
    kernel_size: 3
    stride: 1
    weight_filler {
      type: "xavier"
    }
    bias_filler {
      type: "constant"
      value: 0
    }
  }
}
layer {
  name: "conv7_2_mbox_conf_perm"
  type: "Permute"
  bottom: "conv7_2_mbox_conf"
  top: "conv7_2_mbox_conf_perm"
  permute_param {
    order: 0
    order: 2
    order: 3
    order: 1
  }
}
layer {
  name: "conv7_2_mbox_conf_flat"
  type: "Flatten"
  bottom: "conv7_2_mbox_conf_perm"
  top: "conv7_2_mbox_conf_flat"
  flatten_param {
    axis: 1
  }
}
layer {
  name: "conv7_2_mbox_priorbox"
  type: "PriorBox"
  bottom: "conv7_2"
  bottom: "data"
  top: "conv7_2_mbox_priorbox"
  prior_box_param {
    min_size: 162
    max_size: 213
    aspect_ratio: 2
    aspect_ratio: 3
    flip: true
    clip: false
    variance: 0.1
    variance: 0.1
    variance: 0.2
    variance: 0.2
    step: 64
    offset: 0.5
  }
}
layer {
  name: "conv8_2_mbox_loc"
  type: "Convolution"
  bottom: "conv8_2"
  top: "conv8_2_mbox_loc"
  param {
    lr_mult: 1
    decay_mult: 1
  }
  param {
    lr_mult: 2
    decay_mult: 0
  }
  convolution_param {
    num_output: 16
    pad: 1
    kernel_size: 3
    stride: 1
    weight_filler {
      type: "xavier"
    }
    bias_filler {
      type: "constant"
      value: 0
    }
  }
}
layer {
  name: "conv8_2_mbox_loc_perm"
  type: "Permute"
  bottom: "conv8_2_mbox_loc"
  top: "conv8_2_mbox_loc_perm"
  permute_param {
    order: 0
    order: 2
    order: 3
    order: 1
  }
}
layer {
  name: "conv8_2_mbox_loc_flat"
  type: "Flatten"
  bottom: "conv8_2_mbox_loc_perm"
  top: "conv8_2_mbox_loc_flat"
  flatten_param {
    axis: 1
  }
}
layer {
  name: "conv8_2_mbox_conf"
  type: "Convolution"
  bottom: "conv8_2"
  top: "conv8_2_mbox_conf"
  param {
    lr_mult: 1
    decay_mult: 1
  }
  param {
    lr_mult: 2
    decay_mult: 0
  }
  convolution_param {
    num_output: 12
    pad: 1
    kernel_size: 3
    stride: 1
    weight_filler {
      type: "xavier"
    }
    bias_filler {
      type: "constant"
      value: 0
    }
  }
}
layer {
  name: "conv8_2_mbox_conf_perm"
  type: "Permute"
  bottom: "conv8_2_mbox_conf"
  top: "conv8_2_mbox_conf_perm"
  permute_param {
    order: 0
    order: 2
    order: 3
    order: 1
  }
}
layer {
  name: "conv8_2_mbox_conf_flat"
  type: "Flatten"
  bottom: "conv8_2_mbox_conf_perm"
  top: "conv8_2_mbox_conf_flat"
  flatten_param {
    axis: 1
  }
}
layer {
  name: "conv8_2_mbox_priorbox"
  type: "PriorBox"
  bottom: "conv8_2"
  bottom: "data"
  top: "conv8_2_mbox_priorbox"
  prior_box_param {
    min_size: 213
    max_size: 264
    aspect_ratio: 2
    flip: true
    clip: false
    variance: 0.1
    variance: 0.1
    variance: 0.2
    variance: 0.2
    step: 100
    offset: 0.5
  }
}
layer {
  name: "conv9_2_mbox_loc"
  type: "Convolution"
  bottom: "conv9_2"
  top: "conv9_2_mbox_loc"
  param {
    lr_mult: 1
    decay_mult: 1
  }
  param {
    lr_mult: 2
    decay_mult: 0
  }
  convolution_param {
    num_output: 16
    pad: 1
    kernel_size: 3
    stride: 1
    weight_filler {
      type: "xavier"
    }
    bias_filler {
      type: "constant"
      value: 0
    }
  }
}
layer {
  name: "conv9_2_mbox_loc_perm"
  type: "Permute"
  bottom: "conv9_2_mbox_loc"
  top: "conv9_2_mbox_loc_perm"
  permute_param {
    order: 0
    order: 2
    order: 3
    order: 1
  }
}
layer {
  name: "conv9_2_mbox_loc_flat"
  type: "Flatten"
  bottom: "conv9_2_mbox_loc_perm"
  top: "conv9_2_mbox_loc_flat"
  flatten_param {
    axis: 1
  }
}
layer {
  name: "conv9_2_mbox_conf"
  type: "Convolution"
  bottom: "conv9_2"
  top: "conv9_2_mbox_conf"
  param {
    lr_mult: 1
    decay_mult: 1
  }
  param {
    lr_mult: 2
    decay_mult: 0
  }
  convolution_param {
    num_output: 12
    pad: 1
    kernel_size: 3
    stride: 1
    weight_filler {
      type: "xavier"
    }
    bias_filler {
      type: "constant"
      value: 0
    }
  }
}
layer {
  name: "conv9_2_mbox_conf_perm"
  type: "Permute"
  bottom: "conv9_2_mbox_conf"
  top: "conv9_2_mbox_conf_perm"
  permute_param {
    order: 0
    order: 2
    order: 3
    order: 1
  }
}
layer {
  name: "conv9_2_mbox_conf_flat"
  type: "Flatten"
  bottom: "conv9_2_mbox_conf_perm"
  top: "conv9_2_mbox_conf_flat"
  flatten_param {
    axis: 1
  }
}
layer {
  name: "conv9_2_mbox_priorbox"
  type: "PriorBox"
  bottom: "conv9_2"
  bottom: "data"
  top: "conv9_2_mbox_priorbox"
  prior_box_param {
    min_size: 264
    max_size: 315
    aspect_ratio: 2
    flip: true
    clip: false
    variance: 0.1
    variance: 0.1
    variance: 0.2
    variance: 0.2
    step: 300
    offset: 0.5
  }
}
layer {
  name: "mbox_loc"
  type: "Concat"
  bottom: "conv4_3_norm_mbox_loc_flat"
  bottom: "fc7_mbox_loc_flat"
  bottom: "conv6_2_mbox_loc_flat"
  bottom: "conv7_2_mbox_loc_flat"
  bottom: "conv8_2_mbox_loc_flat"
  bottom: "conv9_2_mbox_loc_flat"
  top: "mbox_loc"
  concat_param {
    axis: 1
  }
}
layer {
  name: "mbox_conf"
  type: "Concat"
  bottom: "conv4_3_norm_mbox_conf_flat"
  bottom: "fc7_mbox_conf_flat"
  bottom: "conv6_2_mbox_conf_flat"
  bottom: "conv7_2_mbox_conf_flat"
  bottom: "conv8_2_mbox_conf_flat"
  bottom: "conv9_2_mbox_conf_flat"
  top: "mbox_conf"
  concat_param {
    axis: 1
  }
}
layer {
  name: "mbox_priorbox"
  type: "Concat"
  bottom: "conv4_3_norm_mbox_priorbox"
  bottom: "fc7_mbox_priorbox"
  bottom: "conv6_2_mbox_priorbox"
  bottom: "conv7_2_mbox_priorbox"
  bottom: "conv8_2_mbox_priorbox"
  bottom: "conv9_2_mbox_priorbox"
  top: "mbox_priorbox"
  concat_param {
    axis: 2
  }
}
layer {
  name: "mbox_conf_reshape"
  type: "Reshape"
  bottom: "mbox_conf"
  top: "mbox_conf_reshape"
  reshape_param {
    shape {
      dim: 0
      dim: -1
      dim: 3
    }
  }
}
layer {
  name: "mbox_conf_softmax"
  type: "Softmax"
  bottom: "mbox_conf_reshape"
  top: "mbox_conf_softmax"
  softmax_param {
    axis: 2
  }
}
layer {
  name: "mbox_conf_flatten"
  type: "Flatten"
  bottom: "mbox_conf_softmax"
  top: "mbox_conf_flatten"
  flatten_param {
    axis: 1
  }
}
layer {
  name: "detection_out"
  type: "DetectionOutput"
  bottom: "mbox_loc"
  bottom: "mbox_conf_flatten"
  bottom: "mbox_priorbox"
  top: "detection_out"
  include {
    phase: TEST
  }
  detection_output_param {
    num_classes: 3
    share_location: true
    background_label_id: 0
    nms_param {
      nms_threshold: 0.45
      top_k: 400
    }
    save_output_param {
      output_directory: "/home/rjperias/data/VOCdevkit/results/VOC2007/SSD_300x300/Main"
      output_name_prefix: "comp4_det_test_"
      output_format: "VOC"
      label_map_file: "data/MELON/labelmap_melon.prototxt"
      name_size_file: "data/MELON/test_name_size.txt"
      num_test_image: 80
    }
    code_type: CENTER_SIZE
    keep_top_k: 200
    confidence_threshold: 0.01
  }
}
layer {
  name: "detection_eval"
  type: "DetectionEvaluate"
  bottom: "detection_out"
  bottom: "label"
  top: "detection_eval"
  include {
    phase: TEST
  }
  detection_evaluate_param {
    num_classes: 3
    background_label_id: 0
    overlap_threshold: 0.5
    evaluate_difficult_gt: false
    name_size_file: "data/MELON/test_name_size.txt"
  }
}
I1002 11:44:21.317948 15796 layer_factory.hpp:77] Creating layer data
I1002 11:44:21.318002 15796 net.cpp:100] Creating Layer data
I1002 11:44:21.318007 15796 net.cpp:408] data -> data
I1002 11:44:21.318013 15796 net.cpp:408] data -> label
I1002 11:44:21.318804 15822 db_lmdb.cpp:35] Opened lmdb examples/MELON/MELON_test_lmdb
I1002 11:44:21.320255 15796 annotated_data_layer.cpp:62] output data size: 4,3,300,300
I1002 11:44:21.329529 15796 net.cpp:150] Setting up data
I1002 11:44:21.329556 15796 net.cpp:157] Top shape: 4 3 300 300 (1080000)
I1002 11:44:21.329560 15796 net.cpp:157] Top shape: 1 1 1 8 (8)
I1002 11:44:21.329562 15796 net.cpp:165] Memory required for data: 4320032
I1002 11:44:21.329568 15796 layer_factory.hpp:77] Creating layer data_data_0_split
I1002 11:44:21.329593 15796 net.cpp:100] Creating Layer data_data_0_split
I1002 11:44:21.329597 15796 net.cpp:434] data_data_0_split <- data
I1002 11:44:21.329608 15796 net.cpp:408] data_data_0_split -> data_data_0_split_0
I1002 11:44:21.329618 15796 net.cpp:408] data_data_0_split -> data_data_0_split_1
I1002 11:44:21.329624 15796 net.cpp:408] data_data_0_split -> data_data_0_split_2
I1002 11:44:21.329629 15796 net.cpp:408] data_data_0_split -> data_data_0_split_3
I1002 11:44:21.329634 15796 net.cpp:408] data_data_0_split -> data_data_0_split_4
I1002 11:44:21.329638 15796 net.cpp:408] data_data_0_split -> data_data_0_split_5
I1002 11:44:21.329641 15796 net.cpp:408] data_data_0_split -> data_data_0_split_6
I1002 11:44:21.329726 15796 net.cpp:150] Setting up data_data_0_split
I1002 11:44:21.329730 15796 net.cpp:157] Top shape: 4 3 300 300 (1080000)
I1002 11:44:21.329733 15796 net.cpp:157] Top shape: 4 3 300 300 (1080000)
I1002 11:44:21.329735 15796 net.cpp:157] Top shape: 4 3 300 300 (1080000)
I1002 11:44:21.329738 15796 net.cpp:157] Top shape: 4 3 300 300 (1080000)
I1002 11:44:21.329741 15796 net.cpp:157] Top shape: 4 3 300 300 (1080000)
I1002 11:44:21.329743 15796 net.cpp:157] Top shape: 4 3 300 300 (1080000)
I1002 11:44:21.329746 15796 net.cpp:157] Top shape: 4 3 300 300 (1080000)
I1002 11:44:21.329747 15796 net.cpp:165] Memory required for data: 34560032
I1002 11:44:21.329772 15796 layer_factory.hpp:77] Creating layer conv1_1
I1002 11:44:21.329783 15796 net.cpp:100] Creating Layer conv1_1
I1002 11:44:21.329785 15796 net.cpp:434] conv1_1 <- data_data_0_split_0
I1002 11:44:21.329789 15796 net.cpp:408] conv1_1 -> conv1_1
I1002 11:44:21.330050 15796 net.cpp:150] Setting up conv1_1
I1002 11:44:21.330054 15796 net.cpp:157] Top shape: 4 64 300 300 (23040000)
I1002 11:44:21.330056 15796 net.cpp:165] Memory required for data: 126720032
I1002 11:44:21.330063 15796 layer_factory.hpp:77] Creating layer relu1_1
I1002 11:44:21.330067 15796 net.cpp:100] Creating Layer relu1_1
I1002 11:44:21.330070 15796 net.cpp:434] relu1_1 <- conv1_1
I1002 11:44:21.330072 15796 net.cpp:395] relu1_1 -> conv1_1 (in-place)
I1002 11:44:21.330076 15796 net.cpp:150] Setting up relu1_1
I1002 11:44:21.330078 15796 net.cpp:157] Top shape: 4 64 300 300 (23040000)
I1002 11:44:21.330080 15796 net.cpp:165] Memory required for data: 218880032
I1002 11:44:21.330082 15796 layer_factory.hpp:77] Creating layer conv1_2
I1002 11:44:21.330087 15796 net.cpp:100] Creating Layer conv1_2
I1002 11:44:21.330090 15796 net.cpp:434] conv1_2 <- conv1_1
I1002 11:44:21.330092 15796 net.cpp:408] conv1_2 -> conv1_2
I1002 11:44:21.331327 15796 net.cpp:150] Setting up conv1_2
I1002 11:44:21.331343 15796 net.cpp:157] Top shape: 4 64 300 300 (23040000)
I1002 11:44:21.331346 15796 net.cpp:165] Memory required for data: 311040032
I1002 11:44:21.331354 15796 layer_factory.hpp:77] Creating layer relu1_2
I1002 11:44:21.331362 15796 net.cpp:100] Creating Layer relu1_2
I1002 11:44:21.331365 15796 net.cpp:434] relu1_2 <- conv1_2
I1002 11:44:21.331369 15796 net.cpp:395] relu1_2 -> conv1_2 (in-place)
I1002 11:44:21.331375 15796 net.cpp:150] Setting up relu1_2
I1002 11:44:21.331378 15796 net.cpp:157] Top shape: 4 64 300 300 (23040000)
I1002 11:44:21.331382 15796 net.cpp:165] Memory required for data: 403200032
I1002 11:44:21.331383 15796 layer_factory.hpp:77] Creating layer pool1
I1002 11:44:21.331387 15796 net.cpp:100] Creating Layer pool1
I1002 11:44:21.331389 15796 net.cpp:434] pool1 <- conv1_2
I1002 11:44:21.331393 15796 net.cpp:408] pool1 -> pool1
I1002 11:44:21.331418 15796 net.cpp:150] Setting up pool1
I1002 11:44:21.331421 15796 net.cpp:157] Top shape: 4 64 150 150 (5760000)
I1002 11:44:21.331423 15796 net.cpp:165] Memory required for data: 426240032
I1002 11:44:21.331425 15796 layer_factory.hpp:77] Creating layer conv2_1
I1002 11:44:21.331431 15796 net.cpp:100] Creating Layer conv2_1
I1002 11:44:21.331434 15796 net.cpp:434] conv2_1 <- pool1
I1002 11:44:21.331436 15796 net.cpp:408] conv2_1 -> conv2_1
I1002 11:44:21.331881 15796 net.cpp:150] Setting up conv2_1
I1002 11:44:21.331885 15796 net.cpp:157] Top shape: 4 128 150 150 (11520000)
I1002 11:44:21.331888 15796 net.cpp:165] Memory required for data: 472320032
I1002 11:44:21.331893 15796 layer_factory.hpp:77] Creating layer relu2_1
I1002 11:44:21.331897 15796 net.cpp:100] Creating Layer relu2_1
I1002 11:44:21.331899 15796 net.cpp:434] relu2_1 <- conv2_1
I1002 11:44:21.331902 15796 net.cpp:395] relu2_1 -> conv2_1 (in-place)
I1002 11:44:21.331904 15796 net.cpp:150] Setting up relu2_1
I1002 11:44:21.331907 15796 net.cpp:157] Top shape: 4 128 150 150 (11520000)
I1002 11:44:21.331909 15796 net.cpp:165] Memory required for data: 518400032
I1002 11:44:21.331910 15796 layer_factory.hpp:77] Creating layer conv2_2
I1002 11:44:21.331914 15796 net.cpp:100] Creating Layer conv2_2
I1002 11:44:21.331917 15796 net.cpp:434] conv2_2 <- conv2_1
I1002 11:44:21.331919 15796 net.cpp:408] conv2_2 -> conv2_2
I1002 11:44:21.333959 15796 net.cpp:150] Setting up conv2_2
I1002 11:44:21.333979 15796 net.cpp:157] Top shape: 4 128 150 150 (11520000)
I1002 11:44:21.333981 15796 net.cpp:165] Memory required for data: 564480032
I1002 11:44:21.333997 15796 layer_factory.hpp:77] Creating layer relu2_2
I1002 11:44:21.334004 15796 net.cpp:100] Creating Layer relu2_2
I1002 11:44:21.334008 15796 net.cpp:434] relu2_2 <- conv2_2
I1002 11:44:21.334012 15796 net.cpp:395] relu2_2 -> conv2_2 (in-place)
I1002 11:44:21.334018 15796 net.cpp:150] Setting up relu2_2
I1002 11:44:21.334049 15796 net.cpp:157] Top shape: 4 128 150 150 (11520000)
I1002 11:44:21.334051 15796 net.cpp:165] Memory required for data: 610560032
I1002 11:44:21.334053 15796 layer_factory.hpp:77] Creating layer pool2
I1002 11:44:21.334058 15796 net.cpp:100] Creating Layer pool2
I1002 11:44:21.334064 15796 net.cpp:434] pool2 <- conv2_2
I1002 11:44:21.334069 15796 net.cpp:408] pool2 -> pool2
I1002 11:44:21.334103 15796 net.cpp:150] Setting up pool2
I1002 11:44:21.334107 15796 net.cpp:157] Top shape: 4 128 75 75 (2880000)
I1002 11:44:21.334110 15796 net.cpp:165] Memory required for data: 622080032
I1002 11:44:21.334115 15796 layer_factory.hpp:77] Creating layer conv3_1
I1002 11:44:21.334122 15796 net.cpp:100] Creating Layer conv3_1
I1002 11:44:21.334125 15796 net.cpp:434] conv3_1 <- pool2
I1002 11:44:21.334146 15796 net.cpp:408] conv3_1 -> conv3_1
I1002 11:44:21.335398 15796 net.cpp:150] Setting up conv3_1
I1002 11:44:21.335407 15796 net.cpp:157] Top shape: 4 256 75 75 (5760000)
I1002 11:44:21.335408 15796 net.cpp:165] Memory required for data: 645120032
I1002 11:44:21.335419 15796 layer_factory.hpp:77] Creating layer relu3_1
I1002 11:44:21.335424 15796 net.cpp:100] Creating Layer relu3_1
I1002 11:44:21.335427 15796 net.cpp:434] relu3_1 <- conv3_1
I1002 11:44:21.335429 15796 net.cpp:395] relu3_1 -> conv3_1 (in-place)
I1002 11:44:21.335433 15796 net.cpp:150] Setting up relu3_1
I1002 11:44:21.335436 15796 net.cpp:157] Top shape: 4 256 75 75 (5760000)
I1002 11:44:21.335438 15796 net.cpp:165] Memory required for data: 668160032
I1002 11:44:21.335439 15796 layer_factory.hpp:77] Creating layer conv3_2
I1002 11:44:21.335450 15796 net.cpp:100] Creating Layer conv3_2
I1002 11:44:21.335453 15796 net.cpp:434] conv3_2 <- conv3_1
I1002 11:44:21.335456 15796 net.cpp:408] conv3_2 -> conv3_2
I1002 11:44:21.338990 15796 net.cpp:150] Setting up conv3_2
I1002 11:44:21.339012 15796 net.cpp:157] Top shape: 4 256 75 75 (5760000)
I1002 11:44:21.339015 15796 net.cpp:165] Memory required for data: 691200032
I1002 11:44:21.339021 15796 layer_factory.hpp:77] Creating layer relu3_2
I1002 11:44:21.339028 15796 net.cpp:100] Creating Layer relu3_2
I1002 11:44:21.339031 15796 net.cpp:434] relu3_2 <- conv3_2
I1002 11:44:21.339035 15796 net.cpp:395] relu3_2 -> conv3_2 (in-place)
I1002 11:44:21.339041 15796 net.cpp:150] Setting up relu3_2
I1002 11:44:21.339043 15796 net.cpp:157] Top shape: 4 256 75 75 (5760000)
I1002 11:44:21.339046 15796 net.cpp:165] Memory required for data: 714240032
I1002 11:44:21.339047 15796 layer_factory.hpp:77] Creating layer conv3_3
I1002 11:44:21.339056 15796 net.cpp:100] Creating Layer conv3_3
I1002 11:44:21.339057 15796 net.cpp:434] conv3_3 <- conv3_2
I1002 11:44:21.339061 15796 net.cpp:408] conv3_3 -> conv3_3
I1002 11:44:21.342356 15796 net.cpp:150] Setting up conv3_3
I1002 11:44:21.342378 15796 net.cpp:157] Top shape: 4 256 75 75 (5760000)
I1002 11:44:21.342381 15796 net.cpp:165] Memory required for data: 737280032
I1002 11:44:21.342387 15796 layer_factory.hpp:77] Creating layer relu3_3
I1002 11:44:21.342396 15796 net.cpp:100] Creating Layer relu3_3
I1002 11:44:21.342399 15796 net.cpp:434] relu3_3 <- conv3_3
I1002 11:44:21.342403 15796 net.cpp:395] relu3_3 -> conv3_3 (in-place)
I1002 11:44:21.342411 15796 net.cpp:150] Setting up relu3_3
I1002 11:44:21.342413 15796 net.cpp:157] Top shape: 4 256 75 75 (5760000)
I1002 11:44:21.342416 15796 net.cpp:165] Memory required for data: 760320032
I1002 11:44:21.342417 15796 layer_factory.hpp:77] Creating layer pool3
I1002 11:44:21.342420 15796 net.cpp:100] Creating Layer pool3
I1002 11:44:21.342422 15796 net.cpp:434] pool3 <- conv3_3
I1002 11:44:21.342425 15796 net.cpp:408] pool3 -> pool3
I1002 11:44:21.342453 15796 net.cpp:150] Setting up pool3
I1002 11:44:21.342455 15796 net.cpp:157] Top shape: 4 256 38 38 (1478656)
I1002 11:44:21.342456 15796 net.cpp:165] Memory required for data: 766234656
I1002 11:44:21.342458 15796 layer_factory.hpp:77] Creating layer conv4_1
I1002 11:44:21.342466 15796 net.cpp:100] Creating Layer conv4_1
I1002 11:44:21.342468 15796 net.cpp:434] conv4_1 <- pool3
I1002 11:44:21.342497 15796 net.cpp:408] conv4_1 -> conv4_1
I1002 11:44:21.348809 15796 net.cpp:150] Setting up conv4_1
I1002 11:44:21.348845 15796 net.cpp:157] Top shape: 4 512 38 38 (2957312)
I1002 11:44:21.348847 15796 net.cpp:165] Memory required for data: 778063904
I1002 11:44:21.348866 15796 layer_factory.hpp:77] Creating layer relu4_1
I1002 11:44:21.348875 15796 net.cpp:100] Creating Layer relu4_1
I1002 11:44:21.348878 15796 net.cpp:434] relu4_1 <- conv4_1
I1002 11:44:21.348884 15796 net.cpp:395] relu4_1 -> conv4_1 (in-place)
I1002 11:44:21.348891 15796 net.cpp:150] Setting up relu4_1
I1002 11:44:21.348894 15796 net.cpp:157] Top shape: 4 512 38 38 (2957312)
I1002 11:44:21.348896 15796 net.cpp:165] Memory required for data: 789893152
I1002 11:44:21.348898 15796 layer_factory.hpp:77] Creating layer conv4_2
I1002 11:44:21.348907 15796 net.cpp:100] Creating Layer conv4_2
I1002 11:44:21.348909 15796 net.cpp:434] conv4_2 <- conv4_1
I1002 11:44:21.348917 15796 net.cpp:408] conv4_2 -> conv4_2
I1002 11:44:21.360803 15796 net.cpp:150] Setting up conv4_2
I1002 11:44:21.360833 15796 net.cpp:157] Top shape: 4 512 38 38 (2957312)
I1002 11:44:21.360836 15796 net.cpp:165] Memory required for data: 801722400
I1002 11:44:21.360857 15796 layer_factory.hpp:77] Creating layer relu4_2
I1002 11:44:21.360867 15796 net.cpp:100] Creating Layer relu4_2
I1002 11:44:21.360870 15796 net.cpp:434] relu4_2 <- conv4_2
I1002 11:44:21.360874 15796 net.cpp:395] relu4_2 -> conv4_2 (in-place)
I1002 11:44:21.360880 15796 net.cpp:150] Setting up relu4_2
I1002 11:44:21.360883 15796 net.cpp:157] Top shape: 4 512 38 38 (2957312)
I1002 11:44:21.360884 15796 net.cpp:165] Memory required for data: 813551648
I1002 11:44:21.360888 15796 layer_factory.hpp:77] Creating layer conv4_3
I1002 11:44:21.360893 15796 net.cpp:100] Creating Layer conv4_3
I1002 11:44:21.360895 15796 net.cpp:434] conv4_3 <- conv4_2
I1002 11:44:21.360898 15796 net.cpp:408] conv4_3 -> conv4_3
I1002 11:44:21.372833 15796 net.cpp:150] Setting up conv4_3
I1002 11:44:21.372855 15796 net.cpp:157] Top shape: 4 512 38 38 (2957312)
I1002 11:44:21.372858 15796 net.cpp:165] Memory required for data: 825380896
I1002 11:44:21.372864 15796 layer_factory.hpp:77] Creating layer relu4_3
I1002 11:44:21.372880 15796 net.cpp:100] Creating Layer relu4_3
I1002 11:44:21.372884 15796 net.cpp:434] relu4_3 <- conv4_3
I1002 11:44:21.372889 15796 net.cpp:395] relu4_3 -> conv4_3 (in-place)
I1002 11:44:21.372894 15796 net.cpp:150] Setting up relu4_3
I1002 11:44:21.372896 15796 net.cpp:157] Top shape: 4 512 38 38 (2957312)
I1002 11:44:21.372897 15796 net.cpp:165] Memory required for data: 837210144
I1002 11:44:21.372900 15796 layer_factory.hpp:77] Creating layer conv4_3_relu4_3_0_split
I1002 11:44:21.372903 15796 net.cpp:100] Creating Layer conv4_3_relu4_3_0_split
I1002 11:44:21.372905 15796 net.cpp:434] conv4_3_relu4_3_0_split <- conv4_3
I1002 11:44:21.372908 15796 net.cpp:408] conv4_3_relu4_3_0_split -> conv4_3_relu4_3_0_split_0
I1002 11:44:21.372913 15796 net.cpp:408] conv4_3_relu4_3_0_split -> conv4_3_relu4_3_0_split_1
I1002 11:44:21.372938 15796 net.cpp:150] Setting up conv4_3_relu4_3_0_split
I1002 11:44:21.372941 15796 net.cpp:157] Top shape: 4 512 38 38 (2957312)
I1002 11:44:21.372944 15796 net.cpp:157] Top shape: 4 512 38 38 (2957312)
I1002 11:44:21.372946 15796 net.cpp:165] Memory required for data: 860868640
I1002 11:44:21.372947 15796 layer_factory.hpp:77] Creating layer pool4
I1002 11:44:21.372951 15796 net.cpp:100] Creating Layer pool4
I1002 11:44:21.372953 15796 net.cpp:434] pool4 <- conv4_3_relu4_3_0_split_0
I1002 11:44:21.372957 15796 net.cpp:408] pool4 -> pool4
I1002 11:44:21.372982 15796 net.cpp:150] Setting up pool4
I1002 11:44:21.372984 15796 net.cpp:157] Top shape: 4 512 19 19 (739328)
I1002 11:44:21.372985 15796 net.cpp:165] Memory required for data: 863825952
I1002 11:44:21.372987 15796 layer_factory.hpp:77] Creating layer conv5_1
I1002 11:44:21.372994 15796 net.cpp:100] Creating Layer conv5_1
I1002 11:44:21.372997 15796 net.cpp:434] conv5_1 <- pool4
I1002 11:44:21.372999 15796 net.cpp:408] conv5_1 -> conv5_1
I1002 11:44:21.384572 15796 net.cpp:150] Setting up conv5_1
I1002 11:44:21.384593 15796 net.cpp:157] Top shape: 4 512 19 19 (739328)
I1002 11:44:21.384595 15796 net.cpp:165] Memory required for data: 866783264
I1002 11:44:21.384611 15796 layer_factory.hpp:77] Creating layer relu5_1
I1002 11:44:21.384619 15796 net.cpp:100] Creating Layer relu5_1
I1002 11:44:21.384624 15796 net.cpp:434] relu5_1 <- conv5_1
I1002 11:44:21.384629 15796 net.cpp:395] relu5_1 -> conv5_1 (in-place)
I1002 11:44:21.384634 15796 net.cpp:150] Setting up relu5_1
I1002 11:44:21.384636 15796 net.cpp:157] Top shape: 4 512 19 19 (739328)
I1002 11:44:21.384639 15796 net.cpp:165] Memory required for data: 869740576
I1002 11:44:21.384640 15796 layer_factory.hpp:77] Creating layer conv5_2
I1002 11:44:21.384646 15796 net.cpp:100] Creating Layer conv5_2
I1002 11:44:21.384649 15796 net.cpp:434] conv5_2 <- conv5_1
I1002 11:44:21.384651 15796 net.cpp:408] conv5_2 -> conv5_2
I1002 11:44:21.396374 15796 net.cpp:150] Setting up conv5_2
I1002 11:44:21.396404 15796 net.cpp:157] Top shape: 4 512 19 19 (739328)
I1002 11:44:21.396406 15796 net.cpp:165] Memory required for data: 872697888
I1002 11:44:21.396414 15796 layer_factory.hpp:77] Creating layer relu5_2
I1002 11:44:21.396433 15796 net.cpp:100] Creating Layer relu5_2
I1002 11:44:21.396437 15796 net.cpp:434] relu5_2 <- conv5_2
I1002 11:44:21.396443 15796 net.cpp:395] relu5_2 -> conv5_2 (in-place)
I1002 11:44:21.396450 15796 net.cpp:150] Setting up relu5_2
I1002 11:44:21.396455 15796 net.cpp:157] Top shape: 4 512 19 19 (739328)
I1002 11:44:21.396456 15796 net.cpp:165] Memory required for data: 875655200
I1002 11:44:21.396458 15796 layer_factory.hpp:77] Creating layer conv5_3
I1002 11:44:21.396467 15796 net.cpp:100] Creating Layer conv5_3
I1002 11:44:21.396469 15796 net.cpp:434] conv5_3 <- conv5_2
I1002 11:44:21.396473 15796 net.cpp:408] conv5_3 -> conv5_3
I1002 11:44:21.408088 15796 net.cpp:150] Setting up conv5_3
I1002 11:44:21.408119 15796 net.cpp:157] Top shape: 4 512 19 19 (739328)
I1002 11:44:21.408121 15796 net.cpp:165] Memory required for data: 878612512
I1002 11:44:21.408130 15796 layer_factory.hpp:77] Creating layer relu5_3
I1002 11:44:21.408154 15796 net.cpp:100] Creating Layer relu5_3
I1002 11:44:21.408165 15796 net.cpp:434] relu5_3 <- conv5_3
I1002 11:44:21.408175 15796 net.cpp:395] relu5_3 -> conv5_3 (in-place)
I1002 11:44:21.408185 15796 net.cpp:150] Setting up relu5_3
I1002 11:44:21.408188 15796 net.cpp:157] Top shape: 4 512 19 19 (739328)
I1002 11:44:21.408193 15796 net.cpp:165] Memory required for data: 881569824
I1002 11:44:21.408196 15796 layer_factory.hpp:77] Creating layer pool5
I1002 11:44:21.408206 15796 net.cpp:100] Creating Layer pool5
I1002 11:44:21.408210 15796 net.cpp:434] pool5 <- conv5_3
I1002 11:44:21.408216 15796 net.cpp:408] pool5 -> pool5
I1002 11:44:21.408254 15796 net.cpp:150] Setting up pool5
I1002 11:44:21.408259 15796 net.cpp:157] Top shape: 4 512 19 19 (739328)
I1002 11:44:21.408267 15796 net.cpp:165] Memory required for data: 884527136
I1002 11:44:21.408278 15796 layer_factory.hpp:77] Creating layer fc6
I1002 11:44:21.408287 15796 net.cpp:100] Creating Layer fc6
I1002 11:44:21.408289 15796 net.cpp:434] fc6 <- pool5
I1002 11:44:21.408293 15796 net.cpp:408] fc6 -> fc6
I1002 11:44:21.430898 15796 net.cpp:150] Setting up fc6
I1002 11:44:21.430922 15796 net.cpp:157] Top shape: 4 1024 19 19 (1478656)
I1002 11:44:21.430924 15796 net.cpp:165] Memory required for data: 890441760
I1002 11:44:21.430932 15796 layer_factory.hpp:77] Creating layer relu6
I1002 11:44:21.430938 15796 net.cpp:100] Creating Layer relu6
I1002 11:44:21.430941 15796 net.cpp:434] relu6 <- fc6
I1002 11:44:21.430945 15796 net.cpp:395] relu6 -> fc6 (in-place)
I1002 11:44:21.430951 15796 net.cpp:150] Setting up relu6
I1002 11:44:21.430954 15796 net.cpp:157] Top shape: 4 1024 19 19 (1478656)
I1002 11:44:21.430955 15796 net.cpp:165] Memory required for data: 896356384
I1002 11:44:21.430958 15796 layer_factory.hpp:77] Creating layer fc7
I1002 11:44:21.430963 15796 net.cpp:100] Creating Layer fc7
I1002 11:44:21.430997 15796 net.cpp:434] fc7 <- fc6
I1002 11:44:21.431007 15796 net.cpp:408] fc7 -> fc7
I1002 11:44:21.436504 15796 net.cpp:150] Setting up fc7
I1002 11:44:21.436570 15796 net.cpp:157] Top shape: 4 1024 19 19 (1478656)
I1002 11:44:21.436573 15796 net.cpp:165] Memory required for data: 902271008
I1002 11:44:21.436581 15796 layer_factory.hpp:77] Creating layer relu7
I1002 11:44:21.436589 15796 net.cpp:100] Creating Layer relu7
I1002 11:44:21.436594 15796 net.cpp:434] relu7 <- fc7
I1002 11:44:21.436599 15796 net.cpp:395] relu7 -> fc7 (in-place)
I1002 11:44:21.436605 15796 net.cpp:150] Setting up relu7
I1002 11:44:21.436609 15796 net.cpp:157] Top shape: 4 1024 19 19 (1478656)
I1002 11:44:21.436610 15796 net.cpp:165] Memory required for data: 908185632
I1002 11:44:21.436612 15796 layer_factory.hpp:77] Creating layer fc7_relu7_0_split
I1002 11:44:21.436616 15796 net.cpp:100] Creating Layer fc7_relu7_0_split
I1002 11:44:21.436619 15796 net.cpp:434] fc7_relu7_0_split <- fc7
I1002 11:44:21.436623 15796 net.cpp:408] fc7_relu7_0_split -> fc7_relu7_0_split_0
I1002 11:44:21.436627 15796 net.cpp:408] fc7_relu7_0_split -> fc7_relu7_0_split_1
I1002 11:44:21.436635 15796 net.cpp:408] fc7_relu7_0_split -> fc7_relu7_0_split_2
I1002 11:44:21.436638 15796 net.cpp:408] fc7_relu7_0_split -> fc7_relu7_0_split_3
I1002 11:44:21.436688 15796 net.cpp:150] Setting up fc7_relu7_0_split
I1002 11:44:21.436691 15796 net.cpp:157] Top shape: 4 1024 19 19 (1478656)
I1002 11:44:21.436694 15796 net.cpp:157] Top shape: 4 1024 19 19 (1478656)
I1002 11:44:21.436697 15796 net.cpp:157] Top shape: 4 1024 19 19 (1478656)
I1002 11:44:21.436699 15796 net.cpp:157] Top shape: 4 1024 19 19 (1478656)
I1002 11:44:21.436702 15796 net.cpp:165] Memory required for data: 931844128
I1002 11:44:21.436703 15796 layer_factory.hpp:77] Creating layer conv6_1
I1002 11:44:21.436712 15796 net.cpp:100] Creating Layer conv6_1
I1002 11:44:21.436714 15796 net.cpp:434] conv6_1 <- fc7_relu7_0_split_0
I1002 11:44:21.436718 15796 net.cpp:408] conv6_1 -> conv6_1
I1002 11:44:21.438628 15796 net.cpp:150] Setting up conv6_1
I1002 11:44:21.438649 15796 net.cpp:157] Top shape: 4 256 19 19 (369664)
I1002 11:44:21.438650 15796 net.cpp:165] Memory required for data: 933322784
I1002 11:44:21.438658 15796 layer_factory.hpp:77] Creating layer conv6_1_relu
I1002 11:44:21.438665 15796 net.cpp:100] Creating Layer conv6_1_relu
I1002 11:44:21.438669 15796 net.cpp:434] conv6_1_relu <- conv6_1
I1002 11:44:21.438674 15796 net.cpp:395] conv6_1_relu -> conv6_1 (in-place)
I1002 11:44:21.438680 15796 net.cpp:150] Setting up conv6_1_relu
I1002 11:44:21.438683 15796 net.cpp:157] Top shape: 4 256 19 19 (369664)
I1002 11:44:21.438686 15796 net.cpp:165] Memory required for data: 934801440
I1002 11:44:21.438688 15796 layer_factory.hpp:77] Creating layer conv6_2
I1002 11:44:21.438705 15796 net.cpp:100] Creating Layer conv6_2
I1002 11:44:21.438709 15796 net.cpp:434] conv6_2 <- conv6_1
I1002 11:44:21.438711 15796 net.cpp:408] conv6_2 -> conv6_2
I1002 11:44:21.444783 15796 net.cpp:150] Setting up conv6_2
I1002 11:44:21.444810 15796 net.cpp:157] Top shape: 4 512 10 10 (204800)
I1002 11:44:21.444813 15796 net.cpp:165] Memory required for data: 935620640
I1002 11:44:21.444825 15796 layer_factory.hpp:77] Creating layer conv6_2_relu
I1002 11:44:21.444833 15796 net.cpp:100] Creating Layer conv6_2_relu
I1002 11:44:21.444836 15796 net.cpp:434] conv6_2_relu <- conv6_2
I1002 11:44:21.444840 15796 net.cpp:395] conv6_2_relu -> conv6_2 (in-place)
I1002 11:44:21.444846 15796 net.cpp:150] Setting up conv6_2_relu
I1002 11:44:21.444849 15796 net.cpp:157] Top shape: 4 512 10 10 (204800)
I1002 11:44:21.444850 15796 net.cpp:165] Memory required for data: 936439840
I1002 11:44:21.444852 15796 layer_factory.hpp:77] Creating layer conv6_2_conv6_2_relu_0_split
I1002 11:44:21.444859 15796 net.cpp:100] Creating Layer conv6_2_conv6_2_relu_0_split
I1002 11:44:21.444860 15796 net.cpp:434] conv6_2_conv6_2_relu_0_split <- conv6_2
I1002 11:44:21.444864 15796 net.cpp:408] conv6_2_conv6_2_relu_0_split -> conv6_2_conv6_2_relu_0_split_0
I1002 11:44:21.444900 15796 net.cpp:408] conv6_2_conv6_2_relu_0_split -> conv6_2_conv6_2_relu_0_split_1
I1002 11:44:21.444905 15796 net.cpp:408] conv6_2_conv6_2_relu_0_split -> conv6_2_conv6_2_relu_0_split_2
I1002 11:44:21.444908 15796 net.cpp:408] conv6_2_conv6_2_relu_0_split -> conv6_2_conv6_2_relu_0_split_3
I1002 11:44:21.444958 15796 net.cpp:150] Setting up conv6_2_conv6_2_relu_0_split
I1002 11:44:21.444962 15796 net.cpp:157] Top shape: 4 512 10 10 (204800)
I1002 11:44:21.444964 15796 net.cpp:157] Top shape: 4 512 10 10 (204800)
I1002 11:44:21.444967 15796 net.cpp:157] Top shape: 4 512 10 10 (204800)
I1002 11:44:21.444969 15796 net.cpp:157] Top shape: 4 512 10 10 (204800)
I1002 11:44:21.444972 15796 net.cpp:165] Memory required for data: 939716640
I1002 11:44:21.444973 15796 layer_factory.hpp:77] Creating layer conv7_1
I1002 11:44:21.444981 15796 net.cpp:100] Creating Layer conv7_1
I1002 11:44:21.444983 15796 net.cpp:434] conv7_1 <- conv6_2_conv6_2_relu_0_split_0
I1002 11:44:21.444988 15796 net.cpp:408] conv7_1 -> conv7_1
I1002 11:44:21.445417 15796 net.cpp:150] Setting up conv7_1
I1002 11:44:21.445421 15796 net.cpp:157] Top shape: 4 128 10 10 (51200)
I1002 11:44:21.445423 15796 net.cpp:165] Memory required for data: 939921440
I1002 11:44:21.445426 15796 layer_factory.hpp:77] Creating layer conv7_1_relu
I1002 11:44:21.445431 15796 net.cpp:100] Creating Layer conv7_1_relu
I1002 11:44:21.445433 15796 net.cpp:434] conv7_1_relu <- conv7_1
I1002 11:44:21.445436 15796 net.cpp:395] conv7_1_relu -> conv7_1 (in-place)
I1002 11:44:21.445439 15796 net.cpp:150] Setting up conv7_1_relu
I1002 11:44:21.445441 15796 net.cpp:157] Top shape: 4 128 10 10 (51200)
I1002 11:44:21.445443 15796 net.cpp:165] Memory required for data: 940126240
I1002 11:44:21.445446 15796 layer_factory.hpp:77] Creating layer conv7_2
I1002 11:44:21.445449 15796 net.cpp:100] Creating Layer conv7_2
I1002 11:44:21.445452 15796 net.cpp:434] conv7_2 <- conv7_1
I1002 11:44:21.445456 15796 net.cpp:408] conv7_2 -> conv7_2
I1002 11:44:21.447523 15796 net.cpp:150] Setting up conv7_2
I1002 11:44:21.447540 15796 net.cpp:157] Top shape: 4 256 5 5 (25600)
I1002 11:44:21.447541 15796 net.cpp:165] Memory required for data: 940228640
I1002 11:44:21.447548 15796 layer_factory.hpp:77] Creating layer conv7_2_relu
I1002 11:44:21.447556 15796 net.cpp:100] Creating Layer conv7_2_relu
I1002 11:44:21.447558 15796 net.cpp:434] conv7_2_relu <- conv7_2
I1002 11:44:21.447562 15796 net.cpp:395] conv7_2_relu -> conv7_2 (in-place)
I1002 11:44:21.447567 15796 net.cpp:150] Setting up conv7_2_relu
I1002 11:44:21.447571 15796 net.cpp:157] Top shape: 4 256 5 5 (25600)
I1002 11:44:21.447572 15796 net.cpp:165] Memory required for data: 940331040
I1002 11:44:21.447574 15796 layer_factory.hpp:77] Creating layer conv7_2_conv7_2_relu_0_split
I1002 11:44:21.447580 15796 net.cpp:100] Creating Layer conv7_2_conv7_2_relu_0_split
I1002 11:44:21.447582 15796 net.cpp:434] conv7_2_conv7_2_relu_0_split <- conv7_2
I1002 11:44:21.447587 15796 net.cpp:408] conv7_2_conv7_2_relu_0_split -> conv7_2_conv7_2_relu_0_split_0
I1002 11:44:21.447593 15796 net.cpp:408] conv7_2_conv7_2_relu_0_split -> conv7_2_conv7_2_relu_0_split_1
I1002 11:44:21.447597 15796 net.cpp:408] conv7_2_conv7_2_relu_0_split -> conv7_2_conv7_2_relu_0_split_2
I1002 11:44:21.447600 15796 net.cpp:408] conv7_2_conv7_2_relu_0_split -> conv7_2_conv7_2_relu_0_split_3
I1002 11:44:21.447649 15796 net.cpp:150] Setting up conv7_2_conv7_2_relu_0_split
I1002 11:44:21.447651 15796 net.cpp:157] Top shape: 4 256 5 5 (25600)
I1002 11:44:21.447654 15796 net.cpp:157] Top shape: 4 256 5 5 (25600)
I1002 11:44:21.447656 15796 net.cpp:157] Top shape: 4 256 5 5 (25600)
I1002 11:44:21.447659 15796 net.cpp:157] Top shape: 4 256 5 5 (25600)
I1002 11:44:21.447660 15796 net.cpp:165] Memory required for data: 940740640
I1002 11:44:21.447662 15796 layer_factory.hpp:77] Creating layer conv8_1
I1002 11:44:21.447670 15796 net.cpp:100] Creating Layer conv8_1
I1002 11:44:21.447672 15796 net.cpp:434] conv8_1 <- conv7_2_conv7_2_relu_0_split_0
I1002 11:44:21.447676 15796 net.cpp:408] conv8_1 -> conv8_1
I1002 11:44:21.447988 15796 net.cpp:150] Setting up conv8_1
I1002 11:44:21.447993 15796 net.cpp:157] Top shape: 4 128 5 5 (12800)
I1002 11:44:21.447994 15796 net.cpp:165] Memory required for data: 940791840
I1002 11:44:21.447998 15796 layer_factory.hpp:77] Creating layer conv8_1_relu
I1002 11:44:21.448001 15796 net.cpp:100] Creating Layer conv8_1_relu
I1002 11:44:21.448004 15796 net.cpp:434] conv8_1_relu <- conv8_1
I1002 11:44:21.448006 15796 net.cpp:395] conv8_1_relu -> conv8_1 (in-place)
I1002 11:44:21.448009 15796 net.cpp:150] Setting up conv8_1_relu
I1002 11:44:21.448011 15796 net.cpp:157] Top shape: 4 128 5 5 (12800)
I1002 11:44:21.448014 15796 net.cpp:165] Memory required for data: 940843040
I1002 11:44:21.448015 15796 layer_factory.hpp:77] Creating layer conv8_2
I1002 11:44:21.448020 15796 net.cpp:100] Creating Layer conv8_2
I1002 11:44:21.448022 15796 net.cpp:434] conv8_2 <- conv8_1
I1002 11:44:21.448025 15796 net.cpp:408] conv8_2 -> conv8_2
I1002 11:44:21.450039 15796 net.cpp:150] Setting up conv8_2
I1002 11:44:21.450057 15796 net.cpp:157] Top shape: 4 256 3 3 (9216)
I1002 11:44:21.450059 15796 net.cpp:165] Memory required for data: 940879904
I1002 11:44:21.450065 15796 layer_factory.hpp:77] Creating layer conv8_2_relu
I1002 11:44:21.450073 15796 net.cpp:100] Creating Layer conv8_2_relu
I1002 11:44:21.450075 15796 net.cpp:434] conv8_2_relu <- conv8_2
I1002 11:44:21.450079 15796 net.cpp:395] conv8_2_relu -> conv8_2 (in-place)
I1002 11:44:21.450084 15796 net.cpp:150] Setting up conv8_2_relu
I1002 11:44:21.450088 15796 net.cpp:157] Top shape: 4 256 3 3 (9216)
I1002 11:44:21.450088 15796 net.cpp:165] Memory required for data: 940916768
I1002 11:44:21.450090 15796 layer_factory.hpp:77] Creating layer conv8_2_conv8_2_relu_0_split
I1002 11:44:21.450095 15796 net.cpp:100] Creating Layer conv8_2_conv8_2_relu_0_split
I1002 11:44:21.450098 15796 net.cpp:434] conv8_2_conv8_2_relu_0_split <- conv8_2
I1002 11:44:21.450101 15796 net.cpp:408] conv8_2_conv8_2_relu_0_split -> conv8_2_conv8_2_relu_0_split_0
I1002 11:44:21.450106 15796 net.cpp:408] conv8_2_conv8_2_relu_0_split -> conv8_2_conv8_2_relu_0_split_1
I1002 11:44:21.450110 15796 net.cpp:408] conv8_2_conv8_2_relu_0_split -> conv8_2_conv8_2_relu_0_split_2
I1002 11:44:21.450114 15796 net.cpp:408] conv8_2_conv8_2_relu_0_split -> conv8_2_conv8_2_relu_0_split_3
I1002 11:44:21.450162 15796 net.cpp:150] Setting up conv8_2_conv8_2_relu_0_split
I1002 11:44:21.450166 15796 net.cpp:157] Top shape: 4 256 3 3 (9216)
I1002 11:44:21.450168 15796 net.cpp:157] Top shape: 4 256 3 3 (9216)
I1002 11:44:21.450171 15796 net.cpp:157] Top shape: 4 256 3 3 (9216)
I1002 11:44:21.450173 15796 net.cpp:157] Top shape: 4 256 3 3 (9216)
I1002 11:44:21.450176 15796 net.cpp:165] Memory required for data: 941064224
I1002 11:44:21.450177 15796 layer_factory.hpp:77] Creating layer conv9_1
I1002 11:44:21.450184 15796 net.cpp:100] Creating Layer conv9_1
I1002 11:44:21.450186 15796 net.cpp:434] conv9_1 <- conv8_2_conv8_2_relu_0_split_0
I1002 11:44:21.450189 15796 net.cpp:408] conv9_1 -> conv9_1
I1002 11:44:21.450532 15796 net.cpp:150] Setting up conv9_1
I1002 11:44:21.450538 15796 net.cpp:157] Top shape: 4 128 3 3 (4608)
I1002 11:44:21.450541 15796 net.cpp:165] Memory required for data: 941082656
I1002 11:44:21.450544 15796 layer_factory.hpp:77] Creating layer conv9_1_relu
I1002 11:44:21.450549 15796 net.cpp:100] Creating Layer conv9_1_relu
I1002 11:44:21.450551 15796 net.cpp:434] conv9_1_relu <- conv9_1
I1002 11:44:21.450556 15796 net.cpp:395] conv9_1_relu -> conv9_1 (in-place)
I1002 11:44:21.450558 15796 net.cpp:150] Setting up conv9_1_relu
I1002 11:44:21.450562 15796 net.cpp:157] Top shape: 4 128 3 3 (4608)
I1002 11:44:21.450563 15796 net.cpp:165] Memory required for data: 941101088
I1002 11:44:21.450567 15796 layer_factory.hpp:77] Creating layer conv9_2
I1002 11:44:21.450572 15796 net.cpp:100] Creating Layer conv9_2
I1002 11:44:21.450573 15796 net.cpp:434] conv9_2 <- conv9_1
I1002 11:44:21.450577 15796 net.cpp:408] conv9_2 -> conv9_2
I1002 11:44:21.452621 15796 net.cpp:150] Setting up conv9_2
I1002 11:44:21.452656 15796 net.cpp:157] Top shape: 4 256 1 1 (1024)
I1002 11:44:21.452658 15796 net.cpp:165] Memory required for data: 941105184
I1002 11:44:21.452666 15796 layer_factory.hpp:77] Creating layer conv9_2_relu
I1002 11:44:21.452675 15796 net.cpp:100] Creating Layer conv9_2_relu
I1002 11:44:21.452679 15796 net.cpp:434] conv9_2_relu <- conv9_2
I1002 11:44:21.452683 15796 net.cpp:395] conv9_2_relu -> conv9_2 (in-place)
I1002 11:44:21.452688 15796 net.cpp:150] Setting up conv9_2_relu
I1002 11:44:21.452690 15796 net.cpp:157] Top shape: 4 256 1 1 (1024)
I1002 11:44:21.452692 15796 net.cpp:165] Memory required for data: 941109280
I1002 11:44:21.452694 15796 layer_factory.hpp:77] Creating layer conv9_2_conv9_2_relu_0_split
I1002 11:44:21.452702 15796 net.cpp:100] Creating Layer conv9_2_conv9_2_relu_0_split
I1002 11:44:21.452703 15796 net.cpp:434] conv9_2_conv9_2_relu_0_split <- conv9_2
I1002 11:44:21.452706 15796 net.cpp:408] conv9_2_conv9_2_relu_0_split -> conv9_2_conv9_2_relu_0_split_0
I1002 11:44:21.452711 15796 net.cpp:408] conv9_2_conv9_2_relu_0_split -> conv9_2_conv9_2_relu_0_split_1
I1002 11:44:21.452714 15796 net.cpp:408] conv9_2_conv9_2_relu_0_split -> conv9_2_conv9_2_relu_0_split_2
I1002 11:44:21.452751 15796 net.cpp:150] Setting up conv9_2_conv9_2_relu_0_split
I1002 11:44:21.452754 15796 net.cpp:157] Top shape: 4 256 1 1 (1024)
I1002 11:44:21.452756 15796 net.cpp:157] Top shape: 4 256 1 1 (1024)
I1002 11:44:21.452759 15796 net.cpp:157] Top shape: 4 256 1 1 (1024)
I1002 11:44:21.452761 15796 net.cpp:165] Memory required for data: 941121568
I1002 11:44:21.452764 15796 layer_factory.hpp:77] Creating layer conv4_3_norm
I1002 11:44:21.452769 15796 net.cpp:100] Creating Layer conv4_3_norm
I1002 11:44:21.452771 15796 net.cpp:434] conv4_3_norm <- conv4_3_relu4_3_0_split_1
I1002 11:44:21.452775 15796 net.cpp:408] conv4_3_norm -> conv4_3_norm
I1002 11:44:21.452895 15796 net.cpp:150] Setting up conv4_3_norm
I1002 11:44:21.452899 15796 net.cpp:157] Top shape: 4 512 38 38 (2957312)
I1002 11:44:21.452901 15796 net.cpp:165] Memory required for data: 952950816
I1002 11:44:21.452904 15796 layer_factory.hpp:77] Creating layer conv4_3_norm_conv4_3_norm_0_split
I1002 11:44:21.452908 15796 net.cpp:100] Creating Layer conv4_3_norm_conv4_3_norm_0_split
I1002 11:44:21.452909 15796 net.cpp:434] conv4_3_norm_conv4_3_norm_0_split <- conv4_3_norm
I1002 11:44:21.452913 15796 net.cpp:408] conv4_3_norm_conv4_3_norm_0_split -> conv4_3_norm_conv4_3_norm_0_split_0
I1002 11:44:21.452919 15796 net.cpp:408] conv4_3_norm_conv4_3_norm_0_split -> conv4_3_norm_conv4_3_norm_0_split_1
I1002 11:44:21.452921 15796 net.cpp:408] conv4_3_norm_conv4_3_norm_0_split -> conv4_3_norm_conv4_3_norm_0_split_2
I1002 11:44:21.452955 15796 net.cpp:150] Setting up conv4_3_norm_conv4_3_norm_0_split
I1002 11:44:21.452958 15796 net.cpp:157] Top shape: 4 512 38 38 (2957312)
I1002 11:44:21.452960 15796 net.cpp:157] Top shape: 4 512 38 38 (2957312)
I1002 11:44:21.452963 15796 net.cpp:157] Top shape: 4 512 38 38 (2957312)
I1002 11:44:21.452965 15796 net.cpp:165] Memory required for data: 988438560
I1002 11:44:21.452967 15796 layer_factory.hpp:77] Creating layer conv4_3_norm_mbox_loc
I1002 11:44:21.452975 15796 net.cpp:100] Creating Layer conv4_3_norm_mbox_loc
I1002 11:44:21.452976 15796 net.cpp:434] conv4_3_norm_mbox_loc <- conv4_3_norm_conv4_3_norm_0_split_0
I1002 11:44:21.452980 15796 net.cpp:408] conv4_3_norm_mbox_loc -> conv4_3_norm_mbox_loc
I1002 11:44:21.453480 15796 net.cpp:150] Setting up conv4_3_norm_mbox_loc
I1002 11:44:21.453486 15796 net.cpp:157] Top shape: 4 16 38 38 (92416)
I1002 11:44:21.453488 15796 net.cpp:165] Memory required for data: 988808224
I1002 11:44:21.453491 15796 layer_factory.hpp:77] Creating layer conv4_3_norm_mbox_loc_perm
I1002 11:44:21.453497 15796 net.cpp:100] Creating Layer conv4_3_norm_mbox_loc_perm
I1002 11:44:21.453500 15796 net.cpp:434] conv4_3_norm_mbox_loc_perm <- conv4_3_norm_mbox_loc
I1002 11:44:21.453503 15796 net.cpp:408] conv4_3_norm_mbox_loc_perm -> conv4_3_norm_mbox_loc_perm
I1002 11:44:21.453578 15796 net.cpp:150] Setting up conv4_3_norm_mbox_loc_perm
I1002 11:44:21.453591 15796 net.cpp:157] Top shape: 4 38 38 16 (92416)
I1002 11:44:21.453593 15796 net.cpp:165] Memory required for data: 989177888
I1002 11:44:21.453595 15796 layer_factory.hpp:77] Creating layer conv4_3_norm_mbox_loc_flat
I1002 11:44:21.453599 15796 net.cpp:100] Creating Layer conv4_3_norm_mbox_loc_flat
I1002 11:44:21.453603 15796 net.cpp:434] conv4_3_norm_mbox_loc_flat <- conv4_3_norm_mbox_loc_perm
I1002 11:44:21.453608 15796 net.cpp:408] conv4_3_norm_mbox_loc_flat -> conv4_3_norm_mbox_loc_flat
I1002 11:44:21.453630 15796 net.cpp:150] Setting up conv4_3_norm_mbox_loc_flat
I1002 11:44:21.453634 15796 net.cpp:157] Top shape: 4 23104 (92416)
I1002 11:44:21.453634 15796 net.cpp:165] Memory required for data: 989547552
I1002 11:44:21.453636 15796 layer_factory.hpp:77] Creating layer conv4_3_norm_mbox_conf
I1002 11:44:21.453644 15796 net.cpp:100] Creating Layer conv4_3_norm_mbox_conf
I1002 11:44:21.453647 15796 net.cpp:434] conv4_3_norm_mbox_conf <- conv4_3_norm_conv4_3_norm_0_split_1
I1002 11:44:21.453651 15796 net.cpp:408] conv4_3_norm_mbox_conf -> conv4_3_norm_mbox_conf
I1002 11:44:21.454032 15796 net.cpp:150] Setting up conv4_3_norm_mbox_conf
I1002 11:44:21.454036 15796 net.cpp:157] Top shape: 4 12 38 38 (69312)
I1002 11:44:21.454037 15796 net.cpp:165] Memory required for data: 989824800
I1002 11:44:21.454041 15796 layer_factory.hpp:77] Creating layer conv4_3_norm_mbox_conf_perm
I1002 11:44:21.454046 15796 net.cpp:100] Creating Layer conv4_3_norm_mbox_conf_perm
I1002 11:44:21.454048 15796 net.cpp:434] conv4_3_norm_mbox_conf_perm <- conv4_3_norm_mbox_conf
I1002 11:44:21.454052 15796 net.cpp:408] conv4_3_norm_mbox_conf_perm -> conv4_3_norm_mbox_conf_perm
I1002 11:44:21.454123 15796 net.cpp:150] Setting up conv4_3_norm_mbox_conf_perm
I1002 11:44:21.454128 15796 net.cpp:157] Top shape: 4 38 38 12 (69312)
I1002 11:44:21.454129 15796 net.cpp:165] Memory required for data: 990102048
I1002 11:44:21.454131 15796 layer_factory.hpp:77] Creating layer conv4_3_norm_mbox_conf_flat
I1002 11:44:21.454134 15796 net.cpp:100] Creating Layer conv4_3_norm_mbox_conf_flat
I1002 11:44:21.454136 15796 net.cpp:434] conv4_3_norm_mbox_conf_flat <- conv4_3_norm_mbox_conf_perm
I1002 11:44:21.454140 15796 net.cpp:408] conv4_3_norm_mbox_conf_flat -> conv4_3_norm_mbox_conf_flat
I1002 11:44:21.454155 15796 net.cpp:150] Setting up conv4_3_norm_mbox_conf_flat
I1002 11:44:21.454159 15796 net.cpp:157] Top shape: 4 17328 (69312)
I1002 11:44:21.454159 15796 net.cpp:165] Memory required for data: 990379296
I1002 11:44:21.454161 15796 layer_factory.hpp:77] Creating layer conv4_3_norm_mbox_priorbox
I1002 11:44:21.454167 15796 net.cpp:100] Creating Layer conv4_3_norm_mbox_priorbox
I1002 11:44:21.454169 15796 net.cpp:434] conv4_3_norm_mbox_priorbox <- conv4_3_norm_conv4_3_norm_0_split_2
I1002 11:44:21.454174 15796 net.cpp:434] conv4_3_norm_mbox_priorbox <- data_data_0_split_1
I1002 11:44:21.454177 15796 net.cpp:408] conv4_3_norm_mbox_priorbox -> conv4_3_norm_mbox_priorbox
I1002 11:44:21.454195 15796 net.cpp:150] Setting up conv4_3_norm_mbox_priorbox
I1002 11:44:21.454198 15796 net.cpp:157] Top shape: 1 2 23104 (46208)
I1002 11:44:21.454200 15796 net.cpp:165] Memory required for data: 990564128
I1002 11:44:21.454202 15796 layer_factory.hpp:77] Creating layer fc7_mbox_loc
I1002 11:44:21.454207 15796 net.cpp:100] Creating Layer fc7_mbox_loc
I1002 11:44:21.454210 15796 net.cpp:434] fc7_mbox_loc <- fc7_relu7_0_split_1
I1002 11:44:21.454214 15796 net.cpp:408] fc7_mbox_loc -> fc7_mbox_loc
I1002 11:44:21.455199 15796 net.cpp:150] Setting up fc7_mbox_loc
I1002 11:44:21.455205 15796 net.cpp:157] Top shape: 4 24 19 19 (34656)
I1002 11:44:21.455207 15796 net.cpp:165] Memory required for data: 990702752
I1002 11:44:21.455210 15796 layer_factory.hpp:77] Creating layer fc7_mbox_loc_perm
I1002 11:44:21.455216 15796 net.cpp:100] Creating Layer fc7_mbox_loc_perm
I1002 11:44:21.455219 15796 net.cpp:434] fc7_mbox_loc_perm <- fc7_mbox_loc
I1002 11:44:21.455222 15796 net.cpp:408] fc7_mbox_loc_perm -> fc7_mbox_loc_perm
I1002 11:44:21.455296 15796 net.cpp:150] Setting up fc7_mbox_loc_perm
I1002 11:44:21.455309 15796 net.cpp:157] Top shape: 4 19 19 24 (34656)
I1002 11:44:21.455312 15796 net.cpp:165] Memory required for data: 990841376
I1002 11:44:21.455313 15796 layer_factory.hpp:77] Creating layer fc7_mbox_loc_flat
I1002 11:44:21.455318 15796 net.cpp:100] Creating Layer fc7_mbox_loc_flat
I1002 11:44:21.455320 15796 net.cpp:434] fc7_mbox_loc_flat <- fc7_mbox_loc_perm
I1002 11:44:21.455323 15796 net.cpp:408] fc7_mbox_loc_flat -> fc7_mbox_loc_flat
I1002 11:44:21.455340 15796 net.cpp:150] Setting up fc7_mbox_loc_flat
I1002 11:44:21.455343 15796 net.cpp:157] Top shape: 4 8664 (34656)
I1002 11:44:21.455344 15796 net.cpp:165] Memory required for data: 990980000
I1002 11:44:21.455346 15796 layer_factory.hpp:77] Creating layer fc7_mbox_conf
I1002 11:44:21.455351 15796 net.cpp:100] Creating Layer fc7_mbox_conf
I1002 11:44:21.455354 15796 net.cpp:434] fc7_mbox_conf <- fc7_relu7_0_split_2
I1002 11:44:21.455358 15796 net.cpp:408] fc7_mbox_conf -> fc7_mbox_conf
I1002 11:44:21.456135 15796 net.cpp:150] Setting up fc7_mbox_conf
I1002 11:44:21.456141 15796 net.cpp:157] Top shape: 4 18 19 19 (25992)
I1002 11:44:21.456142 15796 net.cpp:165] Memory required for data: 991083968
I1002 11:44:21.456146 15796 layer_factory.hpp:77] Creating layer fc7_mbox_conf_perm
I1002 11:44:21.456151 15796 net.cpp:100] Creating Layer fc7_mbox_conf_perm
I1002 11:44:21.456152 15796 net.cpp:434] fc7_mbox_conf_perm <- fc7_mbox_conf
I1002 11:44:21.456156 15796 net.cpp:408] fc7_mbox_conf_perm -> fc7_mbox_conf_perm
I1002 11:44:21.456239 15796 net.cpp:150] Setting up fc7_mbox_conf_perm
I1002 11:44:21.456243 15796 net.cpp:157] Top shape: 4 19 19 18 (25992)
I1002 11:44:21.456245 15796 net.cpp:165] Memory required for data: 991187936
I1002 11:44:21.456248 15796 layer_factory.hpp:77] Creating layer fc7_mbox_conf_flat
I1002 11:44:21.456251 15796 net.cpp:100] Creating Layer fc7_mbox_conf_flat
I1002 11:44:21.456254 15796 net.cpp:434] fc7_mbox_conf_flat <- fc7_mbox_conf_perm
I1002 11:44:21.456257 15796 net.cpp:408] fc7_mbox_conf_flat -> fc7_mbox_conf_flat
I1002 11:44:21.456272 15796 net.cpp:150] Setting up fc7_mbox_conf_flat
I1002 11:44:21.456275 15796 net.cpp:157] Top shape: 4 6498 (25992)
I1002 11:44:21.456277 15796 net.cpp:165] Memory required for data: 991291904
I1002 11:44:21.456279 15796 layer_factory.hpp:77] Creating layer fc7_mbox_priorbox
I1002 11:44:21.456284 15796 net.cpp:100] Creating Layer fc7_mbox_priorbox
I1002 11:44:21.456286 15796 net.cpp:434] fc7_mbox_priorbox <- fc7_relu7_0_split_3
I1002 11:44:21.456290 15796 net.cpp:434] fc7_mbox_priorbox <- data_data_0_split_2
I1002 11:44:21.456293 15796 net.cpp:408] fc7_mbox_priorbox -> fc7_mbox_priorbox
I1002 11:44:21.456310 15796 net.cpp:150] Setting up fc7_mbox_priorbox
I1002 11:44:21.456312 15796 net.cpp:157] Top shape: 1 2 8664 (17328)
I1002 11:44:21.456315 15796 net.cpp:165] Memory required for data: 991361216
I1002 11:44:21.456316 15796 layer_factory.hpp:77] Creating layer conv6_2_mbox_loc
I1002 11:44:21.456323 15796 net.cpp:100] Creating Layer conv6_2_mbox_loc
I1002 11:44:21.456326 15796 net.cpp:434] conv6_2_mbox_loc <- conv6_2_conv6_2_relu_0_split_1
I1002 11:44:21.456331 15796 net.cpp:408] conv6_2_mbox_loc -> conv6_2_mbox_loc
I1002 11:44:21.456904 15796 net.cpp:150] Setting up conv6_2_mbox_loc
I1002 11:44:21.456910 15796 net.cpp:157] Top shape: 4 24 10 10 (9600)
I1002 11:44:21.456912 15796 net.cpp:165] Memory required for data: 991399616
I1002 11:44:21.456915 15796 layer_factory.hpp:77] Creating layer conv6_2_mbox_loc_perm
I1002 11:44:21.456920 15796 net.cpp:100] Creating Layer conv6_2_mbox_loc_perm
I1002 11:44:21.456923 15796 net.cpp:434] conv6_2_mbox_loc_perm <- conv6_2_mbox_loc
I1002 11:44:21.456926 15796 net.cpp:408] conv6_2_mbox_loc_perm -> conv6_2_mbox_loc_perm
I1002 11:44:21.457000 15796 net.cpp:150] Setting up conv6_2_mbox_loc_perm
I1002 11:44:21.457005 15796 net.cpp:157] Top shape: 4 10 10 24 (9600)
I1002 11:44:21.457005 15796 net.cpp:165] Memory required for data: 991438016
I1002 11:44:21.457007 15796 layer_factory.hpp:77] Creating layer conv6_2_mbox_loc_flat
I1002 11:44:21.457021 15796 net.cpp:100] Creating Layer conv6_2_mbox_loc_flat
I1002 11:44:21.457023 15796 net.cpp:434] conv6_2_mbox_loc_flat <- conv6_2_mbox_loc_perm
I1002 11:44:21.457027 15796 net.cpp:408] conv6_2_mbox_loc_flat -> conv6_2_mbox_loc_flat
I1002 11:44:21.457043 15796 net.cpp:150] Setting up conv6_2_mbox_loc_flat
I1002 11:44:21.457046 15796 net.cpp:157] Top shape: 4 2400 (9600)
I1002 11:44:21.457047 15796 net.cpp:165] Memory required for data: 991476416
I1002 11:44:21.457049 15796 layer_factory.hpp:77] Creating layer conv6_2_mbox_conf
I1002 11:44:21.457056 15796 net.cpp:100] Creating Layer conv6_2_mbox_conf
I1002 11:44:21.457057 15796 net.cpp:434] conv6_2_mbox_conf <- conv6_2_conv6_2_relu_0_split_2
I1002 11:44:21.457062 15796 net.cpp:408] conv6_2_mbox_conf -> conv6_2_mbox_conf
I1002 11:44:21.457540 15796 net.cpp:150] Setting up conv6_2_mbox_conf
I1002 11:44:21.457546 15796 net.cpp:157] Top shape: 4 18 10 10 (7200)
I1002 11:44:21.457548 15796 net.cpp:165] Memory required for data: 991505216
I1002 11:44:21.457552 15796 layer_factory.hpp:77] Creating layer conv6_2_mbox_conf_perm
I1002 11:44:21.457556 15796 net.cpp:100] Creating Layer conv6_2_mbox_conf_perm
I1002 11:44:21.457558 15796 net.cpp:434] conv6_2_mbox_conf_perm <- conv6_2_mbox_conf
I1002 11:44:21.457562 15796 net.cpp:408] conv6_2_mbox_conf_perm -> conv6_2_mbox_conf_perm
I1002 11:44:21.457638 15796 net.cpp:150] Setting up conv6_2_mbox_conf_perm
I1002 11:44:21.457640 15796 net.cpp:157] Top shape: 4 10 10 18 (7200)
I1002 11:44:21.457643 15796 net.cpp:165] Memory required for data: 991534016
I1002 11:44:21.457644 15796 layer_factory.hpp:77] Creating layer conv6_2_mbox_conf_flat
I1002 11:44:21.457648 15796 net.cpp:100] Creating Layer conv6_2_mbox_conf_flat
I1002 11:44:21.457650 15796 net.cpp:434] conv6_2_mbox_conf_flat <- conv6_2_mbox_conf_perm
I1002 11:44:21.457653 15796 net.cpp:408] conv6_2_mbox_conf_flat -> conv6_2_mbox_conf_flat
I1002 11:44:21.457669 15796 net.cpp:150] Setting up conv6_2_mbox_conf_flat
I1002 11:44:21.457671 15796 net.cpp:157] Top shape: 4 1800 (7200)
I1002 11:44:21.457674 15796 net.cpp:165] Memory required for data: 991562816
I1002 11:44:21.457675 15796 layer_factory.hpp:77] Creating layer conv6_2_mbox_priorbox
I1002 11:44:21.457679 15796 net.cpp:100] Creating Layer conv6_2_mbox_priorbox
I1002 11:44:21.457680 15796 net.cpp:434] conv6_2_mbox_priorbox <- conv6_2_conv6_2_relu_0_split_3
I1002 11:44:21.457684 15796 net.cpp:434] conv6_2_mbox_priorbox <- data_data_0_split_3
I1002 11:44:21.457689 15796 net.cpp:408] conv6_2_mbox_priorbox -> conv6_2_mbox_priorbox
I1002 11:44:21.457705 15796 net.cpp:150] Setting up conv6_2_mbox_priorbox
I1002 11:44:21.457707 15796 net.cpp:157] Top shape: 1 2 2400 (4800)
I1002 11:44:21.457710 15796 net.cpp:165] Memory required for data: 991582016
I1002 11:44:21.457710 15796 layer_factory.hpp:77] Creating layer conv7_2_mbox_loc
I1002 11:44:21.457716 15796 net.cpp:100] Creating Layer conv7_2_mbox_loc
I1002 11:44:21.457718 15796 net.cpp:434] conv7_2_mbox_loc <- conv7_2_conv7_2_relu_0_split_1
I1002 11:44:21.457723 15796 net.cpp:408] conv7_2_mbox_loc -> conv7_2_mbox_loc
I1002 11:44:21.458096 15796 net.cpp:150] Setting up conv7_2_mbox_loc
I1002 11:44:21.458101 15796 net.cpp:157] Top shape: 4 24 5 5 (2400)
I1002 11:44:21.458102 15796 net.cpp:165] Memory required for data: 991591616
I1002 11:44:21.458106 15796 layer_factory.hpp:77] Creating layer conv7_2_mbox_loc_perm
I1002 11:44:21.458109 15796 net.cpp:100] Creating Layer conv7_2_mbox_loc_perm
I1002 11:44:21.458112 15796 net.cpp:434] conv7_2_mbox_loc_perm <- conv7_2_mbox_loc
I1002 11:44:21.458115 15796 net.cpp:408] conv7_2_mbox_loc_perm -> conv7_2_mbox_loc_perm
I1002 11:44:21.458187 15796 net.cpp:150] Setting up conv7_2_mbox_loc_perm
I1002 11:44:21.458190 15796 net.cpp:157] Top shape: 4 5 5 24 (2400)
I1002 11:44:21.458192 15796 net.cpp:165] Memory required for data: 991601216
I1002 11:44:21.458194 15796 layer_factory.hpp:77] Creating layer conv7_2_mbox_loc_flat
I1002 11:44:21.458197 15796 net.cpp:100] Creating Layer conv7_2_mbox_loc_flat
I1002 11:44:21.458207 15796 net.cpp:434] conv7_2_mbox_loc_flat <- conv7_2_mbox_loc_perm
I1002 11:44:21.458211 15796 net.cpp:408] conv7_2_mbox_loc_flat -> conv7_2_mbox_loc_flat
I1002 11:44:21.458227 15796 net.cpp:150] Setting up conv7_2_mbox_loc_flat
I1002 11:44:21.458230 15796 net.cpp:157] Top shape: 4 600 (2400)
I1002 11:44:21.458232 15796 net.cpp:165] Memory required for data: 991610816
I1002 11:44:21.458235 15796 layer_factory.hpp:77] Creating layer conv7_2_mbox_conf
I1002 11:44:21.458240 15796 net.cpp:100] Creating Layer conv7_2_mbox_conf
I1002 11:44:21.458241 15796 net.cpp:434] conv7_2_mbox_conf <- conv7_2_conv7_2_relu_0_split_2
I1002 11:44:21.458245 15796 net.cpp:408] conv7_2_mbox_conf -> conv7_2_mbox_conf
I1002 11:44:21.458564 15796 net.cpp:150] Setting up conv7_2_mbox_conf
I1002 11:44:21.458567 15796 net.cpp:157] Top shape: 4 18 5 5 (1800)
I1002 11:44:21.458570 15796 net.cpp:165] Memory required for data: 991618016
I1002 11:44:21.458573 15796 layer_factory.hpp:77] Creating layer conv7_2_mbox_conf_perm
I1002 11:44:21.458577 15796 net.cpp:100] Creating Layer conv7_2_mbox_conf_perm
I1002 11:44:21.458580 15796 net.cpp:434] conv7_2_mbox_conf_perm <- conv7_2_mbox_conf
I1002 11:44:21.458583 15796 net.cpp:408] conv7_2_mbox_conf_perm -> conv7_2_mbox_conf_perm
I1002 11:44:21.458657 15796 net.cpp:150] Setting up conv7_2_mbox_conf_perm
I1002 11:44:21.458659 15796 net.cpp:157] Top shape: 4 5 5 18 (1800)
I1002 11:44:21.458660 15796 net.cpp:165] Memory required for data: 991625216
I1002 11:44:21.458662 15796 layer_factory.hpp:77] Creating layer conv7_2_mbox_conf_flat
I1002 11:44:21.458665 15796 net.cpp:100] Creating Layer conv7_2_mbox_conf_flat
I1002 11:44:21.458668 15796 net.cpp:434] conv7_2_mbox_conf_flat <- conv7_2_mbox_conf_perm
I1002 11:44:21.458673 15796 net.cpp:408] conv7_2_mbox_conf_flat -> conv7_2_mbox_conf_flat
I1002 11:44:21.458688 15796 net.cpp:150] Setting up conv7_2_mbox_conf_flat
I1002 11:44:21.458690 15796 net.cpp:157] Top shape: 4 450 (1800)
I1002 11:44:21.458691 15796 net.cpp:165] Memory required for data: 991632416
I1002 11:44:21.458693 15796 layer_factory.hpp:77] Creating layer conv7_2_mbox_priorbox
I1002 11:44:21.458698 15796 net.cpp:100] Creating Layer conv7_2_mbox_priorbox
I1002 11:44:21.458699 15796 net.cpp:434] conv7_2_mbox_priorbox <- conv7_2_conv7_2_relu_0_split_3
I1002 11:44:21.458703 15796 net.cpp:434] conv7_2_mbox_priorbox <- data_data_0_split_4
I1002 11:44:21.458705 15796 net.cpp:408] conv7_2_mbox_priorbox -> conv7_2_mbox_priorbox
I1002 11:44:21.458721 15796 net.cpp:150] Setting up conv7_2_mbox_priorbox
I1002 11:44:21.458725 15796 net.cpp:157] Top shape: 1 2 600 (1200)
I1002 11:44:21.458727 15796 net.cpp:165] Memory required for data: 991637216
I1002 11:44:21.458729 15796 layer_factory.hpp:77] Creating layer conv8_2_mbox_loc
I1002 11:44:21.458734 15796 net.cpp:100] Creating Layer conv8_2_mbox_loc
I1002 11:44:21.458735 15796 net.cpp:434] conv8_2_mbox_loc <- conv8_2_conv8_2_relu_0_split_1
I1002 11:44:21.458744 15796 net.cpp:408] conv8_2_mbox_loc -> conv8_2_mbox_loc
I1002 11:44:21.459050 15796 net.cpp:150] Setting up conv8_2_mbox_loc
I1002 11:44:21.459053 15796 net.cpp:157] Top shape: 4 16 3 3 (576)
I1002 11:44:21.459055 15796 net.cpp:165] Memory required for data: 991639520
I1002 11:44:21.459062 15796 layer_factory.hpp:77] Creating layer conv8_2_mbox_loc_perm
I1002 11:44:21.459066 15796 net.cpp:100] Creating Layer conv8_2_mbox_loc_perm
I1002 11:44:21.459069 15796 net.cpp:434] conv8_2_mbox_loc_perm <- conv8_2_mbox_loc
I1002 11:44:21.459072 15796 net.cpp:408] conv8_2_mbox_loc_perm -> conv8_2_mbox_loc_perm
I1002 11:44:21.459146 15796 net.cpp:150] Setting up conv8_2_mbox_loc_perm
I1002 11:44:21.459149 15796 net.cpp:157] Top shape: 4 3 3 16 (576)
I1002 11:44:21.459151 15796 net.cpp:165] Memory required for data: 991641824
I1002 11:44:21.459152 15796 layer_factory.hpp:77] Creating layer conv8_2_mbox_loc_flat
I1002 11:44:21.459156 15796 net.cpp:100] Creating Layer conv8_2_mbox_loc_flat
I1002 11:44:21.459159 15796 net.cpp:434] conv8_2_mbox_loc_flat <- conv8_2_mbox_loc_perm
I1002 11:44:21.459162 15796 net.cpp:408] conv8_2_mbox_loc_flat -> conv8_2_mbox_loc_flat
I1002 11:44:21.459185 15796 net.cpp:150] Setting up conv8_2_mbox_loc_flat
I1002 11:44:21.459188 15796 net.cpp:157] Top shape: 4 144 (576)
I1002 11:44:21.459190 15796 net.cpp:165] Memory required for data: 991644128
I1002 11:44:21.459192 15796 layer_factory.hpp:77] Creating layer conv8_2_mbox_conf
I1002 11:44:21.459198 15796 net.cpp:100] Creating Layer conv8_2_mbox_conf
I1002 11:44:21.459200 15796 net.cpp:434] conv8_2_mbox_conf <- conv8_2_conv8_2_relu_0_split_2
I1002 11:44:21.459204 15796 net.cpp:408] conv8_2_mbox_conf -> conv8_2_mbox_conf
I1002 11:44:21.459475 15796 net.cpp:150] Setting up conv8_2_mbox_conf
I1002 11:44:21.459478 15796 net.cpp:157] Top shape: 4 12 3 3 (432)
I1002 11:44:21.459481 15796 net.cpp:165] Memory required for data: 991645856
I1002 11:44:21.459483 15796 layer_factory.hpp:77] Creating layer conv8_2_mbox_conf_perm
I1002 11:44:21.459488 15796 net.cpp:100] Creating Layer conv8_2_mbox_conf_perm
I1002 11:44:21.459491 15796 net.cpp:434] conv8_2_mbox_conf_perm <- conv8_2_mbox_conf
I1002 11:44:21.459496 15796 net.cpp:408] conv8_2_mbox_conf_perm -> conv8_2_mbox_conf_perm
I1002 11:44:21.459568 15796 net.cpp:150] Setting up conv8_2_mbox_conf_perm
I1002 11:44:21.459570 15796 net.cpp:157] Top shape: 4 3 3 12 (432)
I1002 11:44:21.459571 15796 net.cpp:165] Memory required for data: 991647584
I1002 11:44:21.459573 15796 layer_factory.hpp:77] Creating layer conv8_2_mbox_conf_flat
I1002 11:44:21.459576 15796 net.cpp:100] Creating Layer conv8_2_mbox_conf_flat
I1002 11:44:21.459579 15796 net.cpp:434] conv8_2_mbox_conf_flat <- conv8_2_mbox_conf_perm
I1002 11:44:21.459586 15796 net.cpp:408] conv8_2_mbox_conf_flat -> conv8_2_mbox_conf_flat
I1002 11:44:21.459601 15796 net.cpp:150] Setting up conv8_2_mbox_conf_flat
I1002 11:44:21.459604 15796 net.cpp:157] Top shape: 4 108 (432)
I1002 11:44:21.459605 15796 net.cpp:165] Memory required for data: 991649312
I1002 11:44:21.459607 15796 layer_factory.hpp:77] Creating layer conv8_2_mbox_priorbox
I1002 11:44:21.459610 15796 net.cpp:100] Creating Layer conv8_2_mbox_priorbox
I1002 11:44:21.459614 15796 net.cpp:434] conv8_2_mbox_priorbox <- conv8_2_conv8_2_relu_0_split_3
I1002 11:44:21.459615 15796 net.cpp:434] conv8_2_mbox_priorbox <- data_data_0_split_5
I1002 11:44:21.459619 15796 net.cpp:408] conv8_2_mbox_priorbox -> conv8_2_mbox_priorbox
I1002 11:44:21.459636 15796 net.cpp:150] Setting up conv8_2_mbox_priorbox
I1002 11:44:21.459640 15796 net.cpp:157] Top shape: 1 2 144 (288)
I1002 11:44:21.459641 15796 net.cpp:165] Memory required for data: 991650464
I1002 11:44:21.459643 15796 layer_factory.hpp:77] Creating layer conv9_2_mbox_loc
I1002 11:44:21.459648 15796 net.cpp:100] Creating Layer conv9_2_mbox_loc
I1002 11:44:21.459650 15796 net.cpp:434] conv9_2_mbox_loc <- conv9_2_conv9_2_relu_0_split_0
I1002 11:44:21.459655 15796 net.cpp:408] conv9_2_mbox_loc -> conv9_2_mbox_loc
I1002 11:44:21.459957 15796 net.cpp:150] Setting up conv9_2_mbox_loc
I1002 11:44:21.459961 15796 net.cpp:157] Top shape: 4 16 1 1 (64)
I1002 11:44:21.459964 15796 net.cpp:165] Memory required for data: 991650720
I1002 11:44:21.459966 15796 layer_factory.hpp:77] Creating layer conv9_2_mbox_loc_perm
I1002 11:44:21.459970 15796 net.cpp:100] Creating Layer conv9_2_mbox_loc_perm
I1002 11:44:21.459972 15796 net.cpp:434] conv9_2_mbox_loc_perm <- conv9_2_mbox_loc
I1002 11:44:21.459976 15796 net.cpp:408] conv9_2_mbox_loc_perm -> conv9_2_mbox_loc_perm
I1002 11:44:21.460048 15796 net.cpp:150] Setting up conv9_2_mbox_loc_perm
I1002 11:44:21.460052 15796 net.cpp:157] Top shape: 4 1 1 16 (64)
I1002 11:44:21.460053 15796 net.cpp:165] Memory required for data: 991650976
I1002 11:44:21.460054 15796 layer_factory.hpp:77] Creating layer conv9_2_mbox_loc_flat
I1002 11:44:21.460058 15796 net.cpp:100] Creating Layer conv9_2_mbox_loc_flat
I1002 11:44:21.460062 15796 net.cpp:434] conv9_2_mbox_loc_flat <- conv9_2_mbox_loc_perm
I1002 11:44:21.460064 15796 net.cpp:408] conv9_2_mbox_loc_flat -> conv9_2_mbox_loc_flat
I1002 11:44:21.460080 15796 net.cpp:150] Setting up conv9_2_mbox_loc_flat
I1002 11:44:21.460090 15796 net.cpp:157] Top shape: 4 16 (64)
I1002 11:44:21.460093 15796 net.cpp:165] Memory required for data: 991651232
I1002 11:44:21.460094 15796 layer_factory.hpp:77] Creating layer conv9_2_mbox_conf
I1002 11:44:21.460101 15796 net.cpp:100] Creating Layer conv9_2_mbox_conf
I1002 11:44:21.460104 15796 net.cpp:434] conv9_2_mbox_conf <- conv9_2_conv9_2_relu_0_split_1
I1002 11:44:21.460108 15796 net.cpp:408] conv9_2_mbox_conf -> conv9_2_mbox_conf
I1002 11:44:21.460398 15796 net.cpp:150] Setting up conv9_2_mbox_conf
I1002 11:44:21.460403 15796 net.cpp:157] Top shape: 4 12 1 1 (48)
I1002 11:44:21.460404 15796 net.cpp:165] Memory required for data: 991651424
I1002 11:44:21.460408 15796 layer_factory.hpp:77] Creating layer conv9_2_mbox_conf_perm
I1002 11:44:21.460412 15796 net.cpp:100] Creating Layer conv9_2_mbox_conf_perm
I1002 11:44:21.460415 15796 net.cpp:434] conv9_2_mbox_conf_perm <- conv9_2_mbox_conf
I1002 11:44:21.460418 15796 net.cpp:408] conv9_2_mbox_conf_perm -> conv9_2_mbox_conf_perm
I1002 11:44:21.460490 15796 net.cpp:150] Setting up conv9_2_mbox_conf_perm
I1002 11:44:21.460494 15796 net.cpp:157] Top shape: 4 1 1 12 (48)
I1002 11:44:21.460496 15796 net.cpp:165] Memory required for data: 991651616
I1002 11:44:21.460499 15796 layer_factory.hpp:77] Creating layer conv9_2_mbox_conf_flat
I1002 11:44:21.460502 15796 net.cpp:100] Creating Layer conv9_2_mbox_conf_flat
I1002 11:44:21.460505 15796 net.cpp:434] conv9_2_mbox_conf_flat <- conv9_2_mbox_conf_perm
I1002 11:44:21.460508 15796 net.cpp:408] conv9_2_mbox_conf_flat -> conv9_2_mbox_conf_flat
I1002 11:44:21.460523 15796 net.cpp:150] Setting up conv9_2_mbox_conf_flat
I1002 11:44:21.460526 15796 net.cpp:157] Top shape: 4 12 (48)
I1002 11:44:21.460527 15796 net.cpp:165] Memory required for data: 991651808
I1002 11:44:21.460530 15796 layer_factory.hpp:77] Creating layer conv9_2_mbox_priorbox
I1002 11:44:21.460535 15796 net.cpp:100] Creating Layer conv9_2_mbox_priorbox
I1002 11:44:21.460536 15796 net.cpp:434] conv9_2_mbox_priorbox <- conv9_2_conv9_2_relu_0_split_2
I1002 11:44:21.460539 15796 net.cpp:434] conv9_2_mbox_priorbox <- data_data_0_split_6
I1002 11:44:21.460542 15796 net.cpp:408] conv9_2_mbox_priorbox -> conv9_2_mbox_priorbox
I1002 11:44:21.460558 15796 net.cpp:150] Setting up conv9_2_mbox_priorbox
I1002 11:44:21.460561 15796 net.cpp:157] Top shape: 1 2 16 (32)
I1002 11:44:21.460563 15796 net.cpp:165] Memory required for data: 991651936
I1002 11:44:21.460566 15796 layer_factory.hpp:77] Creating layer mbox_loc
I1002 11:44:21.460570 15796 net.cpp:100] Creating Layer mbox_loc
I1002 11:44:21.460572 15796 net.cpp:434] mbox_loc <- conv4_3_norm_mbox_loc_flat
I1002 11:44:21.460575 15796 net.cpp:434] mbox_loc <- fc7_mbox_loc_flat
I1002 11:44:21.460578 15796 net.cpp:434] mbox_loc <- conv6_2_mbox_loc_flat
I1002 11:44:21.460580 15796 net.cpp:434] mbox_loc <- conv7_2_mbox_loc_flat
I1002 11:44:21.460583 15796 net.cpp:434] mbox_loc <- conv8_2_mbox_loc_flat
I1002 11:44:21.460585 15796 net.cpp:434] mbox_loc <- conv9_2_mbox_loc_flat
I1002 11:44:21.460589 15796 net.cpp:408] mbox_loc -> mbox_loc
I1002 11:44:21.460608 15796 net.cpp:150] Setting up mbox_loc
I1002 11:44:21.460611 15796 net.cpp:157] Top shape: 4 34928 (139712)
I1002 11:44:21.460613 15796 net.cpp:165] Memory required for data: 992210784
I1002 11:44:21.460614 15796 layer_factory.hpp:77] Creating layer mbox_conf
I1002 11:44:21.460618 15796 net.cpp:100] Creating Layer mbox_conf
I1002 11:44:21.460621 15796 net.cpp:434] mbox_conf <- conv4_3_norm_mbox_conf_flat
I1002 11:44:21.460624 15796 net.cpp:434] mbox_conf <- fc7_mbox_conf_flat
I1002 11:44:21.460626 15796 net.cpp:434] mbox_conf <- conv6_2_mbox_conf_flat
I1002 11:44:21.460629 15796 net.cpp:434] mbox_conf <- conv7_2_mbox_conf_flat
I1002 11:44:21.460631 15796 net.cpp:434] mbox_conf <- conv8_2_mbox_conf_flat
I1002 11:44:21.460634 15796 net.cpp:434] mbox_conf <- conv9_2_mbox_conf_flat
I1002 11:44:21.460638 15796 net.cpp:408] mbox_conf -> mbox_conf
I1002 11:44:21.460652 15796 net.cpp:150] Setting up mbox_conf
I1002 11:44:21.460655 15796 net.cpp:157] Top shape: 4 26196 (104784)
I1002 11:44:21.460664 15796 net.cpp:165] Memory required for data: 992629920
I1002 11:44:21.460666 15796 layer_factory.hpp:77] Creating layer mbox_priorbox
I1002 11:44:21.460670 15796 net.cpp:100] Creating Layer mbox_priorbox
I1002 11:44:21.460674 15796 net.cpp:434] mbox_priorbox <- conv4_3_norm_mbox_priorbox
I1002 11:44:21.460676 15796 net.cpp:434] mbox_priorbox <- fc7_mbox_priorbox
I1002 11:44:21.460678 15796 net.cpp:434] mbox_priorbox <- conv6_2_mbox_priorbox
I1002 11:44:21.460681 15796 net.cpp:434] mbox_priorbox <- conv7_2_mbox_priorbox
I1002 11:44:21.460685 15796 net.cpp:434] mbox_priorbox <- conv8_2_mbox_priorbox
I1002 11:44:21.460686 15796 net.cpp:434] mbox_priorbox <- conv9_2_mbox_priorbox
I1002 11:44:21.460690 15796 net.cpp:408] mbox_priorbox -> mbox_priorbox
I1002 11:44:21.460707 15796 net.cpp:150] Setting up mbox_priorbox
I1002 11:44:21.460711 15796 net.cpp:157] Top shape: 1 2 34928 (69856)
I1002 11:44:21.460712 15796 net.cpp:165] Memory required for data: 992909344
I1002 11:44:21.460714 15796 layer_factory.hpp:77] Creating layer mbox_conf_reshape
I1002 11:44:21.460719 15796 net.cpp:100] Creating Layer mbox_conf_reshape
I1002 11:44:21.460721 15796 net.cpp:434] mbox_conf_reshape <- mbox_conf
I1002 11:44:21.460724 15796 net.cpp:408] mbox_conf_reshape -> mbox_conf_reshape
I1002 11:44:21.460747 15796 net.cpp:150] Setting up mbox_conf_reshape
I1002 11:44:21.460750 15796 net.cpp:157] Top shape: 4 8732 3 (104784)
I1002 11:44:21.460752 15796 net.cpp:165] Memory required for data: 993328480
I1002 11:44:21.460755 15796 layer_factory.hpp:77] Creating layer mbox_conf_softmax
I1002 11:44:21.460759 15796 net.cpp:100] Creating Layer mbox_conf_softmax
I1002 11:44:21.460762 15796 net.cpp:434] mbox_conf_softmax <- mbox_conf_reshape
I1002 11:44:21.460764 15796 net.cpp:408] mbox_conf_softmax -> mbox_conf_softmax
I1002 11:44:21.460806 15796 net.cpp:150] Setting up mbox_conf_softmax
I1002 11:44:21.460810 15796 net.cpp:157] Top shape: 4 8732 3 (104784)
I1002 11:44:21.460811 15796 net.cpp:165] Memory required for data: 993747616
I1002 11:44:21.460813 15796 layer_factory.hpp:77] Creating layer mbox_conf_flatten
I1002 11:44:21.460816 15796 net.cpp:100] Creating Layer mbox_conf_flatten
I1002 11:44:21.460819 15796 net.cpp:434] mbox_conf_flatten <- mbox_conf_softmax
I1002 11:44:21.460821 15796 net.cpp:408] mbox_conf_flatten -> mbox_conf_flatten
I1002 11:44:21.460836 15796 net.cpp:150] Setting up mbox_conf_flatten
I1002 11:44:21.460839 15796 net.cpp:157] Top shape: 4 26196 (104784)
I1002 11:44:21.460840 15796 net.cpp:165] Memory required for data: 994166752
I1002 11:44:21.460842 15796 layer_factory.hpp:77] Creating layer detection_out
I1002 11:44:21.460855 15796 net.cpp:100] Creating Layer detection_out
I1002 11:44:21.460858 15796 net.cpp:434] detection_out <- mbox_loc
I1002 11:44:21.460860 15796 net.cpp:434] detection_out <- mbox_conf_flatten
I1002 11:44:21.460863 15796 net.cpp:434] detection_out <- mbox_priorbox
I1002 11:44:21.460867 15796 net.cpp:408] detection_out -> detection_out
W1002 11:44:21.460898 15796 detection_output_layer.cpp:49] Failed to create directory: /home/rjperias/data/VOCdevkit/results/VOC2007/SSD_300x300/Main
I1002 11:44:21.461172 15796 net.cpp:150] Setting up detection_out
I1002 11:44:21.461179 15796 net.cpp:157] Top shape: 1 1 1 7 (7)
I1002 11:44:21.461180 15796 net.cpp:165] Memory required for data: 994166780
I1002 11:44:21.461182 15796 layer_factory.hpp:77] Creating layer detection_eval
I1002 11:44:21.461187 15796 net.cpp:100] Creating Layer detection_eval
I1002 11:44:21.461189 15796 net.cpp:434] detection_eval <- detection_out
I1002 11:44:21.461192 15796 net.cpp:434] detection_eval <- label
I1002 11:44:21.461195 15796 net.cpp:408] detection_eval -> detection_eval
I1002 11:44:21.461249 15796 net.cpp:150] Setting up detection_eval
I1002 11:44:21.461252 15796 net.cpp:157] Top shape: 1 1 3 5 (15)
I1002 11:44:21.461254 15796 net.cpp:165] Memory required for data: 994166840
I1002 11:44:21.461256 15796 net.cpp:228] detection_eval does not need backward computation.
I1002 11:44:21.461259 15796 net.cpp:228] detection_out does not need backward computation.
I1002 11:44:21.461271 15796 net.cpp:228] mbox_conf_flatten does not need backward computation.
I1002 11:44:21.461272 15796 net.cpp:228] mbox_conf_softmax does not need backward computation.
…
