…
      sampler {
        min_scale: 0.3
        max_scale: 1
        min_aspect_ratio: 0.5
        max_aspect_ratio: 2
      }
      sample_constraint {
        min_jaccard_overlap: 0.9
      }
      max_sample: 1
      max_trials: 50
    }
    batch_sampler {
      sampler {
        min_scale: 0.3
        max_scale: 1
        min_aspect_ratio: 0.5
        max_aspect_ratio: 2
      }
      sample_constraint {
        max_jaccard_overlap: 1
      }
      max_sample: 1
      max_trials: 50
    }
    label_map_file: "data/MELON/labelmap_melon.prototxt"
  }
}
layer {
  name: "conv1_1"
  type: "Convolution"
  bottom: "data"
  top: "conv1_1"
  param {
    lr_mult: 1
    decay_mult: 1
  }
  param {
    lr_mult: 2
    decay_mult: 0
  }
  convolution_param {
    num_output: 64
    pad: 1
    kernel_size: 3
    weight_filler {
      type: "xavier"
    }
    bias_filler {
      type: "constant"
      value: 0
    }
  }
}
layer {
  name: "relu1_1"
  type: "ReLU"
  bottom: "conv1_1"
  top: "conv1_1"
}
layer {
  name: "conv1_2"
  type: "Convolution"
  bottom: "conv1_1"
  top: "conv1_2"
  param {
    lr_mult: 1
    decay_mult: 1
  }
  param {
    lr_mult: 2
    decay_mult: 0
  }
  convolution_param {
    num_output: 64
    pad: 1
    kernel_size: 3
    weight_filler {
      type: "xavier"
    }
    bias_filler {
      type: "constant"
      value: 0
    }
  }
}
layer {
  name: "relu1_2"
  type: "ReLU"
  bottom: "conv1_2"
  top: "conv1_2"
}
layer {
  name: "pool1"
  type: "Pooling"
  bottom: "conv1_2"
  top: "pool1"
  pooling_param {
    pool: MAX
    kernel_size: 2
    stride: 2
  }
}
layer {
  name: "conv2_1"
  type: "Convolution"
  bottom: "pool1"
  top: "conv2_1"
  param {
    lr_mult: 1
    decay_mult: 1
  }
  param {
    lr_mult: 2
    decay_mult: 0
  }
  convolution_param {
    num_output: 128
    pad: 1
    kernel_size: 3
    weight_filler {
      type: "xavier"
    }
    bias_filler {
      type: "constant"
      value: 0
    }
  }
}
layer {
  name: "relu2_1"
  type: "ReLU"
  bottom: "conv2_1"
  top: "conv2_1"
}
layer {
  name: "conv2_2"
  type: "Convolution"
  bottom: "conv2_1"
  top: "conv2_2"
  param {
    lr_mult: 1
    decay_mult: 1
  }
  param {
    lr_mult: 2
    decay_mult: 0
  }
  convolution_param {
    num_output: 128
    pad: 1
    kernel_size: 3
    weight_filler {
      type: "xavier"
    }
    bias_filler {
      type: "constant"
      value: 0
    }
  }
}
layer {
  name: "relu2_2"
  type: "ReLU"
  bottom: "conv2_2"
  top: "conv2_2"
}
layer {
  name: "pool2"
  type: "Pooling"
  bottom: "conv2_2"
  top: "pool2"
  pooling_param {
    pool: MAX
    kernel_size: 2
    stride: 2
  }
}
layer {
  name: "conv3_1"
  type: "Convolution"
  bottom: "pool2"
  top: "conv3_1"
  param {
    lr_mult: 1
    decay_mult: 1
  }
  param {
    lr_mult: 2
    decay_mult: 0
  }
  convolution_param {
    num_output: 256
    pad: 1
    kernel_size: 3
    weight_filler {
      type: "xavier"
    }
    bias_filler {
      type: "constant"
      value: 0
    }
  }
}
layer {
  name: "relu3_1"
  type: "ReLU"
  bottom: "conv3_1"
  top: "conv3_1"
}
layer {
  name: "conv3_2"
  type: "Convolution"
  bottom: "conv3_1"
  top: "conv3_2"
  param {
    lr_mult: 1
    decay_mult: 1
  }
  param {
    lr_mult: 2
    decay_mult: 0
  }
  convolution_param {
    num_output: 256
    pad: 1
    kernel_size: 3
    weight_filler {
      type: "xavier"
    }
    bias_filler {
      type: "constant"
      value: 0
    }
  }
}
layer {
  name: "relu3_2"
  type: "ReLU"
  bottom: "conv3_2"
  top: "conv3_2"
}
layer {
  name: "conv3_3"
  type: "Convolution"
  bottom: "conv3_2"
  top: "conv3_3"
  param {
    lr_mult: 1
    decay_mult: 1
  }
  param {
    lr_mult: 2
    decay_mult: 0
  }
  convolution_param {
    num_output: 256
    pad: 1
    kernel_size: 3
    weight_filler {
      type: "xavier"
    }
    bias_filler {
      type: "constant"
      value: 0
    }
  }
}
layer {
  name: "relu3_3"
  type: "ReLU"
  bottom: "conv3_3"
  top: "conv3_3"
}
layer {
  name: "pool3"
  type: "Pooling"
  bottom: "conv3_3"
  top: "pool3"
  pooling_param {
    pool: MAX
    kernel_size: 2
    stride: 2
  }
}
layer {
  name: "conv4_1"
  type: "Convolution"
  bottom: "pool3"
  top: "conv4_1"
  param {
    lr_mult: 1
    decay_mult: 1
  }
  param {
    lr_mult: 2
    decay_mult: 0
  }
  convolution_param {
    num_output: 512
    pad: 1
    kernel_size: 3
    weight_filler {
      type: "xavier"
    }
    bias_filler {
      type: "constant"
      value: 0
    }
  }
}
layer {
  name: "relu4_1"
  type: "ReLU"
  bottom: "conv4_1"
  top: "conv4_1"
}
layer {
  name: "conv4_2"
  type: "Convolution"
  bottom: "conv4_1"
  top: "conv4_2"
  param {
    lr_mult: 1
    decay_mult: 1
  }
  param {
    lr_mult: 2
    decay_mult: 0
  }
  convolution_param {
    num_output: 512
    pad: 1
    kernel_size: 3
    weight_filler {
      type: "xavier"
    }
    bias_filler {
      type: "constant"
      value: 0
    }
  }
}
layer {
  name: "relu4_2"
  type: "ReLU"
  bottom: "conv4_2"
  top: "conv4_2"
}
layer {
  name: "conv4_3"
  type: "Convolution"
  bottom: "conv4_2"
  top: "conv4_3"
  param {
    lr_mult: 1
    decay_mult: 1
  }
  param {
    lr_mult: 2
    decay_mult: 0
  }
  convolution_param {
    num_output: 512
    pad: 1
    kernel_size: 3
    weight_filler {
      type: "xavier"
    }
    bias_filler {
      type: "constant"
      value: 0
    }
  }
}
layer {
  name: "relu4_3"
  type: "ReLU"
  bottom: "conv4_3"
  top: "conv4_3"
}
layer {
  name: "pool4"
  type: "Pooling"
  bottom: "conv4_3"
  top: "pool4"
  pooling_param {
    pool: MAX
    kernel_size: 2
    stride: 2
  }
}
layer {
  name: "conv5_1"
  type: "Convolution"
  bottom: "pool4"
  top: "conv5_1"
  param {
    lr_mult: 1
    decay_mult: 1
  }
  param {
    lr_mult: 2
    decay_mult: 0
  }
  convolution_param {
    num_output: 512
    pad: 1
    kernel_size: 3
    weight_filler {
      type: "xavier"
    }
    bias_filler {
      type: "constant"
      value: 0
    }
    dilation: 1
  }
}
layer {
  name: "relu5_1"
  type: "ReLU"
  bottom: "conv5_1"
  top: "conv5_1"
}
layer {
  name: "conv5_2"
  type: "Convolution"
  bottom: "conv5_1"
  top: "conv5_2"
  param {
    lr_mult: 1
    decay_mult: 1
  }
  param {
    lr_mult: 2
    decay_mult: 0
  }
  convolution_param {
    num_output: 512
    pad: 1
    kernel_size: 3
    weight_filler {
      type: "xavier"
    }
    bias_filler {
      type: "constant"
      value: 0
    }
    dilation: 1
  }
}
layer {
  name: "relu5_2"
  type: "ReLU"
  bottom: "conv5_2"
  top: "conv5_2"
}
layer {
  name: "conv5_3"
  type: "Convolution"
  bottom: "conv5_2"
  top: "conv5_3"
  param {
    lr_mult: 1
    decay_mult: 1
  }
  param {
    lr_mult: 2
    decay_mult: 0
  }
  convolution_param {
    num_output: 512
    pad: 1
    kernel_size: 3
    weight_filler {
      type: "xavier"
    }
    bias_filler {
      type: "constant"
      value: 0
    }
    dilation: 1
  }
}
layer {
  name: "relu5_3"
  type: "ReLU"
  bottom: "conv5_3"
  top: "conv5_3"
}
layer {
  name: "pool5"
  type: "Pooling"
  bottom: "conv5_3"
  top: "pool5"
  pooling_param {
    pool: MAX
    kernel_size: 3
    stride: 1
    pad: 1
  }
}
layer {
  name: "fc6"
  type: "Convolution"
  bottom: "pool5"
  top: "fc6"
  param {
    lr_mult: 1
    decay_mult: 1
  }
  param {
    lr_mult: 2
    decay_mult: 0
  }
  convolution_param {
    num_output: 1024
    pad: 6
    kernel_size: 3
    weight_filler {
      type: "xavier"
    }
    bias_filler {
      type: "constant"
      value: 0
    }
    dilation: 6
  }
}
layer {
  name: "relu6"
  type: "ReLU"
  bottom: "fc6"
  top: "fc6"
}
layer {
  name: "fc7"
  type: "Convolution"
  bottom: "fc6"
  top: "fc7"
  param {
    lr_mult: 1
    decay_mult: 1
  }
  param {
    lr_mult: 2
    decay_mult: 0
  }
  convolution_param {
    num_output: 1024
    kernel_size: 1
    weight_filler {
      type: "xavier"
    }
    bias_filler {
      type: "constant"
      value: 0
    }
  }
}
layer {
  name: "relu7"
  type: "ReLU"
  bottom: "fc7"
  top: "fc7"
}
layer {
  name: "conv6_1"
  type: "Convolution"
  bottom: "fc7"
  top: "conv6_1"
  param {
    lr_mult: 1
    decay_mult: 1
  }
  param {
    lr_mult: 2
    decay_mult: 0
  }
  convolution_param {
    num_output: 256
    pad: 0
    kernel_size: 1
    stride: 1
    weight_filler {
      type: "xavier"
    }
    bias_filler {
      type: "constant"
      value: 0
    }
  }
}
layer {
  name: "conv6_1_relu"
  type: "ReLU"
  bottom: "conv6_1"
  top: "conv6_1"
}
layer {
  name: "conv6_2"
  type: "Convolution"
  bottom: "conv6_1"
  top: "conv6_2"
  param {
    lr_mult: 1
    decay_mult: 1
  }
  param {
    lr_mult: 2
    decay_mult: 0
  }
  convolution_param {
    num_output: 512
    pad: 1
    kernel_size: 3
    stride: 2
    weight_filler {
      type: "xavier"
    }
    bias_filler {
      type: "constant"
      value: 0
    }
  }
}
layer {
  name: "conv6_2_relu"
  type: "ReLU"
  bottom: "conv6_2"
  top: "conv6_2"
}
layer {
  name: "conv7_1"
  type: "Convolution"
  bottom: "conv6_2"
  top: "conv7_1"
  param {
    lr_mult: 1
    decay_mult: 1
  }
  param {
    lr_mult: 2
    decay_mult: 0
  }
  convolution_param {
    num_output: 128
    pad: 0
    kernel_size: 1
    stride: 1
    weight_filler {
      type: "xavier"
    }
    bias_filler {
      type: "constant"
      value: 0
    }
  }
}
layer {
  name: "conv7_1_relu"
  type: "ReLU"
  bottom: "conv7_1"
  top: "conv7_1"
}
layer {
  name: "conv7_2"
  type: "Convolution"
  bottom: "conv7_1"
  top: "conv7_2"
  param {
    lr_mult: 1
    decay_mult: 1
  }
  param {
    lr_mult: 2
    decay_mult: 0
  }
  convolution_param {
    num_output: 256
    pad: 1
    kernel_size: 3
    stride: 2
    weight_filler {
      type: "xavier"
    }
    bias_filler {
      type: "constant"
      value: 0
    }
  }
}
layer {
  name: "conv7_2_relu"
  type: "ReLU"
  bottom: "conv7_2"
  top: "conv7_2"
}
layer {
  name: "conv8_1"
  type: "Convolution"
  bottom: "conv7_2"
  top: "conv8_1"
  param {
    lr_mult: 1
    decay_mult: 1
  }
  param {
    lr_mult: 2
    decay_mult: 0
  }
  convolution_param {
    num_output: 128
    pad: 0
    kernel_size: 1
    stride: 1
    weight_filler {
      type: "xavier"
    }
    bias_filler {
      type: "constant"
      value: 0
    }
  }
}
layer {
  name: "conv8_1_relu"
  type: "ReLU"
  bottom: "conv8_1"
  top: "conv8_1"
}
layer {
  name: "conv8_2"
  type: "Convolution"
  bottom: "conv8_1"
  top: "conv8_2"
  param {
    lr_mult: 1
    decay_mult: 1
  }
  param {
    lr_mult: 2
    decay_mult: 0
  }
  convolution_param {
    num_output: 256
    pad: 0
    kernel_size: 3
    stride: 1
    weight_filler {
      type: "xavier"
    }
    bias_filler {
      type: "constant"
      value: 0
    }
  }
}
layer {
  name: "conv8_2_relu"
  type: "ReLU"
  bottom: "conv8_2"
  top: "conv8_2"
}
layer {
  name: "conv9_1"
  type: "Convolution"
  bottom: "conv8_2"
  top: "conv9_1"
  param {
    lr_mult: 1
    decay_mult: 1
  }
  param {
    lr_mult: 2
    decay_mult: 0
  }
  convolution_param {
    num_output: 128
    pad: 0
    kernel_size: 1
    stride: 1
    weight_filler {
      type: "xavier"
    }
    bias_filler {
      type: "constant"
      value: 0
    }
  }
}
layer {
  name: "conv9_1_relu"
  type: "ReLU"
  bottom: "conv9_1"
  top: "conv9_1"
}
layer {
  name: "conv9_2"
  type: "Convolution"
  bottom: "conv9_1"
  top: "conv9_2"
  param {
    lr_mult: 1
    decay_mult: 1
  }
  param {
    lr_mult: 2
    decay_mult: 0
  }
  convolution_param {
    num_output: 256
    pad: 0
    kernel_size: 3
    stride: 1
    weight_filler {
      type: "xavier"
    }
    bias_filler {
      type: "constant"
      value: 0
    }
  }
}
layer {
  name: "conv9_2_relu"
  type: "ReLU"
  bottom: "conv9_2"
  top: "conv9_2"
}
layer {
  name: "conv4_3_norm"
  type: "Normalize"
  bottom: "conv4_3"
  top: "conv4_3_norm"
  norm_param {
    across_spatial: false
    scale_filler {
      type: "constant"
      value: 20
    }
    channel_shared: false
  }
}
layer {
  name: "conv4_3_norm_mbox_loc"
  type: "Convolution"
  bottom: "conv4_3_norm"
  top: "conv4_3_norm_mbox_loc"
  param {
    lr_mult: 1
    decay_mult: 1
  }
  param {
    lr_mult: 2
    decay_mult: 0
  }
  convolution_param {
    num_output: 16
    pad: 1
    kernel_size: 3
    stride: 1
    weight_filler {
      type: "xavier"
    }
    bias_filler {
      type: "constant"
      value: 0
    }
  }
}
layer {
  name: "conv4_3_norm_mbox_loc_perm"
  type: "Permute"
  bottom: "conv4_3_norm_mbox_loc"
  top: "conv4_3_norm_mbox_loc_perm"
  permute_param {
    order: 0
    order: 2
    order: 3
    order: 1
  }
}
layer {
  name: "conv4_3_norm_mbox_loc_flat"
  type: "Flatten"
  bottom: "conv4_3_norm_mbox_loc_perm"
  top: "conv4_3_norm_mbox_loc_flat"
  flatten_param {
    axis: 1
  }
}
layer {
  name: "conv4_3_norm_mbox_conf"
  type: "Convolution"
  bottom: "conv4_3_norm"
  top: "conv4_3_norm_mbox_conf"
  param {
    lr_mult: 1
    decay_mult: 1
  }
  param {
    lr_mult: 2
    decay_mult: 0
  }
  convolution_param {
    num_output: 12
    pad: 1
    kernel_size: 3
    stride: 1
    weight_filler {
      type: "xavier"
    }
    bias_filler {
      type: "constant"
      value: 0
    }
  }
}
layer {
  name: "conv4_3_norm_mbox_conf_perm"
  type: "Permute"
  bottom: "conv4_3_norm_mbox_conf"
  top: "conv4_3_norm_mbox_conf_perm"
  permute_param {
    order: 0
    order: 2
    order: 3
    order: 1
  }
}
layer {
  name: "conv4_3_norm_mbox_conf_flat"
  type: "Flatten"
  bottom: "conv4_3_norm_mbox_conf_perm"
  top: "conv4_3_norm_mbox_conf_flat"
  flatten_param {
    axis: 1
  }
}
layer {
  name: "conv4_3_norm_mbox_priorbox"
  type: "PriorBox"
  bottom: "conv4_3_norm"
  bottom: "data"
  top: "conv4_3_norm_mbox_priorbox"
  prior_box_param {
    min_size: 30
    max_size: 60
    aspect_ratio: 2
    flip: true
    clip: false
    variance: 0.1
    variance: 0.1
    variance: 0.2
    variance: 0.2
    step: 8
    offset: 0.5
  }
}
layer {
  name: "fc7_mbox_loc"
  type: "Convolution"
  bottom: "fc7"
  top: "fc7_mbox_loc"
  param {
    lr_mult: 1
    decay_mult: 1
  }
  param {
    lr_mult: 2
    decay_mult: 0
  }
  convolution_param {
    num_output: 24
    pad: 1
    kernel_size: 3
    stride: 1
    weight_filler {
      type: "xavier"
    }
    bias_filler {
      type: "constant"
      value: 0
    }
  }
}
layer {
  name: "fc7_mbox_loc_perm"
  type: "Permute"
  bottom: "fc7_mbox_loc"
  top: "fc7_mbox_loc_perm"
  permute_param {
    order: 0
    order: 2
    order: 3
    order: 1
  }
}
layer {
  name: "fc7_mbox_loc_flat"
  type: "Flatten"
  bottom: "fc7_mbox_loc_perm"
  top: "fc7_mbox_loc_flat"
  flatten_param {
    axis: 1
  }
}
layer {
  name: "fc7_mbox_conf"
  type: "Convolution"
  bottom: "fc7"
  top: "fc7_mbox_conf"
  param {
    lr_mult: 1
    decay_mult: 1
  }
  param {
    lr_mult: 2
    decay_mult: 0
  }
  convolution_param {
    num_output: 18
    pad: 1
    kernel_size: 3
    stride: 1
    weight_filler {
      type: "xavier"
    }
    bias_filler {
      type: "constant"
      value: 0
    }
  }
}
layer {
  name: "fc7_mbox_conf_perm"
  type: "Permute"
  bottom: "fc7_mbox_conf"
  top: "fc7_mbox_conf_perm"
  permute_param {
    order: 0
    order: 2
    order: 3
    order: 1
  }
}
layer {
  name: "fc7_mbox_conf_flat"
  type: "Flatten"
  bottom: "fc7_mbox_conf_perm"
  top: "fc7_mbox_conf_flat"
  flatten_param {
    axis: 1
  }
}
layer {
  name: "fc7_mbox_priorbox"
  type: "PriorBox"
  bottom: "fc7"
  bottom: "data"
  top: "fc7_mbox_priorbox"
  prior_box_param {
    min_size: 60
    max_size: 111
    aspect_ratio: 2
    aspect_ratio: 3
    flip: true
    clip: false
    variance: 0.1
    variance: 0.1
    variance: 0.2
    variance: 0.2
    step: 16
    offset: 0.5
  }
}
layer {
  name: "conv6_2_mbox_loc"
  type: "Convolution"
  bottom: "conv6_2"
  top: "conv6_2_mbox_loc"
  param {
    lr_mult: 1
    decay_mult: 1
  }
  param {
    lr_mult: 2
    decay_mult: 0
  }
  convolution_param {
    num_output: 24
    pad: 1
    kernel_size: 3
    stride: 1
    weight_filler {
      type: "xavier"
    }
    bias_filler {
      type: "constant"
      value: 0
    }
  }
}
layer {
  name: "conv6_2_mbox_loc_perm"
  type: "Permute"
  bottom: "conv6_2_mbox_loc"
  top: "conv6_2_mbox_loc_perm"
  permute_param {
    order: 0
    order: 2
    order: 3
    order: 1
  }
}
layer {
  name: "conv6_2_mbox_loc_flat"
  type: "Flatten"
  bottom: "conv6_2_mbox_loc_perm"
  top: "conv6_2_mbox_loc_flat"
  flatten_param {
    axis: 1
  }
}
layer {
  name: "conv6_2_mbox_conf"
  type: "Convolution"
  bottom: "conv6_2"
  top: "conv6_2_mbox_conf"
  param {
    lr_mult: 1
    decay_mult: 1
  }
  param {
    lr_mult: 2
    decay_mult: 0
  }
  convolution_param {
    num_output: 18
    pad: 1
    kernel_size: 3
    stride: 1
    weight_filler {
      type: "xavier"
    }
    bias_filler {
      type: "constant"
      value: 0
    }
  }
}
layer {
  name: "conv6_2_mbox_conf_perm"
  type: "Permute"
  bottom: "conv6_2_mbox_conf"
  top: "conv6_2_mbox_conf_perm"
  permute_param {
    order: 0
    order: 2
    order: 3
    order: 1
  }
}
layer {
  name: "conv6_2_mbox_conf_flat"
  type: "Flatten"
  bottom: "conv6_2_mbox_conf_perm"
  top: "conv6_2_mbox_conf_flat"
  flatten_param {
    axis: 1
  }
}
layer {
  name: "conv6_2_mbox_priorbox"
  type: "PriorBox"
  bottom: "conv6_2"
  bottom: "data"
  top: "conv6_2_mbox_priorbox"
  prior_box_param {
    min_size: 111
    max_size: 162
    aspect_ratio: 2
    aspect_ratio: 3
    flip: true
    clip: false
    variance: 0.1
    variance: 0.1
    variance: 0.2
    variance: 0.2
    step: 32
    offset: 0.5
  }
}
layer {
  name: "conv7_2_mbox_loc"
  type: "Convolution"
  bottom: "conv7_2"
  top: "conv7_2_mbox_loc"
  param {
    lr_mult: 1
    decay_mult: 1
  }
  param {
    lr_mult: 2
    decay_mult: 0
  }
  convolution_param {
    num_output: 24
    pad: 1
    kernel_size: 3
    stride: 1
    weight_filler {
      type: "xavier"
    }
    bias_filler {
      type: "constant"
      value: 0
    }
  }
}
layer {
  name: "conv7_2_mbox_loc_perm"
  type: "Permute"
  bottom: "conv7_2_mbox_loc"
  top: "conv7_2_mbox_loc_perm"
  permute_param {
    order: 0
    order: 2
    order: 3
    order: 1
  }
}
layer {
  name: "conv7_2_mbox_loc_flat"
  type: "Flatten"
  bottom: "conv7_2_mbox_loc_perm"
  top: "conv7_2_mbox_loc_flat"
  flatten_param {
    axis: 1
  }
}
layer {
  name: "conv7_2_mbox_conf"
  type: "Convolution"
  bottom: "conv7_2"
  top: "conv7_2_mbox_conf"
  param {
    lr_mult: 1
    decay_mult: 1
  }
  param {
    lr_mult: 2
    decay_mult: 0
  }
  convolution_param {
    num_output: 18
    pad: 1
    kernel_size: 3
    stride: 1
    weight_filler {
      type: "xavier"
    }
    bias_filler {
      type: "constant"
      value: 0
    }
  }
}
layer {
  name: "conv7_2_mbox_conf_perm"
  type: "Permute"
  bottom: "conv7_2_mbox_conf"
  top: "conv7_2_mbox_conf_perm"
  permute_param {
    order: 0
    order: 2
    order: 3
    order: 1
  }
}
layer {
  name: "conv7_2_mbox_conf_flat"
  type: "Flatten"
  bottom: "conv7_2_mbox_conf_perm"
  top: "conv7_2_mbox_conf_flat"
  flatten_param {
    axis: 1
  }
}
layer {
  name: "conv7_2_mbox_priorbox"
  type: "PriorBox"
  bottom: "conv7_2"
  bottom: "data"
  top: "conv7_2_mbox_priorbox"
  prior_box_param {
    min_size: 162
    max_size: 213
    aspect_ratio: 2
    aspect_ratio: 3
    flip: true
    clip: false
    variance: 0.1
    variance: 0.1
    variance: 0.2
    variance: 0.2
    step: 64
    offset: 0.5
  }
}
layer {
  name: "conv8_2_mbox_loc"
  type: "Convolution"
  bottom: "conv8_2"
  top: "conv8_2_mbox_loc"
  param {
    lr_mult: 1
    decay_mult: 1
  }
  param {
    lr_mult: 2
    decay_mult: 0
  }
  convolution_param {
    num_output: 16
    pad: 1
    kernel_size: 3
    stride: 1
    weight_filler {
      type: "xavier"
    }
    bias_filler {
      type: "constant"
      value: 0
    }
  }
}
layer {
  name: "conv8_2_mbox_loc_perm"
  type: "Permute"
  bottom: "conv8_2_mbox_loc"
  top: "conv8_2_mbox_loc_perm"
  permute_param {
    order: 0
    order: 2
    order: 3
    order: 1
  }
}
layer {
  name: "conv8_2_mbox_loc_flat"
  type: "Flatten"
  bottom: "conv8_2_mbox_loc_perm"
  top: "conv8_2_mbox_loc_flat"
  flatten_param {
    axis: 1
  }
}
layer {
  name: "conv8_2_mbox_conf"
  type: "Convolution"
  bottom: "conv8_2"
  top: "conv8_2_mbox_conf"
  param {
    lr_mult: 1
    decay_mult: 1
  }
  param {
    lr_mult: 2
    decay_mult: 0
  }
  convolution_param {
    num_output: 12
    pad: 1
    kernel_size: 3
    stride: 1
    weight_filler {
      type: "xavier"
    }
    bias_filler {
      type: "constant"
      value: 0
    }
  }
}
layer {
  name: "conv8_2_mbox_conf_perm"
  type: "Permute"
  bottom: "conv8_2_mbox_conf"
  top: "conv8_2_mbox_conf_perm"
  permute_param {
    order: 0
    order: 2
    order: 3
    order: 1
  }
}
layer {
  name: "conv8_2_mbox_conf_flat"
  type: "Flatten"
  bottom: "conv8_2_mbox_conf_perm"
  top: "conv8_2_mbox_conf_flat"
  flatten_param {
    axis: 1
  }
}
layer {
  name: "conv8_2_mbox_priorbox"
  type: "PriorBox"
  bottom: "conv8_2"
  bottom: "data"
  top: "conv8_2_mbox_priorbox"
  prior_box_param {
    min_size: 213
    max_size: 264
    aspect_ratio: 2
    flip: true
    clip: false
    variance: 0.1
    variance: 0.1
    variance: 0.2
    variance: 0.2
    step: 100
    offset: 0.5
  }
}
layer {
  name: "conv9_2_mbox_loc"
  type: "Convolution"
  bottom: "conv9_2"
  top: "conv9_2_mbox_loc"
  param {
    lr_mult: 1
    decay_mult: 1
  }
  param {
    lr_mult: 2
    decay_mult: 0
  }
  convolution_param {
    num_output: 16
    pad: 1
    kernel_size: 3
    stride: 1
    weight_filler {
      type: "xavier"
    }
    bias_filler {
      type: "constant"
      value: 0
    }
  }
}
layer {
  name: "conv9_2_mbox_loc_perm"
  type: "Permute"
  bottom: "conv9_2_mbox_loc"
  top: "conv9_2_mbox_loc_perm"
  permute_param {
    order: 0
    order: 2
    order: 3
    order: 1
  }
}
layer {
  name: "conv9_2_mbox_loc_flat"
  type: "Flatten"
  bottom: "conv9_2_mbox_loc_perm"
  top: "conv9_2_mbox_loc_flat"
  flatten_param {
    axis: 1
  }
}
layer {
  name: "conv9_2_mbox_conf"
  type: "Convolution"
  bottom: "conv9_2"
  top: "conv9_2_mbox_conf"
  param {
    lr_mult: 1
    decay_mult: 1
  }
  param {
    lr_mult: 2
    decay_mult: 0
  }
  convolution_param {
    num_output: 12
    pad: 1
    kernel_size: 3
    stride: 1
    weight_filler {
      type: "xavier"
    }
    bias_filler {
      type: "constant"
      value: 0
    }
  }
}
layer {
  name: "conv9_2_mbox_conf_perm"
  type: "Permute"
  bottom: "conv9_2_mbox_conf"
  top: "conv9_2_mbox_conf_perm"
  permute_param {
    order: 0
    order: 2
    order: 3
    order: 1
  }
}
layer {
  name: "conv9_2_mbox_conf_flat"
  type: "Flatten"
  bottom: "conv9_2_mbox_conf_perm"
  top: "conv9_2_mbox_conf_flat"
  flatten_param {
    axis: 1
  }
}
layer {
  name: "conv9_2_mbox_priorbox"
  type: "PriorBox"
  bottom: "conv9_2"
  bottom: "data"
  top: "conv9_2_mbox_priorbox"
  prior_box_param {
    min_size: 264
    max_size: 315
    aspect_ratio: 2
    flip: true
    clip: false
    variance: 0.1
    variance: 0.1
    variance: 0.2
    variance: 0.2
    step: 300
    offset: 0.5
  }
}
layer {
  name: "mbox_loc"
  type: "Concat"
  bottom: "conv4_3_norm_mbox_loc_flat"
  bottom: "fc7_mbox_loc_flat"
  bottom: "conv6_2_mbox_loc_flat"
  bottom: "conv7_2_mbox_loc_flat"
  bottom: "conv8_2_mbox_loc_flat"
  bottom: "conv9_2_mbox_loc_flat"
  top: "mbox_loc"
  concat_param {
    axis: 1
  }
}
layer {
  name: "mbox_conf"
  type: "Concat"
  bottom: "conv4_3_norm_mbox_conf_flat"
  bottom: "fc7_mbox_conf_flat"
  bottom: "conv6_2_mbox_conf_flat"
  bottom: "conv7_2_mbox_conf_flat"
  bottom: "conv8_2_mbox_conf_flat"
  bottom: "conv9_2_mbox_conf_flat"
  top: "mbox_conf"
  concat_param {
    axis: 1
  }
}
layer {
  name: "mbox_priorbox"
  type: "Concat"
  bottom: "conv4_3_norm_mbox_priorbox"
  bottom: "fc7_mbox_priorbox"
  bottom: "conv6_2_mbox_priorbox"
  bottom: "conv7_2_mbox_priorbox"
  bottom: "conv8_2_mbox_priorbox"
  bottom: "conv9_2_mbox_priorbox"
  top: "mbox_priorbox"
  concat_param {
    axis: 2
  }
}
layer {
  name: "mbox_loss"
  type: "MultiBoxLoss"
  bottom: "mbox_loc"
  bottom: "mbox_conf"
  bottom: "mbox_priorbox"
  bottom: "label"
  top: "mbox_loss"
  include {
    phase: TRAIN
  }
  propagate_down: true
  propagate_down: true
  propagate_down: false
  propagate_down: false
  loss_param {
    normalization: VALID
  }
  multibox_loss_param {
    loc_loss_type: SMOOTH_L1
    conf_loss_type: SOFTMAX
    loc_weight: 1
    num_classes: 3
    share_location: true
    match_type: PER_PREDICTION
    overlap_threshold: 0.5
    use_prior_for_matching: true
    background_label_id: 0
    use_difficult_gt: true
    neg_pos_ratio: 3
    neg_overlap: 0.5
    code_type: CENTER_SIZE
    ignore_cross_boundary_bbox: false
    mining_type: MAX_NEGATIVE
  }
}
I1001 23:10:42.101202  6400 layer_factory.hpp:77] Creating layer data
I1001 23:10:42.101773  6400 net.cpp:100] Creating Layer data
I1001 23:10:42.101804  6400 net.cpp:408] data -> data
I1001 23:10:42.101850  6400 net.cpp:408] data -> label
I1001 23:10:42.102468  6410 db_lmdb.cpp:35] Opened lmdb examples/MELON/MELON_trainval_lmdb
I1001 23:10:42.110024  6400 annotated_data_layer.cpp:62] output data size: 15,3,300,300
I1001 23:10:42.128893  6400 net.cpp:150] Setting up data
I1001 23:10:42.128916  6400 net.cpp:157] Top shape: 15 3 300 300 (4050000)
I1001 23:10:42.128919  6400 net.cpp:157] Top shape: 1 1 1 8 (8)
I1001 23:10:42.128921  6400 net.cpp:165] Memory required for data: 16200032
I1001 23:10:42.128953  6400 layer_factory.hpp:77] Creating layer data_data_0_split
I1001 23:10:42.128964  6400 net.cpp:100] Creating Layer data_data_0_split
I1001 23:10:42.128973  6400 net.cpp:434] data_data_0_split <- data
I1001 23:10:42.128984  6400 net.cpp:408] data_data_0_split -> data_data_0_split_0
I1001 23:10:42.128991  6400 net.cpp:408] data_data_0_split -> data_data_0_split_1
I1001 23:10:42.128996  6400 net.cpp:408] data_data_0_split -> data_data_0_split_2
I1001 23:10:42.129001  6400 net.cpp:408] data_data_0_split -> data_data_0_split_3
I1001 23:10:42.129005  6400 net.cpp:408] data_data_0_split -> data_data_0_split_4
I1001 23:10:42.129009  6400 net.cpp:408] data_data_0_split -> data_data_0_split_5
I1001 23:10:42.129012  6400 net.cpp:408] data_data_0_split -> data_data_0_split_6
I1001 23:10:42.129128  6400 net.cpp:150] Setting up data_data_0_split
I1001 23:10:42.129135  6400 net.cpp:157] Top shape: 15 3 300 300 (4050000)
I1001 23:10:42.129142  6400 net.cpp:157] Top shape: 15 3 300 300 (4050000)
I1001 23:10:42.129146  6400 net.cpp:157] Top shape: 15 3 300 300 (4050000)
I1001 23:10:42.129148  6400 net.cpp:157] Top shape: 15 3 300 300 (4050000)
I1001 23:10:42.129151  6400 net.cpp:157] Top shape: 15 3 300 300 (4050000)
I1001 23:10:42.129153  6400 net.cpp:157] Top shape: 15 3 300 300 (4050000)
I1001 23:10:42.129159  6400 net.cpp:157] Top shape: 15 3 300 300 (4050000)
I1001 23:10:42.129161  6400 net.cpp:165] Memory required for data: 129600032
I1001 23:10:42.129164  6400 layer_factory.hpp:77] Creating layer conv1_1
I1001 23:10:42.129180  6400 net.cpp:100] Creating Layer conv1_1
I1001 23:10:42.129184  6400 net.cpp:434] conv1_1 <- data_data_0_split_0
I1001 23:10:42.129187  6400 net.cpp:408] conv1_1 -> conv1_1
I1001 23:10:42.130672  6400 net.cpp:150] Setting up conv1_1
I1001 23:10:42.130692  6400 net.cpp:157] Top shape: 15 64 300 300 (86400000)
I1001 23:10:42.130693  6400 net.cpp:165] Memory required for data: 475200032
I1001 23:10:42.130708  6400 layer_factory.hpp:77] Creating layer relu1_1
I1001 23:10:42.130715  6400 net.cpp:100] Creating Layer relu1_1
I1001 23:10:42.130719  6400 net.cpp:434] relu1_1 <- conv1_1
I1001 23:10:42.130724  6400 net.cpp:395] relu1_1 -> conv1_1 (in-place)
I1001 23:10:42.130730  6400 net.cpp:150] Setting up relu1_1
I1001 23:10:42.130733  6400 net.cpp:157] Top shape: 15 64 300 300 (86400000)
I1001 23:10:42.130734  6400 net.cpp:165] Memory required for data: 820800032
I1001 23:10:42.130736  6400 layer_factory.hpp:77] Creating layer conv1_2
I1001 23:10:42.130744  6400 net.cpp:100] Creating Layer conv1_2
I1001 23:10:42.130746  6400 net.cpp:434] conv1_2 <- conv1_1
I1001 23:10:42.130750  6400 net.cpp:408] conv1_2 -> conv1_2
I1001 23:10:42.133018  6400 net.cpp:150] Setting up conv1_2
I1001 23:10:42.133038  6400 net.cpp:157] Top shape: 15 64 300 300 (86400000)
I1001 23:10:42.133039  6400 net.cpp:165] Memory required for data: 1166400032
I1001 23:10:42.133047  6400 layer_factory.hpp:77] Creating layer relu1_2
I1001 23:10:42.133054  6400 net.cpp:100] Creating Layer relu1_2
I1001 23:10:42.133056  6400 net.cpp:434] relu1_2 <- conv1_2
I1001 23:10:42.133060  6400 net.cpp:395] relu1_2 -> conv1_2 (in-place)
I1001 23:10:42.133065  6400 net.cpp:150] Setting up relu1_2
I1001 23:10:42.133069  6400 net.cpp:157] Top shape: 15 64 300 300 (86400000)
I1001 23:10:42.133070  6400 net.cpp:165] Memory required for data: 1512000032
I1001 23:10:42.133072  6400 layer_factory.hpp:77] Creating layer pool1
I1001 23:10:42.133076  6400 net.cpp:100] Creating Layer pool1
I1001 23:10:42.133078  6400 net.cpp:434] pool1 <- conv1_2
I1001 23:10:42.133082  6400 net.cpp:408] pool1 -> pool1
I1001 23:10:42.133123  6400 net.cpp:150] Setting up pool1
I1001 23:10:42.133128  6400 net.cpp:157] Top shape: 15 64 150 150 (21600000)
I1001 23:10:42.133131  6400 net.cpp:165] Memory required for data: 1598400032
I1001 23:10:42.133132  6400 layer_factory.hpp:77] Creating layer conv2_1
I1001 23:10:42.133141  6400 net.cpp:100] Creating Layer conv2_1
I1001 23:10:42.133142  6400 net.cpp:434] conv2_1 <- pool1
I1001 23:10:42.133146  6400 net.cpp:408] conv2_1 -> conv2_1
I1001 23:10:42.133607  6400 net.cpp:150] Setting up conv2_1
I1001 23:10:42.133615  6400 net.cpp:157] Top shape: 15 128 150 150 (43200000)
I1001 23:10:42.133616  6400 net.cpp:165] Memory required for data: 1771200032
I1001 23:10:42.133621  6400 layer_factory.hpp:77] Creating layer relu2_1
I1001 23:10:42.133630  6400 net.cpp:100] Creating Layer relu2_1
I1001 23:10:42.133631  6400 net.cpp:434] relu2_1 <- conv2_1
I1001 23:10:42.133635  6400 net.cpp:395] relu2_1 -> conv2_1 (in-place)
I1001 23:10:42.133642  6400 net.cpp:150] Setting up relu2_1
I1001 23:10:42.133646  6400 net.cpp:157] Top shape: 15 128 150 150 (43200000)
I1001 23:10:42.133648  6400 net.cpp:165] Memory required for data: 1944000032
I1001 23:10:42.133657  6400 layer_factory.hpp:77] Creating layer conv2_2
I1001 23:10:42.133663  6400 net.cpp:100] Creating Layer conv2_2
I1001 23:10:42.133666  6400 net.cpp:434] conv2_2 <- conv2_1
I1001 23:10:42.133671  6400 net.cpp:408] conv2_2 -> conv2_2
I1001 23:10:42.134366  6400 net.cpp:150] Setting up conv2_2
I1001 23:10:42.134371  6400 net.cpp:157] Top shape: 15 128 150 150 (43200000)
I1001 23:10:42.134372  6400 net.cpp:165] Memory required for data: 2116800032
I1001 23:10:42.134376  6400 layer_factory.hpp:77] Creating layer relu2_2
I1001 23:10:42.134378  6400 net.cpp:100] Creating Layer relu2_2
I1001 23:10:42.134382  6400 net.cpp:434] relu2_2 <- conv2_2
I1001 23:10:42.134384  6400 net.cpp:395] relu2_2 -> conv2_2 (in-place)
I1001 23:10:42.134387  6400 net.cpp:150] Setting up relu2_2
I1001 23:10:42.134392  6400 net.cpp:157] Top shape: 15 128 150 150 (43200000)
I1001 23:10:42.134393  6400 net.cpp:165] Memory required for data: 2289600032
I1001 23:10:42.134395  6400 layer_factory.hpp:77] Creating layer pool2
I1001 23:10:42.134408  6400 net.cpp:100] Creating Layer pool2
I1001 23:10:42.134411  6400 net.cpp:434] pool2 <- conv2_2
I1001 23:10:42.134415  6400 net.cpp:408] pool2 -> pool2
I1001 23:10:42.134443  6400 net.cpp:150] Setting up pool2
I1001 23:10:42.134449  6400 net.cpp:157] Top shape: 15 128 75 75 (10800000)
I1001 23:10:42.134450  6400 net.cpp:165] Memory required for data: 2332800032
I1001 23:10:42.134460  6400 layer_factory.hpp:77] Creating layer conv3_1
I1001 23:10:42.134469  6400 net.cpp:100] Creating Layer conv3_1
I1001 23:10:42.134472  6400 net.cpp:434] conv3_1 <- pool2
I1001 23:10:42.134482  6400 net.cpp:408] conv3_1 -> conv3_1
I1001 23:10:42.137070  6400 net.cpp:150] Setting up conv3_1
I1001 23:10:42.137089  6400 net.cpp:157] Top shape: 15 256 75 75 (21600000)
I1001 23:10:42.137091  6400 net.cpp:165] Memory required for data: 2419200032
I1001 23:10:42.137101  6400 layer_factory.hpp:77] Creating layer relu3_1
I1001 23:10:42.137110  6400 net.cpp:100] Creating Layer relu3_1
I1001 23:10:42.137115  6400 net.cpp:434] relu3_1 <- conv3_1
I1001 23:10:42.137120  6400 net.cpp:395] relu3_1 -> conv3_1 (in-place)
I1001 23:10:42.137127  6400 net.cpp:150] Setting up relu3_1
I1001 23:10:42.137131  6400 net.cpp:157] Top shape: 15 256 75 75 (21600000)
I1001 23:10:42.137133  6400 net.cpp:165] Memory required for data: 2505600032
I1001 23:10:42.137135  6400 layer_factory.hpp:77] Creating layer conv3_2
I1001 23:10:42.137143  6400 net.cpp:100] Creating Layer conv3_2
I1001 23:10:42.137146  6400 net.cpp:434] conv3_2 <- conv3_1
I1001 23:10:42.137151  6400 net.cpp:408] conv3_2 -> conv3_2
I1001 23:10:42.140161  6400 net.cpp:150] Setting up conv3_2
I1001 23:10:42.140182  6400 net.cpp:157] Top shape: 15 256 75 75 (21600000)
I1001 23:10:42.140184  6400 net.cpp:165] Memory required for data: 2592000032
I1001 23:10:42.140190  6400 layer_factory.hpp:77] Creating layer relu3_2
I1001 23:10:42.140198  6400 net.cpp:100] Creating Layer relu3_2
I1001 23:10:42.140204  6400 net.cpp:434] relu3_2 <- conv3_2
I1001 23:10:42.140210  6400 net.cpp:395] relu3_2 -> conv3_2 (in-place)
I1001 23:10:42.140218  6400 net.cpp:150] Setting up relu3_2
I1001 23:10:42.140221  6400 net.cpp:157] Top shape: 15 256 75 75 (21600000)
I1001 23:10:42.140223  6400 net.cpp:165] Memory required for data: 2678400032
I1001 23:10:42.140240  6400 layer_factory.hpp:77] Creating layer conv3_3
I1001 23:10:42.140271  6400 net.cpp:100] Creating Layer conv3_3
I1001 23:10:42.140275  6400 net.cpp:434] conv3_3 <- conv3_2
I1001 23:10:42.140280  6400 net.cpp:408] conv3_3 -> conv3_3
I1001 23:10:42.144083  6400 net.cpp:150] Setting up conv3_3
I1001 23:10:42.144102  6400 net.cpp:157] Top shape: 15 256 75 75 (21600000)
I1001 23:10:42.144104  6400 net.cpp:165] Memory required for data: 2764800032
I1001 23:10:42.144121  6400 layer_factory.hpp:77] Creating layer relu3_3
I1001 23:10:42.144134  6400 net.cpp:100] Creating Layer relu3_3
I1001 23:10:42.144138  6400 net.cpp:434] relu3_3 <- conv3_3
I1001 23:10:42.144148  6400 net.cpp:395] relu3_3 -> conv3_3 (in-place)
I1001 23:10:42.144157  6400 net.cpp:150] Setting up relu3_3
I1001 23:10:42.144161  6400 net.cpp:157] Top shape: 15 256 75 75 (21600000)
I1001 23:10:42.144166  6400 net.cpp:165] Memory required for data: 2851200032
I1001 23:10:42.144171  6400 layer_factory.hpp:77] Creating layer pool3
I1001 23:10:42.144181  6400 net.cpp:100] Creating Layer pool3
I1001 23:10:42.144183  6400 net.cpp:434] pool3 <- conv3_3
I1001 23:10:42.144191  6400 net.cpp:408] pool3 -> pool3
I1001 23:10:42.144222  6400 net.cpp:150] Setting up pool3
I1001 23:10:42.144248  6400 net.cpp:157] Top shape: 15 256 38 38 (5544960)
I1001 23:10:42.144250  6400 net.cpp:165] Memory required for data: 2873379872
I1001 23:10:42.144253  6400 layer_factory.hpp:77] Creating layer conv4_1
I1001 23:10:42.144270  6400 net.cpp:100] Creating Layer conv4_1
I1001 23:10:42.144273  6400 net.cpp:434] conv4_1 <- pool3
I1001 23:10:42.144282  6400 net.cpp:408] conv4_1 -> conv4_1
I1001 23:10:42.151726  6400 net.cpp:150] Setting up conv4_1
I1001 23:10:42.151746  6400 net.cpp:157] Top shape: 15 512 38 38 (11089920)
I1001 23:10:42.151754  6400 net.cpp:165] Memory required for data: 2917739552
I1001 23:10:42.151762  6400 layer_factory.hpp:77] Creating layer relu4_1
I1001 23:10:42.151770  6400 net.cpp:100] Creating Layer relu4_1
I1001 23:10:42.151773  6400 net.cpp:434] relu4_1 <- conv4_1
I1001 23:10:42.151789  6400 net.cpp:395] relu4_1 -> conv4_1 (in-place)
I1001 23:10:42.151798  6400 net.cpp:150] Setting up relu4_1
I1001 23:10:42.151813  6400 net.cpp:157] Top shape: 15 512 38 38 (11089920)
I1001 23:10:42.151815  6400 net.cpp:165] Memory required for data: 2962099232
I1001 23:10:42.151818  6400 layer_factory.hpp:77] Creating layer conv4_2
I1001 23:10:42.151825  6400 net.cpp:100] Creating Layer conv4_2
I1001 23:10:42.151827  6400 net.cpp:434] conv4_2 <- conv4_1
I1001 23:10:42.151832  6400 net.cpp:408] conv4_2 -> conv4_2
I1001 23:10:42.163597  6400 net.cpp:150] Setting up conv4_2
I1001 23:10:42.163621  6400 net.cpp:157] Top shape: 15 512 38 38 (11089920)
I1001 23:10:42.163625  6400 net.cpp:165] Memory required for data: 3006458912
I1001 23:10:42.163635  6400 layer_factory.hpp:77] Creating layer relu4_2
I1001 23:10:42.163643  6400 net.cpp:100] Creating Layer relu4_2
I1001 23:10:42.163648  6400 net.cpp:434] relu4_2 <- conv4_2
I1001 23:10:42.163655  6400 net.cpp:395] relu4_2 -> conv4_2 (in-place)
I1001 23:10:42.163661  6400 net.cpp:150] Setting up relu4_2
I1001 23:10:42.163663  6400 net.cpp:157] Top shape: 15 512 38 38 (11089920)
I1001 23:10:42.163666  6400 net.cpp:165] Memory required for data: 3050818592
I1001 23:10:42.163667  6400 layer_factory.hpp:77] Creating layer conv4_3
I1001 23:10:42.163676  6400 net.cpp:100] Creating Layer conv4_3
I1001 23:10:42.163677  6400 net.cpp:434] conv4_3 <- conv4_2
I1001 23:10:42.163681  6400 net.cpp:408] conv4_3 -> conv4_3
I1001 23:10:42.175516  6400 net.cpp:150] Setting up conv4_3
I1001 23:10:42.175539  6400 net.cpp:157] Top shape: 15 512 38 38 (11089920)
I1001 23:10:42.175541  6400 net.cpp:165] Memory required for data: 3095178272
I1001 23:10:42.175549  6400 layer_factory.hpp:77] Creating layer relu4_3
I1001 23:10:42.175555  6400 net.cpp:100] Creating Layer relu4_3
I1001 23:10:42.175559  6400 net.cpp:434] relu4_3 <- conv4_3
I1001 23:10:42.175563  6400 net.cpp:395] relu4_3 -> conv4_3 (in-place)
I1001 23:10:42.175568  6400 net.cpp:150] Setting up relu4_3
I1001 23:10:42.175571  6400 net.cpp:157] Top shape: 15 512 38 38 (11089920)
I1001 23:10:42.175596  6400 net.cpp:165] Memory required for data: 3139537952
I1001 23:10:42.175598  6400 layer_factory.hpp:77] Creating layer conv4_3_relu4_3_0_split
I1001 23:10:42.175602  6400 net.cpp:100] Creating Layer conv4_3_relu4_3_0_split
I1001 23:10:42.175607  6400 net.cpp:434] conv4_3_relu4_3_0_split <- conv4_3
I1001 23:10:42.175611  6400 net.cpp:408] conv4_3_relu4_3_0_split -> conv4_3_relu4_3_0_split_0
I1001 23:10:42.175616  6400 net.cpp:408] conv4_3_relu4_3_0_split -> conv4_3_relu4_3_0_split_1
I1001 23:10:42.175654  6400 net.cpp:150] Setting up conv4_3_relu4_3_0_split
I1001 23:10:42.175658  6400 net.cpp:157] Top shape: 15 512 38 38 (11089920)
I1001 23:10:42.175662  6400 net.cpp:157] Top shape: 15 512 38 38 (11089920)
I1001 23:10:42.175663  6400 net.cpp:165] Memory required for data: 3228257312
I1001 23:10:42.175665  6400 layer_factory.hpp:77] Creating layer pool4
I1001 23:10:42.175669  6400 net.cpp:100] Creating Layer pool4
I1001 23:10:42.175671  6400 net.cpp:434] pool4 <- conv4_3_relu4_3_0_split_0
I1001 23:10:42.175674  6400 net.cpp:408] pool4 -> pool4
I1001 23:10:42.175698  6400 net.cpp:150] Setting up pool4
I1001 23:10:42.175703  6400 net.cpp:157] Top shape: 15 512 19 19 (2772480)
I1001 23:10:42.175704  6400 net.cpp:165] Memory required for data: 3239347232
I1001 23:10:42.175706  6400 layer_factory.hpp:77] Creating layer conv5_1
I1001 23:10:42.175714  6400 net.cpp:100] Creating Layer conv5_1
I1001 23:10:42.175715  6400 net.cpp:434] conv5_1 <- pool4
I1001 23:10:42.175719  6400 net.cpp:408] conv5_1 -> conv5_1
I1001 23:10:42.187508  6400 net.cpp:150] Setting up conv5_1
I1001 23:10:42.187539  6400 net.cpp:157] Top shape: 15 512 19 19 (2772480)
I1001 23:10:42.187541  6400 net.cpp:165] Memory required for data: 3250437152
I1001 23:10:42.187551  6400 layer_factory.hpp:77] Creating layer relu5_1
I1001 23:10:42.187561  6400 net.cpp:100] Creating Layer relu5_1
I1001 23:10:42.187564  6400 net.cpp:434] relu5_1 <- conv5_1
I1001 23:10:42.187573  6400 net.cpp:395] relu5_1 -> conv5_1 (in-place)
I1001 23:10:42.187582  6400 net.cpp:150] Setting up relu5_1
I1001 23:10:42.187583  6400 net.cpp:157] Top shape: 15 512 19 19 (2772480)
I1001 23:10:42.187585  6400 net.cpp:165] Memory required for data: 3261527072
I1001 23:10:42.187587  6400 layer_factory.hpp:77] Creating layer conv5_2
I1001 23:10:42.187597  6400 net.cpp:100] Creating Layer conv5_2
I1001 23:10:42.187599  6400 net.cpp:434] conv5_2 <- conv5_1
I1001 23:10:42.187603  6400 net.cpp:408] conv5_2 -> conv5_2
I1001 23:10:42.199563  6400 net.cpp:150] Setting up conv5_2
I1001 23:10:42.199585  6400 net.cpp:157] Top shape: 15 512 19 19 (2772480)
I1001 23:10:42.199587  6400 net.cpp:165] Memory required for data: 3272616992
I1001 23:10:42.199594  6400 layer_factory.hpp:77] Creating layer relu5_2
I1001 23:10:42.199604  6400 net.cpp:100] Creating Layer relu5_2
I1001 23:10:42.199609  6400 net.cpp:434] relu5_2 <- conv5_2
I1001 23:10:42.199614  6400 net.cpp:395] relu5_2 -> conv5_2 (in-place)
I1001 23:10:42.199620  6400 net.cpp:150] Setting up relu5_2
I1001 23:10:42.199622  6400 net.cpp:157] Top shape: 15 512 19 19 (2772480)
I1001 23:10:42.199625  6400 net.cpp:165] Memory required for data: 3283706912
I1001 23:10:42.199625  6400 layer_factory.hpp:77] Creating layer conv5_3
I1001 23:10:42.199633  6400 net.cpp:100] Creating Layer conv5_3
I1001 23:10:42.199635  6400 net.cpp:434] conv5_3 <- conv5_2
I1001 23:10:42.199638  6400 net.cpp:408] conv5_3 -> conv5_3
I1001 23:10:42.211417  6400 net.cpp:150] Setting up conv5_3
I1001 23:10:42.211439  6400 net.cpp:157] Top shape: 15 512 19 19 (2772480)
I1001 23:10:42.211441  6400 net.cpp:165] Memory required for data: 3294796832
I1001 23:10:42.211448  6400 layer_factory.hpp:77] Creating layer relu5_3
I1001 23:10:42.211458  6400 net.cpp:100] Creating Layer relu5_3
I1001 23:10:42.211462  6400 net.cpp:434] relu5_3 <- conv5_3
I1001 23:10:42.211467  6400 net.cpp:395] relu5_3 -> conv5_3 (in-place)
I1001 23:10:42.211472  6400 net.cpp:150] Setting up relu5_3
I1001 23:10:42.211475  6400 net.cpp:157] Top shape: 15 512 19 19 (2772480)
I1001 23:10:42.211503  6400 net.cpp:165] Memory required for data: 3305886752
I1001 23:10:42.211505  6400 layer_factory.hpp:77] Creating layer pool5
I1001 23:10:42.211511  6400 net.cpp:100] Creating Layer pool5
I1001 23:10:42.211513  6400 net.cpp:434] pool5 <- conv5_3
I1001 23:10:42.211516  6400 net.cpp:408] pool5 -> pool5
I1001 23:10:42.211544  6400 net.cpp:150] Setting up pool5
I1001 23:10:42.211547  6400 net.cpp:157] Top shape: 15 512 19 19 (2772480)
I1001 23:10:42.211549  6400 net.cpp:165] Memory required for data: 3316976672
I1001 23:10:42.211550  6400 layer_factory.hpp:77] Creating layer fc6
I1001 23:10:42.211558  6400 net.cpp:100] Creating Layer fc6
I1001 23:10:42.211560  6400 net.cpp:434] fc6 <- pool5
I1001 23:10:42.211565  6400 net.cpp:408] fc6 -> fc6
I1001 23:10:42.234167  6400 net.cpp:150] Setting up fc6
I1001 23:10:42.234190  6400 net.cpp:157] Top shape: 15 1024 19 19 (5544960)
I1001 23:10:42.234194  6400 net.cpp:165] Memory required for data: 3339156512
I1001 23:10:42.234200  6400 layer_factory.hpp:77] Creating layer relu6
I1001 23:10:42.234207  6400 net.cpp:100] Creating Layer relu6
I1001 23:10:42.234210  6400 net.cpp:434] relu6 <- fc6
I1001 23:10:42.234215  6400 net.cpp:395] relu6 -> fc6 (in-place)
I1001 23:10:42.234221  6400 net.cpp:150] Setting up relu6
I1001 23:10:42.234225  6400 net.cpp:157] Top shape: 15 1024 19 19 (5544960)
I1001 23:10:42.234226  6400 net.cpp:165] Memory required for data: 3361336352
I1001 23:10:42.234227  6400 layer_factory.hpp:77] Creating layer fc7
I1001 23:10:42.234233  6400 net.cpp:100] Creating Layer fc7
I1001 23:10:42.234236  6400 net.cpp:434] fc7 <- fc6
I1001 23:10:42.234241  6400 net.cpp:408] fc7 -> fc7
I1001 23:10:42.239488  6400 net.cpp:150] Setting up fc7
I1001 23:10:42.239513  6400 net.cpp:157] Top shape: 15 1024 19 19 (5544960)
I1001 23:10:42.239516  6400 net.cpp:165] Memory required for data: 3383516192
I1001 23:10:42.239522  6400 layer_factory.hpp:77] Creating layer relu7
I1001 23:10:42.239531  6400 net.cpp:100] Creating Layer relu7
I1001 23:10:42.239534  6400 net.cpp:434] relu7 <- fc7
I1001 23:10:42.239538  6400 net.cpp:395] relu7 -> fc7 (in-place)
I1001 23:10:42.239544  6400 net.cpp:150] Setting up relu7
I1001 23:10:42.239547  6400 net.cpp:157] Top shape: 15 1024 19 19 (5544960)
I1001 23:10:42.239549  6400 net.cpp:165] Memory required for data: 3405696032
I1001 23:10:42.239550  6400 layer_factory.hpp:77] Creating layer fc7_relu7_0_split
I1001 23:10:42.239555  6400 net.cpp:100] Creating Layer fc7_relu7_0_split
I1001 23:10:42.239557  6400 net.cpp:434] fc7_relu7_0_split <- fc7
I1001 23:10:42.239562  6400 net.cpp:408] fc7_relu7_0_split -> fc7_relu7_0_split_0
I1001 23:10:42.239565  6400 net.cpp:408] fc7_relu7_0_split -> fc7_relu7_0_split_1
I1001 23:10:42.239572  6400 net.cpp:408] fc7_relu7_0_split -> fc7_relu7_0_split_2
I1001 23:10:42.239575  6400 net.cpp:408] fc7_relu7_0_split -> fc7_relu7_0_split_3
I1001 23:10:42.239624  6400 net.cpp:150] Setting up fc7_relu7_0_split
I1001 23:10:42.239629  6400 net.cpp:157] Top shape: 15 1024 19 19 (5544960)
I1001 23:10:42.239631  6400 net.cpp:157] Top shape: 15 1024 19 19 (5544960)
I1001 23:10:42.239634  6400 net.cpp:157] Top shape: 15 1024 19 19 (5544960)
I1001 23:10:42.239635  6400 net.cpp:157] Top shape: 15 1024 19 19 (5544960)
I1001 23:10:42.239637  6400 net.cpp:165] Memory required for data: 3494415392
I1001 23:10:42.239639  6400 layer_factory.hpp:77] Creating layer conv6_1
I1001 23:10:42.239647  6400 net.cpp:100] Creating Layer conv6_1
I1001 23:10:42.239650  6400 net.cpp:434] conv6_1 <- fc7_relu7_0_split_0
I1001 23:10:42.239655  6400 net.cpp:408] conv6_1 -> conv6_1
I1001 23:10:42.241524  6400 net.cpp:150] Setting up conv6_1
I1001 23:10:42.241538  6400 net.cpp:157] Top shape: 15 256 19 19 (1386240)
I1001 23:10:42.241539  6400 net.cpp:165] Memory required for data: 3499960352
I1001 23:10:42.241545  6400 layer_factory.hpp:77] Creating layer conv6_1_relu
I1001 23:10:42.241552  6400 net.cpp:100] Creating Layer conv6_1_relu
I1001 23:10:42.241555  6400 net.cpp:434] conv6_1_relu <- conv6_1
I1001 23:10:42.241559  6400 net.cpp:395] conv6_1_relu -> conv6_1 (in-place)
I1001 23:10:42.241580  6400 net.cpp:150] Setting up conv6_1_relu
I1001 23:10:42.241583  6400 net.cpp:157] Top shape: 15 256 19 19 (1386240)
I1001 23:10:42.241585  6400 net.cpp:165] Memory required for data: 3505505312
I1001 23:10:42.241587  6400 layer_factory.hpp:77] Creating layer conv6_2
I1001 23:10:42.241595  6400 net.cpp:100] Creating Layer conv6_2
I1001 23:10:42.241597  6400 net.cpp:434] conv6_2 <- conv6_1
I1001 23:10:42.241601  6400 net.cpp:408] conv6_2 -> conv6_2
I1001 23:10:42.247527  6400 net.cpp:150] Setting up conv6_2
I1001 23:10:42.247551  6400 net.cpp:157] Top shape: 15 512 10 10 (768000)
I1001 23:10:42.247553  6400 net.cpp:165] Memory required for data: 3508577312
I1001 23:10:42.247566  6400 layer_factory.hpp:77] Creating layer conv6_2_relu
I1001 23:10:42.247573  6400 net.cpp:100] Creating Layer conv6_2_relu
I1001 23:10:42.247577  6400 net.cpp:434] conv6_2_relu <- conv6_2
I1001 23:10:42.247582  6400 net.cpp:395] conv6_2_relu -> conv6_2 (in-place)
I1001 23:10:42.247588  6400 net.cpp:150] Setting up conv6_2_relu
I1001 23:10:42.247591  6400 net.cpp:157] Top shape: 15 512 10 10 (768000)
I1001 23:10:42.247592  6400 net.cpp:165] Memory required for data: 3511649312
I1001 23:10:42.247594  6400 layer_factory.hpp:77] Creating layer conv6_2_conv6_2_relu_0_split
I1001 23:10:42.247598  6400 net.cpp:100] Creating Layer conv6_2_conv6_2_relu_0_split
I1001 23:10:42.247601  6400 net.cpp:434] conv6_2_conv6_2_relu_0_split <- conv6_2
I1001 23:10:42.247606  6400 net.cpp:408] conv6_2_conv6_2_relu_0_split -> conv6_2_conv6_2_relu_0_split_0
I1001 23:10:42.247611  6400 net.cpp:408] conv6_2_conv6_2_relu_0_split -> conv6_2_conv6_2_relu_0_split_1
I1001 23:10:42.247613  6400 net.cpp:408] conv6_2_conv6_2_relu_0_split -> conv6_2_conv6_2_relu_0_split_2
I1001 23:10:42.247617  6400 net.cpp:408] conv6_2_conv6_2_relu_0_split -> conv6_2_conv6_2_relu_0_split_3
I1001 23:10:42.247663  6400 net.cpp:150] Setting up conv6_2_conv6_2_relu_0_split
I1001 23:10:42.247665  6400 net.cpp:157] Top shape: 15 512 10 10 (768000)
I1001 23:10:42.247668  6400 net.cpp:157] Top shape: 15 512 10 10 (768000)
I1001 23:10:42.247670  6400 net.cpp:157] Top shape: 15 512 10 10 (768000)
I1001 23:10:42.247673  6400 net.cpp:157] Top shape: 15 512 10 10 (768000)
I1001 23:10:42.247674  6400 net.cpp:165] Memory required for data: 3523937312
I1001 23:10:42.247676  6400 layer_factory.hpp:77] Creating layer conv7_1
I1001 23:10:42.247684  6400 net.cpp:100] Creating Layer conv7_1
I1001 23:10:42.247686  6400 net.cpp:434] conv7_1 <- conv6_2_conv6_2_relu_0_split_0
I1001 23:10:42.247691  6400 net.cpp:408] conv7_1 -> conv7_1
I1001 23:10:42.248086  6400 net.cpp:150] Setting up conv7_1
I1001 23:10:42.248090  6400 net.cpp:157] Top shape: 15 128 10 10 (192000)
I1001 23:10:42.248092  6400 net.cpp:165] Memory required for data: 3524705312
I1001 23:10:42.248095  6400 layer_factory.hpp:77] Creating layer conv7_1_relu
I1001 23:10:42.248098  6400 net.cpp:100] Creating Layer conv7_1_relu
I1001 23:10:42.248100  6400 net.cpp:434] conv7_1_relu <- conv7_1
I1001 23:10:42.248105  6400 net.cpp:395] conv7_1_relu -> conv7_1 (in-place)
I1001 23:10:42.248108  6400 net.cpp:150] Setting up conv7_1_relu
I1001 23:10:42.248111  6400 net.cpp:157] Top shape: 15 128 10 10 (192000)
I1001 23:10:42.248112  6400 net.cpp:165] Memory required for data: 3525473312
I1001 23:10:42.248114  6400 layer_factory.hpp:77] Creating layer conv7_2
I1001 23:10:42.248118  6400 net.cpp:100] Creating Layer conv7_2
I1001 23:10:42.248121  6400 net.cpp:434] conv7_2 <- conv7_1
I1001 23:10:42.248124  6400 net.cpp:408] conv7_2 -> conv7_2
I1001 23:10:42.250166  6400 net.cpp:150] Setting up conv7_2
I1001 23:10:42.250180  6400 net.cpp:157] Top shape: 15 256 5 5 (96000)
I1001 23:10:42.250182  6400 net.cpp:165] Memory required for data: 3525857312
I1001 23:10:42.250188  6400 layer_factory.hpp:77] Creating layer conv7_2_relu
I1001 23:10:42.250195  6400 net.cpp:100] Creating Layer conv7_2_relu
I1001 23:10:42.250198  6400 net.cpp:434] conv7_2_relu <- conv7_2
I1001 23:10:42.250202  6400 net.cpp:395] conv7_2_relu -> conv7_2 (in-place)
I1001 23:10:42.250223  6400 net.cpp:150] Setting up conv7_2_relu
I1001 23:10:42.250226  6400 net.cpp:157] Top shape: 15 256 5 5 (96000)
I1001 23:10:42.250228  6400 net.cpp:165] Memory required for data: 3526241312
I1001 23:10:42.250231  6400 layer_factory.hpp:77] Creating layer conv7_2_conv7_2_relu_0_split
I1001 23:10:42.250236  6400 net.cpp:100] Creating Layer conv7_2_conv7_2_relu_0_split
I1001 23:10:42.250237  6400 net.cpp:434] conv7_2_conv7_2_relu_0_split <- conv7_2
I1001 23:10:42.250241  6400 net.cpp:408] conv7_2_conv7_2_relu_0_split -> conv7_2_conv7_2_relu_0_split_0
I1001 23:10:42.250246  6400 net.cpp:408] conv7_2_conv7_2_relu_0_split -> conv7_2_conv7_2_relu_0_split_1
I1001 23:10:42.250249  6400 net.cpp:408] conv7_2_conv7_2_relu_0_split -> conv7_2_conv7_2_relu_0_split_2
I1001 23:10:42.250254  6400 net.cpp:408] conv7_2_conv7_2_relu_0_split -> conv7_2_conv7_2_relu_0_split_3
I1001 23:10:42.250298  6400 net.cpp:150] Setting up conv7_2_conv7_2_relu_0_split
I1001 23:10:42.250301  6400 net.cpp:157] Top shape: 15 256 5 5 (96000)
I1001 23:10:42.250304  6400 net.cpp:157] Top shape: 15 256 5 5 (96000)
I1001 23:10:42.250306  6400 net.cpp:157] Top shape: 15 256 5 5 (96000)
I1001 23:10:42.250308  6400 net.cpp:157] Top shape: 15 256 5 5 (96000)
I1001 23:10:42.250310  6400 net.cpp:165] Memory required for data: 3527777312
I1001 23:10:42.250313  6400 layer_factory.hpp:77] Creating layer conv8_1
I1001 23:10:42.250319  6400 net.cpp:100] Creating Layer conv8_1
I1001 23:10:42.250321  6400 net.cpp:434] conv8_1 <- conv7_2_conv7_2_relu_0_split_0
I1001 23:10:42.250326  6400 net.cpp:408] conv8_1 -> conv8_1
I1001 23:10:42.250605  6400 net.cpp:150] Setting up conv8_1
I1001 23:10:42.250609  6400 net.cpp:157] Top shape: 15 128 5 5 (48000)
I1001 23:10:42.250612  6400 net.cpp:165] Memory required for data: 3527969312
I1001 23:10:42.250614  6400 layer_factory.hpp:77] Creating layer conv8_1_relu
I1001 23:10:42.250617  6400 net.cpp:100] Creating Layer conv8_1_relu
I1001 23:10:42.250619  6400 net.cpp:434] conv8_1_relu <- conv8_1
I1001 23:10:42.250622  6400 net.cpp:395] conv8_1_relu -> conv8_1 (in-place)
I1001 23:10:42.250625  6400 net.cpp:150] Setting up conv8_1_relu
I1001 23:10:42.250628  6400 net.cpp:157] Top shape: 15 128 5 5 (48000)
I1001 23:10:42.250630  6400 net.cpp:165] Memory required for data: 3528161312
I1001 23:10:42.250632  6400 layer_factory.hpp:77] Creating layer conv8_2
I1001 23:10:42.250638  6400 net.cpp:100] Creating Layer conv8_2
I1001 23:10:42.250640  6400 net.cpp:434] conv8_2 <- conv8_1
I1001 23:10:42.250643  6400 net.cpp:408] conv8_2 -> conv8_2
I1001 23:10:42.252674  6400 net.cpp:150] Setting up conv8_2
I1001 23:10:42.252691  6400 net.cpp:157] Top shape: 15 256 3 3 (34560)
I1001 23:10:42.252693  6400 net.cpp:165] Memory required for data: 3528299552
I1001 23:10:42.252701  6400 layer_factory.hpp:77] Creating layer conv8_2_relu
I1001 23:10:42.252707  6400 net.cpp:100] Creating Layer conv8_2_relu
I1001 23:10:42.252712  6400 net.cpp:434] conv8_2_relu <- conv8_2
I1001 23:10:42.252717  6400 net.cpp:395] conv8_2_relu -> conv8_2 (in-place)
I1001 23:10:42.252722  6400 net.cpp:150] Setting up conv8_2_relu
I1001 23:10:42.252724  6400 net.cpp:157] Top shape: 15 256 3 3 (34560)
I1001 23:10:42.252727  6400 net.cpp:165] Memory required for data: 3528437792
I1001 23:10:42.252728  6400 layer_factory.hpp:77] Creating layer conv8_2_conv8_2_relu_0_split
I1001 23:10:42.252733  6400 net.cpp:100] Creating Layer conv8_2_conv8_2_relu_0_split
I1001 23:10:42.252735  6400 net.cpp:434] conv8_2_conv8_2_relu_0_split <- conv8_2
I1001 23:10:42.252738  6400 net.cpp:408] conv8_2_conv8_2_relu_0_split -> conv8_2_conv8_2_relu_0_split_0
I1001 23:10:42.252743  6400 net.cpp:408] conv8_2_conv8_2_relu_0_split -> conv8_2_conv8_2_relu_0_split_1
I1001 23:10:42.252748  6400 net.cpp:408] conv8_2_conv8_2_relu_0_split -> conv8_2_conv8_2_relu_0_split_2
I1001 23:10:42.252750  6400 net.cpp:408] conv8_2_conv8_2_relu_0_split -> conv8_2_conv8_2_relu_0_split_3
I1001 23:10:42.252795  6400 net.cpp:150] Setting up conv8_2_conv8_2_relu_0_split
I1001 23:10:42.252799  6400 net.cpp:157] Top shape: 15 256 3 3 (34560)
I1001 23:10:42.252821  6400 net.cpp:157] Top shape: 15 256 3 3 (34560)
I1001 23:10:42.252825  6400 net.cpp:157] Top shape: 15 256 3 3 (34560)
I1001 23:10:42.252827  6400 net.cpp:157] Top shape: 15 256 3 3 (34560)
I1001 23:10:42.252828  6400 net.cpp:165] Memory required for data: 3528990752
I1001 23:10:42.252830  6400 layer_factory.hpp:77] Creating layer conv9_1
I1001 23:10:42.252838  6400 net.cpp:100] Creating Layer conv9_1
I1001 23:10:42.252841  6400 net.cpp:434] conv9_1 <- conv8_2_conv8_2_relu_0_split_0
I1001 23:10:42.252846  6400 net.cpp:408] conv9_1 -> conv9_1
I1001 23:10:42.253127  6400 net.cpp:150] Setting up conv9_1
I1001 23:10:42.253131  6400 net.cpp:157] Top shape: 15 128 3 3 (17280)
I1001 23:10:42.253134  6400 net.cpp:165] Memory required for data: 3529059872
I1001 23:10:42.253137  6400 layer_factory.hpp:77] Creating layer conv9_1_relu
I1001 23:10:42.253140  6400 net.cpp:100] Creating Layer conv9_1_relu
I1001 23:10:42.253142  6400 net.cpp:434] conv9_1_relu <- conv9_1
I1001 23:10:42.253145  6400 net.cpp:395] conv9_1_relu -> conv9_1 (in-place)
I1001 23:10:42.253151  6400 net.cpp:150] Setting up conv9_1_relu
I1001 23:10:42.253154  6400 net.cpp:157] Top shape: 15 128 3 3 (17280)
I1001 23:10:42.253155  6400 net.cpp:165] Memory required for data: 3529128992
I1001 23:10:42.253157  6400 layer_factory.hpp:77] Creating layer conv9_2
I1001 23:10:42.253161  6400 net.cpp:100] Creating Layer conv9_2
I1001 23:10:42.253163  6400 net.cpp:434] conv9_2 <- conv9_1
I1001 23:10:42.253175  6400 net.cpp:408] conv9_2 -> conv9_2
I1001 23:10:42.255132  6400 net.cpp:150] Setting up conv9_2
I1001 23:10:42.255147  6400 net.cpp:157] Top shape: 15 256 1 1 (3840)
I1001 23:10:42.255149  6400 net.cpp:165] Memory required for data: 3529144352
I1001 23:10:42.255156  6400 layer_factory.hpp:77] Creating layer conv9_2_relu
I1001 23:10:42.255162  6400 net.cpp:100] Creating Layer conv9_2_relu
I1001 23:10:42.255167  6400 net.cpp:434] conv9_2_relu <- conv9_2
I1001 23:10:42.255170  6400 net.cpp:395] conv9_2_relu -> conv9_2 (in-place)
I1001 23:10:42.255175  6400 net.cpp:150] Setting up conv9_2_relu
I1001 23:10:42.255178  6400 net.cpp:157] Top shape: 15 256 1 1 (3840)
I1001 23:10:42.255180  6400 net.cpp:165] Memory required for data: 3529159712
I1001 23:10:42.255182  6400 layer_factory.hpp:77] Creating layer conv9_2_conv9_2_relu_0_split
I1001 23:10:42.255187  6400 net.cpp:100] Creating Layer conv9_2_conv9_2_relu_0_split
I1001 23:10:42.255188  6400 net.cpp:434] conv9_2_conv9_2_relu_0_split <- conv9_2
I1001 23:10:42.255192  6400 net.cpp:408] conv9_2_conv9_2_relu_0_split -> conv9_2_conv9_2_relu_0_split_0
I1001 23:10:42.255197  6400 net.cpp:408] conv9_2_conv9_2_relu_0_split -> conv9_2_conv9_2_relu_0_split_1
I1001 23:10:42.255200  6400 net.cpp:408] conv9_2_conv9_2_relu_0_split -> conv9_2_conv9_2_relu_0_split_2
I1001 23:10:42.255234  6400 net.cpp:150] Setting up conv9_2_conv9_2_relu_0_split
I1001 23:10:42.255237  6400 net.cpp:157] Top shape: 15 256 1 1 (3840)
I1001 23:10:42.255240  6400 net.cpp:157] Top shape: 15 256 1 1 (3840)
I1001 23:10:42.255242  6400 net.cpp:157] Top shape: 15 256 1 1 (3840)
I1001 23:10:42.255244  6400 net.cpp:165] Memory required for data: 3529205792
I1001 23:10:42.255246  6400 layer_factory.hpp:77] Creating layer conv4_3_norm
I1001 23:10:42.255254  6400 net.cpp:100] Creating Layer conv4_3_norm
I1001 23:10:42.255256  6400 net.cpp:434] conv4_3_norm <- conv4_3_relu4_3_0_split_1
I1001 23:10:42.255260  6400 net.cpp:408] conv4_3_norm -> conv4_3_norm
I1001 23:10:42.255370  6400 net.cpp:150] Setting up conv4_3_norm
I1001 23:10:42.255374  6400 net.cpp:157] Top shape: 15 512 38 38 (11089920)
I1001 23:10:42.255376  6400 net.cpp:165] Memory required for data: 3573565472
I1001 23:10:42.255379  6400 layer_factory.hpp:77] Creating layer conv4_3_norm_conv4_3_norm_0_split
I1001 23:10:42.255383  6400 net.cpp:100] Creating Layer conv4_3_norm_conv4_3_norm_0_split
I1001 23:10:42.255386  6400 net.cpp:434] conv4_3_norm_conv4_3_norm_0_split <- conv4_3_norm
I1001 23:10:42.255389  6400 net.cpp:408] conv4_3_norm_conv4_3_norm_0_split -> conv4_3_norm_conv4_3_norm_0_split_0
I1001 23:10:42.255405  6400 net.cpp:408] conv4_3_norm_conv4_3_norm_0_split -> conv4_3_norm_conv4_3_norm_0_split_1
I1001 23:10:42.255409  6400 net.cpp:408] conv4_3_norm_conv4_3_norm_0_split -> conv4_3_norm_conv4_3_norm_0_split_2
I1001 23:10:42.255440  6400 net.cpp:150] Setting up conv4_3_norm_conv4_3_norm_0_split
I1001 23:10:42.255443  6400 net.cpp:157] Top shape: 15 512 38 38 (11089920)
I1001 23:10:42.255446  6400 net.cpp:157] Top shape: 15 512 38 38 (11089920)
I1001 23:10:42.255448  6400 net.cpp:157] Top shape: 15 512 38 38 (11089920)
I1001 23:10:42.255450  6400 net.cpp:165] Memory required for data: 3706644512
I1001 23:10:42.255452  6400 layer_factory.hpp:77] Creating layer conv4_3_norm_mbox_loc
I1001 23:10:42.255460  6400 net.cpp:100] Creating Layer conv4_3_norm_mbox_loc
I1001 23:10:42.255461  6400 net.cpp:434] conv4_3_norm_mbox_loc <- conv4_3_norm_conv4_3_norm_0_split_0
I1001 23:10:42.255465  6400 net.cpp:408] conv4_3_norm_mbox_loc -> conv4_3_norm_mbox_loc
I1001 23:10:42.255905  6400 net.cpp:150] Setting up conv4_3_norm_mbox_loc
I1001 23:10:42.255910  6400 net.cpp:157] Top shape: 15 16 38 38 (346560)
I1001 23:10:42.255913  6400 net.cpp:165] Memory required for data: 3708030752
I1001 23:10:42.255921  6400 layer_factory.hpp:77] Creating layer conv4_3_norm_mbox_loc_perm
I1001 23:10:42.255928  6400 net.cpp:100] Creating Layer conv4_3_norm_mbox_loc_perm
I1001 23:10:42.255930  6400 net.cpp:434] conv4_3_norm_mbox_loc_perm <- conv4_3_norm_mbox_loc
I1001 23:10:42.255934  6400 net.cpp:408] conv4_3_norm_mbox_loc_perm -> conv4_3_norm_mbox_loc_perm
I1001 23:10:42.256021  6400 net.cpp:150] Setting up conv4_3_norm_mbox_loc_perm
I1001 23:10:42.256026  6400 net.cpp:157] Top shape: 15 38 38 16 (346560)
I1001 23:10:42.256031  6400 net.cpp:165] Memory required for data: 3709416992
I1001 23:10:42.256034  6400 layer_factory.hpp:77] Creating layer conv4_3_norm_mbox_loc_flat
I1001 23:10:42.256039  6400 net.cpp:100] Creating Layer conv4_3_norm_mbox_loc_flat
I1001 23:10:42.256045  6400 net.cpp:434] conv4_3_norm_mbox_loc_flat <- conv4_3_norm_mbox_loc_perm
I1001 23:10:42.256063  6400 net.cpp:408] conv4_3_norm_mbox_loc_flat -> conv4_3_norm_mbox_loc_flat
I1001 23:10:42.256088  6400 net.cpp:150] Setting up conv4_3_norm_mbox_loc_flat
I1001 23:10:42.256093  6400 net.cpp:157] Top shape: 15 23104 (346560)
I1001 23:10:42.256100  6400 net.cpp:165] Memory required for data: 3710803232
I1001 23:10:42.256103  6400 layer_factory.hpp:77] Creating layer conv4_3_norm_mbox_conf
I1001 23:10:42.256129  6400 net.cpp:100] Creating Layer conv4_3_norm_mbox_conf
I1001 23:10:42.256132  6400 net.cpp:434] conv4_3_norm_mbox_conf <- conv4_3_norm_conv4_3_norm_0_split_1
I1001 23:10:42.256137  6400 net.cpp:408] conv4_3_norm_mbox_conf -> conv4_3_norm_mbox_conf
I1001 23:10:42.256522  6400 net.cpp:150] Setting up conv4_3_norm_mbox_conf
I1001 23:10:42.256528  6400 net.cpp:157] Top shape: 15 12 38 38 (259920)
I1001 23:10:42.256534  6400 net.cpp:165] Memory required for data: 3711842912
I1001 23:10:42.256538  6400 layer_factory.hpp:77] Creating layer conv4_3_norm_mbox_conf_perm
I1001 23:10:42.256543  6400 net.cpp:100] Creating Layer conv4_3_norm_mbox_conf_perm
I1001 23:10:42.256546  6400 net.cpp:434] conv4_3_norm_mbox_conf_perm <- conv4_3_norm_mbox_conf
I1001 23:10:42.256552  6400 net.cpp:408] conv4_3_norm_mbox_conf_perm -> conv4_3_norm_mbox_conf_perm
I1001 23:10:42.256623  6400 net.cpp:150] Setting up conv4_3_norm_mbox_conf_perm
I1001 23:10:42.256628  6400 net.cpp:157] Top shape: 15 38 38 12 (259920)
I1001 23:10:42.256633  6400 net.cpp:165] Memory required for data: 3712882592
I1001 23:10:42.256635  6400 layer_factory.hpp:77] Creating layer conv4_3_norm_mbox_conf_flat
I1001 23:10:42.256640  6400 net.cpp:100] Creating Layer conv4_3_norm_mbox_conf_flat
I1001 23:10:42.256642  6400 net.cpp:434] conv4_3_norm_mbox_conf_flat <- conv4_3_norm_mbox_conf_perm
I1001 23:10:42.256649  6400 net.cpp:408] conv4_3_norm_mbox_conf_flat -> conv4_3_norm_mbox_conf_flat
I1001 23:10:42.256667  6400 net.cpp:150] Setting up conv4_3_norm_mbox_conf_flat
I1001 23:10:42.256683  6400 net.cpp:157] Top shape: 15 17328 (259920)
I1001 23:10:42.256685  6400 net.cpp:165] Memory required for data: 3713922272
I1001 23:10:42.256687  6400 layer_factory.hpp:77] Creating layer conv4_3_norm_mbox_priorbox
I1001 23:10:42.256696  6400 net.cpp:100] Creating Layer conv4_3_norm_mbox_priorbox
I1001 23:10:42.256700  6400 net.cpp:434] conv4_3_norm_mbox_priorbox <- conv4_3_norm_conv4_3_norm_0_split_2
I1001 23:10:42.256702  6400 net.cpp:434] conv4_3_norm_mbox_priorbox <- data_data_0_split_1
I1001 23:10:42.256706  6400 net.cpp:408] conv4_3_norm_mbox_priorbox -> conv4_3_norm_mbox_priorbox
I1001 23:10:42.256732  6400 net.cpp:150] Setting up conv4_3_norm_mbox_priorbox
I1001 23:10:42.256736  6400 net.cpp:157] Top shape: 1 2 23104 (46208)
I1001 23:10:42.256738  6400 net.cpp:165] Memory required for data: 3714107104
I1001 23:10:42.256741  6400 layer_factory.hpp:77] Creating layer fc7_mbox_loc
I1001 23:10:42.256749  6400 net.cpp:100] Creating Layer fc7_mbox_loc
I1001 23:10:42.256752  6400 net.cpp:434] fc7_mbox_loc <- fc7_relu7_0_split_1
I1001 23:10:42.256760  6400 net.cpp:408] fc7_mbox_loc -> fc7_mbox_loc
I1001 23:10:42.257720  6400 net.cpp:150] Setting up fc7_mbox_loc
I1001 23:10:42.257726  6400 net.cpp:157] Top shape: 15 24 19 19 (129960)
I1001 23:10:42.257728  6400 net.cpp:165] Memory required for data: 3714626944
I1001 23:10:42.257731  6400 layer_factory.hpp:77] Creating layer fc7_mbox_loc_perm
I1001 23:10:42.257735  6400 net.cpp:100] Creating Layer fc7_mbox_loc_perm
I1001 23:10:42.257738  6400 net.cpp:434] fc7_mbox_loc_perm <- fc7_mbox_loc
I1001 23:10:42.257746  6400 net.cpp:408] fc7_mbox_loc_perm -> fc7_mbox_loc_perm
I1001 23:10:42.257817  6400 net.cpp:150] Setting up fc7_mbox_loc_perm
I1001 23:10:42.257822  6400 net.cpp:157] Top shape: 15 19 19 24 (129960)
I1001 23:10:42.257827  6400 net.cpp:165] Memory required for data: 3715146784
I1001 23:10:42.257846  6400 layer_factory.hpp:77] Creating layer fc7_mbox_loc_flat
I1001 23:10:42.257849  6400 net.cpp:100] Creating Layer fc7_mbox_loc_flat
I1001 23:10:42.257853  6400 net.cpp:434] fc7_mbox_loc_flat <- fc7_mbox_loc_perm
I1001 23:10:42.257855  6400 net.cpp:408] fc7_mbox_loc_flat -> fc7_mbox_loc_flat
I1001 23:10:42.257876  6400 net.cpp:150] Setting up fc7_mbox_loc_flat
I1001 23:10:42.257884  6400 net.cpp:157] Top shape: 15 8664 (129960)
I1001 23:10:42.257885  6400 net.cpp:165] Memory required for data: 3715666624
I1001 23:10:42.257886  6400 layer_factory.hpp:77] Creating layer fc7_mbox_conf
I1001 23:10:42.257891  6400 net.cpp:100] Creating Layer fc7_mbox_conf
I1001 23:10:42.257894  6400 net.cpp:434] fc7_mbox_conf <- fc7_relu7_0_split_2
I1001 23:10:42.257905  6400 net.cpp:408] fc7_mbox_conf -> fc7_mbox_conf
I1001 23:10:42.258677  6400 net.cpp:150] Setting up fc7_mbox_conf
I1001 23:10:42.258682  6400 net.cpp:157] Top shape: 15 18 19 19 (97470)
I1001 23:10:42.258684  6400 net.cpp:165] Memory required for data: 3716056504
I1001 23:10:42.258687  6400 layer_factory.hpp:77] Creating layer fc7_mbox_conf_perm
I1001 23:10:42.258692  6400 net.cpp:100] Creating Layer fc7_mbox_conf_perm
I1001 23:10:42.258695  6400 net.cpp:434] fc7_mbox_conf_perm <- fc7_mbox_conf
I1001 23:10:42.258703  6400 net.cpp:408] fc7_mbox_conf_perm -> fc7_mbox_conf_perm
I1001 23:10:42.258774  6400 net.cpp:150] Setting up fc7_mbox_conf_perm
I1001 23:10:42.258779  6400 net.cpp:157] Top shape: 15 19 19 18 (97470)
I1001 23:10:42.258785  6400 net.cpp:165] Memory required for data: 3716446384
I1001 23:10:42.258786  6400 layer_factory.hpp:77] Creating layer fc7_mbox_conf_flat
I1001 23:10:42.258790  6400 net.cpp:100] Creating Layer fc7_mbox_conf_flat
I1001 23:10:42.258793  6400 net.cpp:434] fc7_mbox_conf_flat <- fc7_mbox_conf_perm
I1001 23:10:42.258796  6400 net.cpp:408] fc7_mbox_conf_flat -> fc7_mbox_conf_flat
I1001 23:10:42.258814  6400 net.cpp:150] Setting up fc7_mbox_conf_flat
I1001 23:10:42.258821  6400 net.cpp:157] Top shape: 15 6498 (97470)
I1001 23:10:42.258823  6400 net.cpp:165] Memory required for data: 3716836264
I1001 23:10:42.258826  6400 layer_factory.hpp:77] Creating layer fc7_mbox_priorbox
I1001 23:10:42.258843  6400 net.cpp:100] Creating Layer fc7_mbox_priorbox
I1001 23:10:42.258846  6400 net.cpp:434] fc7_mbox_priorbox <- fc7_relu7_0_split_3
I1001 23:10:42.258849  6400 net.cpp:434] fc7_mbox_priorbox <- data_data_0_split_2
I1001 23:10:42.258857  6400 net.cpp:408] fc7_mbox_priorbox -> fc7_mbox_priorbox
I1001 23:10:42.258880  6400 net.cpp:150] Setting up fc7_mbox_priorbox
I1001 23:10:42.258884  6400 net.cpp:157] Top shape: 1 2 8664 (17328)
I1001 23:10:42.258886  6400 net.cpp:165] Memory required for data: 3716905576
I1001 23:10:42.258891  6400 layer_factory.hpp:77] Creating layer conv6_2_mbox_loc
I1001 23:10:42.258898  6400 net.cpp:100] Creating Layer conv6_2_mbox_loc
I1001 23:10:42.258899  6400 net.cpp:434] conv6_2_mbox_loc <- conv6_2_conv6_2_relu_0_split_1
I1001 23:10:42.258906  6400 net.cpp:408] conv6_2_mbox_loc -> conv6_2_mbox_loc
I1001 23:10:42.259471  6400 net.cpp:150] Setting up conv6_2_mbox_loc
I1001 23:10:42.259477  6400 net.cpp:157] Top shape: 15 24 10 10 (36000)
I1001 23:10:42.259485  6400 net.cpp:165] Memory required for data: 3717049576
I1001 23:10:42.259488  6400 layer_factory.hpp:77] Creating layer conv6_2_mbox_loc_perm
I1001 23:10:42.259493  6400 net.cpp:100] Creating Layer conv6_2_mbox_loc_perm
I1001 23:10:42.259498  6400 net.cpp:434] conv6_2_mbox_loc_perm <- conv6_2_mbox_loc
I1001 23:10:42.259502  6400 net.cpp:408] conv6_2_mbox_loc_perm -> conv6_2_mbox_loc_perm
I1001 23:10:42.259572  6400 net.cpp:150] Setting up conv6_2_mbox_loc_perm
I1001 23:10:42.259577  6400 net.cpp:157] Top shape: 15 10 10 24 (36000)
I1001 23:10:42.259582  6400 net.cpp:165] Memory required for data: 3717193576
I1001 23:10:42.259584  6400 layer_factory.hpp:77] Creating layer conv6_2_mbox_loc_flat
I1001 23:10:42.259588  6400 net.cpp:100] Creating Layer conv6_2_mbox_loc_flat
I1001 23:10:42.259591  6400 net.cpp:434] conv6_2_mbox_loc_flat <- conv6_2_mbox_loc_perm
I1001 23:10:42.259598  6400 net.cpp:408] conv6_2_mbox_loc_flat -> conv6_2_mbox_loc_flat
I1001 23:10:42.259616  6400 net.cpp:150] Setting up conv6_2_mbox_loc_flat
I1001 23:10:42.259620  6400 net.cpp:157] Top shape: 15 2400 (36000)
I1001 23:10:42.259622  6400 net.cpp:165] Memory required for data: 3717337576
I1001 23:10:42.259627  6400 layer_factory.hpp:77] Creating layer conv6_2_mbox_conf
I1001 23:10:42.259634  6400 net.cpp:100] Creating Layer conv6_2_mbox_conf
I1001 23:10:42.259635  6400 net.cpp:434] conv6_2_mbox_conf <- conv6_2_conv6_2_relu_0_split_2
I1001 23:10:42.259644  6400 net.cpp:408] conv6_2_mbox_conf -> conv6_2_mbox_conf
I1001 23:10:42.260105  6400 net.cpp:150] Setting up conv6_2_mbox_conf
I1001 23:10:42.260110  6400 net.cpp:157] Top shape: 15 18 10 10 (27000)
I1001 23:10:42.260118  6400 net.cpp:165] Memory required for data: 3717445576
I1001 23:10:42.260121  6400 layer_factory.hpp:77] Creating layer conv6_2_mbox_conf_perm
I1001 23:10:42.260124  6400 net.cpp:100] Creating Layer conv6_2_mbox_conf_perm
I1001 23:10:42.260128  6400 net.cpp:434] conv6_2_mbox_conf_perm <- conv6_2_mbox_conf
I1001 23:10:42.260134  6400 net.cpp:408] conv6_2_mbox_conf_perm -> conv6_2_mbox_conf_perm
I1001 23:10:42.260205  6400 net.cpp:150] Setting up conv6_2_mbox_conf_perm
I1001 23:10:42.260210  6400 net.cpp:157] Top shape: 15 10 10 18 (27000)
I1001 23:10:42.260215  6400 net.cpp:165] Memory required for data: 3717553576
I1001 23:10:42.260216  6400 layer_factory.hpp:77] Creating layer conv6_2_mbox_conf_flat
I1001 23:10:42.260221  6400 net.cpp:100] Creating Layer conv6_2_mbox_conf_flat
I1001 23:10:42.260222  6400 net.cpp:434] conv6_2_mbox_conf_flat <- conv6_2_mbox_conf_perm
I1001 23:10:42.260239  6400 net.cpp:408] conv6_2_mbox_conf_flat -> conv6_2_mbox_conf_flat
I1001 23:10:42.260260  6400 net.cpp:150] Setting up conv6_2_mbox_conf_flat
I1001 23:10:42.260263  6400 net.cpp:157] Top shape: 15 1800 (27000)
I1001 23:10:42.260265  6400 net.cpp:165] Memory required for data: 3717661576
I1001 23:10:42.260267  6400 layer_factory.hpp:77] Creating layer conv6_2_mbox_priorbox
I1001 23:10:42.260274  6400 net.cpp:100] Creating Layer conv6_2_mbox_priorbox
I1001 23:10:42.260277  6400 net.cpp:434] conv6_2_mbox_priorbox <- conv6_2_conv6_2_relu_0_split_3
I1001 23:10:42.260293  6400 net.cpp:434] conv6_2_mbox_priorbox <- data_data_0_split_3
I1001 23:10:42.260298  6400 net.cpp:408] conv6_2_mbox_priorbox -> conv6_2_mbox_priorbox
I1001 23:10:42.260323  6400 net.cpp:150] Setting up conv6_2_mbox_priorbox
I1001 23:10:42.260327  6400 net.cpp:157] Top shape: 1 2 2400 (4800)
I1001 23:10:42.260329  6400 net.cpp:165] Memory required for data: 3717680776
I1001 23:10:42.260334  6400 layer_factory.hpp:77] Creating layer conv7_2_mbox_loc
I1001 23:10:42.260341  6400 net.cpp:100] Creating Layer conv7_2_mbox_loc
I1001 23:10:42.260344  6400 net.cpp:434] conv7_2_mbox_loc <- conv7_2_conv7_2_relu_0_split_1
I1001 23:10:42.260350  6400 net.cpp:408] conv7_2_mbox_loc -> conv7_2_mbox_loc
I1001 23:10:42.260712  6400 net.cpp:150] Setting up conv7_2_mbox_loc
I1001 23:10:42.260717  6400 net.cpp:157] Top shape: 15 24 5 5 (9000)
I1001 23:10:42.260725  6400 net.cpp:165] Memory required for data: 3717716776
I1001 23:10:42.260727  6400 layer_factory.hpp:77] Creating layer conv7_2_mbox_loc_perm
I1001 23:10:42.260731  6400 net.cpp:100] Creating Layer conv7_2_mbox_loc_perm
I1001 23:10:42.260737  6400 net.cpp:434] conv7_2_mbox_loc_perm <- conv7_2_mbox_loc
I1001 23:10:42.260740  6400 net.cpp:408] conv7_2_mbox_loc_perm -> conv7_2_mbox_loc_perm
I1001 23:10:42.260810  6400 net.cpp:150] Setting up conv7_2_mbox_loc_perm
I1001 23:10:42.260815  6400 net.cpp:157] Top shape: 15 5 5 24 (9000)
I1001 23:10:42.260821  6400 net.cpp:165] Memory required for data: 3717752776
I1001 23:10:42.260823  6400 layer_factory.hpp:77] Creating layer conv7_2_mbox_loc_flat
I1001 23:10:42.260828  6400 net.cpp:100] Creating Layer conv7_2_mbox_loc_flat
I1001 23:10:42.260829  6400 net.cpp:434] conv7_2_mbox_loc_flat <- conv7_2_mbox_loc_perm
I1001 23:10:42.260836  6400 net.cpp:408] conv7_2_mbox_loc_flat -> conv7_2_mbox_loc_flat
I1001 23:10:42.260855  6400 net.cpp:150] Setting up conv7_2_mbox_loc_flat
I1001 23:10:42.260859  6400 net.cpp:157] Top shape: 15 600 (9000)
I1001 23:10:42.260860  6400 net.cpp:165] Memory required for data: 3717788776
I1001 23:10:42.260862  6400 layer_factory.hpp:77] Creating layer conv7_2_mbox_conf
I1001 23:10:42.260872  6400 net.cpp:100] Creating Layer conv7_2_mbox_conf
I1001 23:10:42.260874  6400 net.cpp:434] conv7_2_mbox_conf <- conv7_2_conv7_2_relu_0_split_2
I1001 23:10:42.260882  6400 net.cpp:408] conv7_2_mbox_conf -> conv7_2_mbox_conf
I1001 23:10:42.261190  6400 net.cpp:150] Setting up conv7_2_mbox_conf
I1001 23:10:42.261196  6400 net.cpp:157] Top shape: 15 18 5 5 (6750)
I1001 23:10:42.261202  6400 net.cpp:165] Memory required for data: 3717815776
I1001 23:10:42.261206  6400 layer_factory.hpp:77] Creating layer conv7_2_mbox_conf_perm
I1001 23:10:42.261211  6400 net.cpp:100] Creating Layer conv7_2_mbox_conf_perm
I1001 23:10:42.261217  6400 net.cpp:434] conv7_2_mbox_conf_perm <- conv7_2_mbox_conf
I1001 23:10:42.261220  6400 net.cpp:408] conv7_2_mbox_conf_perm -> conv7_2_mbox_conf_perm
I1001 23:10:42.261291  6400 net.cpp:150] Setting up conv7_2_mbox_conf_perm
I1001 23:10:42.261296  6400 net.cpp:157] Top shape: 15 5 5 18 (6750)
I1001 23:10:42.261301  6400 net.cpp:165] Memory required for data: 3717842776
I1001 23:10:42.261302  6400 layer_factory.hpp:77] Creating layer conv7_2_mbox_conf_flat
I1001 23:10:42.261307  6400 net.cpp:100] Creating Layer conv7_2_mbox_conf_flat
I1001 23:10:42.261309  6400 net.cpp:434] conv7_2_mbox_conf_flat <- conv7_2_mbox_conf_perm
I1001 23:10:42.261317  6400 net.cpp:408] conv7_2_mbox_conf_flat -> conv7_2_mbox_conf_flat
I1001 23:10:42.261337  6400 net.cpp:150] Setting up conv7_2_mbox_conf_flat
I1001 23:10:42.261340  6400 net.cpp:157] Top shape: 15 450 (6750)
I1001 23:10:42.261343  6400 net.cpp:165] Memory required for data: 3717869776
I1001 23:10:42.261346  6400 layer_factory.hpp:77] Creating layer conv7_2_mbox_priorbox
I1001 23:10:42.261353  6400 net.cpp:100] Creating Layer conv7_2_mbox_priorbox
I1001 23:10:42.261354  6400 net.cpp:434] conv7_2_mbox_priorbox <- conv7_2_conv7_2_relu_0_split_3
I1001 23:10:42.261358  6400 net.cpp:434] conv7_2_mbox_priorbox <- data_data_0_split_4
I1001 23:10:42.261377  6400 net.cpp:408] conv7_2_mbox_priorbox -> conv7_2_mbox_priorbox
I1001 23:10:42.261400  6400 net.cpp:150] Setting up conv7_2_mbox_priorbox
I1001 23:10:42.261404  6400 net.cpp:157] Top shape: 1 2 600 (1200)
I1001 23:10:42.261406  6400 net.cpp:165] Memory required for data: 3717874576
I1001 23:10:42.261410  6400 layer_factory.hpp:77] Creating layer conv8_2_mbox_loc
I1001 23:10:42.261417  6400 net.cpp:100] Creating Layer conv8_2_mbox_loc
I1001 23:10:42.261420  6400 net.cpp:434] conv8_2_mbox_loc <- conv8_2_conv8_2_relu_0_split_1
I1001 23:10:42.261427  6400 net.cpp:408] conv8_2_mbox_loc -> conv8_2_mbox_loc
I1001 23:10:42.261728  6400 net.cpp:150] Setting up conv8_2_mbox_loc
I1001 23:10:42.261734  6400 net.cpp:157] Top shape: 15 16 3 3 (2160)
I1001 23:10:42.261740  6400 net.cpp:165] Memory required for data: 3717883216
I1001 23:10:42.261747  6400 layer_factory.hpp:77] Creating layer conv8_2_mbox_loc_perm
I1001 23:10:42.261755  6400 net.cpp:100] Creating Layer conv8_2_mbox_loc_perm
I1001 23:10:42.261757  6400 net.cpp:434] conv8_2_mbox_loc_perm <- conv8_2_mbox_loc
I1001 23:10:42.261761  6400 net.cpp:408] conv8_2_mbox_loc_perm -> conv8_2_mbox_loc_perm
I1001 23:10:42.261834  6400 net.cpp:150] Setting up conv8_2_mbox_loc_perm
I1001 23:10:42.261839  6400 net.cpp:157] Top shape: 15 3 3 16 (2160)
I1001 23:10:42.261845  6400 net.cpp:165] Memory required for data: 3717891856
I1001 23:10:42.261847  6400 layer_factory.hpp:77] Creating layer conv8_2_mbox_loc_flat
I1001 23:10:42.261852  6400 net.cpp:100] Creating Layer conv8_2_mbox_loc_flat
I1001 23:10:42.261854  6400 net.cpp:434] conv8_2_mbox_loc_flat <- conv8_2_mbox_loc_perm
I1001 23:10:42.261862  6400 net.cpp:408] conv8_2_mbox_loc_flat -> conv8_2_mbox_loc_flat
I1001 23:10:42.261880  6400 net.cpp:150] Setting up conv8_2_mbox_loc_flat
I1001 23:10:42.261883  6400 net.cpp:157] Top shape: 15 144 (2160)
I1001 23:10:42.261885  6400 net.cpp:165] Memory required for data: 3717900496
I1001 23:10:42.261890  6400 layer_factory.hpp:77] Creating layer conv8_2_mbox_conf
I1001 23:10:42.261896  6400 net.cpp:100] Creating Layer conv8_2_mbox_conf
I1001 23:10:42.261898  6400 net.cpp:434] conv8_2_mbox_conf <- conv8_2_conv8_2_relu_0_split_2
I1001 23:10:42.261906  6400 net.cpp:408] conv8_2_mbox_conf -> conv8_2_mbox_conf
I1001 23:10:42.262166  6400 net.cpp:150] Setting up conv8_2_mbox_conf
I1001 23:10:42.262171  6400 net.cpp:157] Top shape: 15 12 3 3 (1620)
I1001 23:10:42.262177  6400 net.cpp:165] Memory required for data: 3717906976
I1001 23:10:42.262181  6400 layer_factory.hpp:77] Creating layer conv8_2_mbox_conf_perm
I1001 23:10:42.262185  6400 net.cpp:100] Creating Layer conv8_2_mbox_conf_perm
I1001 23:10:42.262192  6400 net.cpp:434] conv8_2_mbox_conf_perm <- conv8_2_mbox_conf
I1001 23:10:42.262195  6400 net.cpp:408] conv8_2_mbox_conf_perm -> conv8_2_mbox_conf_perm
I1001 23:10:42.262266  6400 net.cpp:150] Setting up conv8_2_mbox_conf_perm
I1001 23:10:42.262271  6400 net.cpp:157] Top shape: 15 3 3 12 (1620)
I1001 23:10:42.262277  6400 net.cpp:165] Memory required for data: 3717913456
I1001 23:10:42.262279  6400 layer_factory.hpp:77] Creating layer conv8_2_mbox_conf_flat
I1001 23:10:42.262284  6400 net.cpp:100] Creating Layer conv8_2_mbox_conf_flat
I1001 23:10:42.262285  6400 net.cpp:434] conv8_2_mbox_conf_flat <- conv8_2_mbox_conf_perm
I1001 23:10:42.262293  6400 net.cpp:408] conv8_2_mbox_conf_flat -> conv8_2_mbox_conf_flat
I1001 23:10:42.262312  6400 net.cpp:150] Setting up conv8_2_mbox_conf_flat
I1001 23:10:42.262316  6400 net.cpp:157] Top shape: 15 108 (1620)
I1001 23:10:42.262318  6400 net.cpp:165] Memory required for data: 3717919936
I1001 23:10:42.262323  6400 layer_factory.hpp:77] Creating layer conv8_2_mbox_priorbox
I1001 23:10:42.262326  6400 net.cpp:100] Creating Layer conv8_2_mbox_priorbox
I1001 23:10:42.262329  6400 net.cpp:434] conv8_2_mbox_priorbox <- conv8_2_conv8_2_relu_0_split_3
I1001 23:10:42.262332  6400 net.cpp:434] conv8_2_mbox_priorbox <- data_data_0_split_5
I1001 23:10:42.262339  6400 net.cpp:408] conv8_2_mbox_priorbox -> conv8_2_mbox_priorbox
I1001 23:10:42.262372  6400 net.cpp:150] Setting up conv8_2_mbox_priorbox
I1001 23:10:42.262375  6400 net.cpp:157] Top shape: 1 2 144 (288)
I1001 23:10:42.262377  6400 net.cpp:165] Memory required for data: 3717921088
I1001 23:10:42.262379  6400 layer_factory.hpp:77] Creating layer conv9_2_mbox_loc
I1001 23:10:42.262388  6400 net.cpp:100] Creating Layer conv9_2_mbox_loc
I1001 23:10:42.262392  6400 net.cpp:434] conv9_2_mbox_loc <- conv9_2_conv9_2_relu_0_split_0
I1001 23:10:42.262395  6400 net.cpp:408] conv9_2_mbox_loc -> conv9_2_mbox_loc
I1001 23:10:42.262692  6400 net.cpp:150] Setting up conv9_2_mbox_loc
I1001 23:10:42.262697  6400 net.cpp:157] Top shape: 15 16 1 1 (240)
I1001 23:10:42.262704  6400 net.cpp:165] Memory required for data: 3717922048
I1001 23:10:42.262707  6400 layer_factory.hpp:77] Creating layer conv9_2_mbox_loc_perm
I1001 23:10:42.262712  6400 net.cpp:100] Creating Layer conv9_2_mbox_loc_perm
I1001 23:10:42.262718  6400 net.cpp:434] conv9_2_mbox_loc_perm <- conv9_2_mbox_loc
I1001 23:10:42.262737  6400 net.cpp:408] conv9_2_mbox_loc_perm -> conv9_2_mbox_loc_perm
I1001 23:10:42.262806  6400 net.cpp:150] Setting up conv9_2_mbox_loc_perm
I1001 23:10:42.262811  6400 net.cpp:157] Top shape: 15 1 1 16 (240)
I1001 23:10:42.262816  6400 net.cpp:165] Memory required for data: 3717923008
I1001 23:10:42.262818  6400 layer_factory.hpp:77] Creating layer conv9_2_mbox_loc_flat
I1001 23:10:42.262822  6400 net.cpp:100] Creating Layer conv9_2_mbox_loc_flat
I1001 23:10:42.262825  6400 net.cpp:434] conv9_2_mbox_loc_flat <- conv9_2_mbox_loc_perm
I1001 23:10:42.262827  6400 net.cpp:408] conv9_2_mbox_loc_flat -> conv9_2_mbox_loc_flat
I1001 23:10:42.262863  6400 net.cpp:150] Setting up conv9_2_mbox_loc_flat
I1001 23:10:42.262867  6400 net.cpp:157] Top shape: 15 16 (240)
I1001 23:10:42.262869  6400 net.cpp:165] Memory required for data: 3717923968
I1001 23:10:42.262871  6400 layer_factory.hpp:77] Creating layer conv9_2_mbox_conf
I1001 23:10:42.262881  6400 net.cpp:100] Creating Layer conv9_2_mbox_conf
I1001 23:10:42.262883  6400 net.cpp:434] conv9_2_mbox_conf <- conv9_2_conv9_2_relu_0_split_1
I1001 23:10:42.262893  6400 net.cpp:408] conv9_2_mbox_conf -> conv9_2_mbox_conf
I1001 23:10:42.263157  6400 net.cpp:150] Setting up conv9_2_mbox_conf
I1001 23:10:42.263162  6400 net.cpp:157] Top shape: 15 12 1 1 (180)
I1001 23:10:42.263164  6400 net.cpp:165] Memory required for data: 3717924688
I1001 23:10:42.263171  6400 layer_factory.hpp:77] Creating layer conv9_2_mbox_conf_perm
I1001 23:10:42.263176  6400 net.cpp:100] Creating Layer conv9_2_mbox_conf_perm
I1001 23:10:42.263178  6400 net.cpp:434] conv9_2_mbox_conf_perm <- conv9_2_mbox_conf
I1001 23:10:42.263186  6400 net.cpp:408] conv9_2_mbox_conf_perm -> conv9_2_mbox_conf_perm
I1001 23:10:42.263257  6400 net.cpp:150] Setting up conv9_2_mbox_conf_perm
I1001 23:10:42.263262  6400 net.cpp:157] Top shape: 15 1 1 12 (180)
I1001 23:10:42.263268  6400 net.cpp:165] Memory required for data: 3717925408
I1001 23:10:42.263270  6400 layer_factory.hpp:77] Creating layer conv9_2_mbox_conf_flat
I1001 23:10:42.263276  6400 net.cpp:100] Creating Layer conv9_2_mbox_conf_flat
I1001 23:10:42.263281  6400 net.cpp:434] conv9_2_mbox_conf_flat <- conv9_2_mbox_conf_perm
I1001 23:10:42.263285  6400 net.cpp:408] conv9_2_mbox_conf_flat -> conv9_2_mbox_conf_flat
I1001 23:10:42.263305  6400 net.cpp:150] Setting up conv9_2_mbox_conf_flat
I1001 23:10:42.263311  6400 net.cpp:157] Top shape: 15 12 (180)
I1001 23:10:42.263314  6400 net.cpp:165] Memory required for data: 3717926128
I1001 23:10:42.263315  6400 layer_factory.hpp:77] Creating layer conv9_2_mbox_priorbox
I1001 23:10:42.263319  6400 net.cpp:100] Creating Layer conv9_2_mbox_priorbox
I1001 23:10:42.263324  6400 net.cpp:434] conv9_2_mbox_priorbox <- conv9_2_conv9_2_relu_0_split_2
I1001 23:10:42.263327  6400 net.cpp:434] conv9_2_mbox_priorbox <- data_data_0_split_6
I1001 23:10:42.263331  6400 net.cpp:408] conv9_2_mbox_priorbox -> conv9_2_mbox_priorbox
I1001 23:10:42.263351  6400 net.cpp:150] Setting up conv9_2_mbox_priorbox
I1001 23:10:42.263357  6400 net.cpp:157] Top shape: 1 2 16 (32)
I1001 23:10:42.263366  6400 net.cpp:165] Memory required for data: 3717926256
I1001 23:10:42.263371  6400 layer_factory.hpp:77] Creating layer mbox_loc
I1001 23:10:42.263376  6400 net.cpp:100] Creating Layer mbox_loc
I1001 23:10:42.263379  6400 net.cpp:434] mbox_loc <- conv4_3_norm_mbox_loc_flat
I1001 23:10:42.263382  6400 net.cpp:434] mbox_loc <- fc7_mbox_loc_flat
I1001 23:10:42.263388  6400 net.cpp:434] mbox_loc <- conv6_2_mbox_loc_flat
I1001 23:10:42.263393  6400 net.cpp:434] mbox_loc <- conv7_2_mbox_loc_flat
I1001 23:10:42.263396  6400 net.cpp:434] mbox_loc <- conv8_2_mbox_loc_flat
I1001 23:10:42.263398  6400 net.cpp:434] mbox_loc <- conv9_2_mbox_loc_flat
I1001 23:10:42.263406  6400 net.cpp:408] mbox_loc -> mbox_loc
I1001 23:10:42.263432  6400 net.cpp:150] Setting up mbox_loc
I1001 23:10:42.263437  6400 net.cpp:157] Top shape: 15 34928 (523920)
I1001 23:10:42.263442  6400 net.cpp:165] Memory required for data: 3720021936
I1001 23:10:42.263458  6400 layer_factory.hpp:77] Creating layer mbox_conf
I1001 23:10:42.263461  6400 net.cpp:100] Creating Layer mbox_conf
I1001 23:10:42.263464  6400 net.cpp:434] mbox_conf <- conv4_3_norm_mbox_conf_flat
I1001 23:10:42.263468  6400 net.cpp:434] mbox_conf <- fc7_mbox_conf_flat
I1001 23:10:42.263473  6400 net.cpp:434] mbox_conf <- conv6_2_mbox_conf_flat
I1001 23:10:42.263476  6400 net.cpp:434] mbox_conf <- conv7_2_mbox_conf_flat
I1001 23:10:42.263478  6400 net.cpp:434] mbox_conf <- conv8_2_mbox_conf_flat
I1001 23:10:42.263481  6400 net.cpp:434] mbox_conf <- conv9_2_mbox_conf_flat
I1001 23:10:42.263487  6400 net.cpp:408] mbox_conf -> mbox_conf
I1001 23:10:42.263509  6400 net.cpp:150] Setting up mbox_conf
I1001 23:10:42.263511  6400 net.cpp:157] Top shape: 15 26196 (392940)
I1001 23:10:42.263514  6400 net.cpp:165] Memory required for data: 3721593696
I1001 23:10:42.263519  6400 layer_factory.hpp:77] Creating layer mbox_priorbox
I1001 23:10:42.263522  6400 net.cpp:100] Creating Layer mbox_priorbox
I1001 23:10:42.263525  6400 net.cpp:434] mbox_priorbox <- conv4_3_norm_mbox_priorbox
I1001 23:10:42.263533  6400 net.cpp:434] mbox_priorbox <- fc7_mbox_priorbox
I1001 23:10:42.263536  6400 net.cpp:434] mbox_priorbox <- conv6_2_mbox_priorbox
I1001 23:10:42.263540  6400 net.cpp:434] mbox_priorbox <- conv7_2_mbox_priorbox
I1001 23:10:42.263541  6400 net.cpp:434] mbox_priorbox <- conv8_2_mbox_priorbox
I1001 23:10:42.263546  6400 net.cpp:434] mbox_priorbox <- conv9_2_mbox_priorbox
I1001 23:10:42.263550  6400 net.cpp:408] mbox_priorbox -> mbox_priorbox
I1001 23:10:42.263568  6400 net.cpp:150] Setting up mbox_priorbox
I1001 23:10:42.263574  6400 net.cpp:157] Top shape: 1 2 34928 (69856)
I1001 23:10:42.263576  6400 net.cpp:165] Memory required for data: 3721873120
I1001 23:10:42.263578  6400 layer_factory.hpp:77] Creating layer mbox_loss
I1001 23:10:42.263589  6400 net.cpp:100] Creating Layer mbox_loss
I1001 23:10:42.263592  6400 net.cpp:434] mbox_loss <- mbox_loc
I1001 23:10:42.263594  6400 net.cpp:434] mbox_loss <- mbox_conf
I1001 23:10:42.263597  6400 net.cpp:434] mbox_loss <- mbox_priorbox
…
state {
  phase: TEST
}
layer {
  name: "data"
  type: "AnnotatedData"
  top: "data"
  top: "label"
  include {
    phase: TEST
  }
  transform_param {
    mean_value: 104
    mean_value: 117
    mean_value: 123
    resize_param {
      prob: 1
      resize_mode: WARP
      height: 300
      width: 300
      interp_mode: LINEAR
    }
  }
  data_param {
    source: "examples/MELON/MELON_test_lmdb"
    batch_size: 8
    backend: LMDB
  }
  annotated_data_param {
    batch_sampler {
    }
    label_map_file: "data/MELON/labelmap_melon.prototxt"
  }
}
layer {
  name: "conv1_1"
  type: "Convolution"
  bottom: "data"
  top: "conv1_1"
  param {
    lr_mult: 1
    decay_mult: 1
  }
  param {
    lr_mult: 2
    decay_mult: 0
  }
  convolution_param {
    num_output: 64
    pad: 1
    kernel_size: 3
    weight_filler {
      type: "xavier"
    }
    bias_filler {
      type: "constant"
      value: 0
    }
  }
}
layer {
  name: "relu1_1"
  type: "ReLU"
  bottom: "conv1_1"
  top: "conv1_1"
}
layer {
  name: "conv1_2"
  type: "Convolution"
  bottom: "conv1_1"
  top: "conv1_2"
  param {
    lr_mult: 1
    decay_mult: 1
  }
  param {
    lr_mult: 2
    decay_mult: 0
  }
  convolution_param {
    num_output: 64
    pad: 1
    kernel_size: 3
    weight_filler {
      type: "xavier"
    }
    bias_filler {
      type: "constant"
      value: 0
    }
  }
}
layer {
  name: "relu1_2"
  type: "ReLU"
  bottom: "conv1_2"
  top: "conv1_2"
}
layer {
  name: "pool1"
  type: "Pooling"
  bottom: "conv1_2"
  top: "pool1"
  pooling_param {
    pool: MAX
    kernel_size: 2
    stride: 2
  }
}
layer {
  name: "conv2_1"
  type: "Convolution"
  bottom: "pool1"
  top: "conv2_1"
  param {
    lr_mult: 1
    decay_mult: 1
  }
  param {
    lr_mult: 2
    decay_mult: 0
  }
  convolution_param {
    num_output: 128
    pad: 1
    kernel_size: 3
    weight_filler {
      type: "xavier"
    }
    bias_filler {
      type: "constant"
      value: 0
    }
  }
}
layer {
  name: "relu2_1"
  type: "ReLU"
  bottom: "conv2_1"
  top: "conv2_1"
}
layer {
  name: "conv2_2"
  type: "Convolution"
  bottom: "conv2_1"
  top: "conv2_2"
  param {
    lr_mult: 1
    decay_mult: 1
  }
  param {
    lr_mult: 2
    decay_mult: 0
  }
  convolution_param {
    num_output: 128
    pad: 1
    kernel_size: 3
    weight_filler {
      type: "xavier"
    }
    bias_filler {
      type: "constant"
      value: 0
    }
  }
}
layer {
  name: "relu2_2"
  type: "ReLU"
  bottom: "conv2_2"
  top: "conv2_2"
}
layer {
  name: "pool2"
  type: "Pooling"
  bottom: "conv2_2"
  top: "pool2"
  pooling_param {
    pool: MAX
    kernel_size: 2
    stride: 2
  }
}
layer {
  name: "conv3_1"
  type: "Convolution"
  bottom: "pool2"
  top: "conv3_1"
  param {
    lr_mult: 1
    decay_mult: 1
  }
  param {
    lr_mult: 2
    decay_mult: 0
  }
  convolution_param {
    num_output: 256
    pad: 1
    kernel_size: 3
    weight_filler {
      type: "xavier"
    }
    bias_filler {
      type: "constant"
      value: 0
    }
  }
}
layer {
  name: "relu3_1"
  type: "ReLU"
  bottom: "conv3_1"
  top: "conv3_1"
}
layer {
  name: "conv3_2"
  type: "Convolution"
  bottom: "conv3_1"
  top: "conv3_2"
  param {
    lr_mult: 1
    decay_mult: 1
  }
  param {
    lr_mult: 2
    decay_mult: 0
  }
  convolution_param {
    num_output: 256
    pad: 1
    kernel_size: 3
    weight_filler {
      type: "xavier"
    }
    bias_filler {
      type: "constant"
      value: 0
    }
  }
}
layer {
  name: "relu3_2"
  type: "ReLU"
  bottom: "conv3_2"
  top: "conv3_2"
}
layer {
  name: "conv3_3"
  type: "Convolution"
  bottom: "conv3_2"
  top: "conv3_3"
  param {
    lr_mult: 1
    decay_mult: 1
  }
  param {
    lr_mult: 2
    decay_mult: 0
  }
  convolution_param {
    num_output: 256
    pad: 1
    kernel_size: 3
    weight_filler {
      type: "xavier"
    }
    bias_filler {
      type: "constant"
      value: 0
    }
  }
}
layer {
  name: "relu3_3"
  type: "ReLU"
  bottom: "conv3_3"
  top: "conv3_3"
}
layer {
  name: "pool3"
  type: "Pooling"
  bottom: "conv3_3"
  top: "pool3"
  pooling_param {
    pool: MAX
    kernel_size: 2
    stride: 2
  }
}
layer {
  name: "conv4_1"
  type: "Convolution"
  bottom: "pool3"
  top: "conv4_1"
  param {
    lr_mult: 1
    decay_mult: 1
  }
  param {
    lr_mult: 2
    decay_mult: 0
  }
  convolution_param {
    num_output: 512
    pad: 1
    kernel_size: 3
    weight_filler {
      type: "xavier"
    }
    bias_filler {
      type: "constant"
      value: 0
    }
  }
}
layer {
  name: "relu4_1"
  type: "ReLU"
  bottom: "conv4_1"
  top: "conv4_1"
}
layer {
  name: "conv4_2"
  type: "Convolution"
  bottom: "conv4_1"
  top: "conv4_2"
  param {
    lr_mult: 1
    decay_mult: 1
  }
  param {
    lr_mult: 2
    decay_mult: 0
  }
  convolution_param {
    num_output: 512
    pad: 1
    kernel_size: 3
    weight_filler {
      type: "xavier"
    }
    bias_filler {
      type: "constant"
      value: 0
    }
  }
}
layer {
  name: "relu4_2"
  type: "ReLU"
  bottom: "conv4_2"
  top: "conv4_2"
}
layer {
  name: "conv4_3"
  type: "Convolution"
  bottom: "conv4_2"
  top: "conv4_3"
  param {
    lr_mult: 1
    decay_mult: 1
  }
  param {
    lr_mult: 2
    decay_mult: 0
  }
  convolution_param {
    num_output: 512
    pad: 1
    kernel_size: 3
    weight_filler {
      type: "xavier"
    }
    bias_filler {
      type: "constant"
      value: 0
    }
  }
}
layer {
  name: "relu4_3"
  type: "ReLU"
  bottom: "conv4_3"
  top: "conv4_3"
}
layer {
  name: "pool4"
  type: "Pooling"
  bottom: "conv4_3"
  top: "pool4"
  pooling_param {
    pool: MAX
    kernel_size: 2
    stride: 2
  }
}
layer {
  name: "conv5_1"
  type: "Convolution"
  bottom: "pool4"
  top: "conv5_1"
  param {
    lr_mult: 1
    decay_mult: 1
  }
  param {
    lr_mult: 2
    decay_mult: 0
  }
  convolution_param {
    num_output: 512
    pad: 1
    kernel_size: 3
    weight_filler {
      type: "xavier"
    }
    bias_filler {
      type: "constant"
      value: 0
    }
    dilation: 1
  }
}
layer {
  name: "relu5_1"
  type: "ReLU"
  bottom: "conv5_1"
  top: "conv5_1"
}
layer {
  name: "conv5_2"
  type: "Convolution"
  bottom: "conv5_1"
  top: "conv5_2"
  param {
    lr_mult: 1
    decay_mult: 1
  }
  param {
    lr_mult: 2
    decay_mult: 0
  }
  convolution_param {
    num_output: 512
    pad: 1
    kernel_size: 3
    weight_filler {
      type: "xavier"
    }
    bias_filler {
      type: "constant"
      value: 0
    }
    dilation: 1
  }
}
layer {
  name: "relu5_2"
  type: "ReLU"
  bottom: "conv5_2"
  top: "conv5_2"
}
layer {
  name: "conv5_3"
  type: "Convolution"
  bottom: "conv5_2"
  top: "conv5_3"
  param {
    lr_mult: 1
    decay_mult: 1
  }
  param {
    lr_mult: 2
    decay_mult: 0
  }
  convolution_param {
    num_output: 512
    pad: 1
    kernel_size: 3
    weight_filler {
      type: "xavier"
    }
    bias_filler {
      type: "constant"
      value: 0
    }
    dilation: 1
  }
}
layer {
  name: "relu5_3"
  type: "ReLU"
  bottom: "conv5_3"
  top: "conv5_3"
}
layer {
  name: "pool5"
  type: "Pooling"
  bottom: "conv5_3"
  top: "pool5"
  pooling_param {
    pool: MAX
    kernel_size: 3
    stride: 1
    pad: 1
  }
}
layer {
  name: "fc6"
  type: "Convolution"
  bottom: "pool5"
  top: "fc6"
  param {
    lr_mult: 1
    decay_mult: 1
  }
  param {
    lr_mult: 2
    decay_mult: 0
  }
  convolution_param {
    num_output: 1024
    pad: 6
    kernel_size: 3
    weight_filler {
      type: "xavier"
    }
    bias_filler {
      type: "constant"
      value: 0
    }
    dilation: 6
  }
}
layer {
  name: "relu6"
  type: "ReLU"
  bottom: "fc6"
  top: "fc6"
}
layer {
  name: "fc7"
  type: "Convolution"
  bottom: "fc6"
  top: "fc7"
  param {
    lr_mult: 1
    decay_mult: 1
  }
  param {
    lr_mult: 2
    decay_mult: 0
  }
  convolution_param {
    num_output: 1024
    kernel_size: 1
    weight_filler {
      type: "xavier"
    }
    bias_filler {
      type: "constant"
      value: 0
    }
  }
}
layer {
  name: "relu7"
  type: "ReLU"
  bottom: "fc7"
  top: "fc7"
}
layer {
  name: "conv6_1"
  type: "Convolution"
  bottom: "fc7"
  top: "conv6_1"
  param {
    lr_mult: 1
    decay_mult: 1
  }
  param {
    lr_mult: 2
    decay_mult: 0
  }
  convolution_param {
    num_output: 256
    pad: 0
    kernel_size: 1
    stride: 1
    weight_filler {
      type: "xavier"
    }
    bias_filler {
      type: "constant"
      value: 0
    }
  }
}
layer {
  name: "conv6_1_relu"
  type: "ReLU"
  bottom: "conv6_1"
  top: "conv6_1"
}
layer {
  name: "conv6_2"
  type: "Convolution"
  bottom: "conv6_1"
  top: "conv6_2"
  param {
    lr_mult: 1
    decay_mult: 1
  }
  param {
    lr_mult: 2
    decay_mult: 0
  }
  convolution_param {
    num_output: 512
    pad: 1
    kernel_size: 3
    stride: 2
    weight_filler {
      type: "xavier"
    }
    bias_filler {
      type: "constant"
      value: 0
    }
  }
}
layer {
  name: "conv6_2_relu"
  type: "ReLU"
  bottom: "conv6_2"
  top: "conv6_2"
}
layer {
  name: "conv7_1"
  type: "Convolution"
  bottom: "conv6_2"
  top: "conv7_1"
  param {
    lr_mult: 1
    decay_mult: 1
  }
  param {
    lr_mult: 2
    decay_mult: 0
  }
  convolution_param {
    num_output: 128
    pad: 0
    kernel_size: 1
    stride: 1
    weight_filler {
      type: "xavier"
    }
    bias_filler {
      type: "constant"
      value: 0
    }
  }
}
layer {
  name: "conv7_1_relu"
  type: "ReLU"
  bottom: "conv7_1"
  top: "conv7_1"
}
layer {
  name: "conv7_2"
  type: "Convolution"
  bottom: "conv7_1"
  top: "conv7_2"
  param {
    lr_mult: 1
    decay_mult: 1
  }
  param {
    lr_mult: 2
    decay_mult: 0
  }
  convolution_param {
    num_output: 256
    pad: 1
    kernel_size: 3
    stride: 2
    weight_filler {
      type: "xavier"
    }
    bias_filler {
      type: "constant"
      value: 0
    }
  }
}
layer {
  name: "conv7_2_relu"
  type: "ReLU"
  bottom: "conv7_2"
  top: "conv7_2"
}
layer {
  name: "conv8_1"
  type: "Convolution"
  bottom: "conv7_2"
  top: "conv8_1"
  param {
    lr_mult: 1
    decay_mult: 1
  }
  param {
    lr_mult: 2
    decay_mult: 0
  }
  convolution_param {
    num_output: 128
    pad: 0
    kernel_size: 1
    stride: 1
    weight_filler {
      type: "xavier"
    }
    bias_filler {
      type: "constant"
      value: 0
    }
  }
}
layer {
  name: "conv8_1_relu"
  type: "ReLU"
  bottom: "conv8_1"
  top: "conv8_1"
}
layer {
  name: "conv8_2"
  type: "Convolution"
  bottom: "conv8_1"
  top: "conv8_2"
  param {
    lr_mult: 1
    decay_mult: 1
  }
  param {
    lr_mult: 2
    decay_mult: 0
  }
  convolution_param {
    num_output: 256
    pad: 0
    kernel_size: 3
    stride: 1
    weight_filler {
      type: "xavier"
    }
    bias_filler {
      type: "constant"
      value: 0
    }
  }
}
layer {
  name: "conv8_2_relu"
  type: "ReLU"
  bottom: "conv8_2"
  top: "conv8_2"
}
layer {
  name: "conv9_1"
  type: "Convolution"
  bottom: "conv8_2"
  top: "conv9_1"
  param {
    lr_mult: 1
    decay_mult: 1
  }
  param {
    lr_mult: 2
    decay_mult: 0
  }
  convolution_param {
    num_output: 128
    pad: 0
    kernel_size: 1
    stride: 1
    weight_filler {
      type: "xavier"
    }
    bias_filler {
      type: "constant"
      value: 0
    }
  }
}
layer {
  name: "conv9_1_relu"
  type: "ReLU"
  bottom: "conv9_1"
  top: "conv9_1"
}
layer {
  name: "conv9_2"
  type: "Convolution"
  bottom: "conv9_1"
  top: "conv9_2"
  param {
    lr_mult: 1
    decay_mult: 1
  }
  param {
    lr_mult: 2
    decay_mult: 0
  }
  convolution_param {
    num_output: 256
    pad: 0
    kernel_size: 3
    stride: 1
    weight_filler {
      type: "xavier"
    }
    bias_filler {
      type: "constant"
      value: 0
    }
  }
}
layer {
  name: "conv9_2_relu"
  type: "ReLU"
  bottom: "conv9_2"
  top: "conv9_2"
}
layer {
  name: "conv4_3_norm"
  type: "Normalize"
  bottom: "conv4_3"
  top: "conv4_3_norm"
  norm_param {
    across_spatial: false
    scale_filler {
      type: "constant"
      value: 20
    }
    channel_shared: false
  }
}
layer {
  name: "conv4_3_norm_mbox_loc"
  type: "Convolution"
  bottom: "conv4_3_norm"
  top: "conv4_3_norm_mbox_loc"
  param {
    lr_mult: 1
    decay_mult: 1
  }
  param {
    lr_mult: 2
    decay_mult: 0
  }
  convolution_param {
    num_output: 16
    pad: 1
    kernel_size: 3
    stride: 1
    weight_filler {
      type: "xavier"
    }
    bias_filler {
      type: "constant"
      value: 0
    }
  }
}
layer {
  name: "conv4_3_norm_mbox_loc_perm"
  type: "Permute"
  bottom: "conv4_3_norm_mbox_loc"
  top: "conv4_3_norm_mbox_loc_perm"
  permute_param {
    order: 0
    order: 2
    order: 3
    order: 1
  }
}
layer {
  name: "conv4_3_norm_mbox_loc_flat"
  type: "Flatten"
  bottom: "conv4_3_norm_mbox_loc_perm"
  top: "conv4_3_norm_mbox_loc_flat"
  flatten_param {
    axis: 1
  }
}
layer {
  name: "conv4_3_norm_mbox_conf"
  type: "Convolution"
  bottom: "conv4_3_norm"
  top: "conv4_3_norm_mbox_conf"
  param {
    lr_mult: 1
    decay_mult: 1
  }
  param {
    lr_mult: 2
    decay_mult: 0
  }
  convolution_param {
    num_output: 12
    pad: 1
    kernel_size: 3
    stride: 1
    weight_filler {
      type: "xavier"
    }
    bias_filler {
      type: "constant"
      value: 0
    }
  }
}
layer {
  name: "conv4_3_norm_mbox_conf_perm"
  type: "Permute"
  bottom: "conv4_3_norm_mbox_conf"
  top: "conv4_3_norm_mbox_conf_perm"
  permute_param {
    order: 0
    order: 2
    order: 3
    order: 1
  }
}
layer {
  name: "conv4_3_norm_mbox_conf_flat"
  type: "Flatten"
  bottom: "conv4_3_norm_mbox_conf_perm"
  top: "conv4_3_norm_mbox_conf_flat"
  flatten_param {
    axis: 1
  }
}
layer {
  name: "conv4_3_norm_mbox_priorbox"
  type: "PriorBox"
  bottom: "conv4_3_norm"
  bottom: "data"
  top: "conv4_3_norm_mbox_priorbox"
  prior_box_param {
    min_size: 30
    max_size: 60
    aspect_ratio: 2
    flip: true
    clip: false
    variance: 0.1
    variance: 0.1
    variance: 0.2
    variance: 0.2
    step: 8
    offset: 0.5
  }
}
layer {
  name: "fc7_mbox_loc"
  type: "Convolution"
  bottom: "fc7"
  top: "fc7_mbox_loc"
  param {
    lr_mult: 1
    decay_mult: 1
  }
  param {
    lr_mult: 2
    decay_mult: 0
  }
  convolution_param {
    num_output: 24
    pad: 1
    kernel_size: 3
    stride: 1
    weight_filler {
      type: "xavier"
    }
    bias_filler {
      type: "constant"
      value: 0
    }
  }
}
layer {
  name: "fc7_mbox_loc_perm"
  type: "Permute"
  bottom: "fc7_mbox_loc"
  top: "fc7_mbox_loc_perm"
  permute_param {
    order: 0
    order: 2
    order: 3
    order: 1
  }
}
layer {
  name: "fc7_mbox_loc_flat"
  type: "Flatten"
  bottom: "fc7_mbox_loc_perm"
  top: "fc7_mbox_loc_flat"
  flatten_param {
    axis: 1
  }
}
layer {
  name: "fc7_mbox_conf"
  type: "Convolution"
  bottom: "fc7"
  top: "fc7_mbox_conf"
  param {
    lr_mult: 1
    decay_mult: 1
  }
  param {
    lr_mult: 2
    decay_mult: 0
  }
  convolution_param {
    num_output: 18
    pad: 1
    kernel_size: 3
    stride: 1
    weight_filler {
      type: "xavier"
    }
    bias_filler {
      type: "constant"
      value: 0
    }
  }
}
layer {
  name: "fc7_mbox_conf_perm"
  type: "Permute"
  bottom: "fc7_mbox_conf"
  top: "fc7_mbox_conf_perm"
  permute_param {
    order: 0
    order: 2
    order: 3
    order: 1
  }
}
layer {
  name: "fc7_mbox_conf_flat"
  type: "Flatten"
  bottom: "fc7_mbox_conf_perm"
  top: "fc7_mbox_conf_flat"
  flatten_param {
    axis: 1
  }
}
layer {
  name: "fc7_mbox_priorbox"
  type: "PriorBox"
  bottom: "fc7"
  bottom: "data"
  top: "fc7_mbox_priorbox"
  prior_box_param {
    min_size: 60
    max_size: 111
    aspect_ratio: 2
    aspect_ratio: 3
    flip: true
    clip: false
    variance: 0.1
    variance: 0.1
    variance: 0.2
    variance: 0.2
    step: 16
    offset: 0.5
  }
}
layer {
  name: "conv6_2_mbox_loc"
  type: "Convolution"
  bottom: "conv6_2"
  top: "conv6_2_mbox_loc"
  param {
    lr_mult: 1
    decay_mult: 1
  }
  param {
    lr_mult: 2
    decay_mult: 0
  }
  convolution_param {
    num_output: 24
    pad: 1
    kernel_size: 3
    stride: 1
    weight_filler {
      type: "xavier"
    }
    bias_filler {
      type: "constant"
      value: 0
    }
  }
}
layer {
  name: "conv6_2_mbox_loc_perm"
  type: "Permute"
  bottom: "conv6_2_mbox_loc"
  top: "conv6_2_mbox_loc_perm"
  permute_param {
    order: 0
    order: 2
    order: 3
    order: 1
  }
}
layer {
  name: "conv6_2_mbox_loc_flat"
  type: "Flatten"
  bottom: "conv6_2_mbox_loc_perm"
  top: "conv6_2_mbox_loc_flat"
  flatten_param {
    axis: 1
  }
}
layer {
  name: "conv6_2_mbox_conf"
  type: "Convolution"
  bottom: "conv6_2"
  top: "conv6_2_mbox_conf"
  param {
    lr_mult: 1
    decay_mult: 1
  }
  param {
    lr_mult: 2
    decay_mult: 0
  }
  convolution_param {
    num_output: 18
    pad: 1
    kernel_size: 3
    stride: 1
    weight_filler {
      type: "xavier"
    }
    bias_filler {
      type: "constant"
      value: 0
    }
  }
}
layer {
  name: "conv6_2_mbox_conf_perm"
  type: "Permute"
  bottom: "conv6_2_mbox_conf"
  top: "conv6_2_mbox_conf_perm"
  permute_param {
    order: 0
    order: 2
    order: 3
    order: 1
  }
}
layer {
  name: "conv6_2_mbox_conf_flat"
  type: "Flatten"
  bottom: "conv6_2_mbox_conf_perm"
  top: "conv6_2_mbox_conf_flat"
  flatten_param {
    axis: 1
  }
}
layer {
  name: "conv6_2_mbox_priorbox"
  type: "PriorBox"
  bottom: "conv6_2"
  bottom: "data"
  top: "conv6_2_mbox_priorbox"
  prior_box_param {
    min_size: 111
    max_size: 162
    aspect_ratio: 2
    aspect_ratio: 3
    flip: true
    clip: false
    variance: 0.1
    variance: 0.1
    variance: 0.2
    variance: 0.2
    step: 32
    offset: 0.5
  }
}
layer {
  name: "conv7_2_mbox_loc"
  type: "Convolution"
  bottom: "conv7_2"
  top: "conv7_2_mbox_loc"
  param {
    lr_mult: 1
    decay_mult: 1
  }
  param {
    lr_mult: 2
    decay_mult: 0
  }
  convolution_param {
    num_output: 24
    pad: 1
    kernel_size: 3
    stride: 1
    weight_filler {
      type: "xavier"
    }
    bias_filler {
      type: "constant"
      value: 0
    }
  }
}
layer {
  name: "conv7_2_mbox_loc_perm"
  type: "Permute"
  bottom: "conv7_2_mbox_loc"
  top: "conv7_2_mbox_loc_perm"
  permute_param {
    order: 0
    order: 2
    order: 3
    order: 1
  }
}
layer {
  name: "conv7_2_mbox_loc_flat"
  type: "Flatten"
  bottom: "conv7_2_mbox_loc_perm"
  top: "conv7_2_mbox_loc_flat"
  flatten_param {
    axis: 1
  }
}
layer {
  name: "conv7_2_mbox_conf"
  type: "Convolution"
  bottom: "conv7_2"
  top: "conv7_2_mbox_conf"
  param {
    lr_mult: 1
    decay_mult: 1
  }
  param {
    lr_mult: 2
    decay_mult: 0
  }
  convolution_param {
    num_output: 18
    pad: 1
    kernel_size: 3
    stride: 1
    weight_filler {
      type: "xavier"
    }
    bias_filler {
      type: "constant"
      value: 0
    }
  }
}
layer {
  name: "conv7_2_mbox_conf_perm"
  type: "Permute"
  bottom: "conv7_2_mbox_conf"
  top: "conv7_2_mbox_conf_perm"
  permute_param {
    order: 0
    order: 2
    order: 3
    order: 1
  }
}
layer {
  name: "conv7_2_mbox_conf_flat"
  type: "Flatten"
  bottom: "conv7_2_mbox_conf_perm"
  top: "conv7_2_mbox_conf_flat"
  flatten_param {
    axis: 1
  }
}
layer {
  name: "conv7_2_mbox_priorbox"
  type: "PriorBox"
  bottom: "conv7_2"
  bottom: "data"
  top: "conv7_2_mbox_priorbox"
  prior_box_param {
    min_size: 162
    max_size: 213
    aspect_ratio: 2
    aspect_ratio: 3
    flip: true
    clip: false
    variance: 0.1
    variance: 0.1
    variance: 0.2
    variance: 0.2
    step: 64
    offset: 0.5
  }
}
layer {
  name: "conv8_2_mbox_loc"
  type: "Convolution"
  bottom: "conv8_2"
  top: "conv8_2_mbox_loc"
  param {
    lr_mult: 1
    decay_mult: 1
  }
  param {
    lr_mult: 2
    decay_mult: 0
  }
  convolution_param {
    num_output: 16
    pad: 1
    kernel_size: 3
    stride: 1
    weight_filler {
      type: "xavier"
    }
    bias_filler {
      type: "constant"
      value: 0
    }
  }
}
layer {
  name: "conv8_2_mbox_loc_perm"
  type: "Permute"
  bottom: "conv8_2_mbox_loc"
  top: "conv8_2_mbox_loc_perm"
  permute_param {
    order: 0
    order: 2
    order: 3
    order: 1
  }
}
layer {
  name: "conv8_2_mbox_loc_flat"
  type: "Flatten"
  bottom: "conv8_2_mbox_loc_perm"
  top: "conv8_2_mbox_loc_flat"
  flatten_param {
    axis: 1
  }
}
layer {
  name: "conv8_2_mbox_conf"
  type: "Convolution"
  bottom: "conv8_2"
  top: "conv8_2_mbox_conf"
  param {
    lr_mult: 1
    decay_mult: 1
  }
  param {
    lr_mult: 2
    decay_mult: 0
  }
  convolution_param {
    num_output: 12
    pad: 1
    kernel_size: 3
    stride: 1
    weight_filler {
      type: "xavier"
    }
    bias_filler {
      type: "constant"
      value: 0
    }
  }
}
layer {
  name: "conv8_2_mbox_conf_perm"
  type: "Permute"
  bottom: "conv8_2_mbox_conf"
  top: "conv8_2_mbox_conf_perm"
  permute_param {
    order: 0
    order: 2
    order: 3
    order: 1
  }
}
layer {
  name: "conv8_2_mbox_conf_flat"
  type: "Flatten"
  bottom: "conv8_2_mbox_conf_perm"
  top: "conv8_2_mbox_conf_flat"
  flatten_param {
    axis: 1
  }
}
layer {
  name: "conv8_2_mbox_priorbox"
  type: "PriorBox"
  bottom: "conv8_2"
  bottom: "data"
  top: "conv8_2_mbox_priorbox"
  prior_box_param {
    min_size: 213
    max_size: 264
    aspect_ratio: 2
    flip: true
    clip: false
    variance: 0.1
    variance: 0.1
    variance: 0.2
    variance: 0.2
    step: 100
    offset: 0.5
  }
}
layer {
  name: "conv9_2_mbox_loc"
  type: "Convolution"
  bottom: "conv9_2"
  top: "conv9_2_mbox_loc"
  param {
    lr_mult: 1
    decay_mult: 1
  }
  param {
    lr_mult: 2
    decay_mult: 0
  }
  convolution_param {
    num_output: 16
    pad: 1
    kernel_size: 3
    stride: 1
    weight_filler {
      type: "xavier"
    }
    bias_filler {
      type: "constant"
      value: 0
    }
  }
}
layer {
  name: "conv9_2_mbox_loc_perm"
  type: "Permute"
  bottom: "conv9_2_mbox_loc"
  top: "conv9_2_mbox_loc_perm"
  permute_param {
    order: 0
    order: 2
    order: 3
    order: 1
  }
}
layer {
  name: "conv9_2_mbox_loc_flat"
  type: "Flatten"
  bottom: "conv9_2_mbox_loc_perm"
  top: "conv9_2_mbox_loc_flat"
  flatten_param {
    axis: 1
  }
}
layer {
  name: "conv9_2_mbox_conf"
  type: "Convolution"
  bottom: "conv9_2"
  top: "conv9_2_mbox_conf"
  param {
    lr_mult: 1
    decay_mult: 1
  }
  param {
    lr_mult: 2
    decay_mult: 0
  }
  convolution_param {
    num_output: 12
    pad: 1
    kernel_size: 3
    stride: 1
    weight_filler {
      type: "xavier"
    }
    bias_filler {
      type: "constant"
      value: 0
    }
  }
}
layer {
  name: "conv9_2_mbox_conf_perm"
  type: "Permute"
  bottom: "conv9_2_mbox_conf"
  top: "conv9_2_mbox_conf_perm"
  permute_param {
    order: 0
    order: 2
    order: 3
    order: 1
  }
}
layer {
  name: "conv9_2_mbox_conf_flat"
  type: "Flatten"
  bottom: "conv9_2_mbox_conf_perm"
  top: "conv9_2_mbox_conf_flat"
  flatten_param {
    axis: 1
  }
}
layer {
  name: "conv9_2_mbox_priorbox"
  type: "PriorBox"
  bottom: "conv9_2"
  bottom: "data"
  top: "conv9_2_mbox_priorbox"
  prior_box_param {
    min_size: 264
    max_size: 315
    aspect_ratio: 2
    flip: true
    clip: false
    variance: 0.1
    variance: 0.1
    variance: 0.2
    variance: 0.2
    step: 300
    offset: 0.5
  }
}
layer {
  name: "mbox_loc"
  type: "Concat"
  bottom: "conv4_3_norm_mbox_loc_flat"
  bottom: "fc7_mbox_loc_flat"
  bottom: "conv6_2_mbox_loc_flat"
  bottom: "conv7_2_mbox_loc_flat"
  bottom: "conv8_2_mbox_loc_flat"
  bottom: "conv9_2_mbox_loc_flat"
  top: "mbox_loc"
  concat_param {
    axis: 1
  }
}
layer {
  name: "mbox_conf"
  type: "Concat"
  bottom: "conv4_3_norm_mbox_conf_flat"
  bottom: "fc7_mbox_conf_flat"
  bottom: "conv6_2_mbox_conf_flat"
  bottom: "conv7_2_mbox_conf_flat"
  bottom: "conv8_2_mbox_conf_flat"
  bottom: "conv9_2_mbox_conf_flat"
  top: "mbox_conf"
  concat_param {
    axis: 1
  }
}
layer {
  name: "mbox_priorbox"
  type: "Concat"
  bottom: "conv4_3_norm_mbox_priorbox"
  bottom: "fc7_mbox_priorbox"
  bottom: "conv6_2_mbox_priorbox"
  bottom: "conv7_2_mbox_priorbox"
  bottom: "conv8_2_mbox_priorbox"
  bottom: "conv9_2_mbox_priorbox"
  top: "mbox_priorbox"
  concat_param {
    axis: 2
  }
}
layer {
  name: "mbox_conf_reshape"
  type: "Reshape"
  bottom: "mbox_conf"
  top: "mbox_conf_reshape"
  reshape_param {
    shape {
      dim: 0
      dim: -1
      dim: 3
    }
  }
}
layer {
  name: "mbox_conf_softmax"
  type: "Softmax"
  bottom: "mbox_conf_reshape"
  top: "mbox_conf_softmax"
  softmax_param {
    axis: 2
  }
}
layer {
  name: "mbox_conf_flatten"
  type: "Flatten"
  bottom: "mbox_conf_softmax"
  top: "mbox_conf_flatten"
  flatten_param {
    axis: 1
  }
}
layer {
  name: "detection_out"
  type: "DetectionOutput"
  bottom: "mbox_loc"
  bottom: "mbox_conf_flatten"
  bottom: "mbox_priorbox"
  top: "detection_out"
  include {
    phase: TEST
  }
  detection_output_param {
    num_classes: 3
    share_location: true
    background_label_id: 0
    nms_param {
      nms_threshold: 0.45
      top_k: 400
    }
    save_output_param {
      output_directory: "/home/rjperias/data/VOCdevkit/results/VOC2007/SSD_300x300/Main"
      output_name_prefix: "comp4_det_test_"
      output_format: "VOC"
      label_map_file: "data/MELON/labelmap_melon.prototxt"
      name_size_file: "data/MELON/test_name_size.txt"
      num_test_image: 80
    }
    code_type: CENTER_SIZE
    keep_top_k: 200
    confidence_threshold: 0.01
  }
}
layer {
  name: "detection_eval"
  type: "DetectionEvaluate"
  bottom: "detection_out"
  bottom: "label"
  top: "detection_eval"
  include {
    phase: TEST
  }
  detection_evaluate_param {
    num_classes: 3
    background_label_id: 0
    overlap_threshold: 0.5
    evaluate_difficult_gt: false
    name_size_file: "data/MELON/test_name_size.txt"
  }
}
I1001 23:10:42.266129  6400 layer_factory.hpp:77] Creating layer data
I1001 23:10:42.266259  6400 net.cpp:100] Creating Layer data
I1001 23:10:42.266268  6400 net.cpp:408] data -> data
I1001 23:10:42.266275  6400 net.cpp:408] data -> label
I1001 23:10:42.267297  6425 db_lmdb.cpp:35] Opened lmdb examples/MELON/MELON_test_lmdb
I1001 23:10:42.268779  6400 annotated_data_layer.cpp:62] output data size: 8,3,300,300
I1001 23:10:42.280779  6400 net.cpp:150] Setting up data
I1001 23:10:42.280804  6400 net.cpp:157] Top shape: 8 3 300 300 (2160000)
I1001 23:10:42.280807  6400 net.cpp:157] Top shape: 1 1 1 8 (8)
I1001 23:10:42.280809  6400 net.cpp:165] Memory required for data: 8640032
I1001 23:10:42.280822  6400 layer_factory.hpp:77] Creating layer data_data_0_split
I1001 23:10:42.280834  6400 net.cpp:100] Creating Layer data_data_0_split
I1001 23:10:42.280836  6400 net.cpp:434] data_data_0_split <- data
I1001 23:10:42.280843  6400 net.cpp:408] data_data_0_split -> data_data_0_split_0
I1001 23:10:42.280850  6400 net.cpp:408] data_data_0_split -> data_data_0_split_1
I1001 23:10:42.280854  6400 net.cpp:408] data_data_0_split -> data_data_0_split_2
I1001 23:10:42.280858  6400 net.cpp:408] data_data_0_split -> data_data_0_split_3
I1001 23:10:42.280863  6400 net.cpp:408] data_data_0_split -> data_data_0_split_4
I1001 23:10:42.280865  6400 net.cpp:408] data_data_0_split -> data_data_0_split_5
I1001 23:10:42.280874  6400 net.cpp:408] data_data_0_split -> data_data_0_split_6
I1001 23:10:42.280962  6400 net.cpp:150] Setting up data_data_0_split
I1001 23:10:42.280968  6400 net.cpp:157] Top shape: 8 3 300 300 (2160000)
I1001 23:10:42.280974  6400 net.cpp:157] Top shape: 8 3 300 300 (2160000)
I1001 23:10:42.280977  6400 net.cpp:157] Top shape: 8 3 300 300 (2160000)
I1001 23:10:42.280979  6400 net.cpp:157] Top shape: 8 3 300 300 (2160000)
I1001 23:10:42.280982  6400 net.cpp:157] Top shape: 8 3 300 300 (2160000)
I1001 23:10:42.280984  6400 net.cpp:157] Top shape: 8 3 300 300 (2160000)
I1001 23:10:42.280987  6400 net.cpp:157] Top shape: 8 3 300 300 (2160000)
I1001 23:10:42.280994  6400 net.cpp:165] Memory required for data: 69120032
I1001 23:10:42.281018  6400 layer_factory.hpp:77] Creating layer conv1_1
I1001 23:10:42.281029  6400 net.cpp:100] Creating Layer conv1_1
I1001 23:10:42.281033  6400 net.cpp:434] conv1_1 <- data_data_0_split_0
I1001 23:10:42.281036  6400 net.cpp:408] conv1_1 -> conv1_1
I1001 23:10:42.281355  6400 net.cpp:150] Setting up conv1_1
I1001 23:10:42.281363  6400 net.cpp:157] Top shape: 8 64 300 300 (46080000)
I1001 23:10:42.281364  6400 net.cpp:165] Memory required for data: 253440032
I1001 23:10:42.281375  6400 layer_factory.hpp:77] Creating layer relu1_1
I1001 23:10:42.281379  6400 net.cpp:100] Creating Layer relu1_1
I1001 23:10:42.281381  6400 net.cpp:434] relu1_1 <- conv1_1
I1001 23:10:42.281384  6400 net.cpp:395] relu1_1 -> conv1_1 (in-place)
I1001 23:10:42.281388  6400 net.cpp:150] Setting up relu1_1
I1001 23:10:42.281391  6400 net.cpp:157] Top shape: 8 64 300 300 (46080000)
I1001 23:10:42.281392  6400 net.cpp:165] Memory required for data: 437760032
I1001 23:10:42.281394  6400 layer_factory.hpp:77] Creating layer conv1_2
I1001 23:10:42.281399  6400 net.cpp:100] Creating Layer conv1_2
I1001 23:10:42.281401  6400 net.cpp:434] conv1_2 <- conv1_1
I1001 23:10:42.281404  6400 net.cpp:408] conv1_2 -> conv1_2
I1001 23:10:42.285771  6400 net.cpp:150] Setting up conv1_2
I1001 23:10:42.285794  6400 net.cpp:157] Top shape: 8 64 300 300 (46080000)
I1001 23:10:42.285797  6400 net.cpp:165] Memory required for data: 622080032
I1001 23:10:42.285818  6400 layer_factory.hpp:77] Creating layer relu1_2
I1001 23:10:42.285828  6400 net.cpp:100] Creating Layer relu1_2
I1001 23:10:42.285836  6400 net.cpp:434] relu1_2 <- conv1_2
I1001 23:10:42.285847  6400 net.cpp:395] relu1_2 -> conv1_2 (in-place)
I1001 23:10:42.285857  6400 net.cpp:150] Setting up relu1_2
I1001 23:10:42.285861  6400 net.cpp:157] Top shape: 8 64 300 300 (46080000)
I1001 23:10:42.285863  6400 net.cpp:165] Memory required for data: 806400032
I1001 23:10:42.285871  6400 layer_factory.hpp:77] Creating layer pool1
I1001 23:10:42.285884  6400 net.cpp:100] Creating Layer pool1
I1001 23:10:42.285887  6400 net.cpp:434] pool1 <- conv1_2
I1001 23:10:42.285897  6400 net.cpp:408] pool1 -> pool1
I1001 23:10:42.285931  6400 net.cpp:150] Setting up pool1
I1001 23:10:42.285935  6400 net.cpp:157] Top shape: 8 64 150 150 (11520000)
I1001 23:10:42.285938  6400 net.cpp:165] Memory required for data: 852480032
I1001 23:10:42.285946  6400 layer_factory.hpp:77] Creating layer conv2_1
I1001 23:10:42.285961  6400 net.cpp:100] Creating Layer conv2_1
I1001 23:10:42.285965  6400 net.cpp:434] conv2_1 <- pool1
I1001 23:10:42.285971  6400 net.cpp:408] conv2_1 -> conv2_1
I1001 23:10:42.286442  6400 net.cpp:150] Setting up conv2_1
I1001 23:10:42.286448  6400 net.cpp:157] Top shape: 8 128 150 150 (23040000)
I1001 23:10:42.286449  6400 net.cpp:165] Memory required for data: 944640032
I1001 23:10:42.286460  6400 layer_factory.hpp:77] Creating layer relu2_1
I1001 23:10:42.286466  6400 net.cpp:100] Creating Layer relu2_1
I1001 23:10:42.286473  6400 net.cpp:434] relu2_1 <- conv2_1
I1001 23:10:42.286475  6400 net.cpp:395] relu2_1 -> conv2_1 (in-place)
I1001 23:10:42.286483  6400 net.cpp:150] Setting up relu2_1
I1001 23:10:42.286491  6400 net.cpp:157] Top shape: 8 128 150 150 (23040000)
I1001 23:10:42.286494  6400 net.cpp:165] Memory required for data: 1036800032
I1001 23:10:42.286496  6400 layer_factory.hpp:77] Creating layer conv2_2
I1001 23:10:42.286506  6400 net.cpp:100] Creating Layer conv2_2
I1001 23:10:42.286509  6400 net.cpp:434] conv2_2 <- conv2_1
I1001 23:10:42.286518  6400 net.cpp:408] conv2_2 -> conv2_2
I1001 23:10:42.288136  6400 net.cpp:150] Setting up conv2_2
I1001 23:10:42.288154  6400 net.cpp:157] Top shape: 8 128 150 150 (23040000)
I1001 23:10:42.288156  6400 net.cpp:165] Memory required for data: 1128960032
I1001 23:10:42.288163  6400 layer_factory.hpp:77] Creating layer relu2_2
I1001 23:10:42.288169  6400 net.cpp:100] Creating Layer relu2_2
I1001 23:10:42.288173  6400 net.cpp:434] relu2_2 <- conv2_2
I1001 23:10:42.288177  6400 net.cpp:395] relu2_2 -> conv2_2 (in-place)
I1001 23:10:42.288183  6400 net.cpp:150] Setting up relu2_2
I1001 23:10:42.288208  6400 net.cpp:157] Top shape: 8 128 150 150 (23040000)
I1001 23:10:42.288210  6400 net.cpp:165] Memory required for data: 1221120032
I1001 23:10:42.288213  6400 layer_factory.hpp:77] Creating layer pool2
I1001 23:10:42.288216  6400 net.cpp:100] Creating Layer pool2
I1001 23:10:42.288218  6400 net.cpp:434] pool2 <- conv2_2
I1001 23:10:42.288221  6400 net.cpp:408] pool2 -> pool2
I1001 23:10:42.288260  6400 net.cpp:150] Setting up pool2
I1001 23:10:42.288273  6400 net.cpp:157] Top shape: 8 128 75 75 (5760000)
I1001 23:10:42.288275  6400 net.cpp:165] Memory required for data: 1244160032
I1001 23:10:42.288277  6400 layer_factory.hpp:77] Creating layer conv3_1
I1001 23:10:42.288287  6400 net.cpp:100] Creating Layer conv3_1
I1001 23:10:42.288290  6400 net.cpp:434] conv3_1 <- pool2
I1001 23:10:42.288298  6400 net.cpp:408] conv3_1 -> conv3_1
I1001 23:10:42.289963  6400 net.cpp:150] Setting up conv3_1
I1001 23:10:42.289988  6400 net.cpp:157] Top shape: 8 256 75 75 (11520000)
I1001 23:10:42.289989  6400 net.cpp:165] Memory required for data: 1290240032
I1001 23:10:42.289999  6400 layer_factory.hpp:77] Creating layer relu3_1
I1001 23:10:42.290006  6400 net.cpp:100] Creating Layer relu3_1
I1001 23:10:42.290009  6400 net.cpp:434] relu3_1 <- conv3_1
I1001 23:10:42.290014  6400 net.cpp:395] relu3_1 -> conv3_1 (in-place)
I1001 23:10:42.290020  6400 net.cpp:150] Setting up relu3_1
I1001 23:10:42.290022  6400 net.cpp:157] Top shape: 8 256 75 75 (11520000)
I1001 23:10:42.290024  6400 net.cpp:165] Memory required for data: 1336320032
I1001 23:10:42.290026  6400 layer_factory.hpp:77] Creating layer conv3_2
I1001 23:10:42.290033  6400 net.cpp:100] Creating Layer conv3_2
I1001 23:10:42.290035  6400 net.cpp:434] conv3_2 <- conv3_1
I1001 23:10:42.290038  6400 net.cpp:408] conv3_2 -> conv3_2
I1001 23:10:42.293407  6400 net.cpp:150] Setting up conv3_2
I1001 23:10:42.293442  6400 net.cpp:157] Top shape: 8 256 75 75 (11520000)
I1001 23:10:42.293443  6400 net.cpp:165] Memory required for data: 1382400032
I1001 23:10:42.293462  6400 layer_factory.hpp:77] Creating layer relu3_2
I1001 23:10:42.293468  6400 net.cpp:100] Creating Layer relu3_2
I1001 23:10:42.293471  6400 net.cpp:434] relu3_2 <- conv3_2
I1001 23:10:42.293475  6400 net.cpp:395] relu3_2 -> conv3_2 (in-place)
I1001 23:10:42.293480  6400 net.cpp:150] Setting up relu3_2
I1001 23:10:42.293483  6400 net.cpp:157] Top shape: 8 256 75 75 (11520000)
I1001 23:10:42.293485  6400 net.cpp:165] Memory required for data: 1428480032
I1001 23:10:42.293488  6400 layer_factory.hpp:77] Creating layer conv3_3
I1001 23:10:42.293494  6400 net.cpp:100] Creating Layer conv3_3
I1001 23:10:42.293496  6400 net.cpp:434] conv3_3 <- conv3_2
I1001 23:10:42.293499  6400 net.cpp:408] conv3_3 -> conv3_3
I1001 23:10:42.296721  6400 net.cpp:150] Setting up conv3_3
I1001 23:10:42.296746  6400 net.cpp:157] Top shape: 8 256 75 75 (11520000)
I1001 23:10:42.296747  6400 net.cpp:165] Memory required for data: 1474560032
I1001 23:10:42.296764  6400 layer_factory.hpp:77] Creating layer relu3_3
I1001 23:10:42.296772  6400 net.cpp:100] Creating Layer relu3_3
I1001 23:10:42.296774  6400 net.cpp:434] relu3_3 <- conv3_3
I1001 23:10:42.296779  6400 net.cpp:395] relu3_3 -> conv3_3 (in-place)
I1001 23:10:42.296784  6400 net.cpp:150] Setting up relu3_3
I1001 23:10:42.296787  6400 net.cpp:157] Top shape: 8 256 75 75 (11520000)
I1001 23:10:42.296789  6400 net.cpp:165] Memory required for data: 1520640032
I1001 23:10:42.296792  6400 layer_factory.hpp:77] Creating layer pool3
I1001 23:10:42.296794  6400 net.cpp:100] Creating Layer pool3
I1001 23:10:42.296797  6400 net.cpp:434] pool3 <- conv3_3
I1001 23:10:42.296799  6400 net.cpp:408] pool3 -> pool3
I1001 23:10:42.296839  6400 net.cpp:150] Setting up pool3
I1001 23:10:42.296842  6400 net.cpp:157] Top shape: 8 256 38 38 (2957312)
I1001 23:10:42.296844  6400 net.cpp:165] Memory required for data: 1532469280
I1001 23:10:42.296846  6400 layer_factory.hpp:77] Creating layer conv4_1
I1001 23:10:42.296854  6400 net.cpp:100] Creating Layer conv4_1
I1001 23:10:42.296875  6400 net.cpp:434] conv4_1 <- pool3
I1001 23:10:42.296882  6400 net.cpp:408] conv4_1 -> conv4_1
I1001 23:10:42.303226  6400 net.cpp:150] Setting up conv4_1
I1001 23:10:42.303258  6400 net.cpp:157] Top shape: 8 512 38 38 (5914624)
I1001 23:10:42.303261  6400 net.cpp:165] Memory required for data: 1556127776
I1001 23:10:42.303268  6400 layer_factory.hpp:77] Creating layer relu4_1
I1001 23:10:42.303287  6400 net.cpp:100] Creating Layer relu4_1
I1001 23:10:42.303292  6400 net.cpp:434] relu4_1 <- conv4_1
I1001 23:10:42.303297  6400 net.cpp:395] relu4_1 -> conv4_1 (in-place)
I1001 23:10:42.303303  6400 net.cpp:150] Setting up relu4_1
I1001 23:10:42.303305  6400 net.cpp:157] Top shape: 8 512 38 38 (5914624)
I1001 23:10:42.303308  6400 net.cpp:165] Memory required for data: 1579786272
I1001 23:10:42.303309  6400 layer_factory.hpp:77] Creating layer conv4_2
I1001 23:10:42.303316  6400 net.cpp:100] Creating Layer conv4_2
I1001 23:10:42.303318  6400 net.cpp:434] conv4_2 <- conv4_1
I1001 23:10:42.303321  6400 net.cpp:408] conv4_2 -> conv4_2
I1001 23:10:42.315423  6400 net.cpp:150] Setting up conv4_2
I1001 23:10:42.315449  6400 net.cpp:157] Top shape: 8 512 38 38 (5914624)
I1001 23:10:42.315451  6400 net.cpp:165] Memory required for data: 1603444768
I1001 23:10:42.315470  6400 layer_factory.hpp:77] Creating layer relu4_2
I1001 23:10:42.315477  6400 net.cpp:100] Creating Layer relu4_2
I1001 23:10:42.315480  6400 net.cpp:434] relu4_2 <- conv4_2
I1001 23:10:42.315485  6400 net.cpp:395] relu4_2 -> conv4_2 (in-place)
I1001 23:10:42.315491  6400 net.cpp:150] Setting up relu4_2
I1001 23:10:42.315495  6400 net.cpp:157] Top shape: 8 512 38 38 (5914624)
I1001 23:10:42.315496  6400 net.cpp:165] Memory required for data: 1627103264
I1001 23:10:42.315498  6400 layer_factory.hpp:77] Creating layer conv4_3
I1001 23:10:42.315505  6400 net.cpp:100] Creating Layer conv4_3
I1001 23:10:42.315506  6400 net.cpp:434] conv4_3 <- conv4_2
I1001 23:10:42.315510  6400 net.cpp:408] conv4_3 -> conv4_3
I1001 23:10:42.326989  6400 net.cpp:150] Setting up conv4_3
I1001 23:10:42.327019  6400 net.cpp:157] Top shape: 8 512 38 38 (5914624)
I1001 23:10:42.327021  6400 net.cpp:165] Memory required for data: 1650761760
I1001 23:10:42.327028  6400 layer_factory.hpp:77] Creating layer relu4_3
I1001 23:10:42.327046  6400 net.cpp:100] Creating Layer relu4_3
I1001 23:10:42.327050  6400 net.cpp:434] relu4_3 <- conv4_3
I1001 23:10:42.327054  6400 net.cpp:395] relu4_3 -> conv4_3 (in-place)
I1001 23:10:42.327061  6400 net.cpp:150] Setting up relu4_3
I1001 23:10:42.327064  6400 net.cpp:157] Top shape: 8 512 38 38 (5914624)
I1001 23:10:42.327065  6400 net.cpp:165] Memory required for data: 1674420256
I1001 23:10:42.327067  6400 layer_factory.hpp:77] Creating layer conv4_3_relu4_3_0_split
I1001 23:10:42.327072  6400 net.cpp:100] Creating Layer conv4_3_relu4_3_0_split
I1001 23:10:42.327075  6400 net.cpp:434] conv4_3_relu4_3_0_split <- conv4_3
I1001 23:10:42.327078  6400 net.cpp:408] conv4_3_relu4_3_0_split -> conv4_3_relu4_3_0_split_0
I1001 23:10:42.327083  6400 net.cpp:408] conv4_3_relu4_3_0_split -> conv4_3_relu4_3_0_split_1
I1001 23:10:42.327114  6400 net.cpp:150] Setting up conv4_3_relu4_3_0_split
I1001 23:10:42.327118  6400 net.cpp:157] Top shape: 8 512 38 38 (5914624)
I1001 23:10:42.327121  6400 net.cpp:157] Top shape: 8 512 38 38 (5914624)
I1001 23:10:42.327122  6400 net.cpp:165] Memory required for data: 1721737248
I1001 23:10:42.327131  6400 layer_factory.hpp:77] Creating layer pool4
I1001 23:10:42.327136  6400 net.cpp:100] Creating Layer pool4
I1001 23:10:42.327137  6400 net.cpp:434] pool4 <- conv4_3_relu4_3_0_split_0
I1001 23:10:42.327143  6400 net.cpp:408] pool4 -> pool4
I1001 23:10:42.327178  6400 net.cpp:150] Setting up pool4
I1001 23:10:42.327181  6400 net.cpp:157] Top shape: 8 512 19 19 (1478656)
I1001 23:10:42.327183  6400 net.cpp:165] Memory required for data: 1727651872
I1001 23:10:42.327188  6400 layer_factory.hpp:77] Creating layer conv5_1
I1001 23:10:42.327196  6400 net.cpp:100] Creating Layer conv5_1
I1001 23:10:42.327198  6400 net.cpp:434] conv5_1 <- pool4
I1001 23:10:42.327229  6400 net.cpp:408] conv5_1 -> conv5_1
I1001 23:10:42.339385  6400 net.cpp:150] Setting up conv5_1
I1001 23:10:42.339421  6400 net.cpp:157] Top shape: 8 512 19 19 (1478656)
I1001 23:10:42.339423  6400 net.cpp:165] Memory required for data: 1733566496
I1001 23:10:42.339431  6400 layer_factory.hpp:77] Creating layer relu5_1
I1001 23:10:42.339447  6400 net.cpp:100] Creating Layer relu5_1
I1001 23:10:42.339450  6400 net.cpp:434] relu5_1 <- conv5_1
I1001 23:10:42.339454  6400 net.cpp:395] relu5_1 -> conv5_1 (in-place)
I1001 23:10:42.339460  6400 net.cpp:150] Setting up relu5_1
I1001 23:10:42.339463  6400 net.cpp:157] Top shape: 8 512 19 19 (1478656)
I1001 23:10:42.339465  6400 net.cpp:165] Memory required for data: 1739481120
I1001 23:10:42.339467  6400 layer_factory.hpp:77] Creating layer conv5_2
I1001 23:10:42.339473  6400 net.cpp:100] Creating Layer conv5_2
I1001 23:10:42.339475  6400 net.cpp:434] conv5_2 <- conv5_1
I1001 23:10:42.339479  6400 net.cpp:408] conv5_2 -> conv5_2
I1001 23:10:42.351675  6400 net.cpp:150] Setting up conv5_2
I1001 23:10:42.351697  6400 net.cpp:157] Top shape: 8 512 19 19 (1478656)
I1001 23:10:42.351699  6400 net.cpp:165] Memory required for data: 1745395744
I1001 23:10:42.351714  6400 layer_factory.hpp:77] Creating layer relu5_2
I1001 23:10:42.351721  6400 net.cpp:100] Creating Layer relu5_2
I1001 23:10:42.351723  6400 net.cpp:434] relu5_2 <- conv5_2
I1001 23:10:42.351727  6400 net.cpp:395] relu5_2 -> conv5_2 (in-place)
I1001 23:10:42.351733  6400 net.cpp:150] Setting up relu5_2
I1001 23:10:42.351737  6400 net.cpp:157] Top shape: 8 512 19 19 (1478656)
I1001 23:10:42.351737  6400 net.cpp:165] Memory required for data: 1751310368
I1001 23:10:42.351739  6400 layer_factory.hpp:77] Creating layer conv5_3
I1001 23:10:42.351745  6400 net.cpp:100] Creating Layer conv5_3
I1001 23:10:42.351747  6400 net.cpp:434] conv5_3 <- conv5_2
I1001 23:10:42.351755  6400 net.cpp:408] conv5_3 -> conv5_3
I1001 23:10:42.363047  6400 net.cpp:150] Setting up conv5_3
I1001 23:10:42.363076  6400 net.cpp:157] Top shape: 8 512 19 19 (1478656)
I1001 23:10:42.363078  6400 net.cpp:165] Memory required for data: 1757224992
I1001 23:10:42.363087  6400 layer_factory.hpp:77] Creating layer relu5_3
I1001 23:10:42.363098  6400 net.cpp:100] Creating Layer relu5_3
I1001 23:10:42.363102  6400 net.cpp:434] relu5_3 <- conv5_3
I1001 23:10:42.363107  6400 net.cpp:395] relu5_3 -> conv5_3 (in-place)
I1001 23:10:42.363114  6400 net.cpp:150] Setting up relu5_3
I1001 23:10:42.363116  6400 net.cpp:157] Top shape: 8 512 19 19 (1478656)
I1001 23:10:42.363118  6400 net.cpp:165] Memory required for data: 1763139616
I1001 23:10:42.363131  6400 layer_factory.hpp:77] Creating layer pool5
I1001 23:10:42.363137  6400 net.cpp:100] Creating Layer pool5
I1001 23:10:42.363138  6400 net.cpp:434] pool5 <- conv5_3
I1001 23:10:42.363142  6400 net.cpp:408] pool5 -> pool5
I1001 23:10:42.363170  6400 net.cpp:150] Setting up pool5
I1001 23:10:42.363173  6400 net.cpp:157] Top shape: 8 512 19 19 (1478656)
I1001 23:10:42.363175  6400 net.cpp:165] Memory required for data: 1769054240
I1001 23:10:42.363178  6400 layer_factory.hpp:77] Creating layer fc6
I1001 23:10:42.363185  6400 net.cpp:100] Creating Layer fc6
I1001 23:10:42.363188  6400 net.cpp:434] fc6 <- pool5
I1001 23:10:42.363190  6400 net.cpp:408] fc6 -> fc6
I1001 23:10:42.385454  6400 net.cpp:150] Setting up fc6
I1001 23:10:42.385475  6400 net.cpp:157] Top shape: 8 1024 19 19 (2957312)
I1001 23:10:42.385478  6400 net.cpp:165] Memory required for data: 1780883488
I1001 23:10:42.385493  6400 layer_factory.hpp:77] Creating layer relu6
I1001 23:10:42.385501  6400 net.cpp:100] Creating Layer relu6
I1001 23:10:42.385504  6400 net.cpp:434] relu6 <- fc6
I1001 23:10:42.385509  6400 net.cpp:395] relu6 -> fc6 (in-place)
I1001 23:10:42.385515  6400 net.cpp:150] Setting up relu6
I1001 23:10:42.385519  6400 net.cpp:157] Top shape: 8 1024 19 19 (2957312)
I1001 23:10:42.385519  6400 net.cpp:165] Memory required for data: 1792712736
I1001 23:10:42.385521  6400 layer_factory.hpp:77] Creating layer fc7
I1001 23:10:42.385563  6400 net.cpp:100] Creating Layer fc7
I1001 23:10:42.385565  6400 net.cpp:434] fc7 <- fc6
I1001 23:10:42.385581  6400 net.cpp:408] fc7 -> fc7
I1001 23:10:42.390910  6400 net.cpp:150] Setting up fc7
I1001 23:10:42.390938  6400 net.cpp:157] Top shape: 8 1024 19 19 (2957312)
I1001 23:10:42.390940  6400 net.cpp:165] Memory required for data: 1804541984
I1001 23:10:42.390947  6400 layer_factory.hpp:77] Creating layer relu7
I1001 23:10:42.390967  6400 net.cpp:100] Creating Layer relu7
I1001 23:10:42.390970  6400 net.cpp:434] relu7 <- fc7
I1001 23:10:42.390977  6400 net.cpp:395] relu7 -> fc7 (in-place)
I1001 23:10:42.390983  6400 net.cpp:150] Setting up relu7
I1001 23:10:42.390986  6400 net.cpp:157] Top shape: 8 1024 19 19 (2957312)
I1001 23:10:42.390988  6400 net.cpp:165] Memory required for data: 1816371232
I1001 23:10:42.390990  6400 layer_factory.hpp:77] Creating layer fc7_relu7_0_split
I1001 23:10:42.390995  6400 net.cpp:100] Creating Layer fc7_relu7_0_split
I1001 23:10:42.390996  6400 net.cpp:434] fc7_relu7_0_split <- fc7
I1001 23:10:42.391001  6400 net.cpp:408] fc7_relu7_0_split -> fc7_relu7_0_split_0
I1001 23:10:42.391006  6400 net.cpp:408] fc7_relu7_0_split -> fc7_relu7_0_split_1
I1001 23:10:42.391016  6400 net.cpp:408] fc7_relu7_0_split -> fc7_relu7_0_split_2
I1001 23:10:42.391026  6400 net.cpp:408] fc7_relu7_0_split -> fc7_relu7_0_split_3
I1001 23:10:42.391083  6400 net.cpp:150] Setting up fc7_relu7_0_split
I1001 23:10:42.391088  6400 net.cpp:157] Top shape: 8 1024 19 19 (2957312)
I1001 23:10:42.391094  6400 net.cpp:157] Top shape: 8 1024 19 19 (2957312)
I1001 23:10:42.391098  6400 net.cpp:157] Top shape: 8 1024 19 19 (2957312)
I1001 23:10:42.391099  6400 net.cpp:157] Top shape: 8 1024 19 19 (2957312)
I1001 23:10:42.391101  6400 net.cpp:165] Memory required for data: 1863688224
I1001 23:10:42.391103  6400 layer_factory.hpp:77] Creating layer conv6_1
I1001 23:10:42.391114  6400 net.cpp:100] Creating Layer conv6_1
I1001 23:10:42.391116  6400 net.cpp:434] conv6_1 <- fc7_relu7_0_split_0
I1001 23:10:42.391124  6400 net.cpp:408] conv6_1 -> conv6_1
I1001 23:10:42.393028  6400 net.cpp:150] Setting up conv6_1
I1001 23:10:42.393051  6400 net.cpp:157] Top shape: 8 256 19 19 (739328)
I1001 23:10:42.393054  6400 net.cpp:165] Memory required for data: 1866645536
I1001 23:10:42.393061  6400 layer_factory.hpp:77] Creating layer conv6_1_relu
I1001 23:10:42.393069  6400 net.cpp:100] Creating Layer conv6_1_relu
I1001 23:10:42.393072  6400 net.cpp:434] conv6_1_relu <- conv6_1
I1001 23:10:42.393077  6400 net.cpp:395] conv6_1_relu -> conv6_1 (in-place)
I1001 23:10:42.393084  6400 net.cpp:150] Setting up conv6_1_relu
I1001 23:10:42.393085  6400 net.cpp:157] Top shape: 8 256 19 19 (739328)
I1001 23:10:42.393097  6400 net.cpp:165] Memory required for data: 1869602848
I1001 23:10:42.393100  6400 layer_factory.hpp:77] Creating layer conv6_2
I1001 23:10:42.393107  6400 net.cpp:100] Creating Layer conv6_2
I1001 23:10:42.393110  6400 net.cpp:434] conv6_2 <- conv6_1
I1001 23:10:42.393113  6400 net.cpp:408] conv6_2 -> conv6_2
I1001 23:10:42.399272  6400 net.cpp:150] Setting up conv6_2
I1001 23:10:42.399292  6400 net.cpp:157] Top shape: 8 512 10 10 (409600)
I1001 23:10:42.399294  6400 net.cpp:165] Memory required for data: 1871241248
I1001 23:10:42.399313  6400 layer_factory.hpp:77] Creating layer conv6_2_relu
I1001 23:10:42.399323  6400 net.cpp:100] Creating Layer conv6_2_relu
I1001 23:10:42.399328  6400 net.cpp:434] conv6_2_relu <- conv6_2
I1001 23:10:42.399338  6400 net.cpp:395] conv6_2_relu -> conv6_2 (in-place)
I1001 23:10:42.399353  6400 net.cpp:150] Setting up conv6_2_relu
I1001 23:10:42.399356  6400 net.cpp:157] Top shape: 8 512 10 10 (409600)
I1001 23:10:42.399360  6400 net.cpp:165] Memory required for data: 1872879648
I1001 23:10:42.399365  6400 layer_factory.hpp:77] Creating layer conv6_2_conv6_2_relu_0_split
I1001 23:10:42.399375  6400 net.cpp:100] Creating Layer conv6_2_conv6_2_relu_0_split
I1001 23:10:42.399379  6400 net.cpp:434] conv6_2_conv6_2_relu_0_split <- conv6_2
I1001 23:10:42.399389  6400 net.cpp:408] conv6_2_conv6_2_relu_0_split -> conv6_2_conv6_2_relu_0_split_0
I1001 23:10:42.399415  6400 net.cpp:408] conv6_2_conv6_2_relu_0_split -> conv6_2_conv6_2_relu_0_split_1
I1001 23:10:42.399420  6400 net.cpp:408] conv6_2_conv6_2_relu_0_split -> conv6_2_conv6_2_relu_0_split_2
I1001 23:10:42.399430  6400 net.cpp:408] conv6_2_conv6_2_relu_0_split -> conv6_2_conv6_2_relu_0_split_3
I1001 23:10:42.399487  6400 net.cpp:150] Setting up conv6_2_conv6_2_relu_0_split
I1001 23:10:42.399492  6400 net.cpp:157] Top shape: 8 512 10 10 (409600)
I1001 23:10:42.399498  6400 net.cpp:157] Top shape: 8 512 10 10 (409600)
I1001 23:10:42.399504  6400 net.cpp:157] Top shape: 8 512 10 10 (409600)
I1001 23:10:42.399510  6400 net.cpp:157] Top shape: 8 512 10 10 (409600)
I1001 23:10:42.399518  6400 net.cpp:165] Memory required for data: 1879433248
I1001 23:10:42.399520  6400 layer_factory.hpp:77] Creating layer conv7_1
I1001 23:10:42.399533  6400 net.cpp:100] Creating Layer conv7_1
I1001 23:10:42.399536  6400 net.cpp:434] conv7_1 <- conv6_2_conv6_2_relu_0_split_0
I1001 23:10:42.399544  6400 net.cpp:408] conv7_1 -> conv7_1
I1001 23:10:42.399971  6400 net.cpp:150] Setting up conv7_1
I1001 23:10:42.399976  6400 net.cpp:157] Top shape: 8 128 10 10 (102400)
I1001 23:10:42.399978  6400 net.cpp:165] Memory required for data: 1879842848
I1001 23:10:42.399991  6400 layer_factory.hpp:77] Creating layer conv7_1_relu
I1001 23:10:42.400001  6400 net.cpp:100] Creating Layer conv7_1_relu
I1001 23:10:42.400003  6400 net.cpp:434] conv7_1_relu <- conv7_1
I1001 23:10:42.400012  6400 net.cpp:395] conv7_1_relu -> conv7_1 (in-place)
I1001 23:10:42.400015  6400 net.cpp:150] Setting up conv7_1_relu
I1001 23:10:42.400022  6400 net.cpp:157] Top shape: 8 128 10 10 (102400)
I1001 23:10:42.400028  6400 net.cpp:165] Memory required for data: 1880252448
I1001 23:10:42.400030  6400 layer_factory.hpp:77] Creating layer conv7_2
I1001 23:10:42.400044  6400 net.cpp:100] Creating Layer conv7_2
I1001 23:10:42.400048  6400 net.cpp:434] conv7_2 <- conv7_1
I1001 23:10:42.400058  6400 net.cpp:408] conv7_2 -> conv7_2
I1001 23:10:42.402041  6400 net.cpp:150] Setting up conv7_2
I1001 23:10:42.402065  6400 net.cpp:157] Top shape: 8 256 5 5 (51200)
I1001 23:10:42.402066  6400 net.cpp:165] Memory required for data: 1880457248
I1001 23:10:42.402083  6400 layer_factory.hpp:77] Creating layer conv7_2_relu
I1001 23:10:42.402096  6400 net.cpp:100] Creating Layer conv7_2_relu
I1001 23:10:42.402101  6400 net.cpp:434] conv7_2_relu <- conv7_2
I1001 23:10:42.402114  6400 net.cpp:395] conv7_2_relu -> conv7_2 (in-place)
I1001 23:10:42.402123  6400 net.cpp:150] Setting up conv7_2_relu
I1001 23:10:42.402127  6400 net.cpp:157] Top shape: 8 256 5 5 (51200)
I1001 23:10:42.402132  6400 net.cpp:165] Memory required for data: 1880662048
I1001 23:10:42.402139  6400 layer_factory.hpp:77] Creating layer conv7_2_conv7_2_relu_0_split
I1001 23:10:42.402151  6400 net.cpp:100] Creating Layer conv7_2_conv7_2_relu_0_split
I1001 23:10:42.402154  6400 net.cpp:434] conv7_2_conv7_2_relu_0_split <- conv7_2
I1001 23:10:42.402165  6400 net.cpp:408] conv7_2_conv7_2_relu_0_split -> conv7_2_conv7_2_relu_0_split_0
I1001 23:10:42.402174  6400 net.cpp:408] conv7_2_conv7_2_relu_0_split -> conv7_2_conv7_2_relu_0_split_1
I1001 23:10:42.402182  6400 net.cpp:408] conv7_2_conv7_2_relu_0_split -> conv7_2_conv7_2_relu_0_split_2
I1001 23:10:42.402187  6400 net.cpp:408] conv7_2_conv7_2_relu_0_split -> conv7_2_conv7_2_relu_0_split_3
I1001 23:10:42.402248  6400 net.cpp:150] Setting up conv7_2_conv7_2_relu_0_split
I1001 23:10:42.402253  6400 net.cpp:157] Top shape: 8 256 5 5 (51200)
I1001 23:10:42.402259  6400 net.cpp:157] Top shape: 8 256 5 5 (51200)
I1001 23:10:42.402269  6400 net.cpp:157] Top shape: 8 256 5 5 (51200)
I1001 23:10:42.402276  6400 net.cpp:157] Top shape: 8 256 5 5 (51200)
I1001 23:10:42.402279  6400 net.cpp:165] Memory required for data: 1881481248
I1001 23:10:42.402285  6400 layer_factory.hpp:77] Creating layer conv8_1
I1001 23:10:42.402297  6400 net.cpp:100] Creating Layer conv8_1
I1001 23:10:42.402300  6400 net.cpp:434] conv8_1 <- conv7_2_conv7_2_relu_0_split_0
I1001 23:10:42.402325  6400 net.cpp:408] conv8_1 -> conv8_1
I1001 23:10:42.402634  6400 net.cpp:150] Setting up conv8_1
I1001 23:10:42.402640  6400 net.cpp:157] Top shape: 8 128 5 5 (25600)
I1001 23:10:42.402642  6400 net.cpp:165] Memory required for data: 1881583648
I1001 23:10:42.402653  6400 layer_factory.hpp:77] Creating layer conv8_1_relu
I1001 23:10:42.402664  6400 net.cpp:100] Creating Layer conv8_1_relu
I1001 23:10:42.402667  6400 net.cpp:434] conv8_1_relu <- conv8_1
I1001 23:10:42.402675  6400 net.cpp:395] conv8_1_relu -> conv8_1 (in-place)
I1001 23:10:42.402679  6400 net.cpp:150] Setting up conv8_1_relu
I1001 23:10:42.402688  6400 net.cpp:157] Top shape: 8 128 5 5 (25600)
I1001 23:10:42.402696  6400 net.cpp:165] Memory required for data: 1881686048
I1001 23:10:42.402698  6400 layer_factory.hpp:77] Creating layer conv8_2
I1001 23:10:42.402714  6400 net.cpp:100] Creating Layer conv8_2
I1001 23:10:42.402716  6400 net.cpp:434] conv8_2 <- conv8_1
I1001 23:10:42.402724  6400 net.cpp:408] conv8_2 -> conv8_2
I1001 23:10:42.404767  6400 net.cpp:150] Setting up conv8_2
I1001 23:10:42.404786  6400 net.cpp:157] Top shape: 8 256 3 3 (18432)
I1001 23:10:42.404798  6400 net.cpp:165] Memory required for data: 1881759776
I1001 23:10:42.404814  6400 layer_factory.hpp:77] Creating layer conv8_2_relu
I1001 23:10:42.404826  6400 net.cpp:100] Creating Layer conv8_2_relu
I1001 23:10:42.404830  6400 net.cpp:434] conv8_2_relu <- conv8_2
I1001 23:10:42.404848  6400 net.cpp:395] conv8_2_relu -> conv8_2 (in-place)
I1001 23:10:42.404858  6400 net.cpp:150] Setting up conv8_2_relu
I1001 23:10:42.404862  6400 net.cpp:157] Top shape: 8 256 3 3 (18432)
I1001 23:10:42.404870  6400 net.cpp:165] Memory required for data: 1881833504
I1001 23:10:42.404875  6400 layer_factory.hpp:77] Creating layer conv8_2_conv8_2_relu_0_split
I1001 23:10:42.404886  6400 net.cpp:100] Creating Layer conv8_2_conv8_2_relu_0_split
I1001 23:10:42.404888  6400 net.cpp:434] conv8_2_conv8_2_relu_0_split <- conv8_2
I1001 23:10:42.404897  6400 net.cpp:408] conv8_2_conv8_2_relu_0_split -> conv8_2_conv8_2_relu_0_split_0
I1001 23:10:42.404906  6400 net.cpp:408] conv8_2_conv8_2_relu_0_split -> conv8_2_conv8_2_relu_0_split_1
I1001 23:10:42.404914  6400 net.cpp:408] conv8_2_conv8_2_relu_0_split -> conv8_2_conv8_2_relu_0_split_2
I1001 23:10:42.404919  6400 net.cpp:408] conv8_2_conv8_2_relu_0_split -> conv8_2_conv8_2_relu_0_split_3
I1001 23:10:42.404980  6400 net.cpp:150] Setting up conv8_2_conv8_2_relu_0_split
I1001 23:10:42.404985  6400 net.cpp:157] Top shape: 8 256 3 3 (18432)
I1001 23:10:42.404992  6400 net.cpp:157] Top shape: 8 256 3 3 (18432)
I1001 23:10:42.404999  6400 net.cpp:157] Top shape: 8 256 3 3 (18432)
I1001 23:10:42.405004  6400 net.cpp:157] Top shape: 8 256 3 3 (18432)
I1001 23:10:42.405011  6400 net.cpp:165] Memory required for data: 1882128416
I1001 23:10:42.405014  6400 layer_factory.hpp:77] Creating layer conv9_1
I1001 23:10:42.405026  6400 net.cpp:100] Creating Layer conv9_1
I1001 23:10:42.405030  6400 net.cpp:434] conv9_1 <- conv8_2_conv8_2_relu_0_split_0
I1001 23:10:42.405037  6400 net.cpp:408] conv9_1 -> conv9_1
I1001 23:10:42.405334  6400 net.cpp:150] Setting up conv9_1
I1001 23:10:42.405339  6400 net.cpp:157] Top shape: 8 128 3 3 (9216)
I1001 23:10:42.405349  6400 net.cpp:165] Memory required for data: 1882165280
I1001 23:10:42.405352  6400 layer_factory.hpp:77] Creating layer conv9_1_relu
I1001 23:10:42.405364  6400 net.cpp:100] Creating Layer conv9_1_relu
I1001 23:10:42.405367  6400 net.cpp:434] conv9_1_relu <- conv9_1
I1001 23:10:42.405375  6400 net.cpp:395] conv9_1_relu -> conv9_1 (in-place)
I1001 23:10:42.405380  6400 net.cpp:150] Setting up conv9_1_relu
I1001 23:10:42.405388  6400 net.cpp:157] Top shape: 8 128 3 3 (9216)
I1001 23:10:42.405395  6400 net.cpp:165] Memory required for data: 1882202144
I1001 23:10:42.405400  6400 layer_factory.hpp:77] Creating layer conv9_2
I1001 23:10:42.405413  6400 net.cpp:100] Creating Layer conv9_2
I1001 23:10:42.405416  6400 net.cpp:434] conv9_2 <- conv9_1
I1001 23:10:42.405424  6400 net.cpp:408] conv9_2 -> conv9_2
I1001 23:10:42.407402  6400 net.cpp:150] Setting up conv9_2
I1001 23:10:42.407420  6400 net.cpp:157] Top shape: 8 256 1 1 (2048)
I1001 23:10:42.407423  6400 net.cpp:165] Memory required for data: 1882210336
I1001 23:10:42.407439  6400 layer_factory.hpp:77] Creating layer conv9_2_relu
I1001 23:10:42.407450  6400 net.cpp:100] Creating Layer conv9_2_relu
I1001 23:10:42.407455  6400 net.cpp:434] conv9_2_relu <- conv9_2
I1001 23:10:42.407470  6400 net.cpp:395] conv9_2_relu -> conv9_2 (in-place)
I1001 23:10:42.407482  6400 net.cpp:150] Setting up conv9_2_relu
I1001 23:10:42.407486  6400 net.cpp:157] Top shape: 8 256 1 1 (2048)
I1001 23:10:42.407492  6400 net.cpp:165] Memory required for data: 1882218528
I1001 23:10:42.407495  6400 layer_factory.hpp:77] Creating layer conv9_2_conv9_2_relu_0_split
I1001 23:10:42.407507  6400 net.cpp:100] Creating Layer conv9_2_conv9_2_relu_0_split
I1001 23:10:42.407511  6400 net.cpp:434] conv9_2_conv9_2_relu_0_split <- conv9_2
I1001 23:10:42.407519  6400 net.cpp:408] conv9_2_conv9_2_relu_0_split -> conv9_2_conv9_2_relu_0_split_0
I1001 23:10:42.407527  6400 net.cpp:408] conv9_2_conv9_2_relu_0_split -> conv9_2_conv9_2_relu_0_split_1
I1001 23:10:42.407539  6400 net.cpp:408] conv9_2_conv9_2_relu_0_split -> conv9_2_conv9_2_relu_0_split_2
I1001 23:10:42.407583  6400 net.cpp:150] Setting up conv9_2_conv9_2_relu_0_split
I1001 23:10:42.407588  6400 net.cpp:157] Top shape: 8 256 1 1 (2048)
I1001 23:10:42.407594  6400 net.cpp:157] Top shape: 8 256 1 1 (2048)
I1001 23:10:42.407603  6400 net.cpp:157] Top shape: 8 256 1 1 (2048)
I1001 23:10:42.407606  6400 net.cpp:165] Memory required for data: 1882243104
I1001 23:10:42.407610  6400 layer_factory.hpp:77] Creating layer conv4_3_norm
I1001 23:10:42.407625  6400 net.cpp:100] Creating Layer conv4_3_norm
I1001 23:10:42.407629  6400 net.cpp:434] conv4_3_norm <- conv4_3_relu4_3_0_split_1
I1001 23:10:42.407636  6400 net.cpp:408] conv4_3_norm -> conv4_3_norm
I1001 23:10:42.407773  6400 net.cpp:150] Setting up conv4_3_norm
I1001 23:10:42.407779  6400 net.cpp:157] Top shape: 8 512 38 38 (5914624)
I1001 23:10:42.407786  6400 net.cpp:165] Memory required for data: 1905901600
I1001 23:10:42.407795  6400 layer_factory.hpp:77] Creating layer conv4_3_norm_conv4_3_norm_0_split
I1001 23:10:42.407800  6400 net.cpp:100] Creating Layer conv4_3_norm_conv4_3_norm_0_split
I1001 23:10:42.407809  6400 net.cpp:434] conv4_3_norm_conv4_3_norm_0_split <- conv4_3_norm
I1001 23:10:42.407819  6400 net.cpp:408] conv4_3_norm_conv4_3_norm_0_split -> conv4_3_norm_conv4_3_norm_0_split_0
I1001 23:10:42.407829  6400 net.cpp:408] conv4_3_norm_conv4_3_norm_0_split -> conv4_3_norm_conv4_3_norm_0_split_1
I1001 23:10:42.407832  6400 net.cpp:408] conv4_3_norm_conv4_3_norm_0_split -> conv4_3_norm_conv4_3_norm_0_split_2
I1001 23:10:42.407877  6400 net.cpp:150] Setting up conv4_3_norm_conv4_3_norm_0_split
I1001 23:10:42.407882  6400 net.cpp:157] Top shape: 8 512 38 38 (5914624)
I1001 23:10:42.407888  6400 net.cpp:157] Top shape: 8 512 38 38 (5914624)
I1001 23:10:42.407896  6400 net.cpp:157] Top shape: 8 512 38 38 (5914624)
I1001 23:10:42.407902  6400 net.cpp:165] Memory required for data: 1976877088
I1001 23:10:42.407905  6400 layer_factory.hpp:77] Creating layer conv4_3_norm_mbox_loc
I1001 23:10:42.407917  6400 net.cpp:100] Creating Layer conv4_3_norm_mbox_loc
I1001 23:10:42.407922  6400 net.cpp:434] conv4_3_norm_mbox_loc <- conv4_3_norm_conv4_3_norm_0_split_0
I1001 23:10:42.407932  6400 net.cpp:408] conv4_3_norm_mbox_loc -> conv4_3_norm_mbox_loc
I1001 23:10:42.408409  6400 net.cpp:150] Setting up conv4_3_norm_mbox_loc
I1001 23:10:42.408416  6400 net.cpp:157] Top shape: 8 16 38 38 (184832)
I1001 23:10:42.408418  6400 net.cpp:165] Memory required for data: 1977616416
I1001 23:10:42.408429  6400 layer_factory.hpp:77] Creating layer conv4_3_norm_mbox_loc_perm
I1001 23:10:42.408443  6400 net.cpp:100] Creating Layer conv4_3_norm_mbox_loc_perm
I1001 23:10:42.408447  6400 net.cpp:434] conv4_3_norm_mbox_loc_perm <- conv4_3_norm_mbox_loc
I1001 23:10:42.408457  6400 net.cpp:408] conv4_3_norm_mbox_loc_perm -> conv4_3_norm_mbox_loc_perm
I1001 23:10:42.408553  6400 net.cpp:150] Setting up conv4_3_norm_mbox_loc_perm
I1001 23:10:42.408560  6400 net.cpp:157] Top shape: 8 38 38 16 (184832)
I1001 23:10:42.408565  6400 net.cpp:165] Memory required for data: 1978355744
I1001 23:10:42.408567  6400 layer_factory.hpp:77] Creating layer conv4_3_norm_mbox_loc_flat
I1001 23:10:42.408578  6400 net.cpp:100] Creating Layer conv4_3_norm_mbox_loc_flat
I1001 23:10:42.408586  6400 net.cpp:434] conv4_3_norm_mbox_loc_flat <- conv4_3_norm_mbox_loc_perm
I1001 23:10:42.408596  6400 net.cpp:408] conv4_3_norm_mbox_loc_flat -> conv4_3_norm_mbox_loc_flat
I1001 23:10:42.408620  6400 net.cpp:150] Setting up conv4_3_norm_mbox_loc_flat
I1001 23:10:42.408625  6400 net.cpp:157] Top shape: 8 23104 (184832)
I1001 23:10:42.408632  6400 net.cpp:165] Memory required for data: 1979095072
I1001 23:10:42.408638  6400 layer_factory.hpp:77] Creating layer conv4_3_norm_mbox_conf
I1001 23:10:42.408653  6400 net.cpp:100] Creating Layer conv4_3_norm_mbox_conf
I1001 23:10:42.408656  6400 net.cpp:434] conv4_3_norm_mbox_conf <- conv4_3_norm_conv4_3_norm_0_split_1
I1001 23:10:42.408665  6400 net.cpp:408] conv4_3_norm_mbox_conf -> conv4_3_norm_mbox_conf
I1001 23:10:42.409054  6400 net.cpp:150] Setting up conv4_3_norm_mbox_conf
I1001 23:10:42.409060  6400 net.cpp:157] Top shape: 8 12 38 38 (138624)
I1001 23:10:42.409061  6400 net.cpp:165] Memory required for data: 1979649568
I1001 23:10:42.409071  6400 layer_factory.hpp:77] Creating layer conv4_3_norm_mbox_conf_perm
I1001 23:10:42.409085  6400 net.cpp:100] Creating Layer conv4_3_norm_mbox_conf_perm
I1001 23:10:42.409087  6400 net.cpp:434] conv4_3_norm_mbox_conf_perm <- conv4_3_norm_mbox_conf
I1001 23:10:42.409097  6400 net.cpp:408] conv4_3_norm_mbox_conf_perm -> conv4_3_norm_mbox_conf_perm
I1001 23:10:42.409175  6400 net.cpp:150] Setting up conv4_3_norm_mbox_conf_perm
I1001 23:10:42.409180  6400 net.cpp:157] Top shape: 8 38 38 12 (138624)
I1001 23:10:42.409186  6400 net.cpp:165] Memory required for data: 1980204064
I1001 23:10:42.409188  6400 layer_factory.hpp:77] Creating layer conv4_3_norm_mbox_conf_flat
I1001 23:10:42.409202  6400 net.cpp:100] Creating Layer conv4_3_norm_mbox_conf_flat
I1001 23:10:42.409209  6400 net.cpp:434] conv4_3_norm_mbox_conf_flat <- conv4_3_norm_mbox_conf_perm
I1001 23:10:42.409216  6400 net.cpp:408] conv4_3_norm_mbox_conf_flat -> conv4_3_norm_mbox_conf_flat
I1001 23:10:42.409240  6400 net.cpp:150] Setting up conv4_3_norm_mbox_conf_flat
I1001 23:10:42.409243  6400 net.cpp:157] Top shape: 8 17328 (138624)
I1001 23:10:42.409250  6400 net.cpp:165] Memory required for data: 1980758560
I1001 23:10:42.409255  6400 layer_factory.hpp:77] Creating layer conv4_3_norm_mbox_priorbox
I1001 23:10:42.409266  6400 net.cpp:100] Creating Layer conv4_3_norm_mbox_priorbox
I1001 23:10:42.409271  6400 net.cpp:434] conv4_3_norm_mbox_priorbox <- conv4_3_norm_conv4_3_norm_0_split_2
I1001 23:10:42.409277  6400 net.cpp:434] conv4_3_norm_mbox_priorbox <- data_data_0_split_1
I1001 23:10:42.409288  6400 net.cpp:408] conv4_3_norm_mbox_priorbox -> conv4_3_norm_mbox_priorbox
I1001 23:10:42.409310  6400 net.cpp:150] Setting up conv4_3_norm_mbox_priorbox
I1001 23:10:42.409315  6400 net.cpp:157] Top shape: 1 2 23104 (46208)
I1001 23:10:42.409322  6400 net.cpp:165] Memory required for data: 1980943392
I1001 23:10:42.409327  6400 layer_factory.hpp:77] Creating layer fc7_mbox_loc
I1001 23:10:42.409337  6400 net.cpp:100] Creating Layer fc7_mbox_loc
I1001 23:10:42.409339  6400 net.cpp:434] fc7_mbox_loc <- fc7_relu7_0_split_1
I1001 23:10:42.409343  6400 net.cpp:408] fc7_mbox_loc -> fc7_mbox_loc
I1001 23:10:42.410370  6400 net.cpp:150] Setting up fc7_mbox_loc
I1001 23:10:42.410380  6400 net.cpp:157] Top shape: 8 24 19 19 (69312)
I1001 23:10:42.410385  6400 net.cpp:165] Memory required for data: 1981220640
I1001 23:10:42.410395  6400 layer_factory.hpp:77] Creating layer fc7_mbox_loc_perm
I1001 23:10:42.410406  6400 net.cpp:100] Creating Layer fc7_mbox_loc_perm
I1001 23:10:42.410410  6400 net.cpp:434] fc7_mbox_loc_perm <- fc7_mbox_loc
I1001 23:10:42.410437  6400 net.cpp:408] fc7_mbox_loc_perm -> fc7_mbox_loc_perm
I1001 23:10:42.410521  6400 net.cpp:150] Setting up fc7_mbox_loc_perm
I1001 23:10:42.410526  6400 net.cpp:157] Top shape: 8 19 19 24 (69312)
I1001 23:10:42.410532  6400 net.cpp:165] Memory required for data: 1981497888
I1001 23:10:42.410534  6400 layer_factory.hpp:77] Creating layer fc7_mbox_loc_flat
I1001 23:10:42.410549  6400 net.cpp:100] Creating Layer fc7_mbox_loc_flat
I1001 23:10:42.410552  6400 net.cpp:434] fc7_mbox_loc_flat <- fc7_mbox_loc_perm
I1001 23:10:42.410557  6400 net.cpp:408] fc7_mbox_loc_flat -> fc7_mbox_loc_flat
I1001 23:10:42.410576  6400 net.cpp:150] Setting up fc7_mbox_loc_flat
I1001 23:10:42.410580  6400 net.cpp:157] Top shape: 8 8664 (69312)
I1001 23:10:42.410588  6400 net.cpp:165] Memory required for data: 1981775136
I1001 23:10:42.410590  6400 layer_factory.hpp:77] Creating layer fc7_mbox_conf
I1001 23:10:42.410603  6400 net.cpp:100] Creating Layer fc7_mbox_conf
I1001 23:10:42.410606  6400 net.cpp:434] fc7_mbox_conf <- fc7_relu7_0_split_2
I1001 23:10:42.410614  6400 net.cpp:408] fc7_mbox_conf -> fc7_mbox_conf
I1001 23:10:42.411430  6400 net.cpp:150] Setting up fc7_mbox_conf
I1001 23:10:42.411437  6400 net.cpp:157] Top shape: 8 18 19 19 (51984)
I1001 23:10:42.411443  6400 net.cpp:165] Memory required for data: 1981983072
I1001 23:10:42.411448  6400 layer_factory.hpp:77] Creating layer fc7_mbox_conf_perm
I1001 23:10:42.411458  6400 net.cpp:100] Creating Layer fc7_mbox_conf_perm
I1001 23:10:42.411461  6400 net.cpp:434] fc7_mbox_conf_perm <- fc7_mbox_conf
I1001 23:10:42.411476  6400 net.cpp:408] fc7_mbox_conf_perm -> fc7_mbox_conf_perm
I1001 23:10:42.411557  6400 net.cpp:150] Setting up fc7_mbox_conf_perm
I1001 23:10:42.411562  6400 net.cpp:157] Top shape: 8 19 19 18 (51984)
I1001 23:10:42.411567  6400 net.cpp:165] Memory required for data: 1982191008
I1001 23:10:42.411571  6400 layer_factory.hpp:77] Creating layer fc7_mbox_conf_flat
I1001 23:10:42.411577  6400 net.cpp:100] Creating Layer fc7_mbox_conf_flat
I1001 23:10:42.411582  6400 net.cpp:434] fc7_mbox_conf_flat <- fc7_mbox_conf_perm
I1001 23:10:42.411590  6400 net.cpp:408] fc7_mbox_conf_flat -> fc7_mbox_conf_flat
I1001 23:10:42.411609  6400 net.cpp:150] Setting up fc7_mbox_conf_flat
I1001 23:10:42.411613  6400 net.cpp:157] Top shape: 8 6498 (51984)
I1001 23:10:42.411617  6400 net.cpp:165] Memory required for data: 1982398944
I1001 23:10:42.411622  6400 layer_factory.hpp:77] Creating layer fc7_mbox_priorbox
I1001 23:10:42.411631  6400 net.cpp:100] Creating Layer fc7_mbox_priorbox
I1001 23:10:42.411635  6400 net.cpp:434] fc7_mbox_priorbox <- fc7_relu7_0_split_3
I1001 23:10:42.411641  6400 net.cpp:434] fc7_mbox_priorbox <- data_data_0_split_2
I1001 23:10:42.411650  6400 net.cpp:408] fc7_mbox_priorbox -> fc7_mbox_priorbox
I1001 23:10:42.411671  6400 net.cpp:150] Setting up fc7_mbox_priorbox
I1001 23:10:42.411675  6400 net.cpp:157] Top shape: 1 2 8664 (17328)
I1001 23:10:42.411680  6400 net.cpp:165] Memory required for data: 1982468256
I1001 23:10:42.411684  6400 layer_factory.hpp:77] Creating layer conv6_2_mbox_loc
I1001 23:10:42.411697  6400 net.cpp:100] Creating Layer conv6_2_mbox_loc
I1001 23:10:42.411700  6400 net.cpp:434] conv6_2_mbox_loc <- conv6_2_conv6_2_relu_0_split_1
I1001 23:10:42.411710  6400 net.cpp:408] conv6_2_mbox_loc -> conv6_2_mbox_loc
I1001 23:10:42.412312  6400 net.cpp:150] Setting up conv6_2_mbox_loc
I1001 23:10:42.412317  6400 net.cpp:157] Top shape: 8 24 10 10 (19200)
I1001 23:10:42.412324  6400 net.cpp:165] Memory required for data: 1982545056
I1001 23:10:42.412331  6400 layer_factory.hpp:77] Creating layer conv6_2_mbox_loc_perm
I1001 23:10:42.412339  6400 net.cpp:100] Creating Layer conv6_2_mbox_loc_perm
I1001 23:10:42.412343  6400 net.cpp:434] conv6_2_mbox_loc_perm <- conv6_2_mbox_loc
I1001 23:10:42.412349  6400 net.cpp:408] conv6_2_mbox_loc_perm -> conv6_2_mbox_loc_perm
I1001 23:10:42.412427  6400 net.cpp:150] Setting up conv6_2_mbox_loc_perm
I1001 23:10:42.412432  6400 net.cpp:157] Top shape: 8 10 10 24 (19200)
I1001 23:10:42.412436  6400 net.cpp:165] Memory required for data: 1982621856
I1001 23:10:42.412453  6400 layer_factory.hpp:77] Creating layer conv6_2_mbox_loc_flat
I1001 23:10:42.412463  6400 net.cpp:100] Creating Layer conv6_2_mbox_loc_flat
I1001 23:10:42.412467  6400 net.cpp:434] conv6_2_mbox_loc_flat <- conv6_2_mbox_loc_perm
I1001 23:10:42.412473  6400 net.cpp:408] conv6_2_mbox_loc_flat -> conv6_2_mbox_loc_flat
I1001 23:10:42.412495  6400 net.cpp:150] Setting up conv6_2_mbox_loc_flat
I1001 23:10:42.412499  6400 net.cpp:157] Top shape: 8 2400 (19200)
I1001 23:10:42.412504  6400 net.cpp:165] Memory required for data: 1982698656
I1001 23:10:42.412508  6400 layer_factory.hpp:77] Creating layer conv6_2_mbox_conf
I1001 23:10:42.412519  6400 net.cpp:100] Creating Layer conv6_2_mbox_conf
I1001 23:10:42.412523  6400 net.cpp:434] conv6_2_mbox_conf <- conv6_2_conv6_2_relu_0_split_2
I1001 23:10:42.412531  6400 net.cpp:408] conv6_2_mbox_conf -> conv6_2_mbox_conf
I1001 23:10:42.413029  6400 net.cpp:150] Setting up conv6_2_mbox_conf
I1001 23:10:42.413035  6400 net.cpp:157] Top shape: 8 18 10 10 (14400)
I1001 23:10:42.413040  6400 net.cpp:165] Memory required for data: 1982756256
I1001 23:10:42.413048  6400 layer_factory.hpp:77] Creating layer conv6_2_mbox_conf_perm
I1001 23:10:42.413055  6400 net.cpp:100] Creating Layer conv6_2_mbox_conf_perm
I1001 23:10:42.413059  6400 net.cpp:434] conv6_2_mbox_conf_perm <- conv6_2_mbox_conf
I1001 23:10:42.413066  6400 net.cpp:408] conv6_2_mbox_conf_perm -> conv6_2_mbox_conf_perm
I1001 23:10:42.413144  6400 net.cpp:150] Setting up conv6_2_mbox_conf_perm
I1001 23:10:42.413307  6400 net.cpp:157] Top shape: 8 10 10 18 (14400)
I1001 23:10:42.413313  6400 net.cpp:165] Memory required for data: 1982813856
I1001 23:10:42.413318  6400 layer_factory.hpp:77] Creating layer conv6_2_mbox_conf_flat
I1001 23:10:42.413331  6400 net.cpp:100] Creating Layer conv6_2_mbox_conf_flat
I1001 23:10:42.413336  6400 net.cpp:434] conv6_2_mbox_conf_flat <- conv6_2_mbox_conf_perm
I1001 23:10:42.413344  6400 net.cpp:408] conv6_2_mbox_conf_flat -> conv6_2_mbox_conf_flat
I1001 23:10:42.413374  6400 net.cpp:150] Setting up conv6_2_mbox_conf_flat
I1001 23:10:42.413379  6400 net.cpp:157] Top shape: 8 1800 (14400)
I1001 23:10:42.413384  6400 net.cpp:165] Memory required for data: 1982871456
I1001 23:10:42.413388  6400 layer_factory.hpp:77] Creating layer conv6_2_mbox_priorbox
I1001 23:10:42.413398  6400 net.cpp:100] Creating Layer conv6_2_mbox_priorbox
I1001 23:10:42.413401  6400 net.cpp:434] conv6_2_mbox_priorbox <- conv6_2_conv6_2_relu_0_split_3
I1001 23:10:42.413408  6400 net.cpp:434] conv6_2_mbox_priorbox <- data_data_0_split_3
I1001 23:10:42.413414  6400 net.cpp:408] conv6_2_mbox_priorbox -> conv6_2_mbox_priorbox
I1001 23:10:42.413437  6400 net.cpp:150] Setting up conv6_2_mbox_priorbox
I1001 23:10:42.413441  6400 net.cpp:157] Top shape: 1 2 2400 (4800)
I1001 23:10:42.413446  6400 net.cpp:165] Memory required for data: 1982890656
I1001 23:10:42.413450  6400 layer_factory.hpp:77] Creating layer conv7_2_mbox_loc
I1001 23:10:42.413460  6400 net.cpp:100] Creating Layer conv7_2_mbox_loc
I1001 23:10:42.413465  6400 net.cpp:434] conv7_2_mbox_loc <- conv7_2_conv7_2_relu_0_split_1
I1001 23:10:42.413473  6400 net.cpp:408] conv7_2_mbox_loc -> conv7_2_mbox_loc
I1001 23:10:42.413858  6400 net.cpp:150] Setting up conv7_2_mbox_loc
I1001 23:10:42.413863  6400 net.cpp:157] Top shape: 8 24 5 5 (4800)
I1001 23:10:42.413868  6400 net.cpp:165] Memory required for data: 1982909856
I1001 23:10:42.413875  6400 layer_factory.hpp:77] Creating layer conv7_2_mbox_loc_perm
I1001 23:10:42.413883  6400 net.cpp:100] Creating Layer conv7_2_mbox_loc_perm
I1001 23:10:42.413887  6400 net.cpp:434] conv7_2_mbox_loc_perm <- conv7_2_mbox_loc
I1001 23:10:42.413893  6400 net.cpp:408] conv7_2_mbox_loc_perm -> conv7_2_mbox_loc_perm
I1001 23:10:42.413980  6400 net.cpp:150] Setting up conv7_2_mbox_loc_perm
I1001 23:10:42.413983  6400 net.cpp:157] Top shape: 8 5 5 24 (4800)
I1001 23:10:42.413990  6400 net.cpp:165] Memory required for data: 1982929056
I1001 23:10:42.413992  6400 layer_factory.hpp:77] Creating layer conv7_2_mbox_loc_flat
I1001 23:10:42.414012  6400 net.cpp:100] Creating Layer conv7_2_mbox_loc_flat
I1001 23:10:42.414016  6400 net.cpp:434] conv7_2_mbox_loc_flat <- conv7_2_mbox_loc_perm
I1001 23:10:42.414026  6400 net.cpp:408] conv7_2_mbox_loc_flat -> conv7_2_mbox_loc_flat
I1001 23:10:42.414046  6400 net.cpp:150] Setting up conv7_2_mbox_loc_flat
I1001 23:10:42.414050  6400 net.cpp:157] Top shape: 8 600 (4800)
I1001 23:10:42.414055  6400 net.cpp:165] Memory required for data: 1982948256
I1001 23:10:42.414059  6400 layer_factory.hpp:77] Creating layer conv7_2_mbox_conf
I1001 23:10:42.414070  6400 net.cpp:100] Creating Layer conv7_2_mbox_conf
I1001 23:10:42.414073  6400 net.cpp:434] conv7_2_mbox_conf <- conv7_2_conv7_2_relu_0_split_2
I1001 23:10:42.414081  6400 net.cpp:408] conv7_2_mbox_conf -> conv7_2_mbox_conf
I1001 23:10:42.414410  6400 net.cpp:150] Setting up conv7_2_mbox_conf
I1001 23:10:42.414417  6400 net.cpp:157] Top shape: 8 18 5 5 (3600)
I1001 23:10:42.414422  6400 net.cpp:165] Memory required for data: 1982962656
I1001 23:10:42.414429  6400 layer_factory.hpp:77] Creating layer conv7_2_mbox_conf_perm
I1001 23:10:42.414434  6400 net.cpp:100] Creating Layer conv7_2_mbox_conf_perm
I1001 23:10:42.414439  6400 net.cpp:434] conv7_2_mbox_conf_perm <- conv7_2_mbox_conf
I1001 23:10:42.414448  6400 net.cpp:408] conv7_2_mbox_conf_perm -> conv7_2_mbox_conf_perm
I1001 23:10:42.414525  6400 net.cpp:150] Setting up conv7_2_mbox_conf_perm
I1001 23:10:42.414528  6400 net.cpp:157] Top shape: 8 5 5 18 (3600)
I1001 23:10:42.414532  6400 net.cpp:165] Memory required for data: 1982977056
I1001 23:10:42.414537  6400 layer_factory.hpp:77] Creating layer conv7_2_mbox_conf_flat
I1001 23:10:42.414544  6400 net.cpp:100] Creating Layer conv7_2_mbox_conf_flat
I1001 23:10:42.414548  6400 net.cpp:434] conv7_2_mbox_conf_flat <- conv7_2_mbox_conf_perm
I1001 23:10:42.414556  6400 net.cpp:408] conv7_2_mbox_conf_flat -> conv7_2_mbox_conf_flat
I1001 23:10:42.414575  6400 net.cpp:150] Setting up conv7_2_mbox_conf_flat
I1001 23:10:42.414579  6400 net.cpp:157] Top shape: 8 450 (3600)
I1001 23:10:42.414583  6400 net.cpp:165] Memory required for data: 1982991456
I1001 23:10:42.414588  6400 layer_factory.hpp:77] Creating layer conv7_2_mbox_priorbox
I1001 23:10:42.414595  6400 net.cpp:100] Creating Layer conv7_2_mbox_priorbox
I1001 23:10:42.414599  6400 net.cpp:434] conv7_2_mbox_priorbox <- conv7_2_conv7_2_relu_0_split_3
I1001 23:10:42.414605  6400 net.cpp:434] conv7_2_mbox_priorbox <- data_data_0_split_4
I1001 23:10:42.414614  6400 net.cpp:408] conv7_2_mbox_priorbox -> conv7_2_mbox_priorbox
I1001 23:10:42.414635  6400 net.cpp:150] Setting up conv7_2_mbox_priorbox
I1001 23:10:42.414639  6400 net.cpp:157] Top shape: 1 2 600 (1200)
I1001 23:10:42.414644  6400 net.cpp:165] Memory required for data: 1982996256
I1001 23:10:42.414649  6400 layer_factory.hpp:77] Creating layer conv8_2_mbox_loc
I1001 23:10:42.414667  6400 net.cpp:100] Creating Layer conv8_2_mbox_loc
I1001 23:10:42.414671  6400 net.cpp:434] conv8_2_mbox_loc <- conv8_2_conv8_2_relu_0_split_1
I1001 23:10:42.414680  6400 net.cpp:408] conv8_2_mbox_loc -> conv8_2_mbox_loc
I1001 23:10:42.415002  6400 net.cpp:150] Setting up conv8_2_mbox_loc
I1001 23:10:42.415007  6400 net.cpp:157] Top shape: 8 16 3 3 (1152)
I1001 23:10:42.415009  6400 net.cpp:165] Memory required for data: 1983000864
I1001 23:10:42.415027  6400 layer_factory.hpp:77] Creating layer conv8_2_mbox_loc_perm
I1001 23:10:42.415032  6400 net.cpp:100] Creating Layer conv8_2_mbox_loc_perm
I1001 23:10:42.415040  6400 net.cpp:434] conv8_2_mbox_loc_perm <- conv8_2_mbox_loc
I1001 23:10:42.415050  6400 net.cpp:408] conv8_2_mbox_loc_perm -> conv8_2_mbox_loc_perm
I1001 23:10:42.415132  6400 net.cpp:150] Setting up conv8_2_mbox_loc_perm
I1001 23:10:42.415136  6400 net.cpp:157] Top shape: 8 3 3 16 (1152)
I1001 23:10:42.415143  6400 net.cpp:165] Memory required for data: 1983005472
I1001 23:10:42.415146  6400 layer_factory.hpp:77] Creating layer conv8_2_mbox_loc_flat
I1001 23:10:42.415159  6400 net.cpp:100] Creating Layer conv8_2_mbox_loc_flat
I1001 23:10:42.415172  6400 net.cpp:434] conv8_2_mbox_loc_flat <- conv8_2_mbox_loc_perm
I1001 23:10:42.415179  6400 net.cpp:408] conv8_2_mbox_loc_flat -> conv8_2_mbox_loc_flat
I1001 23:10:42.415208  6400 net.cpp:150] Setting up conv8_2_mbox_loc_flat
I1001 23:10:42.415212  6400 net.cpp:157] Top shape: 8 144 (1152)
I1001 23:10:42.415218  6400 net.cpp:165] Memory required for data: 1983010080
I1001 23:10:42.415226  6400 layer_factory.hpp:77] Creating layer conv8_2_mbox_conf
I1001 23:10:42.415237  6400 net.cpp:100] Creating Layer conv8_2_mbox_conf
I1001 23:10:42.415241  6400 net.cpp:434] conv8_2_mbox_conf <- conv8_2_conv8_2_relu_0_split_2
I1001 23:10:42.415253  6400 net.cpp:408] conv8_2_mbox_conf -> conv8_2_mbox_conf
I1001 23:10:42.415530  6400 net.cpp:150] Setting up conv8_2_mbox_conf
I1001 23:10:42.415536  6400 net.cpp:157] Top shape: 8 12 3 3 (864)
I1001 23:10:42.415542  6400 net.cpp:165] Memory required for data: 1983013536
I1001 23:10:42.415547  6400 layer_factory.hpp:77] Creating layer conv8_2_mbox_conf_perm
I1001 23:10:42.415560  6400 net.cpp:100] Creating Layer conv8_2_mbox_conf_perm
I1001 23:10:42.415562  6400 net.cpp:434] conv8_2_mbox_conf_perm <- conv8_2_mbox_conf
I1001 23:10:42.415570  6400 net.cpp:408] conv8_2_mbox_conf_perm -> conv8_2_mbox_conf_perm
I1001 23:10:42.415648  6400 net.cpp:150] Setting up conv8_2_mbox_conf_perm
I1001 23:10:42.415652  6400 net.cpp:157] Top shape: 8 3 3 12 (864)
I1001 23:10:42.415658  6400 net.cpp:165] Memory required for data: 1983016992
I1001 23:10:42.415661  6400 layer_factory.hpp:77] Creating layer conv8_2_mbox_conf_flat
I1001 23:10:42.415670  6400 net.cpp:100] Creating Layer conv8_2_mbox_conf_flat
I1001 23:10:42.415674  6400 net.cpp:434] conv8_2_mbox_conf_flat <- conv8_2_mbox_conf_perm
I1001 23:10:42.415681  6400 net.cpp:408] conv8_2_mbox_conf_flat -> conv8_2_mbox_conf_flat
I1001 23:10:42.415704  6400 net.cpp:150] Setting up conv8_2_mbox_conf_flat
I1001 23:10:42.415707  6400 net.cpp:157] Top shape: 8 108 (864)
I1001 23:10:42.415709  6400 net.cpp:165] Memory required for data: 1983020448
I1001 23:10:42.415716  6400 layer_factory.hpp:77] Creating layer conv8_2_mbox_priorbox
I1001 23:10:42.415724  6400 net.cpp:100] Creating Layer conv8_2_mbox_priorbox
I1001 23:10:42.415729  6400 net.cpp:434] conv8_2_mbox_priorbox <- conv8_2_conv8_2_relu_0_split_3
I1001 23:10:42.415738  6400 net.cpp:434] conv8_2_mbox_priorbox <- data_data_0_split_5
I1001 23:10:42.415743  6400 net.cpp:408] conv8_2_mbox_priorbox -> conv8_2_mbox_priorbox
I1001 23:10:42.415768  6400 net.cpp:150] Setting up conv8_2_mbox_priorbox
I1001 23:10:42.415773  6400 net.cpp:157] Top shape: 1 2 144 (288)
I1001 23:10:42.415779  6400 net.cpp:165] Memory required for data: 1983021600
I1001 23:10:42.415782  6400 layer_factory.hpp:77] Creating layer conv9_2_mbox_loc
I1001 23:10:42.415792  6400 net.cpp:100] Creating Layer conv9_2_mbox_loc
I1001 23:10:42.415796  6400 net.cpp:434] conv9_2_mbox_loc <- conv9_2_conv9_2_relu_0_split_0
I1001 23:10:42.415804  6400 net.cpp:408] conv9_2_mbox_loc -> conv9_2_mbox_loc
I1001 23:10:42.416122  6400 net.cpp:150] Setting up conv9_2_mbox_loc
I1001 23:10:42.416127  6400 net.cpp:157] Top shape: 8 16 1 1 (128)
I1001 23:10:42.416134  6400 net.cpp:165] Memory required for data: 1983022112
I1001 23:10:42.416138  6400 layer_factory.hpp:77] Creating layer conv9_2_mbox_loc_perm
I1001 23:10:42.416146  6400 net.cpp:100] Creating Layer conv9_2_mbox_loc_perm
I1001 23:10:42.416153  6400 net.cpp:434] conv9_2_mbox_loc_perm <- conv9_2_mbox_loc
I1001 23:10:42.416162  6400 net.cpp:408] conv9_2_mbox_loc_perm -> conv9_2_mbox_loc_perm
I1001 23:10:42.416247  6400 net.cpp:150] Setting up conv9_2_mbox_loc_perm
I1001 23:10:42.416254  6400 net.cpp:157] Top shape: 8 1 1 16 (128)
I1001 23:10:42.416260  6400 net.cpp:165] Memory required for data: 1983022624
I1001 23:10:42.416266  6400 layer_factory.hpp:77] Creating layer conv9_2_mbox_loc_flat
I1001 23:10:42.416271  6400 net.cpp:100] Creating Layer conv9_2_mbox_loc_flat
I1001 23:10:42.416278  6400 net.cpp:434] conv9_2_mbox_loc_flat <- conv9_2_mbox_loc_perm
I1001 23:10:42.416290  6400 net.cpp:408] conv9_2_mbox_loc_flat -> conv9_2_mbox_loc_flat
I1001 23:10:42.416321  6400 net.cpp:150] Setting up conv9_2_mbox_loc_flat
I1001 23:10:42.416324  6400 net.cpp:157] Top shape: 8 16 (128)
I1001 23:10:42.416330  6400 net.cpp:165] Memory required for data: 1983023136
I1001 23:10:42.416333  6400 layer_factory.hpp:77] Creating layer conv9_2_mbox_conf
I1001 23:10:42.416345  6400 net.cpp:100] Creating Layer conv9_2_mbox_conf
I1001 23:10:42.416348  6400 net.cpp:434] conv9_2_mbox_conf <- conv9_2_conv9_2_relu_0_split_1
I1001 23:10:42.416357  6400 net.cpp:408] conv9_2_mbox_conf -> conv9_2_mbox_conf
I1001 23:10:42.416631  6400 net.cpp:150] Setting up conv9_2_mbox_conf
I1001 23:10:42.416636  6400 net.cpp:157] Top shape: 8 12 1 1 (96)
I1001 23:10:42.416642  6400 net.cpp:165] Memory required for data: 1983023520
I1001 23:10:42.416651  6400 layer_factory.hpp:77] Creating layer conv9_2_mbox_conf_perm
I1001 23:10:42.416661  6400 net.cpp:100] Creating Layer conv9_2_mbox_conf_perm
I1001 23:10:42.416663  6400 net.cpp:434] conv9_2_mbox_conf_perm <- conv9_2_mbox_conf
I1001 23:10:42.416671  6400 net.cpp:408] conv9_2_mbox_conf_perm -> conv9_2_mbox_conf_perm
I1001 23:10:42.416749  6400 net.cpp:150] Setting up conv9_2_mbox_conf_perm
I1001 23:10:42.416752  6400 net.cpp:157] Top shape: 8 1 1 12 (96)
I1001 23:10:42.416760  6400 net.cpp:165] Memory required for data: 1983023904
I1001 23:10:42.416764  6400 layer_factory.hpp:77] Creating layer conv9_2_mbox_conf_flat
I1001 23:10:42.416774  6400 net.cpp:100] Creating Layer conv9_2_mbox_conf_flat
I1001 23:10:42.416779  6400 net.cpp:434] conv9_2_mbox_conf_flat <- conv9_2_mbox_conf_perm
I1001 23:10:42.416786  6400 net.cpp:408] conv9_2_mbox_conf_flat -> conv9_2_mbox_conf_flat
I1001 23:10:42.416807  6400 net.cpp:150] Setting up conv9_2_mbox_conf_flat
I1001 23:10:42.416811  6400 net.cpp:157] Top shape: 8 12 (96)
I1001 23:10:42.416817  6400 net.cpp:165] Memory required for data: 1983024288
I1001 23:10:42.416821  6400 layer_factory.hpp:77] Creating layer conv9_2_mbox_priorbox
I1001 23:10:42.416831  6400 net.cpp:100] Creating Layer conv9_2_mbox_priorbox
I1001 23:10:42.416833  6400 net.cpp:434] conv9_2_mbox_priorbox <- conv9_2_conv9_2_relu_0_split_2
I1001 23:10:42.416842  6400 net.cpp:434] conv9_2_mbox_priorbox <- data_data_0_split_6
I1001 23:10:42.416846  6400 net.cpp:408] conv9_2_mbox_priorbox -> conv9_2_mbox_priorbox
I1001 23:10:42.416874  6400 net.cpp:150] Setting up conv9_2_mbox_priorbox
I1001 23:10:42.416878  6400 net.cpp:157] Top shape: 1 2 16 (32)
I1001 23:10:42.416885  6400 net.cpp:165] Memory required for data: 1983024416
I1001 23:10:42.416887  6400 layer_factory.hpp:77] Creating layer mbox_loc
I1001 23:10:42.416898  6400 net.cpp:100] Creating Layer mbox_loc
I1001 23:10:42.416901  6400 net.cpp:434] mbox_loc <- conv4_3_norm_mbox_loc_flat
I1001 23:10:42.416908  6400 net.cpp:434] mbox_loc <- fc7_mbox_loc_flat
I1001 23:10:42.416916  6400 net.cpp:434] mbox_loc <- conv6_2_mbox_loc_flat
I1001 23:10:42.416923  6400 net.cpp:434] mbox_loc <- conv7_2_mbox_loc_flat
I1001 23:10:42.416930  6400 net.cpp:434] mbox_loc <- conv8_2_mbox_loc_flat
I1001 23:10:42.416939  6400 net.cpp:434] mbox_loc <- conv9_2_mbox_loc_flat
I1001 23:10:42.416947  6400 net.cpp:408] mbox_loc -> mbox_loc
I1001 23:10:42.416975  6400 net.cpp:150] Setting up mbox_loc
I1001 23:10:42.416980  6400 net.cpp:157] Top shape: 8 34928 (279424)
I1001 23:10:42.416985  6400 net.cpp:165] Memory required for data: 1984142112
I1001 23:10:42.416992  6400 layer_factory.hpp:77] Creating layer mbox_conf
I1001 23:10:42.417003  6400 net.cpp:100] Creating Layer mbox_conf
I1001 23:10:42.417006  6400 net.cpp:434] mbox_conf <- conv4_3_norm_mbox_conf_flat
I1001 23:10:42.417014  6400 net.cpp:434] mbox_conf <- fc7_mbox_conf_flat
I1001 23:10:42.417018  6400 net.cpp:434] mbox_conf <- conv6_2_mbox_conf_flat
I1001 23:10:42.417027  6400 net.cpp:434] mbox_conf <- conv7_2_mbox_conf_flat
I1001 23:10:42.417034  6400 net.cpp:434] mbox_conf <- conv8_2_mbox_conf_flat
I1001 23:10:42.417042  6400 net.cpp:434] mbox_conf <- conv9_2_mbox_conf_flat
I1001 23:10:42.417047  6400 net.cpp:408] mbox_conf -> mbox_conf
I1001 23:10:42.417080  6400 net.cpp:150] Setting up mbox_conf
I1001 23:10:42.417085  6400 net.cpp:157] Top shape: 8 26196 (209568)
I1001 23:10:42.417091  6400 net.cpp:165] Memory required for data: 1984980384
I1001 23:10:42.417099  6400 layer_factory.hpp:77] Creating layer mbox_priorbox
I1001 23:10:42.417109  6400 net.cpp:100] Creating Layer mbox_priorbox
I1001 23:10:42.417112  6400 net.cpp:434] mbox_priorbox <- conv4_3_norm_mbox_priorbox
I1001 23:10:42.417119  6400 net.cpp:434] mbox_priorbox <- fc7_mbox_priorbox
I1001 23:10:42.417124  6400 net.cpp:434] mbox_priorbox <- conv6_2_mbox_priorbox
I1001 23:10:42.417130  6400 net.cpp:434] mbox_priorbox <- conv7_2_mbox_priorbox
I1001 23:10:42.417138  6400 net.cpp:434] mbox_priorbox <- conv8_2_mbox_priorbox
I1001 23:10:42.417141  6400 net.cpp:434] mbox_priorbox <- conv9_2_mbox_priorbox
I1001 23:10:42.417150  6400 net.cpp:408] mbox_priorbox -> mbox_priorbox
I1001 23:10:42.417172  6400 net.cpp:150] Setting up mbox_priorbox
I1001 23:10:42.417177  6400 net.cpp:157] Top shape: 1 2 34928 (69856)
I1001 23:10:42.417183  6400 net.cpp:165] Memory required for data: 1985259808
I1001 23:10:42.417191  6400 layer_factory.hpp:77] Creating layer mbox_conf_reshape
I1001 23:10:42.417199  6400 net.cpp:100] Creating Layer mbox_conf_reshape
I1001 23:10:42.417203  6400 net.cpp:434] mbox_conf_reshape <- mbox_conf
I1001 23:10:42.417212  6400 net.cpp:408] mbox_conf_reshape -> mbox_conf_reshape
I1001 23:10:42.417243  6400 net.cpp:150] Setting up mbox_conf_reshape
I1001 23:10:42.417248  6400 net.cpp:157] Top shape: 8 8732 3 (209568)
I1001 23:10:42.417253  6400 net.cpp:165] Memory required for data: 1986098080
I1001 23:10:42.417260  6400 layer_factory.hpp:77] Creating layer mbox_conf_softmax
I1001 23:10:42.417265  6400 net.cpp:100] Creating Layer mbox_conf_softmax
I1001 23:10:42.417273  6400 net.cpp:434] mbox_conf_softmax <- mbox_conf_reshape
I1001 23:10:42.417281  6400 net.cpp:408] mbox_conf_softmax -> mbox_conf_softmax
I1001 23:10:42.417330  6400 net.cpp:150] Setting up mbox_conf_softmax
I1001 23:10:42.417335  6400 net.cpp:157] Top shape: 8 8732 3 (209568)
I1001 23:10:42.417340  6400 net.cpp:165] Memory required for data: 1986936352
I1001 23:10:42.417346  6400 layer_factory.hpp:77] Creating layer mbox_conf_flatten
I1001 23:10:42.417351  6400 net.cpp:100] Creating Layer mbox_conf_flatten
I1001 23:10:42.417358  6400 net.cpp:434] mbox_conf_flatten <- mbox_conf_softmax
I1001 23:10:42.417366  6400 net.cpp:408] mbox_conf_flatten -> mbox_conf_flatten
I1001 23:10:42.417387  6400 net.cpp:150] Setting up mbox_conf_flatten
I1001 23:10:42.417392  6400 net.cpp:157] Top shape: 8 26196 (209568)
I1001 23:10:42.417398  6400 net.cpp:165] Memory required for data: 1987774624
I1001 23:10:42.417400  6400 layer_factory.hpp:77] Creating layer detection_out
I1001 23:10:42.417414  6400 net.cpp:100] Creating Layer detection_out
I1001 23:10:42.417418  6400 net.cpp:434] detection_out <- mbox_loc
I1001 23:10:42.417425  6400 net.cpp:434] detection_out <- mbox_conf_flatten
I1001 23:10:42.417429  6400 net.cpp:434] detection_out <- mbox_priorbox
I1001 23:10:42.417439  6400 net.cpp:408] detection_out -> detection_out
W1001 23:10:42.417480  6400 detection_output_layer.cpp:49] Failed to create directory: /home/rjperias/data/VOCdevkit/results/VOC2007/SSD_300x300/Main
I1001 23:10:42.417762  6400 net.cpp:150] Setting up detection_out
I1001 23:10:42.417768  6400 net.cpp:157] Top shape: 1 1 1 7 (7)
I1001 23:10:42.417775  6400 net.cpp:165] Memory required for data: 1987774652
I1001 23:10:42.417778  6400 layer_factory.hpp:77] Creating layer detection_eval
I1001 23:10:42.417793  6400 net.cpp:100] Creating Layer detection_eval
I1001 23:10:42.417798  6400 net.cpp:434] detection_eval <- detection_out
I1001 23:10:42.417804  6400 net.cpp:434] detection_eval <- label
I1001 23:10:42.417809  6400 net.cpp:408] detection_eval -> detection_eval
I1001 23:10:42.417876  6400 net.cpp:150] Setting up detection_eval
I1001 23:10:42.417881  6400 net.cpp:157] Top shape: 1 1 3 5 (15)
I1001 23:10:42.417888  6400 net.cpp:165] Memory required for data: 1987774712
I1001 23:10:42.417903  6400 net.cpp:228] detection_eval does not need backward computation.
I1001 23:10:42.417910  6400 net.cpp:228] detection_out does not need backward computation.
I1001 23:10:42.417918  6400 net.cpp:228] mbox_conf_flatten does not need backward computation.
I1001 23:10:42.417922  6400 net.cpp:228] mbox_conf_softmax does not need backward computation.
…
