…
      sampler {
        min_scale: 0.3
        max_scale: 1
        min_aspect_ratio: 0.5
        max_aspect_ratio: 2
      }
      sample_constraint {
        min_jaccard_overlap: 0.9
      }
      max_sample: 1
      max_trials: 50
    }
    batch_sampler {
      sampler {
        min_scale: 0.3
        max_scale: 1
        min_aspect_ratio: 0.5
        max_aspect_ratio: 2
      }
      sample_constraint {
        max_jaccard_overlap: 1
      }
      max_sample: 1
      max_trials: 50
    }
    label_map_file: "data/MELON/labelmap_melon.prototxt"
  }
}
layer {
  name: "conv1_1"
  type: "Convolution"
  bottom: "data"
  top: "conv1_1"
  param {
    lr_mult: 1
    decay_mult: 1
  }
  param {
    lr_mult: 2
    decay_mult: 0
  }
  convolution_param {
    num_output: 64
    pad: 1
    kernel_size: 3
    weight_filler {
      type: "xavier"
    }
    bias_filler {
      type: "constant"
      value: 0
    }
  }
}
layer {
  name: "relu1_1"
  type: "ReLU"
  bottom: "conv1_1"
  top: "conv1_1"
}
layer {
  name: "conv1_2"
  type: "Convolution"
  bottom: "conv1_1"
  top: "conv1_2"
  param {
    lr_mult: 1
    decay_mult: 1
  }
  param {
    lr_mult: 2
    decay_mult: 0
  }
  convolution_param {
    num_output: 64
    pad: 1
    kernel_size: 3
    weight_filler {
      type: "xavier"
    }
    bias_filler {
      type: "constant"
      value: 0
    }
  }
}
layer {
  name: "relu1_2"
  type: "ReLU"
  bottom: "conv1_2"
  top: "conv1_2"
}
layer {
  name: "pool1"
  type: "Pooling"
  bottom: "conv1_2"
  top: "pool1"
  pooling_param {
    pool: MAX
    kernel_size: 2
    stride: 2
  }
}
layer {
  name: "conv2_1"
  type: "Convolution"
  bottom: "pool1"
  top: "conv2_1"
  param {
    lr_mult: 1
    decay_mult: 1
  }
  param {
    lr_mult: 2
    decay_mult: 0
  }
  convolution_param {
    num_output: 128
    pad: 1
    kernel_size: 3
    weight_filler {
      type: "xavier"
    }
    bias_filler {
      type: "constant"
      value: 0
    }
  }
}
layer {
  name: "relu2_1"
  type: "ReLU"
  bottom: "conv2_1"
  top: "conv2_1"
}
layer {
  name: "conv2_2"
  type: "Convolution"
  bottom: "conv2_1"
  top: "conv2_2"
  param {
    lr_mult: 1
    decay_mult: 1
  }
  param {
    lr_mult: 2
    decay_mult: 0
  }
  convolution_param {
    num_output: 128
    pad: 1
    kernel_size: 3
    weight_filler {
      type: "xavier"
    }
    bias_filler {
      type: "constant"
      value: 0
    }
  }
}
layer {
  name: "relu2_2"
  type: "ReLU"
  bottom: "conv2_2"
  top: "conv2_2"
}
layer {
  name: "pool2"
  type: "Pooling"
  bottom: "conv2_2"
  top: "pool2"
  pooling_param {
    pool: MAX
    kernel_size: 2
    stride: 2
  }
}
layer {
  name: "conv3_1"
  type: "Convolution"
  bottom: "pool2"
  top: "conv3_1"
  param {
    lr_mult: 1
    decay_mult: 1
  }
  param {
    lr_mult: 2
    decay_mult: 0
  }
  convolution_param {
    num_output: 256
    pad: 1
    kernel_size: 3
    weight_filler {
      type: "xavier"
    }
    bias_filler {
      type: "constant"
      value: 0
    }
  }
}
layer {
  name: "relu3_1"
  type: "ReLU"
  bottom: "conv3_1"
  top: "conv3_1"
}
layer {
  name: "conv3_2"
  type: "Convolution"
  bottom: "conv3_1"
  top: "conv3_2"
  param {
    lr_mult: 1
    decay_mult: 1
  }
  param {
    lr_mult: 2
    decay_mult: 0
  }
  convolution_param {
    num_output: 256
    pad: 1
    kernel_size: 3
    weight_filler {
      type: "xavier"
    }
    bias_filler {
      type: "constant"
      value: 0
    }
  }
}
layer {
  name: "relu3_2"
  type: "ReLU"
  bottom: "conv3_2"
  top: "conv3_2"
}
layer {
  name: "conv3_3"
  type: "Convolution"
  bottom: "conv3_2"
  top: "conv3_3"
  param {
    lr_mult: 1
    decay_mult: 1
  }
  param {
    lr_mult: 2
    decay_mult: 0
  }
  convolution_param {
    num_output: 256
    pad: 1
    kernel_size: 3
    weight_filler {
      type: "xavier"
    }
    bias_filler {
      type: "constant"
      value: 0
    }
  }
}
layer {
  name: "relu3_3"
  type: "ReLU"
  bottom: "conv3_3"
  top: "conv3_3"
}
layer {
  name: "pool3"
  type: "Pooling"
  bottom: "conv3_3"
  top: "pool3"
  pooling_param {
    pool: MAX
    kernel_size: 2
    stride: 2
  }
}
layer {
  name: "conv4_1"
  type: "Convolution"
  bottom: "pool3"
  top: "conv4_1"
  param {
    lr_mult: 1
    decay_mult: 1
  }
  param {
    lr_mult: 2
    decay_mult: 0
  }
  convolution_param {
    num_output: 512
    pad: 1
    kernel_size: 3
    weight_filler {
      type: "xavier"
    }
    bias_filler {
      type: "constant"
      value: 0
    }
  }
}
layer {
  name: "relu4_1"
  type: "ReLU"
  bottom: "conv4_1"
  top: "conv4_1"
}
layer {
  name: "conv4_2"
  type: "Convolution"
  bottom: "conv4_1"
  top: "conv4_2"
  param {
    lr_mult: 1
    decay_mult: 1
  }
  param {
    lr_mult: 2
    decay_mult: 0
  }
  convolution_param {
    num_output: 512
    pad: 1
    kernel_size: 3
    weight_filler {
      type: "xavier"
    }
    bias_filler {
      type: "constant"
      value: 0
    }
  }
}
layer {
  name: "relu4_2"
  type: "ReLU"
  bottom: "conv4_2"
  top: "conv4_2"
}
layer {
  name: "conv4_3"
  type: "Convolution"
  bottom: "conv4_2"
  top: "conv4_3"
  param {
    lr_mult: 1
    decay_mult: 1
  }
  param {
    lr_mult: 2
    decay_mult: 0
  }
  convolution_param {
    num_output: 512
    pad: 1
    kernel_size: 3
    weight_filler {
      type: "xavier"
    }
    bias_filler {
      type: "constant"
      value: 0
    }
  }
}
layer {
  name: "relu4_3"
  type: "ReLU"
  bottom: "conv4_3"
  top: "conv4_3"
}
layer {
  name: "pool4"
  type: "Pooling"
  bottom: "conv4_3"
  top: "pool4"
  pooling_param {
    pool: MAX
    kernel_size: 2
    stride: 2
  }
}
layer {
  name: "conv5_1"
  type: "Convolution"
  bottom: "pool4"
  top: "conv5_1"
  param {
    lr_mult: 1
    decay_mult: 1
  }
  param {
    lr_mult: 2
    decay_mult: 0
  }
  convolution_param {
    num_output: 512
    pad: 1
    kernel_size: 3
    weight_filler {
      type: "xavier"
    }
    bias_filler {
      type: "constant"
      value: 0
    }
    dilation: 1
  }
}
layer {
  name: "relu5_1"
  type: "ReLU"
  bottom: "conv5_1"
  top: "conv5_1"
}
layer {
  name: "conv5_2"
  type: "Convolution"
  bottom: "conv5_1"
  top: "conv5_2"
  param {
    lr_mult: 1
    decay_mult: 1
  }
  param {
    lr_mult: 2
    decay_mult: 0
  }
  convolution_param {
    num_output: 512
    pad: 1
    kernel_size: 3
    weight_filler {
      type: "xavier"
    }
    bias_filler {
      type: "constant"
      value: 0
    }
    dilation: 1
  }
}
layer {
  name: "relu5_2"
  type: "ReLU"
  bottom: "conv5_2"
  top: "conv5_2"
}
layer {
  name: "conv5_3"
  type: "Convolution"
  bottom: "conv5_2"
  top: "conv5_3"
  param {
    lr_mult: 1
    decay_mult: 1
  }
  param {
    lr_mult: 2
    decay_mult: 0
  }
  convolution_param {
    num_output: 512
    pad: 1
    kernel_size: 3
    weight_filler {
      type: "xavier"
    }
    bias_filler {
      type: "constant"
      value: 0
    }
    dilation: 1
  }
}
layer {
  name: "relu5_3"
  type: "ReLU"
  bottom: "conv5_3"
  top: "conv5_3"
}
layer {
  name: "pool5"
  type: "Pooling"
  bottom: "conv5_3"
  top: "pool5"
  pooling_param {
    pool: MAX
    kernel_size: 3
    stride: 1
    pad: 1
  }
}
layer {
  name: "fc6"
  type: "Convolution"
  bottom: "pool5"
  top: "fc6"
  param {
    lr_mult: 1
    decay_mult: 1
  }
  param {
    lr_mult: 2
    decay_mult: 0
  }
  convolution_param {
    num_output: 1024
    pad: 6
    kernel_size: 3
    weight_filler {
      type: "xavier"
    }
    bias_filler {
      type: "constant"
      value: 0
    }
    dilation: 6
  }
}
layer {
  name: "relu6"
  type: "ReLU"
  bottom: "fc6"
  top: "fc6"
}
layer {
  name: "fc7"
  type: "Convolution"
  bottom: "fc6"
  top: "fc7"
  param {
    lr_mult: 1
    decay_mult: 1
  }
  param {
    lr_mult: 2
    decay_mult: 0
  }
  convolution_param {
    num_output: 1024
    kernel_size: 1
    weight_filler {
      type: "xavier"
    }
    bias_filler {
      type: "constant"
      value: 0
    }
  }
}
layer {
  name: "relu7"
  type: "ReLU"
  bottom: "fc7"
  top: "fc7"
}
layer {
  name: "conv6_1"
  type: "Convolution"
  bottom: "fc7"
  top: "conv6_1"
  param {
    lr_mult: 1
    decay_mult: 1
  }
  param {
    lr_mult: 2
    decay_mult: 0
  }
  convolution_param {
    num_output: 256
    pad: 0
    kernel_size: 1
    stride: 1
    weight_filler {
      type: "xavier"
    }
    bias_filler {
      type: "constant"
      value: 0
    }
  }
}
layer {
  name: "conv6_1_relu"
  type: "ReLU"
  bottom: "conv6_1"
  top: "conv6_1"
}
layer {
  name: "conv6_2"
  type: "Convolution"
  bottom: "conv6_1"
  top: "conv6_2"
  param {
    lr_mult: 1
    decay_mult: 1
  }
  param {
    lr_mult: 2
    decay_mult: 0
  }
  convolution_param {
    num_output: 512
    pad: 1
    kernel_size: 3
    stride: 2
    weight_filler {
      type: "xavier"
    }
    bias_filler {
      type: "constant"
      value: 0
    }
  }
}
layer {
  name: "conv6_2_relu"
  type: "ReLU"
  bottom: "conv6_2"
  top: "conv6_2"
}
layer {
  name: "conv7_1"
  type: "Convolution"
  bottom: "conv6_2"
  top: "conv7_1"
  param {
    lr_mult: 1
    decay_mult: 1
  }
  param {
    lr_mult: 2
    decay_mult: 0
  }
  convolution_param {
    num_output: 128
    pad: 0
    kernel_size: 1
    stride: 1
    weight_filler {
      type: "xavier"
    }
    bias_filler {
      type: "constant"
      value: 0
    }
  }
}
layer {
  name: "conv7_1_relu"
  type: "ReLU"
  bottom: "conv7_1"
  top: "conv7_1"
}
layer {
  name: "conv7_2"
  type: "Convolution"
  bottom: "conv7_1"
  top: "conv7_2"
  param {
    lr_mult: 1
    decay_mult: 1
  }
  param {
    lr_mult: 2
    decay_mult: 0
  }
  convolution_param {
    num_output: 256
    pad: 1
    kernel_size: 3
    stride: 2
    weight_filler {
      type: "xavier"
    }
    bias_filler {
      type: "constant"
      value: 0
    }
  }
}
layer {
  name: "conv7_2_relu"
  type: "ReLU"
  bottom: "conv7_2"
  top: "conv7_2"
}
layer {
  name: "conv8_1"
  type: "Convolution"
  bottom: "conv7_2"
  top: "conv8_1"
  param {
    lr_mult: 1
    decay_mult: 1
  }
  param {
    lr_mult: 2
    decay_mult: 0
  }
  convolution_param {
    num_output: 128
    pad: 0
    kernel_size: 1
    stride: 1
    weight_filler {
      type: "xavier"
    }
    bias_filler {
      type: "constant"
      value: 0
    }
  }
}
layer {
  name: "conv8_1_relu"
  type: "ReLU"
  bottom: "conv8_1"
  top: "conv8_1"
}
layer {
  name: "conv8_2"
  type: "Convolution"
  bottom: "conv8_1"
  top: "conv8_2"
  param {
    lr_mult: 1
    decay_mult: 1
  }
  param {
    lr_mult: 2
    decay_mult: 0
  }
  convolution_param {
    num_output: 256
    pad: 0
    kernel_size: 3
    stride: 1
    weight_filler {
      type: "xavier"
    }
    bias_filler {
      type: "constant"
      value: 0
    }
  }
}
layer {
  name: "conv8_2_relu"
  type: "ReLU"
  bottom: "conv8_2"
  top: "conv8_2"
}
layer {
  name: "conv9_1"
  type: "Convolution"
  bottom: "conv8_2"
  top: "conv9_1"
  param {
    lr_mult: 1
    decay_mult: 1
  }
  param {
    lr_mult: 2
    decay_mult: 0
  }
  convolution_param {
    num_output: 128
    pad: 0
    kernel_size: 1
    stride: 1
    weight_filler {
      type: "xavier"
    }
    bias_filler {
      type: "constant"
      value: 0
    }
  }
}
layer {
  name: "conv9_1_relu"
  type: "ReLU"
  bottom: "conv9_1"
  top: "conv9_1"
}
layer {
  name: "conv9_2"
  type: "Convolution"
  bottom: "conv9_1"
  top: "conv9_2"
  param {
    lr_mult: 1
    decay_mult: 1
  }
  param {
    lr_mult: 2
    decay_mult: 0
  }
  convolution_param {
    num_output: 256
    pad: 0
    kernel_size: 3
    stride: 1
    weight_filler {
      type: "xavier"
    }
    bias_filler {
      type: "constant"
      value: 0
    }
  }
}
layer {
  name: "conv9_2_relu"
  type: "ReLU"
  bottom: "conv9_2"
  top: "conv9_2"
}
layer {
  name: "conv4_3_norm"
  type: "Normalize"
  bottom: "conv4_3"
  top: "conv4_3_norm"
  norm_param {
    across_spatial: false
    scale_filler {
      type: "constant"
      value: 20
    }
    channel_shared: false
  }
}
layer {
  name: "conv4_3_norm_mbox_loc"
  type: "Convolution"
  bottom: "conv4_3_norm"
  top: "conv4_3_norm_mbox_loc"
  param {
    lr_mult: 1
    decay_mult: 1
  }
  param {
    lr_mult: 2
    decay_mult: 0
  }
  convolution_param {
    num_output: 16
    pad: 1
    kernel_size: 3
    stride: 1
    weight_filler {
      type: "xavier"
    }
    bias_filler {
      type: "constant"
      value: 0
    }
  }
}
layer {
  name: "conv4_3_norm_mbox_loc_perm"
  type: "Permute"
  bottom: "conv4_3_norm_mbox_loc"
  top: "conv4_3_norm_mbox_loc_perm"
  permute_param {
    order: 0
    order: 2
    order: 3
    order: 1
  }
}
layer {
  name: "conv4_3_norm_mbox_loc_flat"
  type: "Flatten"
  bottom: "conv4_3_norm_mbox_loc_perm"
  top: "conv4_3_norm_mbox_loc_flat"
  flatten_param {
    axis: 1
  }
}
layer {
  name: "conv4_3_norm_mbox_conf"
  type: "Convolution"
  bottom: "conv4_3_norm"
  top: "conv4_3_norm_mbox_conf"
  param {
    lr_mult: 1
    decay_mult: 1
  }
  param {
    lr_mult: 2
    decay_mult: 0
  }
  convolution_param {
    num_output: 12
    pad: 1
    kernel_size: 3
    stride: 1
    weight_filler {
      type: "xavier"
    }
    bias_filler {
      type: "constant"
      value: 0
    }
  }
}
layer {
  name: "conv4_3_norm_mbox_conf_perm"
  type: "Permute"
  bottom: "conv4_3_norm_mbox_conf"
  top: "conv4_3_norm_mbox_conf_perm"
  permute_param {
    order: 0
    order: 2
    order: 3
    order: 1
  }
}
layer {
  name: "conv4_3_norm_mbox_conf_flat"
  type: "Flatten"
  bottom: "conv4_3_norm_mbox_conf_perm"
  top: "conv4_3_norm_mbox_conf_flat"
  flatten_param {
    axis: 1
  }
}
layer {
  name: "conv4_3_norm_mbox_priorbox"
  type: "PriorBox"
  bottom: "conv4_3_norm"
  bottom: "data"
  top: "conv4_3_norm_mbox_priorbox"
  prior_box_param {
    min_size: 30
    max_size: 60
    aspect_ratio: 2
    flip: true
    clip: false
    variance: 0.1
    variance: 0.1
    variance: 0.2
    variance: 0.2
    step: 8
    offset: 0.5
  }
}
layer {
  name: "fc7_mbox_loc"
  type: "Convolution"
  bottom: "fc7"
  top: "fc7_mbox_loc"
  param {
    lr_mult: 1
    decay_mult: 1
  }
  param {
    lr_mult: 2
    decay_mult: 0
  }
  convolution_param {
    num_output: 24
    pad: 1
    kernel_size: 3
    stride: 1
    weight_filler {
      type: "xavier"
    }
    bias_filler {
      type: "constant"
      value: 0
    }
  }
}
layer {
  name: "fc7_mbox_loc_perm"
  type: "Permute"
  bottom: "fc7_mbox_loc"
  top: "fc7_mbox_loc_perm"
  permute_param {
    order: 0
    order: 2
    order: 3
    order: 1
  }
}
layer {
  name: "fc7_mbox_loc_flat"
  type: "Flatten"
  bottom: "fc7_mbox_loc_perm"
  top: "fc7_mbox_loc_flat"
  flatten_param {
    axis: 1
  }
}
layer {
  name: "fc7_mbox_conf"
  type: "Convolution"
  bottom: "fc7"
  top: "fc7_mbox_conf"
  param {
    lr_mult: 1
    decay_mult: 1
  }
  param {
    lr_mult: 2
    decay_mult: 0
  }
  convolution_param {
    num_output: 18
    pad: 1
    kernel_size: 3
    stride: 1
    weight_filler {
      type: "xavier"
    }
    bias_filler {
      type: "constant"
      value: 0
    }
  }
}
layer {
  name: "fc7_mbox_conf_perm"
  type: "Permute"
  bottom: "fc7_mbox_conf"
  top: "fc7_mbox_conf_perm"
  permute_param {
    order: 0
    order: 2
    order: 3
    order: 1
  }
}
layer {
  name: "fc7_mbox_conf_flat"
  type: "Flatten"
  bottom: "fc7_mbox_conf_perm"
  top: "fc7_mbox_conf_flat"
  flatten_param {
    axis: 1
  }
}
layer {
  name: "fc7_mbox_priorbox"
  type: "PriorBox"
  bottom: "fc7"
  bottom: "data"
  top: "fc7_mbox_priorbox"
  prior_box_param {
    min_size: 60
    max_size: 111
    aspect_ratio: 2
    aspect_ratio: 3
    flip: true
    clip: false
    variance: 0.1
    variance: 0.1
    variance: 0.2
    variance: 0.2
    step: 16
    offset: 0.5
  }
}
layer {
  name: "conv6_2_mbox_loc"
  type: "Convolution"
  bottom: "conv6_2"
  top: "conv6_2_mbox_loc"
  param {
    lr_mult: 1
    decay_mult: 1
  }
  param {
    lr_mult: 2
    decay_mult: 0
  }
  convolution_param {
    num_output: 24
    pad: 1
    kernel_size: 3
    stride: 1
    weight_filler {
      type: "xavier"
    }
    bias_filler {
      type: "constant"
      value: 0
    }
  }
}
layer {
  name: "conv6_2_mbox_loc_perm"
  type: "Permute"
  bottom: "conv6_2_mbox_loc"
  top: "conv6_2_mbox_loc_perm"
  permute_param {
    order: 0
    order: 2
    order: 3
    order: 1
  }
}
layer {
  name: "conv6_2_mbox_loc_flat"
  type: "Flatten"
  bottom: "conv6_2_mbox_loc_perm"
  top: "conv6_2_mbox_loc_flat"
  flatten_param {
    axis: 1
  }
}
layer {
  name: "conv6_2_mbox_conf"
  type: "Convolution"
  bottom: "conv6_2"
  top: "conv6_2_mbox_conf"
  param {
    lr_mult: 1
    decay_mult: 1
  }
  param {
    lr_mult: 2
    decay_mult: 0
  }
  convolution_param {
    num_output: 18
    pad: 1
    kernel_size: 3
    stride: 1
    weight_filler {
      type: "xavier"
    }
    bias_filler {
      type: "constant"
      value: 0
    }
  }
}
layer {
  name: "conv6_2_mbox_conf_perm"
  type: "Permute"
  bottom: "conv6_2_mbox_conf"
  top: "conv6_2_mbox_conf_perm"
  permute_param {
    order: 0
    order: 2
    order: 3
    order: 1
  }
}
layer {
  name: "conv6_2_mbox_conf_flat"
  type: "Flatten"
  bottom: "conv6_2_mbox_conf_perm"
  top: "conv6_2_mbox_conf_flat"
  flatten_param {
    axis: 1
  }
}
layer {
  name: "conv6_2_mbox_priorbox"
  type: "PriorBox"
  bottom: "conv6_2"
  bottom: "data"
  top: "conv6_2_mbox_priorbox"
  prior_box_param {
    min_size: 111
    max_size: 162
    aspect_ratio: 2
    aspect_ratio: 3
    flip: true
    clip: false
    variance: 0.1
    variance: 0.1
    variance: 0.2
    variance: 0.2
    step: 32
    offset: 0.5
  }
}
layer {
  name: "conv7_2_mbox_loc"
  type: "Convolution"
  bottom: "conv7_2"
  top: "conv7_2_mbox_loc"
  param {
    lr_mult: 1
    decay_mult: 1
  }
  param {
    lr_mult: 2
    decay_mult: 0
  }
  convolution_param {
    num_output: 24
    pad: 1
    kernel_size: 3
    stride: 1
    weight_filler {
      type: "xavier"
    }
    bias_filler {
      type: "constant"
      value: 0
    }
  }
}
layer {
  name: "conv7_2_mbox_loc_perm"
  type: "Permute"
  bottom: "conv7_2_mbox_loc"
  top: "conv7_2_mbox_loc_perm"
  permute_param {
    order: 0
    order: 2
    order: 3
    order: 1
  }
}
layer {
  name: "conv7_2_mbox_loc_flat"
  type: "Flatten"
  bottom: "conv7_2_mbox_loc_perm"
  top: "conv7_2_mbox_loc_flat"
  flatten_param {
    axis: 1
  }
}
layer {
  name: "conv7_2_mbox_conf"
  type: "Convolution"
  bottom: "conv7_2"
  top: "conv7_2_mbox_conf"
  param {
    lr_mult: 1
    decay_mult: 1
  }
  param {
    lr_mult: 2
    decay_mult: 0
  }
  convolution_param {
    num_output: 18
    pad: 1
    kernel_size: 3
    stride: 1
    weight_filler {
      type: "xavier"
    }
    bias_filler {
      type: "constant"
      value: 0
    }
  }
}
layer {
  name: "conv7_2_mbox_conf_perm"
  type: "Permute"
  bottom: "conv7_2_mbox_conf"
  top: "conv7_2_mbox_conf_perm"
  permute_param {
    order: 0
    order: 2
    order: 3
    order: 1
  }
}
layer {
  name: "conv7_2_mbox_conf_flat"
  type: "Flatten"
  bottom: "conv7_2_mbox_conf_perm"
  top: "conv7_2_mbox_conf_flat"
  flatten_param {
    axis: 1
  }
}
layer {
  name: "conv7_2_mbox_priorbox"
  type: "PriorBox"
  bottom: "conv7_2"
  bottom: "data"
  top: "conv7_2_mbox_priorbox"
  prior_box_param {
    min_size: 162
    max_size: 213
    aspect_ratio: 2
    aspect_ratio: 3
    flip: true
    clip: false
    variance: 0.1
    variance: 0.1
    variance: 0.2
    variance: 0.2
    step: 64
    offset: 0.5
  }
}
layer {
  name: "conv8_2_mbox_loc"
  type: "Convolution"
  bottom: "conv8_2"
  top: "conv8_2_mbox_loc"
  param {
    lr_mult: 1
    decay_mult: 1
  }
  param {
    lr_mult: 2
    decay_mult: 0
  }
  convolution_param {
    num_output: 16
    pad: 1
    kernel_size: 3
    stride: 1
    weight_filler {
      type: "xavier"
    }
    bias_filler {
      type: "constant"
      value: 0
    }
  }
}
layer {
  name: "conv8_2_mbox_loc_perm"
  type: "Permute"
  bottom: "conv8_2_mbox_loc"
  top: "conv8_2_mbox_loc_perm"
  permute_param {
    order: 0
    order: 2
    order: 3
    order: 1
  }
}
layer {
  name: "conv8_2_mbox_loc_flat"
  type: "Flatten"
  bottom: "conv8_2_mbox_loc_perm"
  top: "conv8_2_mbox_loc_flat"
  flatten_param {
    axis: 1
  }
}
layer {
  name: "conv8_2_mbox_conf"
  type: "Convolution"
  bottom: "conv8_2"
  top: "conv8_2_mbox_conf"
  param {
    lr_mult: 1
    decay_mult: 1
  }
  param {
    lr_mult: 2
    decay_mult: 0
  }
  convolution_param {
    num_output: 12
    pad: 1
    kernel_size: 3
    stride: 1
    weight_filler {
      type: "xavier"
    }
    bias_filler {
      type: "constant"
      value: 0
    }
  }
}
layer {
  name: "conv8_2_mbox_conf_perm"
  type: "Permute"
  bottom: "conv8_2_mbox_conf"
  top: "conv8_2_mbox_conf_perm"
  permute_param {
    order: 0
    order: 2
    order: 3
    order: 1
  }
}
layer {
  name: "conv8_2_mbox_conf_flat"
  type: "Flatten"
  bottom: "conv8_2_mbox_conf_perm"
  top: "conv8_2_mbox_conf_flat"
  flatten_param {
    axis: 1
  }
}
layer {
  name: "conv8_2_mbox_priorbox"
  type: "PriorBox"
  bottom: "conv8_2"
  bottom: "data"
  top: "conv8_2_mbox_priorbox"
  prior_box_param {
    min_size: 213
    max_size: 264
    aspect_ratio: 2
    flip: true
    clip: false
    variance: 0.1
    variance: 0.1
    variance: 0.2
    variance: 0.2
    step: 100
    offset: 0.5
  }
}
layer {
  name: "conv9_2_mbox_loc"
  type: "Convolution"
  bottom: "conv9_2"
  top: "conv9_2_mbox_loc"
  param {
    lr_mult: 1
    decay_mult: 1
  }
  param {
    lr_mult: 2
    decay_mult: 0
  }
  convolution_param {
    num_output: 16
    pad: 1
    kernel_size: 3
    stride: 1
    weight_filler {
      type: "xavier"
    }
    bias_filler {
      type: "constant"
      value: 0
    }
  }
}
layer {
  name: "conv9_2_mbox_loc_perm"
  type: "Permute"
  bottom: "conv9_2_mbox_loc"
  top: "conv9_2_mbox_loc_perm"
  permute_param {
    order: 0
    order: 2
    order: 3
    order: 1
  }
}
layer {
  name: "conv9_2_mbox_loc_flat"
  type: "Flatten"
  bottom: "conv9_2_mbox_loc_perm"
  top: "conv9_2_mbox_loc_flat"
  flatten_param {
    axis: 1
  }
}
layer {
  name: "conv9_2_mbox_conf"
  type: "Convolution"
  bottom: "conv9_2"
  top: "conv9_2_mbox_conf"
  param {
    lr_mult: 1
    decay_mult: 1
  }
  param {
    lr_mult: 2
    decay_mult: 0
  }
  convolution_param {
    num_output: 12
    pad: 1
    kernel_size: 3
    stride: 1
    weight_filler {
      type: "xavier"
    }
    bias_filler {
      type: "constant"
      value: 0
    }
  }
}
layer {
  name: "conv9_2_mbox_conf_perm"
  type: "Permute"
  bottom: "conv9_2_mbox_conf"
  top: "conv9_2_mbox_conf_perm"
  permute_param {
    order: 0
    order: 2
    order: 3
    order: 1
  }
}
layer {
  name: "conv9_2_mbox_conf_flat"
  type: "Flatten"
  bottom: "conv9_2_mbox_conf_perm"
  top: "conv9_2_mbox_conf_flat"
  flatten_param {
    axis: 1
  }
}
layer {
  name: "conv9_2_mbox_priorbox"
  type: "PriorBox"
  bottom: "conv9_2"
  bottom: "data"
  top: "conv9_2_mbox_priorbox"
  prior_box_param {
    min_size: 264
    max_size: 315
    aspect_ratio: 2
    flip: true
    clip: false
    variance: 0.1
    variance: 0.1
    variance: 0.2
    variance: 0.2
    step: 300
    offset: 0.5
  }
}
layer {
  name: "mbox_loc"
  type: "Concat"
  bottom: "conv4_3_norm_mbox_loc_flat"
  bottom: "fc7_mbox_loc_flat"
  bottom: "conv6_2_mbox_loc_flat"
  bottom: "conv7_2_mbox_loc_flat"
  bottom: "conv8_2_mbox_loc_flat"
  bottom: "conv9_2_mbox_loc_flat"
  top: "mbox_loc"
  concat_param {
    axis: 1
  }
}
layer {
  name: "mbox_conf"
  type: "Concat"
  bottom: "conv4_3_norm_mbox_conf_flat"
  bottom: "fc7_mbox_conf_flat"
  bottom: "conv6_2_mbox_conf_flat"
  bottom: "conv7_2_mbox_conf_flat"
  bottom: "conv8_2_mbox_conf_flat"
  bottom: "conv9_2_mbox_conf_flat"
  top: "mbox_conf"
  concat_param {
    axis: 1
  }
}
layer {
  name: "mbox_priorbox"
  type: "Concat"
  bottom: "conv4_3_norm_mbox_priorbox"
  bottom: "fc7_mbox_priorbox"
  bottom: "conv6_2_mbox_priorbox"
  bottom: "conv7_2_mbox_priorbox"
  bottom: "conv8_2_mbox_priorbox"
  bottom: "conv9_2_mbox_priorbox"
  top: "mbox_priorbox"
  concat_param {
    axis: 2
  }
}
layer {
  name: "mbox_loss"
  type: "MultiBoxLoss"
  bottom: "mbox_loc"
  bottom: "mbox_conf"
  bottom: "mbox_priorbox"
  bottom: "label"
  top: "mbox_loss"
  include {
    phase: TRAIN
  }
  propagate_down: true
  propagate_down: true
  propagate_down: false
  propagate_down: false
  loss_param {
    normalization: VALID
  }
  multibox_loss_param {
    loc_loss_type: SMOOTH_L1
    conf_loss_type: SOFTMAX
    loc_weight: 1
    num_classes: 3
    share_location: true
    match_type: PER_PREDICTION
    overlap_threshold: 0.5
    use_prior_for_matching: true
    background_label_id: 0
    use_difficult_gt: true
    neg_pos_ratio: 3
    neg_overlap: 0.5
    code_type: CENTER_SIZE
    ignore_cross_boundary_bbox: false
    mining_type: MAX_NEGATIVE
  }
}
I1001 23:26:16.122822 12439 layer_factory.hpp:77] Creating layer data
I1001 23:26:16.122974 12439 net.cpp:100] Creating Layer data
I1001 23:26:16.123013 12439 net.cpp:408] data -> data
I1001 23:26:16.123044 12439 net.cpp:408] data -> label
I1001 23:26:16.123677 12452 db_lmdb.cpp:35] Opened lmdb examples/MELON/MELON_trainval_lmdb
I1001 23:26:16.131247 12439 annotated_data_layer.cpp:62] output data size: 15,3,300,300
I1001 23:26:16.150699 12439 net.cpp:150] Setting up data
I1001 23:26:16.150720 12439 net.cpp:157] Top shape: 15 3 300 300 (4050000)
I1001 23:26:16.150724 12439 net.cpp:157] Top shape: 1 1 1 8 (8)
I1001 23:26:16.150727 12439 net.cpp:165] Memory required for data: 16200032
I1001 23:26:16.150758 12439 layer_factory.hpp:77] Creating layer data_data_0_split
I1001 23:26:16.150768 12439 net.cpp:100] Creating Layer data_data_0_split
I1001 23:26:16.150773 12439 net.cpp:434] data_data_0_split <- data
I1001 23:26:16.150784 12439 net.cpp:408] data_data_0_split -> data_data_0_split_0
I1001 23:26:16.150792 12439 net.cpp:408] data_data_0_split -> data_data_0_split_1
I1001 23:26:16.150796 12439 net.cpp:408] data_data_0_split -> data_data_0_split_2
I1001 23:26:16.150800 12439 net.cpp:408] data_data_0_split -> data_data_0_split_3
I1001 23:26:16.150805 12439 net.cpp:408] data_data_0_split -> data_data_0_split_4
I1001 23:26:16.150810 12439 net.cpp:408] data_data_0_split -> data_data_0_split_5
I1001 23:26:16.150813 12439 net.cpp:408] data_data_0_split -> data_data_0_split_6
I1001 23:26:16.150900 12439 net.cpp:150] Setting up data_data_0_split
I1001 23:26:16.150905 12439 net.cpp:157] Top shape: 15 3 300 300 (4050000)
I1001 23:26:16.150908 12439 net.cpp:157] Top shape: 15 3 300 300 (4050000)
I1001 23:26:16.150912 12439 net.cpp:157] Top shape: 15 3 300 300 (4050000)
I1001 23:26:16.150918 12439 net.cpp:157] Top shape: 15 3 300 300 (4050000)
I1001 23:26:16.150920 12439 net.cpp:157] Top shape: 15 3 300 300 (4050000)
I1001 23:26:16.150923 12439 net.cpp:157] Top shape: 15 3 300 300 (4050000)
I1001 23:26:16.150925 12439 net.cpp:157] Top shape: 15 3 300 300 (4050000)
I1001 23:26:16.150926 12439 net.cpp:165] Memory required for data: 129600032
I1001 23:26:16.150928 12439 layer_factory.hpp:77] Creating layer conv1_1
I1001 23:26:16.150949 12439 net.cpp:100] Creating Layer conv1_1
I1001 23:26:16.150956 12439 net.cpp:434] conv1_1 <- data_data_0_split_0
I1001 23:26:16.150960 12439 net.cpp:408] conv1_1 -> conv1_1
I1001 23:26:16.152423 12439 net.cpp:150] Setting up conv1_1
I1001 23:26:16.152441 12439 net.cpp:157] Top shape: 15 64 300 300 (86400000)
I1001 23:26:16.152443 12439 net.cpp:165] Memory required for data: 475200032
I1001 23:26:16.152459 12439 layer_factory.hpp:77] Creating layer relu1_1
I1001 23:26:16.152470 12439 net.cpp:100] Creating Layer relu1_1
I1001 23:26:16.152473 12439 net.cpp:434] relu1_1 <- conv1_1
I1001 23:26:16.152477 12439 net.cpp:395] relu1_1 -> conv1_1 (in-place)
I1001 23:26:16.152483 12439 net.cpp:150] Setting up relu1_1
I1001 23:26:16.152487 12439 net.cpp:157] Top shape: 15 64 300 300 (86400000)
I1001 23:26:16.152487 12439 net.cpp:165] Memory required for data: 820800032
I1001 23:26:16.152489 12439 layer_factory.hpp:77] Creating layer conv1_2
I1001 23:26:16.152499 12439 net.cpp:100] Creating Layer conv1_2
I1001 23:26:16.152501 12439 net.cpp:434] conv1_2 <- conv1_1
I1001 23:26:16.152504 12439 net.cpp:408] conv1_2 -> conv1_2
I1001 23:26:16.154645 12439 net.cpp:150] Setting up conv1_2
I1001 23:26:16.154662 12439 net.cpp:157] Top shape: 15 64 300 300 (86400000)
I1001 23:26:16.154664 12439 net.cpp:165] Memory required for data: 1166400032
I1001 23:26:16.154675 12439 layer_factory.hpp:77] Creating layer relu1_2
I1001 23:26:16.154690 12439 net.cpp:100] Creating Layer relu1_2
I1001 23:26:16.154695 12439 net.cpp:434] relu1_2 <- conv1_2
I1001 23:26:16.154698 12439 net.cpp:395] relu1_2 -> conv1_2 (in-place)
I1001 23:26:16.154706 12439 net.cpp:150] Setting up relu1_2
I1001 23:26:16.154712 12439 net.cpp:157] Top shape: 15 64 300 300 (86400000)
I1001 23:26:16.154714 12439 net.cpp:165] Memory required for data: 1512000032
I1001 23:26:16.154717 12439 layer_factory.hpp:77] Creating layer pool1
I1001 23:26:16.154721 12439 net.cpp:100] Creating Layer pool1
I1001 23:26:16.154724 12439 net.cpp:434] pool1 <- conv1_2
I1001 23:26:16.154734 12439 net.cpp:408] pool1 -> pool1
I1001 23:26:16.154788 12439 net.cpp:150] Setting up pool1
I1001 23:26:16.154793 12439 net.cpp:157] Top shape: 15 64 150 150 (21600000)
I1001 23:26:16.154795 12439 net.cpp:165] Memory required for data: 1598400032
I1001 23:26:16.154819 12439 layer_factory.hpp:77] Creating layer conv2_1
I1001 23:26:16.154826 12439 net.cpp:100] Creating Layer conv2_1
I1001 23:26:16.154829 12439 net.cpp:434] conv2_1 <- pool1
I1001 23:26:16.154832 12439 net.cpp:408] conv2_1 -> conv2_1
I1001 23:26:16.155274 12439 net.cpp:150] Setting up conv2_1
I1001 23:26:16.155280 12439 net.cpp:157] Top shape: 15 128 150 150 (43200000)
I1001 23:26:16.155282 12439 net.cpp:165] Memory required for data: 1771200032
I1001 23:26:16.155289 12439 layer_factory.hpp:77] Creating layer relu2_1
I1001 23:26:16.155294 12439 net.cpp:100] Creating Layer relu2_1
I1001 23:26:16.155297 12439 net.cpp:434] relu2_1 <- conv2_1
I1001 23:26:16.155303 12439 net.cpp:395] relu2_1 -> conv2_1 (in-place)
I1001 23:26:16.155308 12439 net.cpp:150] Setting up relu2_1
I1001 23:26:16.155309 12439 net.cpp:157] Top shape: 15 128 150 150 (43200000)
I1001 23:26:16.155311 12439 net.cpp:165] Memory required for data: 1944000032
I1001 23:26:16.155313 12439 layer_factory.hpp:77] Creating layer conv2_2
I1001 23:26:16.155321 12439 net.cpp:100] Creating Layer conv2_2
I1001 23:26:16.155323 12439 net.cpp:434] conv2_2 <- conv2_1
I1001 23:26:16.155326 12439 net.cpp:408] conv2_2 -> conv2_2
I1001 23:26:16.156050 12439 net.cpp:150] Setting up conv2_2
I1001 23:26:16.156057 12439 net.cpp:157] Top shape: 15 128 150 150 (43200000)
I1001 23:26:16.156060 12439 net.cpp:165] Memory required for data: 2116800032
I1001 23:26:16.156064 12439 layer_factory.hpp:77] Creating layer relu2_2
I1001 23:26:16.156067 12439 net.cpp:100] Creating Layer relu2_2
I1001 23:26:16.156069 12439 net.cpp:434] relu2_2 <- conv2_2
I1001 23:26:16.156072 12439 net.cpp:395] relu2_2 -> conv2_2 (in-place)
I1001 23:26:16.156075 12439 net.cpp:150] Setting up relu2_2
I1001 23:26:16.156078 12439 net.cpp:157] Top shape: 15 128 150 150 (43200000)
I1001 23:26:16.156080 12439 net.cpp:165] Memory required for data: 2289600032
I1001 23:26:16.156082 12439 layer_factory.hpp:77] Creating layer pool2
I1001 23:26:16.156085 12439 net.cpp:100] Creating Layer pool2
I1001 23:26:16.156086 12439 net.cpp:434] pool2 <- conv2_2
I1001 23:26:16.156090 12439 net.cpp:408] pool2 -> pool2
I1001 23:26:16.156113 12439 net.cpp:150] Setting up pool2
I1001 23:26:16.156116 12439 net.cpp:157] Top shape: 15 128 75 75 (10800000)
I1001 23:26:16.156118 12439 net.cpp:165] Memory required for data: 2332800032
I1001 23:26:16.156121 12439 layer_factory.hpp:77] Creating layer conv3_1
I1001 23:26:16.156126 12439 net.cpp:100] Creating Layer conv3_1
I1001 23:26:16.156127 12439 net.cpp:434] conv3_1 <- pool2
I1001 23:26:16.156131 12439 net.cpp:408] conv3_1 -> conv3_1
I1001 23:26:16.158771 12439 net.cpp:150] Setting up conv3_1
I1001 23:26:16.158792 12439 net.cpp:157] Top shape: 15 256 75 75 (21600000)
I1001 23:26:16.158794 12439 net.cpp:165] Memory required for data: 2419200032
I1001 23:26:16.158812 12439 layer_factory.hpp:77] Creating layer relu3_1
I1001 23:26:16.158820 12439 net.cpp:100] Creating Layer relu3_1
I1001 23:26:16.158824 12439 net.cpp:434] relu3_1 <- conv3_1
I1001 23:26:16.158828 12439 net.cpp:395] relu3_1 -> conv3_1 (in-place)
I1001 23:26:16.158841 12439 net.cpp:150] Setting up relu3_1
I1001 23:26:16.158844 12439 net.cpp:157] Top shape: 15 256 75 75 (21600000)
I1001 23:26:16.158845 12439 net.cpp:165] Memory required for data: 2505600032
I1001 23:26:16.158849 12439 layer_factory.hpp:77] Creating layer conv3_2
I1001 23:26:16.158859 12439 net.cpp:100] Creating Layer conv3_2
I1001 23:26:16.158861 12439 net.cpp:434] conv3_2 <- conv3_1
I1001 23:26:16.158864 12439 net.cpp:408] conv3_2 -> conv3_2
I1001 23:26:16.161949 12439 net.cpp:150] Setting up conv3_2
I1001 23:26:16.161973 12439 net.cpp:157] Top shape: 15 256 75 75 (21600000)
I1001 23:26:16.161974 12439 net.cpp:165] Memory required for data: 2592000032
I1001 23:26:16.161983 12439 layer_factory.hpp:77] Creating layer relu3_2
I1001 23:26:16.161990 12439 net.cpp:100] Creating Layer relu3_2
I1001 23:26:16.161998 12439 net.cpp:434] relu3_2 <- conv3_2
I1001 23:26:16.162003 12439 net.cpp:395] relu3_2 -> conv3_2 (in-place)
I1001 23:26:16.162009 12439 net.cpp:150] Setting up relu3_2
I1001 23:26:16.162012 12439 net.cpp:157] Top shape: 15 256 75 75 (21600000)
I1001 23:26:16.162014 12439 net.cpp:165] Memory required for data: 2678400032
I1001 23:26:16.162015 12439 layer_factory.hpp:77] Creating layer conv3_3
I1001 23:26:16.162053 12439 net.cpp:100] Creating Layer conv3_3
I1001 23:26:16.162056 12439 net.cpp:434] conv3_3 <- conv3_2
I1001 23:26:16.162062 12439 net.cpp:408] conv3_3 -> conv3_3
I1001 23:26:16.165560 12439 net.cpp:150] Setting up conv3_3
I1001 23:26:16.165582 12439 net.cpp:157] Top shape: 15 256 75 75 (21600000)
I1001 23:26:16.165585 12439 net.cpp:165] Memory required for data: 2764800032
I1001 23:26:16.165591 12439 layer_factory.hpp:77] Creating layer relu3_3
I1001 23:26:16.165597 12439 net.cpp:100] Creating Layer relu3_3
I1001 23:26:16.165601 12439 net.cpp:434] relu3_3 <- conv3_3
I1001 23:26:16.165606 12439 net.cpp:395] relu3_3 -> conv3_3 (in-place)
I1001 23:26:16.165611 12439 net.cpp:150] Setting up relu3_3
I1001 23:26:16.165614 12439 net.cpp:157] Top shape: 15 256 75 75 (21600000)
I1001 23:26:16.165616 12439 net.cpp:165] Memory required for data: 2851200032
I1001 23:26:16.165617 12439 layer_factory.hpp:77] Creating layer pool3
I1001 23:26:16.165622 12439 net.cpp:100] Creating Layer pool3
I1001 23:26:16.165624 12439 net.cpp:434] pool3 <- conv3_3
I1001 23:26:16.165627 12439 net.cpp:408] pool3 -> pool3
I1001 23:26:16.165652 12439 net.cpp:150] Setting up pool3
I1001 23:26:16.165655 12439 net.cpp:157] Top shape: 15 256 38 38 (5544960)
I1001 23:26:16.165657 12439 net.cpp:165] Memory required for data: 2873379872
I1001 23:26:16.165659 12439 layer_factory.hpp:77] Creating layer conv4_1
I1001 23:26:16.165670 12439 net.cpp:100] Creating Layer conv4_1
I1001 23:26:16.165673 12439 net.cpp:434] conv4_1 <- pool3
I1001 23:26:16.165678 12439 net.cpp:408] conv4_1 -> conv4_1
I1001 23:26:16.173024 12439 net.cpp:150] Setting up conv4_1
I1001 23:26:16.173043 12439 net.cpp:157] Top shape: 15 512 38 38 (11089920)
I1001 23:26:16.173045 12439 net.cpp:165] Memory required for data: 2917739552
I1001 23:26:16.173053 12439 layer_factory.hpp:77] Creating layer relu4_1
I1001 23:26:16.173060 12439 net.cpp:100] Creating Layer relu4_1
I1001 23:26:16.173072 12439 net.cpp:434] relu4_1 <- conv4_1
I1001 23:26:16.173079 12439 net.cpp:395] relu4_1 -> conv4_1 (in-place)
I1001 23:26:16.173084 12439 net.cpp:150] Setting up relu4_1
I1001 23:26:16.173087 12439 net.cpp:157] Top shape: 15 512 38 38 (11089920)
I1001 23:26:16.173089 12439 net.cpp:165] Memory required for data: 2962099232
I1001 23:26:16.173091 12439 layer_factory.hpp:77] Creating layer conv4_2
I1001 23:26:16.173099 12439 net.cpp:100] Creating Layer conv4_2
I1001 23:26:16.173100 12439 net.cpp:434] conv4_2 <- conv4_1
I1001 23:26:16.173104 12439 net.cpp:408] conv4_2 -> conv4_2
I1001 23:26:16.185058 12439 net.cpp:150] Setting up conv4_2
I1001 23:26:16.185079 12439 net.cpp:157] Top shape: 15 512 38 38 (11089920)
I1001 23:26:16.185081 12439 net.cpp:165] Memory required for data: 3006458912
I1001 23:26:16.185092 12439 layer_factory.hpp:77] Creating layer relu4_2
I1001 23:26:16.185101 12439 net.cpp:100] Creating Layer relu4_2
I1001 23:26:16.185103 12439 net.cpp:434] relu4_2 <- conv4_2
I1001 23:26:16.185107 12439 net.cpp:395] relu4_2 -> conv4_2 (in-place)
I1001 23:26:16.185113 12439 net.cpp:150] Setting up relu4_2
I1001 23:26:16.185115 12439 net.cpp:157] Top shape: 15 512 38 38 (11089920)
I1001 23:26:16.185117 12439 net.cpp:165] Memory required for data: 3050818592
I1001 23:26:16.185119 12439 layer_factory.hpp:77] Creating layer conv4_3
I1001 23:26:16.185127 12439 net.cpp:100] Creating Layer conv4_3
I1001 23:26:16.185128 12439 net.cpp:434] conv4_3 <- conv4_2
I1001 23:26:16.185134 12439 net.cpp:408] conv4_3 -> conv4_3
I1001 23:26:16.196960 12439 net.cpp:150] Setting up conv4_3
I1001 23:26:16.196982 12439 net.cpp:157] Top shape: 15 512 38 38 (11089920)
I1001 23:26:16.196985 12439 net.cpp:165] Memory required for data: 3095178272
I1001 23:26:16.196991 12439 layer_factory.hpp:77] Creating layer relu4_3
I1001 23:26:16.196997 12439 net.cpp:100] Creating Layer relu4_3
I1001 23:26:16.197010 12439 net.cpp:434] relu4_3 <- conv4_3
I1001 23:26:16.197015 12439 net.cpp:395] relu4_3 -> conv4_3 (in-place)
I1001 23:26:16.197021 12439 net.cpp:150] Setting up relu4_3
I1001 23:26:16.197023 12439 net.cpp:157] Top shape: 15 512 38 38 (11089920)
I1001 23:26:16.197044 12439 net.cpp:165] Memory required for data: 3139537952
I1001 23:26:16.197046 12439 layer_factory.hpp:77] Creating layer conv4_3_relu4_3_0_split
I1001 23:26:16.197049 12439 net.cpp:100] Creating Layer conv4_3_relu4_3_0_split
I1001 23:26:16.197052 12439 net.cpp:434] conv4_3_relu4_3_0_split <- conv4_3
I1001 23:26:16.197062 12439 net.cpp:408] conv4_3_relu4_3_0_split -> conv4_3_relu4_3_0_split_0
I1001 23:26:16.197067 12439 net.cpp:408] conv4_3_relu4_3_0_split -> conv4_3_relu4_3_0_split_1
I1001 23:26:16.197094 12439 net.cpp:150] Setting up conv4_3_relu4_3_0_split
I1001 23:26:16.197098 12439 net.cpp:157] Top shape: 15 512 38 38 (11089920)
I1001 23:26:16.197100 12439 net.cpp:157] Top shape: 15 512 38 38 (11089920)
I1001 23:26:16.197101 12439 net.cpp:165] Memory required for data: 3228257312
I1001 23:26:16.197103 12439 layer_factory.hpp:77] Creating layer pool4
I1001 23:26:16.197108 12439 net.cpp:100] Creating Layer pool4
I1001 23:26:16.197110 12439 net.cpp:434] pool4 <- conv4_3_relu4_3_0_split_0
I1001 23:26:16.197114 12439 net.cpp:408] pool4 -> pool4
I1001 23:26:16.197137 12439 net.cpp:150] Setting up pool4
I1001 23:26:16.197144 12439 net.cpp:157] Top shape: 15 512 19 19 (2772480)
I1001 23:26:16.197146 12439 net.cpp:165] Memory required for data: 3239347232
I1001 23:26:16.197149 12439 layer_factory.hpp:77] Creating layer conv5_1
I1001 23:26:16.197158 12439 net.cpp:100] Creating Layer conv5_1
I1001 23:26:16.197160 12439 net.cpp:434] conv5_1 <- pool4
I1001 23:26:16.197165 12439 net.cpp:408] conv5_1 -> conv5_1
I1001 23:26:16.208334 12439 net.cpp:150] Setting up conv5_1
I1001 23:26:16.208360 12439 net.cpp:157] Top shape: 15 512 19 19 (2772480)
I1001 23:26:16.208364 12439 net.cpp:165] Memory required for data: 3250437152
I1001 23:26:16.208370 12439 layer_factory.hpp:77] Creating layer relu5_1
I1001 23:26:16.208377 12439 net.cpp:100] Creating Layer relu5_1
I1001 23:26:16.208381 12439 net.cpp:434] relu5_1 <- conv5_1
I1001 23:26:16.208386 12439 net.cpp:395] relu5_1 -> conv5_1 (in-place)
I1001 23:26:16.208393 12439 net.cpp:150] Setting up relu5_1
I1001 23:26:16.208398 12439 net.cpp:157] Top shape: 15 512 19 19 (2772480)
I1001 23:26:16.208400 12439 net.cpp:165] Memory required for data: 3261527072
I1001 23:26:16.208401 12439 layer_factory.hpp:77] Creating layer conv5_2
I1001 23:26:16.208418 12439 net.cpp:100] Creating Layer conv5_2
I1001 23:26:16.208420 12439 net.cpp:434] conv5_2 <- conv5_1
I1001 23:26:16.208425 12439 net.cpp:408] conv5_2 -> conv5_2
I1001 23:26:16.220366 12439 net.cpp:150] Setting up conv5_2
I1001 23:26:16.220391 12439 net.cpp:157] Top shape: 15 512 19 19 (2772480)
I1001 23:26:16.220392 12439 net.cpp:165] Memory required for data: 3272616992
I1001 23:26:16.220401 12439 layer_factory.hpp:77] Creating layer relu5_2
I1001 23:26:16.220409 12439 net.cpp:100] Creating Layer relu5_2
I1001 23:26:16.220412 12439 net.cpp:434] relu5_2 <- conv5_2
I1001 23:26:16.220417 12439 net.cpp:395] relu5_2 -> conv5_2 (in-place)
I1001 23:26:16.220423 12439 net.cpp:150] Setting up relu5_2
I1001 23:26:16.220427 12439 net.cpp:157] Top shape: 15 512 19 19 (2772480)
I1001 23:26:16.220427 12439 net.cpp:165] Memory required for data: 3283706912
I1001 23:26:16.220429 12439 layer_factory.hpp:77] Creating layer conv5_3
I1001 23:26:16.220438 12439 net.cpp:100] Creating Layer conv5_3
I1001 23:26:16.220439 12439 net.cpp:434] conv5_3 <- conv5_2
I1001 23:26:16.220443 12439 net.cpp:408] conv5_3 -> conv5_3
I1001 23:26:16.232175 12439 net.cpp:150] Setting up conv5_3
I1001 23:26:16.232208 12439 net.cpp:157] Top shape: 15 512 19 19 (2772480)
I1001 23:26:16.232210 12439 net.cpp:165] Memory required for data: 3294796832
I1001 23:26:16.232218 12439 layer_factory.hpp:77] Creating layer relu5_3
I1001 23:26:16.232239 12439 net.cpp:100] Creating Layer relu5_3
I1001 23:26:16.232244 12439 net.cpp:434] relu5_3 <- conv5_3
I1001 23:26:16.232260 12439 net.cpp:395] relu5_3 -> conv5_3 (in-place)
I1001 23:26:16.232266 12439 net.cpp:150] Setting up relu5_3
I1001 23:26:16.232270 12439 net.cpp:157] Top shape: 15 512 19 19 (2772480)
I1001 23:26:16.232303 12439 net.cpp:165] Memory required for data: 3305886752
I1001 23:26:16.232306 12439 layer_factory.hpp:77] Creating layer pool5
I1001 23:26:16.232311 12439 net.cpp:100] Creating Layer pool5
I1001 23:26:16.232313 12439 net.cpp:434] pool5 <- conv5_3
I1001 23:26:16.232317 12439 net.cpp:408] pool5 -> pool5
I1001 23:26:16.232357 12439 net.cpp:150] Setting up pool5
I1001 23:26:16.232362 12439 net.cpp:157] Top shape: 15 512 19 19 (2772480)
I1001 23:26:16.232363 12439 net.cpp:165] Memory required for data: 3316976672
I1001 23:26:16.232365 12439 layer_factory.hpp:77] Creating layer fc6
I1001 23:26:16.232373 12439 net.cpp:100] Creating Layer fc6
I1001 23:26:16.232376 12439 net.cpp:434] fc6 <- pool5
I1001 23:26:16.232379 12439 net.cpp:408] fc6 -> fc6
I1001 23:26:16.255213 12439 net.cpp:150] Setting up fc6
I1001 23:26:16.255240 12439 net.cpp:157] Top shape: 15 1024 19 19 (5544960)
I1001 23:26:16.255242 12439 net.cpp:165] Memory required for data: 3339156512
I1001 23:26:16.255250 12439 layer_factory.hpp:77] Creating layer relu6
I1001 23:26:16.255257 12439 net.cpp:100] Creating Layer relu6
I1001 23:26:16.255260 12439 net.cpp:434] relu6 <- fc6
I1001 23:26:16.255265 12439 net.cpp:395] relu6 -> fc6 (in-place)
I1001 23:26:16.255281 12439 net.cpp:150] Setting up relu6
I1001 23:26:16.255285 12439 net.cpp:157] Top shape: 15 1024 19 19 (5544960)
I1001 23:26:16.255286 12439 net.cpp:165] Memory required for data: 3361336352
I1001 23:26:16.255287 12439 layer_factory.hpp:77] Creating layer fc7
I1001 23:26:16.255295 12439 net.cpp:100] Creating Layer fc7
I1001 23:26:16.255297 12439 net.cpp:434] fc7 <- fc6
I1001 23:26:16.255302 12439 net.cpp:408] fc7 -> fc7
I1001 23:26:16.260846 12439 net.cpp:150] Setting up fc7
I1001 23:26:16.260869 12439 net.cpp:157] Top shape: 15 1024 19 19 (5544960)
I1001 23:26:16.260870 12439 net.cpp:165] Memory required for data: 3383516192
I1001 23:26:16.260877 12439 layer_factory.hpp:77] Creating layer relu7
I1001 23:26:16.260885 12439 net.cpp:100] Creating Layer relu7
I1001 23:26:16.260888 12439 net.cpp:434] relu7 <- fc7
I1001 23:26:16.260892 12439 net.cpp:395] relu7 -> fc7 (in-place)
I1001 23:26:16.260898 12439 net.cpp:150] Setting up relu7
I1001 23:26:16.260901 12439 net.cpp:157] Top shape: 15 1024 19 19 (5544960)
I1001 23:26:16.260902 12439 net.cpp:165] Memory required for data: 3405696032
I1001 23:26:16.260905 12439 layer_factory.hpp:77] Creating layer fc7_relu7_0_split
I1001 23:26:16.260910 12439 net.cpp:100] Creating Layer fc7_relu7_0_split
I1001 23:26:16.260912 12439 net.cpp:434] fc7_relu7_0_split <- fc7
I1001 23:26:16.260916 12439 net.cpp:408] fc7_relu7_0_split -> fc7_relu7_0_split_0
I1001 23:26:16.260922 12439 net.cpp:408] fc7_relu7_0_split -> fc7_relu7_0_split_1
I1001 23:26:16.260928 12439 net.cpp:408] fc7_relu7_0_split -> fc7_relu7_0_split_2
I1001 23:26:16.260932 12439 net.cpp:408] fc7_relu7_0_split -> fc7_relu7_0_split_3
I1001 23:26:16.260988 12439 net.cpp:150] Setting up fc7_relu7_0_split
I1001 23:26:16.260993 12439 net.cpp:157] Top shape: 15 1024 19 19 (5544960)
I1001 23:26:16.260998 12439 net.cpp:157] Top shape: 15 1024 19 19 (5544960)
I1001 23:26:16.261000 12439 net.cpp:157] Top shape: 15 1024 19 19 (5544960)
I1001 23:26:16.261003 12439 net.cpp:157] Top shape: 15 1024 19 19 (5544960)
I1001 23:26:16.261004 12439 net.cpp:165] Memory required for data: 3494415392
I1001 23:26:16.261006 12439 layer_factory.hpp:77] Creating layer conv6_1
I1001 23:26:16.261019 12439 net.cpp:100] Creating Layer conv6_1
I1001 23:26:16.261023 12439 net.cpp:434] conv6_1 <- fc7_relu7_0_split_0
I1001 23:26:16.261026 12439 net.cpp:408] conv6_1 -> conv6_1
I1001 23:26:16.262965 12439 net.cpp:150] Setting up conv6_1
I1001 23:26:16.262979 12439 net.cpp:157] Top shape: 15 256 19 19 (1386240)
I1001 23:26:16.262981 12439 net.cpp:165] Memory required for data: 3499960352
I1001 23:26:16.262987 12439 layer_factory.hpp:77] Creating layer conv6_1_relu
I1001 23:26:16.262995 12439 net.cpp:100] Creating Layer conv6_1_relu
I1001 23:26:16.262998 12439 net.cpp:434] conv6_1_relu <- conv6_1
I1001 23:26:16.263003 12439 net.cpp:395] conv6_1_relu -> conv6_1 (in-place)
I1001 23:26:16.263023 12439 net.cpp:150] Setting up conv6_1_relu
I1001 23:26:16.263025 12439 net.cpp:157] Top shape: 15 256 19 19 (1386240)
I1001 23:26:16.263027 12439 net.cpp:165] Memory required for data: 3505505312
I1001 23:26:16.263029 12439 layer_factory.hpp:77] Creating layer conv6_2
I1001 23:26:16.263036 12439 net.cpp:100] Creating Layer conv6_2
I1001 23:26:16.263038 12439 net.cpp:434] conv6_2 <- conv6_1
I1001 23:26:16.263042 12439 net.cpp:408] conv6_2 -> conv6_2
I1001 23:26:16.269084 12439 net.cpp:150] Setting up conv6_2
I1001 23:26:16.269112 12439 net.cpp:157] Top shape: 15 512 10 10 (768000)
I1001 23:26:16.269114 12439 net.cpp:165] Memory required for data: 3508577312
I1001 23:26:16.269126 12439 layer_factory.hpp:77] Creating layer conv6_2_relu
I1001 23:26:16.269134 12439 net.cpp:100] Creating Layer conv6_2_relu
I1001 23:26:16.269148 12439 net.cpp:434] conv6_2_relu <- conv6_2
I1001 23:26:16.269153 12439 net.cpp:395] conv6_2_relu -> conv6_2 (in-place)
I1001 23:26:16.269158 12439 net.cpp:150] Setting up conv6_2_relu
I1001 23:26:16.269161 12439 net.cpp:157] Top shape: 15 512 10 10 (768000)
I1001 23:26:16.269163 12439 net.cpp:165] Memory required for data: 3511649312
I1001 23:26:16.269165 12439 layer_factory.hpp:77] Creating layer conv6_2_conv6_2_relu_0_split
I1001 23:26:16.269170 12439 net.cpp:100] Creating Layer conv6_2_conv6_2_relu_0_split
I1001 23:26:16.269172 12439 net.cpp:434] conv6_2_conv6_2_relu_0_split <- conv6_2
I1001 23:26:16.269176 12439 net.cpp:408] conv6_2_conv6_2_relu_0_split -> conv6_2_conv6_2_relu_0_split_0
I1001 23:26:16.269181 12439 net.cpp:408] conv6_2_conv6_2_relu_0_split -> conv6_2_conv6_2_relu_0_split_1
I1001 23:26:16.269184 12439 net.cpp:408] conv6_2_conv6_2_relu_0_split -> conv6_2_conv6_2_relu_0_split_2
I1001 23:26:16.269189 12439 net.cpp:408] conv6_2_conv6_2_relu_0_split -> conv6_2_conv6_2_relu_0_split_3
I1001 23:26:16.269245 12439 net.cpp:150] Setting up conv6_2_conv6_2_relu_0_split
I1001 23:26:16.269249 12439 net.cpp:157] Top shape: 15 512 10 10 (768000)
I1001 23:26:16.269253 12439 net.cpp:157] Top shape: 15 512 10 10 (768000)
I1001 23:26:16.269254 12439 net.cpp:157] Top shape: 15 512 10 10 (768000)
I1001 23:26:16.269256 12439 net.cpp:157] Top shape: 15 512 10 10 (768000)
I1001 23:26:16.269258 12439 net.cpp:165] Memory required for data: 3523937312
I1001 23:26:16.269260 12439 layer_factory.hpp:77] Creating layer conv7_1
I1001 23:26:16.269269 12439 net.cpp:100] Creating Layer conv7_1
I1001 23:26:16.269271 12439 net.cpp:434] conv7_1 <- conv6_2_conv6_2_relu_0_split_0
I1001 23:26:16.269275 12439 net.cpp:408] conv7_1 -> conv7_1
I1001 23:26:16.269685 12439 net.cpp:150] Setting up conv7_1
I1001 23:26:16.269690 12439 net.cpp:157] Top shape: 15 128 10 10 (192000)
I1001 23:26:16.269691 12439 net.cpp:165] Memory required for data: 3524705312
I1001 23:26:16.269695 12439 layer_factory.hpp:77] Creating layer conv7_1_relu
I1001 23:26:16.269702 12439 net.cpp:100] Creating Layer conv7_1_relu
I1001 23:26:16.269706 12439 net.cpp:434] conv7_1_relu <- conv7_1
I1001 23:26:16.269708 12439 net.cpp:395] conv7_1_relu -> conv7_1 (in-place)
I1001 23:26:16.269711 12439 net.cpp:150] Setting up conv7_1_relu
I1001 23:26:16.269714 12439 net.cpp:157] Top shape: 15 128 10 10 (192000)
I1001 23:26:16.269716 12439 net.cpp:165] Memory required for data: 3525473312
I1001 23:26:16.269717 12439 layer_factory.hpp:77] Creating layer conv7_2
I1001 23:26:16.269723 12439 net.cpp:100] Creating Layer conv7_2
I1001 23:26:16.269726 12439 net.cpp:434] conv7_2 <- conv7_1
I1001 23:26:16.269728 12439 net.cpp:408] conv7_2 -> conv7_2
I1001 23:26:16.271798 12439 net.cpp:150] Setting up conv7_2
I1001 23:26:16.271813 12439 net.cpp:157] Top shape: 15 256 5 5 (96000)
I1001 23:26:16.271816 12439 net.cpp:165] Memory required for data: 3525857312
I1001 23:26:16.271821 12439 layer_factory.hpp:77] Creating layer conv7_2_relu
I1001 23:26:16.271827 12439 net.cpp:100] Creating Layer conv7_2_relu
I1001 23:26:16.271831 12439 net.cpp:434] conv7_2_relu <- conv7_2
I1001 23:26:16.271834 12439 net.cpp:395] conv7_2_relu -> conv7_2 (in-place)
I1001 23:26:16.271863 12439 net.cpp:150] Setting up conv7_2_relu
I1001 23:26:16.271867 12439 net.cpp:157] Top shape: 15 256 5 5 (96000)
I1001 23:26:16.271868 12439 net.cpp:165] Memory required for data: 3526241312
I1001 23:26:16.271870 12439 layer_factory.hpp:77] Creating layer conv7_2_conv7_2_relu_0_split
I1001 23:26:16.271875 12439 net.cpp:100] Creating Layer conv7_2_conv7_2_relu_0_split
I1001 23:26:16.271878 12439 net.cpp:434] conv7_2_conv7_2_relu_0_split <- conv7_2
I1001 23:26:16.271886 12439 net.cpp:408] conv7_2_conv7_2_relu_0_split -> conv7_2_conv7_2_relu_0_split_0
I1001 23:26:16.271893 12439 net.cpp:408] conv7_2_conv7_2_relu_0_split -> conv7_2_conv7_2_relu_0_split_1
I1001 23:26:16.271898 12439 net.cpp:408] conv7_2_conv7_2_relu_0_split -> conv7_2_conv7_2_relu_0_split_2
I1001 23:26:16.271900 12439 net.cpp:408] conv7_2_conv7_2_relu_0_split -> conv7_2_conv7_2_relu_0_split_3
I1001 23:26:16.271955 12439 net.cpp:150] Setting up conv7_2_conv7_2_relu_0_split
I1001 23:26:16.271958 12439 net.cpp:157] Top shape: 15 256 5 5 (96000)
I1001 23:26:16.271965 12439 net.cpp:157] Top shape: 15 256 5 5 (96000)
I1001 23:26:16.271967 12439 net.cpp:157] Top shape: 15 256 5 5 (96000)
I1001 23:26:16.271970 12439 net.cpp:157] Top shape: 15 256 5 5 (96000)
I1001 23:26:16.271971 12439 net.cpp:165] Memory required for data: 3527777312
I1001 23:26:16.271973 12439 layer_factory.hpp:77] Creating layer conv8_1
I1001 23:26:16.271986 12439 net.cpp:100] Creating Layer conv8_1
I1001 23:26:16.271988 12439 net.cpp:434] conv8_1 <- conv7_2_conv7_2_relu_0_split_0
I1001 23:26:16.271992 12439 net.cpp:408] conv8_1 -> conv8_1
I1001 23:26:16.272279 12439 net.cpp:150] Setting up conv8_1
I1001 23:26:16.272284 12439 net.cpp:157] Top shape: 15 128 5 5 (48000)
I1001 23:26:16.272286 12439 net.cpp:165] Memory required for data: 3527969312
I1001 23:26:16.272289 12439 layer_factory.hpp:77] Creating layer conv8_1_relu
I1001 23:26:16.272295 12439 net.cpp:100] Creating Layer conv8_1_relu
I1001 23:26:16.272298 12439 net.cpp:434] conv8_1_relu <- conv8_1
I1001 23:26:16.272301 12439 net.cpp:395] conv8_1_relu -> conv8_1 (in-place)
I1001 23:26:16.272305 12439 net.cpp:150] Setting up conv8_1_relu
I1001 23:26:16.272310 12439 net.cpp:157] Top shape: 15 128 5 5 (48000)
I1001 23:26:16.272312 12439 net.cpp:165] Memory required for data: 3528161312
I1001 23:26:16.272315 12439 layer_factory.hpp:77] Creating layer conv8_2
I1001 23:26:16.272320 12439 net.cpp:100] Creating Layer conv8_2
I1001 23:26:16.272325 12439 net.cpp:434] conv8_2 <- conv8_1
I1001 23:26:16.272328 12439 net.cpp:408] conv8_2 -> conv8_2
I1001 23:26:16.274382 12439 net.cpp:150] Setting up conv8_2
I1001 23:26:16.274401 12439 net.cpp:157] Top shape: 15 256 3 3 (34560)
I1001 23:26:16.274404 12439 net.cpp:165] Memory required for data: 3528299552
I1001 23:26:16.274410 12439 layer_factory.hpp:77] Creating layer conv8_2_relu
I1001 23:26:16.274418 12439 net.cpp:100] Creating Layer conv8_2_relu
I1001 23:26:16.274422 12439 net.cpp:434] conv8_2_relu <- conv8_2
I1001 23:26:16.274427 12439 net.cpp:395] conv8_2_relu -> conv8_2 (in-place)
I1001 23:26:16.274432 12439 net.cpp:150] Setting up conv8_2_relu
I1001 23:26:16.274435 12439 net.cpp:157] Top shape: 15 256 3 3 (34560)
I1001 23:26:16.274437 12439 net.cpp:165] Memory required for data: 3528437792
I1001 23:26:16.274439 12439 layer_factory.hpp:77] Creating layer conv8_2_conv8_2_relu_0_split
I1001 23:26:16.274443 12439 net.cpp:100] Creating Layer conv8_2_conv8_2_relu_0_split
I1001 23:26:16.274446 12439 net.cpp:434] conv8_2_conv8_2_relu_0_split <- conv8_2
I1001 23:26:16.274449 12439 net.cpp:408] conv8_2_conv8_2_relu_0_split -> conv8_2_conv8_2_relu_0_split_0
I1001 23:26:16.274453 12439 net.cpp:408] conv8_2_conv8_2_relu_0_split -> conv8_2_conv8_2_relu_0_split_1
I1001 23:26:16.274461 12439 net.cpp:408] conv8_2_conv8_2_relu_0_split -> conv8_2_conv8_2_relu_0_split_2
I1001 23:26:16.274464 12439 net.cpp:408] conv8_2_conv8_2_relu_0_split -> conv8_2_conv8_2_relu_0_split_3
I1001 23:26:16.274507 12439 net.cpp:150] Setting up conv8_2_conv8_2_relu_0_split
I1001 23:26:16.274510 12439 net.cpp:157] Top shape: 15 256 3 3 (34560)
I1001 23:26:16.274534 12439 net.cpp:157] Top shape: 15 256 3 3 (34560)
I1001 23:26:16.274536 12439 net.cpp:157] Top shape: 15 256 3 3 (34560)
I1001 23:26:16.274539 12439 net.cpp:157] Top shape: 15 256 3 3 (34560)
I1001 23:26:16.274540 12439 net.cpp:165] Memory required for data: 3528990752
I1001 23:26:16.274543 12439 layer_factory.hpp:77] Creating layer conv9_1
I1001 23:26:16.274557 12439 net.cpp:100] Creating Layer conv9_1
I1001 23:26:16.274559 12439 net.cpp:434] conv9_1 <- conv8_2_conv8_2_relu_0_split_0
I1001 23:26:16.274564 12439 net.cpp:408] conv9_1 -> conv9_1
I1001 23:26:16.274855 12439 net.cpp:150] Setting up conv9_1
I1001 23:26:16.274860 12439 net.cpp:157] Top shape: 15 128 3 3 (17280)
I1001 23:26:16.274861 12439 net.cpp:165] Memory required for data: 3529059872
I1001 23:26:16.274865 12439 layer_factory.hpp:77] Creating layer conv9_1_relu
I1001 23:26:16.274869 12439 net.cpp:100] Creating Layer conv9_1_relu
I1001 23:26:16.274871 12439 net.cpp:434] conv9_1_relu <- conv9_1
I1001 23:26:16.274874 12439 net.cpp:395] conv9_1_relu -> conv9_1 (in-place)
I1001 23:26:16.274878 12439 net.cpp:150] Setting up conv9_1_relu
I1001 23:26:16.274880 12439 net.cpp:157] Top shape: 15 128 3 3 (17280)
I1001 23:26:16.274883 12439 net.cpp:165] Memory required for data: 3529128992
I1001 23:26:16.274884 12439 layer_factory.hpp:77] Creating layer conv9_2
I1001 23:26:16.274889 12439 net.cpp:100] Creating Layer conv9_2
I1001 23:26:16.274895 12439 net.cpp:434] conv9_2 <- conv9_1
I1001 23:26:16.274899 12439 net.cpp:408] conv9_2 -> conv9_2
I1001 23:26:16.276937 12439 net.cpp:150] Setting up conv9_2
I1001 23:26:16.276955 12439 net.cpp:157] Top shape: 15 256 1 1 (3840)
I1001 23:26:16.276957 12439 net.cpp:165] Memory required for data: 3529144352
I1001 23:26:16.276963 12439 layer_factory.hpp:77] Creating layer conv9_2_relu
I1001 23:26:16.276970 12439 net.cpp:100] Creating Layer conv9_2_relu
I1001 23:26:16.276973 12439 net.cpp:434] conv9_2_relu <- conv9_2
I1001 23:26:16.276978 12439 net.cpp:395] conv9_2_relu -> conv9_2 (in-place)
I1001 23:26:16.276983 12439 net.cpp:150] Setting up conv9_2_relu
I1001 23:26:16.276991 12439 net.cpp:157] Top shape: 15 256 1 1 (3840)
I1001 23:26:16.276993 12439 net.cpp:165] Memory required for data: 3529159712
I1001 23:26:16.276995 12439 layer_factory.hpp:77] Creating layer conv9_2_conv9_2_relu_0_split
I1001 23:26:16.277000 12439 net.cpp:100] Creating Layer conv9_2_conv9_2_relu_0_split
I1001 23:26:16.277004 12439 net.cpp:434] conv9_2_conv9_2_relu_0_split <- conv9_2
I1001 23:26:16.277006 12439 net.cpp:408] conv9_2_conv9_2_relu_0_split -> conv9_2_conv9_2_relu_0_split_0
I1001 23:26:16.277010 12439 net.cpp:408] conv9_2_conv9_2_relu_0_split -> conv9_2_conv9_2_relu_0_split_1
I1001 23:26:16.277021 12439 net.cpp:408] conv9_2_conv9_2_relu_0_split -> conv9_2_conv9_2_relu_0_split_2
I1001 23:26:16.277063 12439 net.cpp:150] Setting up conv9_2_conv9_2_relu_0_split
I1001 23:26:16.277066 12439 net.cpp:157] Top shape: 15 256 1 1 (3840)
I1001 23:26:16.277070 12439 net.cpp:157] Top shape: 15 256 1 1 (3840)
I1001 23:26:16.277071 12439 net.cpp:157] Top shape: 15 256 1 1 (3840)
I1001 23:26:16.277073 12439 net.cpp:165] Memory required for data: 3529205792
I1001 23:26:16.277076 12439 layer_factory.hpp:77] Creating layer conv4_3_norm
I1001 23:26:16.277086 12439 net.cpp:100] Creating Layer conv4_3_norm
I1001 23:26:16.277089 12439 net.cpp:434] conv4_3_norm <- conv4_3_relu4_3_0_split_1
I1001 23:26:16.277092 12439 net.cpp:408] conv4_3_norm -> conv4_3_norm
I1001 23:26:16.277205 12439 net.cpp:150] Setting up conv4_3_norm
I1001 23:26:16.277210 12439 net.cpp:157] Top shape: 15 512 38 38 (11089920)
I1001 23:26:16.277211 12439 net.cpp:165] Memory required for data: 3573565472
I1001 23:26:16.277215 12439 layer_factory.hpp:77] Creating layer conv4_3_norm_conv4_3_norm_0_split
I1001 23:26:16.277221 12439 net.cpp:100] Creating Layer conv4_3_norm_conv4_3_norm_0_split
I1001 23:26:16.277225 12439 net.cpp:434] conv4_3_norm_conv4_3_norm_0_split <- conv4_3_norm
I1001 23:26:16.277228 12439 net.cpp:408] conv4_3_norm_conv4_3_norm_0_split -> conv4_3_norm_conv4_3_norm_0_split_0
I1001 23:26:16.277252 12439 net.cpp:408] conv4_3_norm_conv4_3_norm_0_split -> conv4_3_norm_conv4_3_norm_0_split_1
I1001 23:26:16.277259 12439 net.cpp:408] conv4_3_norm_conv4_3_norm_0_split -> conv4_3_norm_conv4_3_norm_0_split_2
I1001 23:26:16.277295 12439 net.cpp:150] Setting up conv4_3_norm_conv4_3_norm_0_split
I1001 23:26:16.277299 12439 net.cpp:157] Top shape: 15 512 38 38 (11089920)
I1001 23:26:16.277302 12439 net.cpp:157] Top shape: 15 512 38 38 (11089920)
I1001 23:26:16.277307 12439 net.cpp:157] Top shape: 15 512 38 38 (11089920)
I1001 23:26:16.277308 12439 net.cpp:165] Memory required for data: 3706644512
I1001 23:26:16.277310 12439 layer_factory.hpp:77] Creating layer conv4_3_norm_mbox_loc
I1001 23:26:16.277317 12439 net.cpp:100] Creating Layer conv4_3_norm_mbox_loc
I1001 23:26:16.277321 12439 net.cpp:434] conv4_3_norm_mbox_loc <- conv4_3_norm_conv4_3_norm_0_split_0
I1001 23:26:16.277325 12439 net.cpp:408] conv4_3_norm_mbox_loc -> conv4_3_norm_mbox_loc
I1001 23:26:16.277766 12439 net.cpp:150] Setting up conv4_3_norm_mbox_loc
I1001 23:26:16.277772 12439 net.cpp:157] Top shape: 15 16 38 38 (346560)
I1001 23:26:16.277773 12439 net.cpp:165] Memory required for data: 3708030752
I1001 23:26:16.277781 12439 layer_factory.hpp:77] Creating layer conv4_3_norm_mbox_loc_perm
I1001 23:26:16.277784 12439 net.cpp:100] Creating Layer conv4_3_norm_mbox_loc_perm
I1001 23:26:16.277786 12439 net.cpp:434] conv4_3_norm_mbox_loc_perm <- conv4_3_norm_mbox_loc
I1001 23:26:16.277794 12439 net.cpp:408] conv4_3_norm_mbox_loc_perm -> conv4_3_norm_mbox_loc_perm
I1001 23:26:16.277870 12439 net.cpp:150] Setting up conv4_3_norm_mbox_loc_perm
I1001 23:26:16.277874 12439 net.cpp:157] Top shape: 15 38 38 16 (346560)
I1001 23:26:16.277876 12439 net.cpp:165] Memory required for data: 3709416992
I1001 23:26:16.277878 12439 layer_factory.hpp:77] Creating layer conv4_3_norm_mbox_loc_flat
I1001 23:26:16.277885 12439 net.cpp:100] Creating Layer conv4_3_norm_mbox_loc_flat
I1001 23:26:16.277889 12439 net.cpp:434] conv4_3_norm_mbox_loc_flat <- conv4_3_norm_mbox_loc_perm
I1001 23:26:16.277894 12439 net.cpp:408] conv4_3_norm_mbox_loc_flat -> conv4_3_norm_mbox_loc_flat
I1001 23:26:16.277920 12439 net.cpp:150] Setting up conv4_3_norm_mbox_loc_flat
I1001 23:26:16.277925 12439 net.cpp:157] Top shape: 15 23104 (346560)
I1001 23:26:16.277926 12439 net.cpp:165] Memory required for data: 3710803232
I1001 23:26:16.277930 12439 layer_factory.hpp:77] Creating layer conv4_3_norm_mbox_conf
I1001 23:26:16.277940 12439 net.cpp:100] Creating Layer conv4_3_norm_mbox_conf
I1001 23:26:16.277942 12439 net.cpp:434] conv4_3_norm_mbox_conf <- conv4_3_norm_conv4_3_norm_0_split_1
I1001 23:26:16.277950 12439 net.cpp:408] conv4_3_norm_mbox_conf -> conv4_3_norm_mbox_conf
I1001 23:26:16.278316 12439 net.cpp:150] Setting up conv4_3_norm_mbox_conf
I1001 23:26:16.278321 12439 net.cpp:157] Top shape: 15 12 38 38 (259920)
I1001 23:26:16.278326 12439 net.cpp:165] Memory required for data: 3711842912
I1001 23:26:16.278331 12439 layer_factory.hpp:77] Creating layer conv4_3_norm_mbox_conf_perm
I1001 23:26:16.278334 12439 net.cpp:100] Creating Layer conv4_3_norm_mbox_conf_perm
I1001 23:26:16.278337 12439 net.cpp:434] conv4_3_norm_mbox_conf_perm <- conv4_3_norm_mbox_conf
I1001 23:26:16.278340 12439 net.cpp:408] conv4_3_norm_mbox_conf_perm -> conv4_3_norm_mbox_conf_perm
I1001 23:26:16.278414 12439 net.cpp:150] Setting up conv4_3_norm_mbox_conf_perm
I1001 23:26:16.278419 12439 net.cpp:157] Top shape: 15 38 38 12 (259920)
I1001 23:26:16.278420 12439 net.cpp:165] Memory required for data: 3712882592
I1001 23:26:16.278422 12439 layer_factory.hpp:77] Creating layer conv4_3_norm_mbox_conf_flat
I1001 23:26:16.278431 12439 net.cpp:100] Creating Layer conv4_3_norm_mbox_conf_flat
I1001 23:26:16.278434 12439 net.cpp:434] conv4_3_norm_mbox_conf_flat <- conv4_3_norm_mbox_conf_perm
I1001 23:26:16.278437 12439 net.cpp:408] conv4_3_norm_mbox_conf_flat -> conv4_3_norm_mbox_conf_flat
I1001 23:26:16.278460 12439 net.cpp:150] Setting up conv4_3_norm_mbox_conf_flat
I1001 23:26:16.278471 12439 net.cpp:157] Top shape: 15 17328 (259920)
I1001 23:26:16.278475 12439 net.cpp:165] Memory required for data: 3713922272
I1001 23:26:16.278477 12439 layer_factory.hpp:77] Creating layer conv4_3_norm_mbox_priorbox
I1001 23:26:16.278483 12439 net.cpp:100] Creating Layer conv4_3_norm_mbox_priorbox
I1001 23:26:16.278488 12439 net.cpp:434] conv4_3_norm_mbox_priorbox <- conv4_3_norm_conv4_3_norm_0_split_2
I1001 23:26:16.278492 12439 net.cpp:434] conv4_3_norm_mbox_priorbox <- data_data_0_split_1
I1001 23:26:16.278496 12439 net.cpp:408] conv4_3_norm_mbox_priorbox -> conv4_3_norm_mbox_priorbox
I1001 23:26:16.278519 12439 net.cpp:150] Setting up conv4_3_norm_mbox_priorbox
I1001 23:26:16.278523 12439 net.cpp:157] Top shape: 1 2 23104 (46208)
I1001 23:26:16.278525 12439 net.cpp:165] Memory required for data: 3714107104
I1001 23:26:16.278527 12439 layer_factory.hpp:77] Creating layer fc7_mbox_loc
I1001 23:26:16.278535 12439 net.cpp:100] Creating Layer fc7_mbox_loc
I1001 23:26:16.278537 12439 net.cpp:434] fc7_mbox_loc <- fc7_relu7_0_split_1
I1001 23:26:16.278542 12439 net.cpp:408] fc7_mbox_loc -> fc7_mbox_loc
I1001 23:26:16.279517 12439 net.cpp:150] Setting up fc7_mbox_loc
I1001 23:26:16.279523 12439 net.cpp:157] Top shape: 15 24 19 19 (129960)
I1001 23:26:16.279525 12439 net.cpp:165] Memory required for data: 3714626944
I1001 23:26:16.279528 12439 layer_factory.hpp:77] Creating layer fc7_mbox_loc_perm
I1001 23:26:16.279533 12439 net.cpp:100] Creating Layer fc7_mbox_loc_perm
I1001 23:26:16.279536 12439 net.cpp:434] fc7_mbox_loc_perm <- fc7_mbox_loc
I1001 23:26:16.279543 12439 net.cpp:408] fc7_mbox_loc_perm -> fc7_mbox_loc_perm
I1001 23:26:16.279608 12439 net.cpp:150] Setting up fc7_mbox_loc_perm
I1001 23:26:16.279613 12439 net.cpp:157] Top shape: 15 19 19 24 (129960)
I1001 23:26:16.279614 12439 net.cpp:165] Memory required for data: 3715146784
I1001 23:26:16.279616 12439 layer_factory.hpp:77] Creating layer fc7_mbox_loc_flat
I1001 23:26:16.279620 12439 net.cpp:100] Creating Layer fc7_mbox_loc_flat
I1001 23:26:16.279624 12439 net.cpp:434] fc7_mbox_loc_flat <- fc7_mbox_loc_perm
I1001 23:26:16.279631 12439 net.cpp:408] fc7_mbox_loc_flat -> fc7_mbox_loc_flat
I1001 23:26:16.279651 12439 net.cpp:150] Setting up fc7_mbox_loc_flat
I1001 23:26:16.279654 12439 net.cpp:157] Top shape: 15 8664 (129960)
I1001 23:26:16.279656 12439 net.cpp:165] Memory required for data: 3715666624
I1001 23:26:16.279661 12439 layer_factory.hpp:77] Creating layer fc7_mbox_conf
I1001 23:26:16.279667 12439 net.cpp:100] Creating Layer fc7_mbox_conf
I1001 23:26:16.279670 12439 net.cpp:434] fc7_mbox_conf <- fc7_relu7_0_split_2
I1001 23:26:16.279673 12439 net.cpp:408] fc7_mbox_conf -> fc7_mbox_conf
I1001 23:26:16.280445 12439 net.cpp:150] Setting up fc7_mbox_conf
I1001 23:26:16.280452 12439 net.cpp:157] Top shape: 15 18 19 19 (97470)
I1001 23:26:16.280452 12439 net.cpp:165] Memory required for data: 3716056504
I1001 23:26:16.280457 12439 layer_factory.hpp:77] Creating layer fc7_mbox_conf_perm
I1001 23:26:16.280462 12439 net.cpp:100] Creating Layer fc7_mbox_conf_perm
I1001 23:26:16.280463 12439 net.cpp:434] fc7_mbox_conf_perm <- fc7_mbox_conf
I1001 23:26:16.280468 12439 net.cpp:408] fc7_mbox_conf_perm -> fc7_mbox_conf_perm
I1001 23:26:16.280534 12439 net.cpp:150] Setting up fc7_mbox_conf_perm
I1001 23:26:16.280539 12439 net.cpp:157] Top shape: 15 19 19 18 (97470)
I1001 23:26:16.280541 12439 net.cpp:165] Memory required for data: 3716446384
I1001 23:26:16.280544 12439 layer_factory.hpp:77] Creating layer fc7_mbox_conf_flat
I1001 23:26:16.280550 12439 net.cpp:100] Creating Layer fc7_mbox_conf_flat
I1001 23:26:16.280552 12439 net.cpp:434] fc7_mbox_conf_flat <- fc7_mbox_conf_perm
I1001 23:26:16.280556 12439 net.cpp:408] fc7_mbox_conf_flat -> fc7_mbox_conf_flat
I1001 23:26:16.280575 12439 net.cpp:150] Setting up fc7_mbox_conf_flat
I1001 23:26:16.280577 12439 net.cpp:157] Top shape: 15 6498 (97470)
I1001 23:26:16.280580 12439 net.cpp:165] Memory required for data: 3716836264
I1001 23:26:16.280581 12439 layer_factory.hpp:77] Creating layer fc7_mbox_priorbox
I1001 23:26:16.280604 12439 net.cpp:100] Creating Layer fc7_mbox_priorbox
I1001 23:26:16.280607 12439 net.cpp:434] fc7_mbox_priorbox <- fc7_relu7_0_split_3
I1001 23:26:16.280627 12439 net.cpp:434] fc7_mbox_priorbox <- data_data_0_split_2
I1001 23:26:16.280630 12439 net.cpp:408] fc7_mbox_priorbox -> fc7_mbox_priorbox
I1001 23:26:16.280648 12439 net.cpp:150] Setting up fc7_mbox_priorbox
I1001 23:26:16.280653 12439 net.cpp:157] Top shape: 1 2 8664 (17328)
I1001 23:26:16.280654 12439 net.cpp:165] Memory required for data: 3716905576
I1001 23:26:16.280658 12439 layer_factory.hpp:77] Creating layer conv6_2_mbox_loc
I1001 23:26:16.280663 12439 net.cpp:100] Creating Layer conv6_2_mbox_loc
I1001 23:26:16.280665 12439 net.cpp:434] conv6_2_mbox_loc <- conv6_2_conv6_2_relu_0_split_1
I1001 23:26:16.280669 12439 net.cpp:408] conv6_2_mbox_loc -> conv6_2_mbox_loc
I1001 23:26:16.281234 12439 net.cpp:150] Setting up conv6_2_mbox_loc
I1001 23:26:16.281239 12439 net.cpp:157] Top shape: 15 24 10 10 (36000)
I1001 23:26:16.281245 12439 net.cpp:165] Memory required for data: 3717049576
I1001 23:26:16.281249 12439 layer_factory.hpp:77] Creating layer conv6_2_mbox_loc_perm
I1001 23:26:16.281253 12439 net.cpp:100] Creating Layer conv6_2_mbox_loc_perm
I1001 23:26:16.281255 12439 net.cpp:434] conv6_2_mbox_loc_perm <- conv6_2_mbox_loc
I1001 23:26:16.281260 12439 net.cpp:408] conv6_2_mbox_loc_perm -> conv6_2_mbox_loc_perm
I1001 23:26:16.281327 12439 net.cpp:150] Setting up conv6_2_mbox_loc_perm
I1001 23:26:16.281332 12439 net.cpp:157] Top shape: 15 10 10 24 (36000)
I1001 23:26:16.281333 12439 net.cpp:165] Memory required for data: 3717193576
I1001 23:26:16.281335 12439 layer_factory.hpp:77] Creating layer conv6_2_mbox_loc_flat
I1001 23:26:16.281342 12439 net.cpp:100] Creating Layer conv6_2_mbox_loc_flat
I1001 23:26:16.281344 12439 net.cpp:434] conv6_2_mbox_loc_flat <- conv6_2_mbox_loc_perm
I1001 23:26:16.281347 12439 net.cpp:408] conv6_2_mbox_loc_flat -> conv6_2_mbox_loc_flat
I1001 23:26:16.281368 12439 net.cpp:150] Setting up conv6_2_mbox_loc_flat
I1001 23:26:16.281371 12439 net.cpp:157] Top shape: 15 2400 (36000)
I1001 23:26:16.281373 12439 net.cpp:165] Memory required for data: 3717337576
I1001 23:26:16.281375 12439 layer_factory.hpp:77] Creating layer conv6_2_mbox_conf
I1001 23:26:16.281380 12439 net.cpp:100] Creating Layer conv6_2_mbox_conf
I1001 23:26:16.281383 12439 net.cpp:434] conv6_2_mbox_conf <- conv6_2_conv6_2_relu_0_split_2
I1001 23:26:16.281388 12439 net.cpp:408] conv6_2_mbox_conf -> conv6_2_mbox_conf
I1001 23:26:16.281846 12439 net.cpp:150] Setting up conv6_2_mbox_conf
I1001 23:26:16.281852 12439 net.cpp:157] Top shape: 15 18 10 10 (27000)
I1001 23:26:16.281853 12439 net.cpp:165] Memory required for data: 3717445576
I1001 23:26:16.281860 12439 layer_factory.hpp:77] Creating layer conv6_2_mbox_conf_perm
I1001 23:26:16.281865 12439 net.cpp:100] Creating Layer conv6_2_mbox_conf_perm
I1001 23:26:16.281867 12439 net.cpp:434] conv6_2_mbox_conf_perm <- conv6_2_mbox_conf
I1001 23:26:16.281874 12439 net.cpp:408] conv6_2_mbox_conf_perm -> conv6_2_mbox_conf_perm
I1001 23:26:16.281946 12439 net.cpp:150] Setting up conv6_2_mbox_conf_perm
I1001 23:26:16.281951 12439 net.cpp:157] Top shape: 15 10 10 18 (27000)
I1001 23:26:16.281957 12439 net.cpp:165] Memory required for data: 3717553576
I1001 23:26:16.281960 12439 layer_factory.hpp:77] Creating layer conv6_2_mbox_conf_flat
I1001 23:26:16.281965 12439 net.cpp:100] Creating Layer conv6_2_mbox_conf_flat
I1001 23:26:16.281967 12439 net.cpp:434] conv6_2_mbox_conf_flat <- conv6_2_mbox_conf_perm
I1001 23:26:16.281970 12439 net.cpp:408] conv6_2_mbox_conf_flat -> conv6_2_mbox_conf_flat
I1001 23:26:16.281985 12439 net.cpp:150] Setting up conv6_2_mbox_conf_flat
I1001 23:26:16.281988 12439 net.cpp:157] Top shape: 15 1800 (27000)
I1001 23:26:16.281991 12439 net.cpp:165] Memory required for data: 3717661576
I1001 23:26:16.281992 12439 layer_factory.hpp:77] Creating layer conv6_2_mbox_priorbox
I1001 23:26:16.281997 12439 net.cpp:100] Creating Layer conv6_2_mbox_priorbox
I1001 23:26:16.281999 12439 net.cpp:434] conv6_2_mbox_priorbox <- conv6_2_conv6_2_relu_0_split_3
I1001 23:26:16.282012 12439 net.cpp:434] conv6_2_mbox_priorbox <- data_data_0_split_3
I1001 23:26:16.282016 12439 net.cpp:408] conv6_2_mbox_priorbox -> conv6_2_mbox_priorbox
I1001 23:26:16.282040 12439 net.cpp:150] Setting up conv6_2_mbox_priorbox
I1001 23:26:16.282044 12439 net.cpp:157] Top shape: 1 2 2400 (4800)
I1001 23:26:16.282045 12439 net.cpp:165] Memory required for data: 3717680776
I1001 23:26:16.282047 12439 layer_factory.hpp:77] Creating layer conv7_2_mbox_loc
I1001 23:26:16.282058 12439 net.cpp:100] Creating Layer conv7_2_mbox_loc
I1001 23:26:16.282060 12439 net.cpp:434] conv7_2_mbox_loc <- conv7_2_conv7_2_relu_0_split_1
I1001 23:26:16.282063 12439 net.cpp:408] conv7_2_mbox_loc -> conv7_2_mbox_loc
I1001 23:26:16.282425 12439 net.cpp:150] Setting up conv7_2_mbox_loc
I1001 23:26:16.282430 12439 net.cpp:157] Top shape: 15 24 5 5 (9000)
I1001 23:26:16.282433 12439 net.cpp:165] Memory required for data: 3717716776
I1001 23:26:16.282438 12439 layer_factory.hpp:77] Creating layer conv7_2_mbox_loc_perm
I1001 23:26:16.282441 12439 net.cpp:100] Creating Layer conv7_2_mbox_loc_perm
I1001 23:26:16.282444 12439 net.cpp:434] conv7_2_mbox_loc_perm <- conv7_2_mbox_loc
I1001 23:26:16.282449 12439 net.cpp:408] conv7_2_mbox_loc_perm -> conv7_2_mbox_loc_perm
I1001 23:26:16.282524 12439 net.cpp:150] Setting up conv7_2_mbox_loc_perm
I1001 23:26:16.282528 12439 net.cpp:157] Top shape: 15 5 5 24 (9000)
I1001 23:26:16.282531 12439 net.cpp:165] Memory required for data: 3717752776
I1001 23:26:16.282532 12439 layer_factory.hpp:77] Creating layer conv7_2_mbox_loc_flat
I1001 23:26:16.282537 12439 net.cpp:100] Creating Layer conv7_2_mbox_loc_flat
I1001 23:26:16.282539 12439 net.cpp:434] conv7_2_mbox_loc_flat <- conv7_2_mbox_loc_perm
I1001 23:26:16.282544 12439 net.cpp:408] conv7_2_mbox_loc_flat -> conv7_2_mbox_loc_flat
I1001 23:26:16.282562 12439 net.cpp:150] Setting up conv7_2_mbox_loc_flat
I1001 23:26:16.282568 12439 net.cpp:157] Top shape: 15 600 (9000)
I1001 23:26:16.282570 12439 net.cpp:165] Memory required for data: 3717788776
I1001 23:26:16.282572 12439 layer_factory.hpp:77] Creating layer conv7_2_mbox_conf
I1001 23:26:16.282577 12439 net.cpp:100] Creating Layer conv7_2_mbox_conf
I1001 23:26:16.282580 12439 net.cpp:434] conv7_2_mbox_conf <- conv7_2_conv7_2_relu_0_split_2
I1001 23:26:16.282586 12439 net.cpp:408] conv7_2_mbox_conf -> conv7_2_mbox_conf
I1001 23:26:16.282902 12439 net.cpp:150] Setting up conv7_2_mbox_conf
I1001 23:26:16.282907 12439 net.cpp:157] Top shape: 15 18 5 5 (6750)
I1001 23:26:16.282912 12439 net.cpp:165] Memory required for data: 3717815776
I1001 23:26:16.282917 12439 layer_factory.hpp:77] Creating layer conv7_2_mbox_conf_perm
I1001 23:26:16.282919 12439 net.cpp:100] Creating Layer conv7_2_mbox_conf_perm
I1001 23:26:16.282922 12439 net.cpp:434] conv7_2_mbox_conf_perm <- conv7_2_mbox_conf
I1001 23:26:16.282927 12439 net.cpp:408] conv7_2_mbox_conf_perm -> conv7_2_mbox_conf_perm
I1001 23:26:16.282994 12439 net.cpp:150] Setting up conv7_2_mbox_conf_perm
I1001 23:26:16.282999 12439 net.cpp:157] Top shape: 15 5 5 18 (6750)
I1001 23:26:16.283000 12439 net.cpp:165] Memory required for data: 3717842776
I1001 23:26:16.283002 12439 layer_factory.hpp:77] Creating layer conv7_2_mbox_conf_flat
I1001 23:26:16.283008 12439 net.cpp:100] Creating Layer conv7_2_mbox_conf_flat
I1001 23:26:16.283011 12439 net.cpp:434] conv7_2_mbox_conf_flat <- conv7_2_mbox_conf_perm
I1001 23:26:16.283015 12439 net.cpp:408] conv7_2_mbox_conf_flat -> conv7_2_mbox_conf_flat
I1001 23:26:16.283036 12439 net.cpp:150] Setting up conv7_2_mbox_conf_flat
I1001 23:26:16.283040 12439 net.cpp:157] Top shape: 15 450 (6750)
I1001 23:26:16.283041 12439 net.cpp:165] Memory required for data: 3717869776
I1001 23:26:16.283042 12439 layer_factory.hpp:77] Creating layer conv7_2_mbox_priorbox
I1001 23:26:16.283047 12439 net.cpp:100] Creating Layer conv7_2_mbox_priorbox
I1001 23:26:16.283051 12439 net.cpp:434] conv7_2_mbox_priorbox <- conv7_2_conv7_2_relu_0_split_3
I1001 23:26:16.283053 12439 net.cpp:434] conv7_2_mbox_priorbox <- data_data_0_split_4
I1001 23:26:16.283066 12439 net.cpp:408] conv7_2_mbox_priorbox -> conv7_2_mbox_priorbox
I1001 23:26:16.283087 12439 net.cpp:150] Setting up conv7_2_mbox_priorbox
I1001 23:26:16.283090 12439 net.cpp:157] Top shape: 1 2 600 (1200)
I1001 23:26:16.283092 12439 net.cpp:165] Memory required for data: 3717874576
I1001 23:26:16.283094 12439 layer_factory.hpp:77] Creating layer conv8_2_mbox_loc
I1001 23:26:16.283104 12439 net.cpp:100] Creating Layer conv8_2_mbox_loc
I1001 23:26:16.283107 12439 net.cpp:434] conv8_2_mbox_loc <- conv8_2_conv8_2_relu_0_split_1
I1001 23:26:16.283113 12439 net.cpp:408] conv8_2_mbox_loc -> conv8_2_mbox_loc
I1001 23:26:16.283401 12439 net.cpp:150] Setting up conv8_2_mbox_loc
I1001 23:26:16.283406 12439 net.cpp:157] Top shape: 15 16 3 3 (2160)
I1001 23:26:16.283407 12439 net.cpp:165] Memory required for data: 3717883216
I1001 23:26:16.283421 12439 layer_factory.hpp:77] Creating layer conv8_2_mbox_loc_perm
I1001 23:26:16.283424 12439 net.cpp:100] Creating Layer conv8_2_mbox_loc_perm
I1001 23:26:16.283429 12439 net.cpp:434] conv8_2_mbox_loc_perm <- conv8_2_mbox_loc
I1001 23:26:16.283433 12439 net.cpp:408] conv8_2_mbox_loc_perm -> conv8_2_mbox_loc_perm
I1001 23:26:16.283507 12439 net.cpp:150] Setting up conv8_2_mbox_loc_perm
I1001 23:26:16.283512 12439 net.cpp:157] Top shape: 15 3 3 16 (2160)
I1001 23:26:16.283514 12439 net.cpp:165] Memory required for data: 3717891856
I1001 23:26:16.283515 12439 layer_factory.hpp:77] Creating layer conv8_2_mbox_loc_flat
I1001 23:26:16.283524 12439 net.cpp:100] Creating Layer conv8_2_mbox_loc_flat
I1001 23:26:16.283526 12439 net.cpp:434] conv8_2_mbox_loc_flat <- conv8_2_mbox_loc_perm
I1001 23:26:16.283529 12439 net.cpp:408] conv8_2_mbox_loc_flat -> conv8_2_mbox_loc_flat
I1001 23:26:16.283552 12439 net.cpp:150] Setting up conv8_2_mbox_loc_flat
I1001 23:26:16.283555 12439 net.cpp:157] Top shape: 15 144 (2160)
I1001 23:26:16.283557 12439 net.cpp:165] Memory required for data: 3717900496
I1001 23:26:16.283560 12439 layer_factory.hpp:77] Creating layer conv8_2_mbox_conf
I1001 23:26:16.283566 12439 net.cpp:100] Creating Layer conv8_2_mbox_conf
I1001 23:26:16.283571 12439 net.cpp:434] conv8_2_mbox_conf <- conv8_2_conv8_2_relu_0_split_2
I1001 23:26:16.283574 12439 net.cpp:408] conv8_2_mbox_conf -> conv8_2_mbox_conf
I1001 23:26:16.283824 12439 net.cpp:150] Setting up conv8_2_mbox_conf
I1001 23:26:16.283829 12439 net.cpp:157] Top shape: 15 12 3 3 (1620)
I1001 23:26:16.283831 12439 net.cpp:165] Memory required for data: 3717906976
I1001 23:26:16.283834 12439 layer_factory.hpp:77] Creating layer conv8_2_mbox_conf_perm
I1001 23:26:16.283841 12439 net.cpp:100] Creating Layer conv8_2_mbox_conf_perm
I1001 23:26:16.283844 12439 net.cpp:434] conv8_2_mbox_conf_perm <- conv8_2_mbox_conf
I1001 23:26:16.283848 12439 net.cpp:408] conv8_2_mbox_conf_perm -> conv8_2_mbox_conf_perm
I1001 23:26:16.283924 12439 net.cpp:150] Setting up conv8_2_mbox_conf_perm
I1001 23:26:16.283929 12439 net.cpp:157] Top shape: 15 3 3 12 (1620)
I1001 23:26:16.283936 12439 net.cpp:165] Memory required for data: 3717913456
I1001 23:26:16.283939 12439 layer_factory.hpp:77] Creating layer conv8_2_mbox_conf_flat
I1001 23:26:16.283943 12439 net.cpp:100] Creating Layer conv8_2_mbox_conf_flat
I1001 23:26:16.283946 12439 net.cpp:434] conv8_2_mbox_conf_flat <- conv8_2_mbox_conf_perm
I1001 23:26:16.283951 12439 net.cpp:408] conv8_2_mbox_conf_flat -> conv8_2_mbox_conf_flat
I1001 23:26:16.283972 12439 net.cpp:150] Setting up conv8_2_mbox_conf_flat
I1001 23:26:16.283974 12439 net.cpp:157] Top shape: 15 108 (1620)
I1001 23:26:16.283977 12439 net.cpp:165] Memory required for data: 3717919936
I1001 23:26:16.283978 12439 layer_factory.hpp:77] Creating layer conv8_2_mbox_priorbox
I1001 23:26:16.283982 12439 net.cpp:100] Creating Layer conv8_2_mbox_priorbox
I1001 23:26:16.283984 12439 net.cpp:434] conv8_2_mbox_priorbox <- conv8_2_conv8_2_relu_0_split_3
I1001 23:26:16.283988 12439 net.cpp:434] conv8_2_mbox_priorbox <- data_data_0_split_5
I1001 23:26:16.283991 12439 net.cpp:408] conv8_2_mbox_priorbox -> conv8_2_mbox_priorbox
I1001 23:26:16.284015 12439 net.cpp:150] Setting up conv8_2_mbox_priorbox
I1001 23:26:16.284018 12439 net.cpp:157] Top shape: 1 2 144 (288)
I1001 23:26:16.284020 12439 net.cpp:165] Memory required for data: 3717921088
I1001 23:26:16.284023 12439 layer_factory.hpp:77] Creating layer conv9_2_mbox_loc
I1001 23:26:16.284029 12439 net.cpp:100] Creating Layer conv9_2_mbox_loc
I1001 23:26:16.284034 12439 net.cpp:434] conv9_2_mbox_loc <- conv9_2_conv9_2_relu_0_split_0
I1001 23:26:16.284039 12439 net.cpp:408] conv9_2_mbox_loc -> conv9_2_mbox_loc
I1001 23:26:16.284340 12439 net.cpp:150] Setting up conv9_2_mbox_loc
I1001 23:26:16.284346 12439 net.cpp:157] Top shape: 15 16 1 1 (240)
I1001 23:26:16.284348 12439 net.cpp:165] Memory required for data: 3717922048
I1001 23:26:16.284355 12439 layer_factory.hpp:77] Creating layer conv9_2_mbox_loc_perm
I1001 23:26:16.284360 12439 net.cpp:100] Creating Layer conv9_2_mbox_loc_perm
I1001 23:26:16.284363 12439 net.cpp:434] conv9_2_mbox_loc_perm <- conv9_2_mbox_loc
I1001 23:26:16.284368 12439 net.cpp:408] conv9_2_mbox_loc_perm -> conv9_2_mbox_loc_perm
I1001 23:26:16.284447 12439 net.cpp:150] Setting up conv9_2_mbox_loc_perm
I1001 23:26:16.284451 12439 net.cpp:157] Top shape: 15 1 1 16 (240)
I1001 23:26:16.284456 12439 net.cpp:165] Memory required for data: 3717923008
I1001 23:26:16.284461 12439 layer_factory.hpp:77] Creating layer conv9_2_mbox_loc_flat
I1001 23:26:16.284464 12439 net.cpp:100] Creating Layer conv9_2_mbox_loc_flat
I1001 23:26:16.284467 12439 net.cpp:434] conv9_2_mbox_loc_flat <- conv9_2_mbox_loc_perm
I1001 23:26:16.284474 12439 net.cpp:408] conv9_2_mbox_loc_flat -> conv9_2_mbox_loc_flat
I1001 23:26:16.284492 12439 net.cpp:150] Setting up conv9_2_mbox_loc_flat
I1001 23:26:16.284495 12439 net.cpp:157] Top shape: 15 16 (240)
I1001 23:26:16.284497 12439 net.cpp:165] Memory required for data: 3717923968
I1001 23:26:16.284502 12439 layer_factory.hpp:77] Creating layer conv9_2_mbox_conf
I1001 23:26:16.284507 12439 net.cpp:100] Creating Layer conv9_2_mbox_conf
I1001 23:26:16.284509 12439 net.cpp:434] conv9_2_mbox_conf <- conv9_2_conv9_2_relu_0_split_1
I1001 23:26:16.284515 12439 net.cpp:408] conv9_2_mbox_conf -> conv9_2_mbox_conf
I1001 23:26:16.284780 12439 net.cpp:150] Setting up conv9_2_mbox_conf
I1001 23:26:16.284785 12439 net.cpp:157] Top shape: 15 12 1 1 (180)
I1001 23:26:16.284786 12439 net.cpp:165] Memory required for data: 3717924688
I1001 23:26:16.284790 12439 layer_factory.hpp:77] Creating layer conv9_2_mbox_conf_perm
I1001 23:26:16.284796 12439 net.cpp:100] Creating Layer conv9_2_mbox_conf_perm
I1001 23:26:16.284799 12439 net.cpp:434] conv9_2_mbox_conf_perm <- conv9_2_mbox_conf
I1001 23:26:16.284806 12439 net.cpp:408] conv9_2_mbox_conf_perm -> conv9_2_mbox_conf_perm
I1001 23:26:16.284879 12439 net.cpp:150] Setting up conv9_2_mbox_conf_perm
I1001 23:26:16.284883 12439 net.cpp:157] Top shape: 15 1 1 12 (180)
I1001 23:26:16.284885 12439 net.cpp:165] Memory required for data: 3717925408
I1001 23:26:16.284888 12439 layer_factory.hpp:77] Creating layer conv9_2_mbox_conf_flat
I1001 23:26:16.284893 12439 net.cpp:100] Creating Layer conv9_2_mbox_conf_flat
I1001 23:26:16.284895 12439 net.cpp:434] conv9_2_mbox_conf_flat <- conv9_2_mbox_conf_perm
I1001 23:26:16.284898 12439 net.cpp:408] conv9_2_mbox_conf_flat -> conv9_2_mbox_conf_flat
I1001 23:26:16.284917 12439 net.cpp:150] Setting up conv9_2_mbox_conf_flat
I1001 23:26:16.284924 12439 net.cpp:157] Top shape: 15 12 (180)
I1001 23:26:16.284926 12439 net.cpp:165] Memory required for data: 3717926128
I1001 23:26:16.284929 12439 layer_factory.hpp:77] Creating layer conv9_2_mbox_priorbox
I1001 23:26:16.284936 12439 net.cpp:100] Creating Layer conv9_2_mbox_priorbox
I1001 23:26:16.284938 12439 net.cpp:434] conv9_2_mbox_priorbox <- conv9_2_conv9_2_relu_0_split_2
I1001 23:26:16.284941 12439 net.cpp:434] conv9_2_mbox_priorbox <- data_data_0_split_6
I1001 23:26:16.284945 12439 net.cpp:408] conv9_2_mbox_priorbox -> conv9_2_mbox_priorbox
I1001 23:26:16.284965 12439 net.cpp:150] Setting up conv9_2_mbox_priorbox
I1001 23:26:16.284970 12439 net.cpp:157] Top shape: 1 2 16 (32)
I1001 23:26:16.284981 12439 net.cpp:165] Memory required for data: 3717926256
I1001 23:26:16.284982 12439 layer_factory.hpp:77] Creating layer mbox_loc
I1001 23:26:16.284987 12439 net.cpp:100] Creating Layer mbox_loc
I1001 23:26:16.284991 12439 net.cpp:434] mbox_loc <- conv4_3_norm_mbox_loc_flat
I1001 23:26:16.284993 12439 net.cpp:434] mbox_loc <- fc7_mbox_loc_flat
I1001 23:26:16.284996 12439 net.cpp:434] mbox_loc <- conv6_2_mbox_loc_flat
I1001 23:26:16.284998 12439 net.cpp:434] mbox_loc <- conv7_2_mbox_loc_flat
I1001 23:26:16.285001 12439 net.cpp:434] mbox_loc <- conv8_2_mbox_loc_flat
I1001 23:26:16.285007 12439 net.cpp:434] mbox_loc <- conv9_2_mbox_loc_flat
I1001 23:26:16.285012 12439 net.cpp:408] mbox_loc -> mbox_loc
I1001 23:26:16.285032 12439 net.cpp:150] Setting up mbox_loc
I1001 23:26:16.285034 12439 net.cpp:157] Top shape: 15 34928 (523920)
I1001 23:26:16.285037 12439 net.cpp:165] Memory required for data: 3720021936
I1001 23:26:16.285038 12439 layer_factory.hpp:77] Creating layer mbox_conf
I1001 23:26:16.285043 12439 net.cpp:100] Creating Layer mbox_conf
I1001 23:26:16.285044 12439 net.cpp:434] mbox_conf <- conv4_3_norm_mbox_conf_flat
I1001 23:26:16.285048 12439 net.cpp:434] mbox_conf <- fc7_mbox_conf_flat
I1001 23:26:16.285049 12439 net.cpp:434] mbox_conf <- conv6_2_mbox_conf_flat
I1001 23:26:16.285053 12439 net.cpp:434] mbox_conf <- conv7_2_mbox_conf_flat
I1001 23:26:16.285055 12439 net.cpp:434] mbox_conf <- conv8_2_mbox_conf_flat
I1001 23:26:16.285061 12439 net.cpp:434] mbox_conf <- conv9_2_mbox_conf_flat
I1001 23:26:16.285065 12439 net.cpp:408] mbox_conf -> mbox_conf
I1001 23:26:16.285080 12439 net.cpp:150] Setting up mbox_conf
I1001 23:26:16.285082 12439 net.cpp:157] Top shape: 15 26196 (392940)
I1001 23:26:16.285084 12439 net.cpp:165] Memory required for data: 3721593696
I1001 23:26:16.285086 12439 layer_factory.hpp:77] Creating layer mbox_priorbox
I1001 23:26:16.285090 12439 net.cpp:100] Creating Layer mbox_priorbox
I1001 23:26:16.285094 12439 net.cpp:434] mbox_priorbox <- conv4_3_norm_mbox_priorbox
I1001 23:26:16.285096 12439 net.cpp:434] mbox_priorbox <- fc7_mbox_priorbox
I1001 23:26:16.285099 12439 net.cpp:434] mbox_priorbox <- conv6_2_mbox_priorbox
I1001 23:26:16.285101 12439 net.cpp:434] mbox_priorbox <- conv7_2_mbox_priorbox
I1001 23:26:16.285104 12439 net.cpp:434] mbox_priorbox <- conv8_2_mbox_priorbox
I1001 23:26:16.285105 12439 net.cpp:434] mbox_priorbox <- conv9_2_mbox_priorbox
I1001 23:26:16.285109 12439 net.cpp:408] mbox_priorbox -> mbox_priorbox
I1001 23:26:16.285122 12439 net.cpp:150] Setting up mbox_priorbox
I1001 23:26:16.285127 12439 net.cpp:157] Top shape: 1 2 34928 (69856)
I1001 23:26:16.285130 12439 net.cpp:165] Memory required for data: 3721873120
I1001 23:26:16.285130 12439 layer_factory.hpp:77] Creating layer mbox_loss
I1001 23:26:16.285141 12439 net.cpp:100] Creating Layer mbox_loss
I1001 23:26:16.285145 12439 net.cpp:434] mbox_loss <- mbox_loc
I1001 23:26:16.285146 12439 net.cpp:434] mbox_loss <- mbox_conf
I1001 23:26:16.285149 12439 net.cpp:434] mbox_loss <- mbox_priorbox
…
state {
  phase: TEST
}
layer {
  name: "data"
  type: "AnnotatedData"
  top: "data"
  top: "label"
  include {
    phase: TEST
  }
  transform_param {
    mean_value: 104
    mean_value: 117
    mean_value: 123
    resize_param {
      prob: 1
      resize_mode: WARP
      height: 300
      width: 300
      interp_mode: LINEAR
    }
  }
  data_param {
    source: "examples/MELON/MELON_test_lmdb"
    batch_size: 8
    backend: LMDB
  }
  annotated_data_param {
    batch_sampler {
    }
    label_map_file: "data/MELON/labelmap_melon.prototxt"
  }
}
layer {
  name: "conv1_1"
  type: "Convolution"
  bottom: "data"
  top: "conv1_1"
  param {
    lr_mult: 1
    decay_mult: 1
  }
  param {
    lr_mult: 2
    decay_mult: 0
  }
  convolution_param {
    num_output: 64
    pad: 1
    kernel_size: 3
    weight_filler {
      type: "xavier"
    }
    bias_filler {
      type: "constant"
      value: 0
    }
  }
}
layer {
  name: "relu1_1"
  type: "ReLU"
  bottom: "conv1_1"
  top: "conv1_1"
}
layer {
  name: "conv1_2"
  type: "Convolution"
  bottom: "conv1_1"
  top: "conv1_2"
  param {
    lr_mult: 1
    decay_mult: 1
  }
  param {
    lr_mult: 2
    decay_mult: 0
  }
  convolution_param {
    num_output: 64
    pad: 1
    kernel_size: 3
    weight_filler {
      type: "xavier"
    }
    bias_filler {
      type: "constant"
      value: 0
    }
  }
}
layer {
  name: "relu1_2"
  type: "ReLU"
  bottom: "conv1_2"
  top: "conv1_2"
}
layer {
  name: "pool1"
  type: "Pooling"
  bottom: "conv1_2"
  top: "pool1"
  pooling_param {
    pool: MAX
    kernel_size: 2
    stride: 2
  }
}
layer {
  name: "conv2_1"
  type: "Convolution"
  bottom: "pool1"
  top: "conv2_1"
  param {
    lr_mult: 1
    decay_mult: 1
  }
  param {
    lr_mult: 2
    decay_mult: 0
  }
  convolution_param {
    num_output: 128
    pad: 1
    kernel_size: 3
    weight_filler {
      type: "xavier"
    }
    bias_filler {
      type: "constant"
      value: 0
    }
  }
}
layer {
  name: "relu2_1"
  type: "ReLU"
  bottom: "conv2_1"
  top: "conv2_1"
}
layer {
  name: "conv2_2"
  type: "Convolution"
  bottom: "conv2_1"
  top: "conv2_2"
  param {
    lr_mult: 1
    decay_mult: 1
  }
  param {
    lr_mult: 2
    decay_mult: 0
  }
  convolution_param {
    num_output: 128
    pad: 1
    kernel_size: 3
    weight_filler {
      type: "xavier"
    }
    bias_filler {
      type: "constant"
      value: 0
    }
  }
}
layer {
  name: "relu2_2"
  type: "ReLU"
  bottom: "conv2_2"
  top: "conv2_2"
}
layer {
  name: "pool2"
  type: "Pooling"
  bottom: "conv2_2"
  top: "pool2"
  pooling_param {
    pool: MAX
    kernel_size: 2
    stride: 2
  }
}
layer {
  name: "conv3_1"
  type: "Convolution"
  bottom: "pool2"
  top: "conv3_1"
  param {
    lr_mult: 1
    decay_mult: 1
  }
  param {
    lr_mult: 2
    decay_mult: 0
  }
  convolution_param {
    num_output: 256
    pad: 1
    kernel_size: 3
    weight_filler {
      type: "xavier"
    }
    bias_filler {
      type: "constant"
      value: 0
    }
  }
}
layer {
  name: "relu3_1"
  type: "ReLU"
  bottom: "conv3_1"
  top: "conv3_1"
}
layer {
  name: "conv3_2"
  type: "Convolution"
  bottom: "conv3_1"
  top: "conv3_2"
  param {
    lr_mult: 1
    decay_mult: 1
  }
  param {
    lr_mult: 2
    decay_mult: 0
  }
  convolution_param {
    num_output: 256
    pad: 1
    kernel_size: 3
    weight_filler {
      type: "xavier"
    }
    bias_filler {
      type: "constant"
      value: 0
    }
  }
}
layer {
  name: "relu3_2"
  type: "ReLU"
  bottom: "conv3_2"
  top: "conv3_2"
}
layer {
  name: "conv3_3"
  type: "Convolution"
  bottom: "conv3_2"
  top: "conv3_3"
  param {
    lr_mult: 1
    decay_mult: 1
  }
  param {
    lr_mult: 2
    decay_mult: 0
  }
  convolution_param {
    num_output: 256
    pad: 1
    kernel_size: 3
    weight_filler {
      type: "xavier"
    }
    bias_filler {
      type: "constant"
      value: 0
    }
  }
}
layer {
  name: "relu3_3"
  type: "ReLU"
  bottom: "conv3_3"
  top: "conv3_3"
}
layer {
  name: "pool3"
  type: "Pooling"
  bottom: "conv3_3"
  top: "pool3"
  pooling_param {
    pool: MAX
    kernel_size: 2
    stride: 2
  }
}
layer {
  name: "conv4_1"
  type: "Convolution"
  bottom: "pool3"
  top: "conv4_1"
  param {
    lr_mult: 1
    decay_mult: 1
  }
  param {
    lr_mult: 2
    decay_mult: 0
  }
  convolution_param {
    num_output: 512
    pad: 1
    kernel_size: 3
    weight_filler {
      type: "xavier"
    }
    bias_filler {
      type: "constant"
      value: 0
    }
  }
}
layer {
  name: "relu4_1"
  type: "ReLU"
  bottom: "conv4_1"
  top: "conv4_1"
}
layer {
  name: "conv4_2"
  type: "Convolution"
  bottom: "conv4_1"
  top: "conv4_2"
  param {
    lr_mult: 1
    decay_mult: 1
  }
  param {
    lr_mult: 2
    decay_mult: 0
  }
  convolution_param {
    num_output: 512
    pad: 1
    kernel_size: 3
    weight_filler {
      type: "xavier"
    }
    bias_filler {
      type: "constant"
      value: 0
    }
  }
}
layer {
  name: "relu4_2"
  type: "ReLU"
  bottom: "conv4_2"
  top: "conv4_2"
}
layer {
  name: "conv4_3"
  type: "Convolution"
  bottom: "conv4_2"
  top: "conv4_3"
  param {
    lr_mult: 1
    decay_mult: 1
  }
  param {
    lr_mult: 2
    decay_mult: 0
  }
  convolution_param {
    num_output: 512
    pad: 1
    kernel_size: 3
    weight_filler {
      type: "xavier"
    }
    bias_filler {
      type: "constant"
      value: 0
    }
  }
}
layer {
  name: "relu4_3"
  type: "ReLU"
  bottom: "conv4_3"
  top: "conv4_3"
}
layer {
  name: "pool4"
  type: "Pooling"
  bottom: "conv4_3"
  top: "pool4"
  pooling_param {
    pool: MAX
    kernel_size: 2
    stride: 2
  }
}
layer {
  name: "conv5_1"
  type: "Convolution"
  bottom: "pool4"
  top: "conv5_1"
  param {
    lr_mult: 1
    decay_mult: 1
  }
  param {
    lr_mult: 2
    decay_mult: 0
  }
  convolution_param {
    num_output: 512
    pad: 1
    kernel_size: 3
    weight_filler {
      type: "xavier"
    }
    bias_filler {
      type: "constant"
      value: 0
    }
    dilation: 1
  }
}
layer {
  name: "relu5_1"
  type: "ReLU"
  bottom: "conv5_1"
  top: "conv5_1"
}
layer {
  name: "conv5_2"
  type: "Convolution"
  bottom: "conv5_1"
  top: "conv5_2"
  param {
    lr_mult: 1
    decay_mult: 1
  }
  param {
    lr_mult: 2
    decay_mult: 0
  }
  convolution_param {
    num_output: 512
    pad: 1
    kernel_size: 3
    weight_filler {
      type: "xavier"
    }
    bias_filler {
      type: "constant"
      value: 0
    }
    dilation: 1
  }
}
layer {
  name: "relu5_2"
  type: "ReLU"
  bottom: "conv5_2"
  top: "conv5_2"
}
layer {
  name: "conv5_3"
  type: "Convolution"
  bottom: "conv5_2"
  top: "conv5_3"
  param {
    lr_mult: 1
    decay_mult: 1
  }
  param {
    lr_mult: 2
    decay_mult: 0
  }
  convolution_param {
    num_output: 512
    pad: 1
    kernel_size: 3
    weight_filler {
      type: "xavier"
    }
    bias_filler {
      type: "constant"
      value: 0
    }
    dilation: 1
  }
}
layer {
  name: "relu5_3"
  type: "ReLU"
  bottom: "conv5_3"
  top: "conv5_3"
}
layer {
  name: "pool5"
  type: "Pooling"
  bottom: "conv5_3"
  top: "pool5"
  pooling_param {
    pool: MAX
    kernel_size: 3
    stride: 1
    pad: 1
  }
}
layer {
  name: "fc6"
  type: "Convolution"
  bottom: "pool5"
  top: "fc6"
  param {
    lr_mult: 1
    decay_mult: 1
  }
  param {
    lr_mult: 2
    decay_mult: 0
  }
  convolution_param {
    num_output: 1024
    pad: 6
    kernel_size: 3
    weight_filler {
      type: "xavier"
    }
    bias_filler {
      type: "constant"
      value: 0
    }
    dilation: 6
  }
}
layer {
  name: "relu6"
  type: "ReLU"
  bottom: "fc6"
  top: "fc6"
}
layer {
  name: "fc7"
  type: "Convolution"
  bottom: "fc6"
  top: "fc7"
  param {
    lr_mult: 1
    decay_mult: 1
  }
  param {
    lr_mult: 2
    decay_mult: 0
  }
  convolution_param {
    num_output: 1024
    kernel_size: 1
    weight_filler {
      type: "xavier"
    }
    bias_filler {
      type: "constant"
      value: 0
    }
  }
}
layer {
  name: "relu7"
  type: "ReLU"
  bottom: "fc7"
  top: "fc7"
}
layer {
  name: "conv6_1"
  type: "Convolution"
  bottom: "fc7"
  top: "conv6_1"
  param {
    lr_mult: 1
    decay_mult: 1
  }
  param {
    lr_mult: 2
    decay_mult: 0
  }
  convolution_param {
    num_output: 256
    pad: 0
    kernel_size: 1
    stride: 1
    weight_filler {
      type: "xavier"
    }
    bias_filler {
      type: "constant"
      value: 0
    }
  }
}
layer {
  name: "conv6_1_relu"
  type: "ReLU"
  bottom: "conv6_1"
  top: "conv6_1"
}
layer {
  name: "conv6_2"
  type: "Convolution"
  bottom: "conv6_1"
  top: "conv6_2"
  param {
    lr_mult: 1
    decay_mult: 1
  }
  param {
    lr_mult: 2
    decay_mult: 0
  }
  convolution_param {
    num_output: 512
    pad: 1
    kernel_size: 3
    stride: 2
    weight_filler {
      type: "xavier"
    }
    bias_filler {
      type: "constant"
      value: 0
    }
  }
}
layer {
  name: "conv6_2_relu"
  type: "ReLU"
  bottom: "conv6_2"
  top: "conv6_2"
}
layer {
  name: "conv7_1"
  type: "Convolution"
  bottom: "conv6_2"
  top: "conv7_1"
  param {
    lr_mult: 1
    decay_mult: 1
  }
  param {
    lr_mult: 2
    decay_mult: 0
  }
  convolution_param {
    num_output: 128
    pad: 0
    kernel_size: 1
    stride: 1
    weight_filler {
      type: "xavier"
    }
    bias_filler {
      type: "constant"
      value: 0
    }
  }
}
layer {
  name: "conv7_1_relu"
  type: "ReLU"
  bottom: "conv7_1"
  top: "conv7_1"
}
layer {
  name: "conv7_2"
  type: "Convolution"
  bottom: "conv7_1"
  top: "conv7_2"
  param {
    lr_mult: 1
    decay_mult: 1
  }
  param {
    lr_mult: 2
    decay_mult: 0
  }
  convolution_param {
    num_output: 256
    pad: 1
    kernel_size: 3
    stride: 2
    weight_filler {
      type: "xavier"
    }
    bias_filler {
      type: "constant"
      value: 0
    }
  }
}
layer {
  name: "conv7_2_relu"
  type: "ReLU"
  bottom: "conv7_2"
  top: "conv7_2"
}
layer {
  name: "conv8_1"
  type: "Convolution"
  bottom: "conv7_2"
  top: "conv8_1"
  param {
    lr_mult: 1
    decay_mult: 1
  }
  param {
    lr_mult: 2
    decay_mult: 0
  }
  convolution_param {
    num_output: 128
    pad: 0
    kernel_size: 1
    stride: 1
    weight_filler {
      type: "xavier"
    }
    bias_filler {
      type: "constant"
      value: 0
    }
  }
}
layer {
  name: "conv8_1_relu"
  type: "ReLU"
  bottom: "conv8_1"
  top: "conv8_1"
}
layer {
  name: "conv8_2"
  type: "Convolution"
  bottom: "conv8_1"
  top: "conv8_2"
  param {
    lr_mult: 1
    decay_mult: 1
  }
  param {
    lr_mult: 2
    decay_mult: 0
  }
  convolution_param {
    num_output: 256
    pad: 0
    kernel_size: 3
    stride: 1
    weight_filler {
      type: "xavier"
    }
    bias_filler {
      type: "constant"
      value: 0
    }
  }
}
layer {
  name: "conv8_2_relu"
  type: "ReLU"
  bottom: "conv8_2"
  top: "conv8_2"
}
layer {
  name: "conv9_1"
  type: "Convolution"
  bottom: "conv8_2"
  top: "conv9_1"
  param {
    lr_mult: 1
    decay_mult: 1
  }
  param {
    lr_mult: 2
    decay_mult: 0
  }
  convolution_param {
    num_output: 128
    pad: 0
    kernel_size: 1
    stride: 1
    weight_filler {
      type: "xavier"
    }
    bias_filler {
      type: "constant"
      value: 0
    }
  }
}
layer {
  name: "conv9_1_relu"
  type: "ReLU"
  bottom: "conv9_1"
  top: "conv9_1"
}
layer {
  name: "conv9_2"
  type: "Convolution"
  bottom: "conv9_1"
  top: "conv9_2"
  param {
    lr_mult: 1
    decay_mult: 1
  }
  param {
    lr_mult: 2
    decay_mult: 0
  }
  convolution_param {
    num_output: 256
    pad: 0
    kernel_size: 3
    stride: 1
    weight_filler {
      type: "xavier"
    }
    bias_filler {
      type: "constant"
      value: 0
    }
  }
}
layer {
  name: "conv9_2_relu"
  type: "ReLU"
  bottom: "conv9_2"
  top: "conv9_2"
}
layer {
  name: "conv4_3_norm"
  type: "Normalize"
  bottom: "conv4_3"
  top: "conv4_3_norm"
  norm_param {
    across_spatial: false
    scale_filler {
      type: "constant"
      value: 20
    }
    channel_shared: false
  }
}
layer {
  name: "conv4_3_norm_mbox_loc"
  type: "Convolution"
  bottom: "conv4_3_norm"
  top: "conv4_3_norm_mbox_loc"
  param {
    lr_mult: 1
    decay_mult: 1
  }
  param {
    lr_mult: 2
    decay_mult: 0
  }
  convolution_param {
    num_output: 16
    pad: 1
    kernel_size: 3
    stride: 1
    weight_filler {
      type: "xavier"
    }
    bias_filler {
      type: "constant"
      value: 0
    }
  }
}
layer {
  name: "conv4_3_norm_mbox_loc_perm"
  type: "Permute"
  bottom: "conv4_3_norm_mbox_loc"
  top: "conv4_3_norm_mbox_loc_perm"
  permute_param {
    order: 0
    order: 2
    order: 3
    order: 1
  }
}
layer {
  name: "conv4_3_norm_mbox_loc_flat"
  type: "Flatten"
  bottom: "conv4_3_norm_mbox_loc_perm"
  top: "conv4_3_norm_mbox_loc_flat"
  flatten_param {
    axis: 1
  }
}
layer {
  name: "conv4_3_norm_mbox_conf"
  type: "Convolution"
  bottom: "conv4_3_norm"
  top: "conv4_3_norm_mbox_conf"
  param {
    lr_mult: 1
    decay_mult: 1
  }
  param {
    lr_mult: 2
    decay_mult: 0
  }
  convolution_param {
    num_output: 12
    pad: 1
    kernel_size: 3
    stride: 1
    weight_filler {
      type: "xavier"
    }
    bias_filler {
      type: "constant"
      value: 0
    }
  }
}
layer {
  name: "conv4_3_norm_mbox_conf_perm"
  type: "Permute"
  bottom: "conv4_3_norm_mbox_conf"
  top: "conv4_3_norm_mbox_conf_perm"
  permute_param {
    order: 0
    order: 2
    order: 3
    order: 1
  }
}
layer {
  name: "conv4_3_norm_mbox_conf_flat"
  type: "Flatten"
  bottom: "conv4_3_norm_mbox_conf_perm"
  top: "conv4_3_norm_mbox_conf_flat"
  flatten_param {
    axis: 1
  }
}
layer {
  name: "conv4_3_norm_mbox_priorbox"
  type: "PriorBox"
  bottom: "conv4_3_norm"
  bottom: "data"
  top: "conv4_3_norm_mbox_priorbox"
  prior_box_param {
    min_size: 30
    max_size: 60
    aspect_ratio: 2
    flip: true
    clip: false
    variance: 0.1
    variance: 0.1
    variance: 0.2
    variance: 0.2
    step: 8
    offset: 0.5
  }
}
layer {
  name: "fc7_mbox_loc"
  type: "Convolution"
  bottom: "fc7"
  top: "fc7_mbox_loc"
  param {
    lr_mult: 1
    decay_mult: 1
  }
  param {
    lr_mult: 2
    decay_mult: 0
  }
  convolution_param {
    num_output: 24
    pad: 1
    kernel_size: 3
    stride: 1
    weight_filler {
      type: "xavier"
    }
    bias_filler {
      type: "constant"
      value: 0
    }
  }
}
layer {
  name: "fc7_mbox_loc_perm"
  type: "Permute"
  bottom: "fc7_mbox_loc"
  top: "fc7_mbox_loc_perm"
  permute_param {
    order: 0
    order: 2
    order: 3
    order: 1
  }
}
layer {
  name: "fc7_mbox_loc_flat"
  type: "Flatten"
  bottom: "fc7_mbox_loc_perm"
  top: "fc7_mbox_loc_flat"
  flatten_param {
    axis: 1
  }
}
layer {
  name: "fc7_mbox_conf"
  type: "Convolution"
  bottom: "fc7"
  top: "fc7_mbox_conf"
  param {
    lr_mult: 1
    decay_mult: 1
  }
  param {
    lr_mult: 2
    decay_mult: 0
  }
  convolution_param {
    num_output: 18
    pad: 1
    kernel_size: 3
    stride: 1
    weight_filler {
      type: "xavier"
    }
    bias_filler {
      type: "constant"
      value: 0
    }
  }
}
layer {
  name: "fc7_mbox_conf_perm"
  type: "Permute"
  bottom: "fc7_mbox_conf"
  top: "fc7_mbox_conf_perm"
  permute_param {
    order: 0
    order: 2
    order: 3
    order: 1
  }
}
layer {
  name: "fc7_mbox_conf_flat"
  type: "Flatten"
  bottom: "fc7_mbox_conf_perm"
  top: "fc7_mbox_conf_flat"
  flatten_param {
    axis: 1
  }
}
layer {
  name: "fc7_mbox_priorbox"
  type: "PriorBox"
  bottom: "fc7"
  bottom: "data"
  top: "fc7_mbox_priorbox"
  prior_box_param {
    min_size: 60
    max_size: 111
    aspect_ratio: 2
    aspect_ratio: 3
    flip: true
    clip: false
    variance: 0.1
    variance: 0.1
    variance: 0.2
    variance: 0.2
    step: 16
    offset: 0.5
  }
}
layer {
  name: "conv6_2_mbox_loc"
  type: "Convolution"
  bottom: "conv6_2"
  top: "conv6_2_mbox_loc"
  param {
    lr_mult: 1
    decay_mult: 1
  }
  param {
    lr_mult: 2
    decay_mult: 0
  }
  convolution_param {
    num_output: 24
    pad: 1
    kernel_size: 3
    stride: 1
    weight_filler {
      type: "xavier"
    }
    bias_filler {
      type: "constant"
      value: 0
    }
  }
}
layer {
  name: "conv6_2_mbox_loc_perm"
  type: "Permute"
  bottom: "conv6_2_mbox_loc"
  top: "conv6_2_mbox_loc_perm"
  permute_param {
    order: 0
    order: 2
    order: 3
    order: 1
  }
}
layer {
  name: "conv6_2_mbox_loc_flat"
  type: "Flatten"
  bottom: "conv6_2_mbox_loc_perm"
  top: "conv6_2_mbox_loc_flat"
  flatten_param {
    axis: 1
  }
}
layer {
  name: "conv6_2_mbox_conf"
  type: "Convolution"
  bottom: "conv6_2"
  top: "conv6_2_mbox_conf"
  param {
    lr_mult: 1
    decay_mult: 1
  }
  param {
    lr_mult: 2
    decay_mult: 0
  }
  convolution_param {
    num_output: 18
    pad: 1
    kernel_size: 3
    stride: 1
    weight_filler {
      type: "xavier"
    }
    bias_filler {
      type: "constant"
      value: 0
    }
  }
}
layer {
  name: "conv6_2_mbox_conf_perm"
  type: "Permute"
  bottom: "conv6_2_mbox_conf"
  top: "conv6_2_mbox_conf_perm"
  permute_param {
    order: 0
    order: 2
    order: 3
    order: 1
  }
}
layer {
  name: "conv6_2_mbox_conf_flat"
  type: "Flatten"
  bottom: "conv6_2_mbox_conf_perm"
  top: "conv6_2_mbox_conf_flat"
  flatten_param {
    axis: 1
  }
}
layer {
  name: "conv6_2_mbox_priorbox"
  type: "PriorBox"
  bottom: "conv6_2"
  bottom: "data"
  top: "conv6_2_mbox_priorbox"
  prior_box_param {
    min_size: 111
    max_size: 162
    aspect_ratio: 2
    aspect_ratio: 3
    flip: true
    clip: false
    variance: 0.1
    variance: 0.1
    variance: 0.2
    variance: 0.2
    step: 32
    offset: 0.5
  }
}
layer {
  name: "conv7_2_mbox_loc"
  type: "Convolution"
  bottom: "conv7_2"
  top: "conv7_2_mbox_loc"
  param {
    lr_mult: 1
    decay_mult: 1
  }
  param {
    lr_mult: 2
    decay_mult: 0
  }
  convolution_param {
    num_output: 24
    pad: 1
    kernel_size: 3
    stride: 1
    weight_filler {
      type: "xavier"
    }
    bias_filler {
      type: "constant"
      value: 0
    }
  }
}
layer {
  name: "conv7_2_mbox_loc_perm"
  type: "Permute"
  bottom: "conv7_2_mbox_loc"
  top: "conv7_2_mbox_loc_perm"
  permute_param {
    order: 0
    order: 2
    order: 3
    order: 1
  }
}
layer {
  name: "conv7_2_mbox_loc_flat"
  type: "Flatten"
  bottom: "conv7_2_mbox_loc_perm"
  top: "conv7_2_mbox_loc_flat"
  flatten_param {
    axis: 1
  }
}
layer {
  name: "conv7_2_mbox_conf"
  type: "Convolution"
  bottom: "conv7_2"
  top: "conv7_2_mbox_conf"
  param {
    lr_mult: 1
    decay_mult: 1
  }
  param {
    lr_mult: 2
    decay_mult: 0
  }
  convolution_param {
    num_output: 18
    pad: 1
    kernel_size: 3
    stride: 1
    weight_filler {
      type: "xavier"
    }
    bias_filler {
      type: "constant"
      value: 0
    }
  }
}
layer {
  name: "conv7_2_mbox_conf_perm"
  type: "Permute"
  bottom: "conv7_2_mbox_conf"
  top: "conv7_2_mbox_conf_perm"
  permute_param {
    order: 0
    order: 2
    order: 3
    order: 1
  }
}
layer {
  name: "conv7_2_mbox_conf_flat"
  type: "Flatten"
  bottom: "conv7_2_mbox_conf_perm"
  top: "conv7_2_mbox_conf_flat"
  flatten_param {
    axis: 1
  }
}
layer {
  name: "conv7_2_mbox_priorbox"
  type: "PriorBox"
  bottom: "conv7_2"
  bottom: "data"
  top: "conv7_2_mbox_priorbox"
  prior_box_param {
    min_size: 162
    max_size: 213
    aspect_ratio: 2
    aspect_ratio: 3
    flip: true
    clip: false
    variance: 0.1
    variance: 0.1
    variance: 0.2
    variance: 0.2
    step: 64
    offset: 0.5
  }
}
layer {
  name: "conv8_2_mbox_loc"
  type: "Convolution"
  bottom: "conv8_2"
  top: "conv8_2_mbox_loc"
  param {
    lr_mult: 1
    decay_mult: 1
  }
  param {
    lr_mult: 2
    decay_mult: 0
  }
  convolution_param {
    num_output: 16
    pad: 1
    kernel_size: 3
    stride: 1
    weight_filler {
      type: "xavier"
    }
    bias_filler {
      type: "constant"
      value: 0
    }
  }
}
layer {
  name: "conv8_2_mbox_loc_perm"
  type: "Permute"
  bottom: "conv8_2_mbox_loc"
  top: "conv8_2_mbox_loc_perm"
  permute_param {
    order: 0
    order: 2
    order: 3
    order: 1
  }
}
layer {
  name: "conv8_2_mbox_loc_flat"
  type: "Flatten"
  bottom: "conv8_2_mbox_loc_perm"
  top: "conv8_2_mbox_loc_flat"
  flatten_param {
    axis: 1
  }
}
layer {
  name: "conv8_2_mbox_conf"
  type: "Convolution"
  bottom: "conv8_2"
  top: "conv8_2_mbox_conf"
  param {
    lr_mult: 1
    decay_mult: 1
  }
  param {
    lr_mult: 2
    decay_mult: 0
  }
  convolution_param {
    num_output: 12
    pad: 1
    kernel_size: 3
    stride: 1
    weight_filler {
      type: "xavier"
    }
    bias_filler {
      type: "constant"
      value: 0
    }
  }
}
layer {
  name: "conv8_2_mbox_conf_perm"
  type: "Permute"
  bottom: "conv8_2_mbox_conf"
  top: "conv8_2_mbox_conf_perm"
  permute_param {
    order: 0
    order: 2
    order: 3
    order: 1
  }
}
layer {
  name: "conv8_2_mbox_conf_flat"
  type: "Flatten"
  bottom: "conv8_2_mbox_conf_perm"
  top: "conv8_2_mbox_conf_flat"
  flatten_param {
    axis: 1
  }
}
layer {
  name: "conv8_2_mbox_priorbox"
  type: "PriorBox"
  bottom: "conv8_2"
  bottom: "data"
  top: "conv8_2_mbox_priorbox"
  prior_box_param {
    min_size: 213
    max_size: 264
    aspect_ratio: 2
    flip: true
    clip: false
    variance: 0.1
    variance: 0.1
    variance: 0.2
    variance: 0.2
    step: 100
    offset: 0.5
  }
}
layer {
  name: "conv9_2_mbox_loc"
  type: "Convolution"
  bottom: "conv9_2"
  top: "conv9_2_mbox_loc"
  param {
    lr_mult: 1
    decay_mult: 1
  }
  param {
    lr_mult: 2
    decay_mult: 0
  }
  convolution_param {
    num_output: 16
    pad: 1
    kernel_size: 3
    stride: 1
    weight_filler {
      type: "xavier"
    }
    bias_filler {
      type: "constant"
      value: 0
    }
  }
}
layer {
  name: "conv9_2_mbox_loc_perm"
  type: "Permute"
  bottom: "conv9_2_mbox_loc"
  top: "conv9_2_mbox_loc_perm"
  permute_param {
    order: 0
    order: 2
    order: 3
    order: 1
  }
}
layer {
  name: "conv9_2_mbox_loc_flat"
  type: "Flatten"
  bottom: "conv9_2_mbox_loc_perm"
  top: "conv9_2_mbox_loc_flat"
  flatten_param {
    axis: 1
  }
}
layer {
  name: "conv9_2_mbox_conf"
  type: "Convolution"
  bottom: "conv9_2"
  top: "conv9_2_mbox_conf"
  param {
    lr_mult: 1
    decay_mult: 1
  }
  param {
    lr_mult: 2
    decay_mult: 0
  }
  convolution_param {
    num_output: 12
    pad: 1
    kernel_size: 3
    stride: 1
    weight_filler {
      type: "xavier"
    }
    bias_filler {
      type: "constant"
      value: 0
    }
  }
}
layer {
  name: "conv9_2_mbox_conf_perm"
  type: "Permute"
  bottom: "conv9_2_mbox_conf"
  top: "conv9_2_mbox_conf_perm"
  permute_param {
    order: 0
    order: 2
    order: 3
    order: 1
  }
}
layer {
  name: "conv9_2_mbox_conf_flat"
  type: "Flatten"
  bottom: "conv9_2_mbox_conf_perm"
  top: "conv9_2_mbox_conf_flat"
  flatten_param {
    axis: 1
  }
}
layer {
  name: "conv9_2_mbox_priorbox"
  type: "PriorBox"
  bottom: "conv9_2"
  bottom: "data"
  top: "conv9_2_mbox_priorbox"
  prior_box_param {
    min_size: 264
    max_size: 315
    aspect_ratio: 2
    flip: true
    clip: false
    variance: 0.1
    variance: 0.1
    variance: 0.2
    variance: 0.2
    step: 300
    offset: 0.5
  }
}
layer {
  name: "mbox_loc"
  type: "Concat"
  bottom: "conv4_3_norm_mbox_loc_flat"
  bottom: "fc7_mbox_loc_flat"
  bottom: "conv6_2_mbox_loc_flat"
  bottom: "conv7_2_mbox_loc_flat"
  bottom: "conv8_2_mbox_loc_flat"
  bottom: "conv9_2_mbox_loc_flat"
  top: "mbox_loc"
  concat_param {
    axis: 1
  }
}
layer {
  name: "mbox_conf"
  type: "Concat"
  bottom: "conv4_3_norm_mbox_conf_flat"
  bottom: "fc7_mbox_conf_flat"
  bottom: "conv6_2_mbox_conf_flat"
  bottom: "conv7_2_mbox_conf_flat"
  bottom: "conv8_2_mbox_conf_flat"
  bottom: "conv9_2_mbox_conf_flat"
  top: "mbox_conf"
  concat_param {
    axis: 1
  }
}
layer {
  name: "mbox_priorbox"
  type: "Concat"
  bottom: "conv4_3_norm_mbox_priorbox"
  bottom: "fc7_mbox_priorbox"
  bottom: "conv6_2_mbox_priorbox"
  bottom: "conv7_2_mbox_priorbox"
  bottom: "conv8_2_mbox_priorbox"
  bottom: "conv9_2_mbox_priorbox"
  top: "mbox_priorbox"
  concat_param {
    axis: 2
  }
}
layer {
  name: "mbox_conf_reshape"
  type: "Reshape"
  bottom: "mbox_conf"
  top: "mbox_conf_reshape"
  reshape_param {
    shape {
      dim: 0
      dim: -1
      dim: 3
    }
  }
}
layer {
  name: "mbox_conf_softmax"
  type: "Softmax"
  bottom: "mbox_conf_reshape"
  top: "mbox_conf_softmax"
  softmax_param {
    axis: 2
  }
}
layer {
  name: "mbox_conf_flatten"
  type: "Flatten"
  bottom: "mbox_conf_softmax"
  top: "mbox_conf_flatten"
  flatten_param {
    axis: 1
  }
}
layer {
  name: "detection_out"
  type: "DetectionOutput"
  bottom: "mbox_loc"
  bottom: "mbox_conf_flatten"
  bottom: "mbox_priorbox"
  top: "detection_out"
  include {
    phase: TEST
  }
  detection_output_param {
    num_classes: 3
    share_location: true
    background_label_id: 0
    nms_param {
      nms_threshold: 0.45
      top_k: 400
    }
    save_output_param {
      output_directory: "/home/rjperias/data/VOCdevkit/results/VOC2007/SSD_300x300/Main"
      output_name_prefix: "comp4_det_test_"
      output_format: "VOC"
      label_map_file: "data/MELON/labelmap_melon.prototxt"
      name_size_file: "data/MELON/test_name_size.txt"
      num_test_image: 80
    }
    code_type: CENTER_SIZE
    keep_top_k: 200
    confidence_threshold: 0.01
  }
}
layer {
  name: "detection_eval"
  type: "DetectionEvaluate"
  bottom: "detection_out"
  bottom: "label"
  top: "detection_eval"
  include {
    phase: TEST
  }
  detection_evaluate_param {
    num_classes: 3
    background_label_id: 0
    overlap_threshold: 0.5
    evaluate_difficult_gt: false
    name_size_file: "data/MELON/test_name_size.txt"
  }
}
I1001 23:26:16.287595 12439 layer_factory.hpp:77] Creating layer data
I1001 23:26:16.287719 12439 net.cpp:100] Creating Layer data
I1001 23:26:16.287729 12439 net.cpp:408] data -> data
I1001 23:26:16.287736 12439 net.cpp:408] data -> label
I1001 23:26:16.288743 12464 db_lmdb.cpp:35] Opened lmdb examples/MELON/MELON_test_lmdb
I1001 23:26:16.290004 12439 annotated_data_layer.cpp:62] output data size: 8,3,300,300
I1001 23:26:16.303603 12439 net.cpp:150] Setting up data
I1001 23:26:16.303632 12439 net.cpp:157] Top shape: 8 3 300 300 (2160000)
I1001 23:26:16.303637 12439 net.cpp:157] Top shape: 1 1 1 8 (8)
I1001 23:26:16.303638 12439 net.cpp:165] Memory required for data: 8640032
I1001 23:26:16.303643 12439 layer_factory.hpp:77] Creating layer data_data_0_split
I1001 23:26:16.308822 12439 net.cpp:100] Creating Layer data_data_0_split
I1001 23:26:16.308840 12439 net.cpp:434] data_data_0_split <- data
I1001 23:26:16.308846 12439 net.cpp:408] data_data_0_split -> data_data_0_split_0
I1001 23:26:16.309309 12439 net.cpp:408] data_data_0_split -> data_data_0_split_1
I1001 23:26:16.309319 12439 net.cpp:408] data_data_0_split -> data_data_0_split_2
I1001 23:26:16.309324 12439 net.cpp:408] data_data_0_split -> data_data_0_split_3
I1001 23:26:16.309327 12439 net.cpp:408] data_data_0_split -> data_data_0_split_4
I1001 23:26:16.309331 12439 net.cpp:408] data_data_0_split -> data_data_0_split_5
I1001 23:26:16.309334 12439 net.cpp:408] data_data_0_split -> data_data_0_split_6
I1001 23:26:16.309458 12439 net.cpp:150] Setting up data_data_0_split
I1001 23:26:16.309464 12439 net.cpp:157] Top shape: 8 3 300 300 (2160000)
I1001 23:26:16.309468 12439 net.cpp:157] Top shape: 8 3 300 300 (2160000)
I1001 23:26:16.309469 12439 net.cpp:157] Top shape: 8 3 300 300 (2160000)
I1001 23:26:16.309473 12439 net.cpp:157] Top shape: 8 3 300 300 (2160000)
I1001 23:26:16.309474 12439 net.cpp:157] Top shape: 8 3 300 300 (2160000)
I1001 23:26:16.309478 12439 net.cpp:157] Top shape: 8 3 300 300 (2160000)
I1001 23:26:16.309479 12439 net.cpp:157] Top shape: 8 3 300 300 (2160000)
I1001 23:26:16.309481 12439 net.cpp:165] Memory required for data: 69120032
I1001 23:26:16.309502 12439 layer_factory.hpp:77] Creating layer conv1_1
I1001 23:26:16.309511 12439 net.cpp:100] Creating Layer conv1_1
I1001 23:26:16.309514 12439 net.cpp:434] conv1_1 <- data_data_0_split_0
I1001 23:26:16.309517 12439 net.cpp:408] conv1_1 -> conv1_1
I1001 23:26:16.309772 12439 net.cpp:150] Setting up conv1_1
I1001 23:26:16.309777 12439 net.cpp:157] Top shape: 8 64 300 300 (46080000)
I1001 23:26:16.309778 12439 net.cpp:165] Memory required for data: 253440032
I1001 23:26:16.309784 12439 layer_factory.hpp:77] Creating layer relu1_1
I1001 23:26:16.309789 12439 net.cpp:100] Creating Layer relu1_1
I1001 23:26:16.309792 12439 net.cpp:434] relu1_1 <- conv1_1
I1001 23:26:16.309794 12439 net.cpp:395] relu1_1 -> conv1_1 (in-place)
I1001 23:26:16.309798 12439 net.cpp:150] Setting up relu1_1
I1001 23:26:16.309800 12439 net.cpp:157] Top shape: 8 64 300 300 (46080000)
I1001 23:26:16.309803 12439 net.cpp:165] Memory required for data: 437760032
I1001 23:26:16.309804 12439 layer_factory.hpp:77] Creating layer conv1_2
I1001 23:26:16.309808 12439 net.cpp:100] Creating Layer conv1_2
I1001 23:26:16.309810 12439 net.cpp:434] conv1_2 <- conv1_1
I1001 23:26:16.309813 12439 net.cpp:408] conv1_2 -> conv1_2
I1001 23:26:16.311122 12439 net.cpp:150] Setting up conv1_2
I1001 23:26:16.311142 12439 net.cpp:157] Top shape: 8 64 300 300 (46080000)
I1001 23:26:16.311146 12439 net.cpp:165] Memory required for data: 622080032
I1001 23:26:16.311154 12439 layer_factory.hpp:77] Creating layer relu1_2
I1001 23:26:16.311214 12439 net.cpp:100] Creating Layer relu1_2
I1001 23:26:16.311220 12439 net.cpp:434] relu1_2 <- conv1_2
I1001 23:26:16.311241 12439 net.cpp:395] relu1_2 -> conv1_2 (in-place)
I1001 23:26:16.311262 12439 net.cpp:150] Setting up relu1_2
I1001 23:26:16.311267 12439 net.cpp:157] Top shape: 8 64 300 300 (46080000)
I1001 23:26:16.311285 12439 net.cpp:165] Memory required for data: 806400032
I1001 23:26:16.311301 12439 layer_factory.hpp:77] Creating layer pool1
I1001 23:26:16.311332 12439 net.cpp:100] Creating Layer pool1
I1001 23:26:16.311336 12439 net.cpp:434] pool1 <- conv1_2
I1001 23:26:16.311357 12439 net.cpp:408] pool1 -> pool1
I1001 23:26:16.311403 12439 net.cpp:150] Setting up pool1
I1001 23:26:16.311408 12439 net.cpp:157] Top shape: 8 64 150 150 (11520000)
I1001 23:26:16.311427 12439 net.cpp:165] Memory required for data: 852480032
I1001 23:26:16.311444 12439 layer_factory.hpp:77] Creating layer conv2_1
I1001 23:26:16.311478 12439 net.cpp:100] Creating Layer conv2_1
I1001 23:26:16.311482 12439 net.cpp:434] conv2_1 <- pool1
I1001 23:26:16.311503 12439 net.cpp:408] conv2_1 -> conv2_1
I1001 23:26:16.311962 12439 net.cpp:150] Setting up conv2_1
I1001 23:26:16.311969 12439 net.cpp:157] Top shape: 8 128 150 150 (23040000)
I1001 23:26:16.311969 12439 net.cpp:165] Memory required for data: 944640032
I1001 23:26:16.311997 12439 layer_factory.hpp:77] Creating layer relu2_1
I1001 23:26:16.312016 12439 net.cpp:100] Creating Layer relu2_1
I1001 23:26:16.312021 12439 net.cpp:434] relu2_1 <- conv2_1
I1001 23:26:16.312039 12439 net.cpp:395] relu2_1 -> conv2_1 (in-place)
I1001 23:26:16.312058 12439 net.cpp:150] Setting up relu2_1
I1001 23:26:16.312063 12439 net.cpp:157] Top shape: 8 128 150 150 (23040000)
I1001 23:26:16.312079 12439 net.cpp:165] Memory required for data: 1036800032
I1001 23:26:16.312098 12439 layer_factory.hpp:77] Creating layer conv2_2
I1001 23:26:16.312117 12439 net.cpp:100] Creating Layer conv2_2
I1001 23:26:16.312121 12439 net.cpp:434] conv2_2 <- conv2_1
I1001 23:26:16.312140 12439 net.cpp:408] conv2_2 -> conv2_2
I1001 23:26:16.313781 12439 net.cpp:150] Setting up conv2_2
I1001 23:26:16.313807 12439 net.cpp:157] Top shape: 8 128 150 150 (23040000)
I1001 23:26:16.313808 12439 net.cpp:165] Memory required for data: 1128960032
I1001 23:26:16.313884 12439 layer_factory.hpp:77] Creating layer relu2_2
I1001 23:26:16.313906 12439 net.cpp:100] Creating Layer relu2_2
I1001 23:26:16.313911 12439 net.cpp:434] relu2_2 <- conv2_2
I1001 23:26:16.313943 12439 net.cpp:395] relu2_2 -> conv2_2 (in-place)
I1001 23:26:16.313964 12439 net.cpp:150] Setting up relu2_2
I1001 23:26:16.313989 12439 net.cpp:157] Top shape: 8 128 150 150 (23040000)
I1001 23:26:16.314009 12439 net.cpp:165] Memory required for data: 1221120032
I1001 23:26:16.314028 12439 layer_factory.hpp:77] Creating layer pool2
I1001 23:26:16.314046 12439 net.cpp:100] Creating Layer pool2
I1001 23:26:16.314051 12439 net.cpp:434] pool2 <- conv2_2
I1001 23:26:16.314071 12439 net.cpp:408] pool2 -> pool2
I1001 23:26:16.314127 12439 net.cpp:150] Setting up pool2
I1001 23:26:16.314133 12439 net.cpp:157] Top shape: 8 128 75 75 (5760000)
I1001 23:26:16.314152 12439 net.cpp:165] Memory required for data: 1244160032
I1001 23:26:16.314170 12439 layer_factory.hpp:77] Creating layer conv3_1
I1001 23:26:16.314193 12439 net.cpp:100] Creating Layer conv3_1
I1001 23:26:16.314196 12439 net.cpp:434] conv3_1 <- pool2
I1001 23:26:16.314218 12439 net.cpp:408] conv3_1 -> conv3_1
I1001 23:26:16.315562 12439 net.cpp:150] Setting up conv3_1
I1001 23:26:16.315583 12439 net.cpp:157] Top shape: 8 256 75 75 (11520000)
I1001 23:26:16.315585 12439 net.cpp:165] Memory required for data: 1290240032
I1001 23:26:16.315650 12439 layer_factory.hpp:77] Creating layer relu3_1
I1001 23:26:16.315675 12439 net.cpp:100] Creating Layer relu3_1
I1001 23:26:16.315680 12439 net.cpp:434] relu3_1 <- conv3_1
I1001 23:26:16.315711 12439 net.cpp:395] relu3_1 -> conv3_1 (in-place)
I1001 23:26:16.315733 12439 net.cpp:150] Setting up relu3_1
I1001 23:26:16.315738 12439 net.cpp:157] Top shape: 8 256 75 75 (11520000)
I1001 23:26:16.315754 12439 net.cpp:165] Memory required for data: 1336320032
I1001 23:26:16.315773 12439 layer_factory.hpp:77] Creating layer conv3_2
I1001 23:26:16.315794 12439 net.cpp:100] Creating Layer conv3_2
I1001 23:26:16.315798 12439 net.cpp:434] conv3_2 <- conv3_1
I1001 23:26:16.315819 12439 net.cpp:408] conv3_2 -> conv3_2
I1001 23:26:16.319296 12439 net.cpp:150] Setting up conv3_2
I1001 23:26:16.319329 12439 net.cpp:157] Top shape: 8 256 75 75 (11520000)
I1001 23:26:16.319330 12439 net.cpp:165] Memory required for data: 1382400032
I1001 23:26:16.319412 12439 layer_factory.hpp:77] Creating layer relu3_2
I1001 23:26:16.319437 12439 net.cpp:100] Creating Layer relu3_2
I1001 23:26:16.319443 12439 net.cpp:434] relu3_2 <- conv3_2
I1001 23:26:16.319475 12439 net.cpp:395] relu3_2 -> conv3_2 (in-place)
I1001 23:26:16.319496 12439 net.cpp:150] Setting up relu3_2
I1001 23:26:16.319501 12439 net.cpp:157] Top shape: 8 256 75 75 (11520000)
I1001 23:26:16.319519 12439 net.cpp:165] Memory required for data: 1428480032
I1001 23:26:16.319536 12439 layer_factory.hpp:77] Creating layer conv3_3
I1001 23:26:16.319572 12439 net.cpp:100] Creating Layer conv3_3
I1001 23:26:16.319577 12439 net.cpp:434] conv3_3 <- conv3_2
I1001 23:26:16.319597 12439 net.cpp:408] conv3_3 -> conv3_3
I1001 23:26:16.323175 12439 net.cpp:150] Setting up conv3_3
I1001 23:26:16.323201 12439 net.cpp:157] Top shape: 8 256 75 75 (11520000)
I1001 23:26:16.323204 12439 net.cpp:165] Memory required for data: 1474560032
I1001 23:26:16.323256 12439 layer_factory.hpp:77] Creating layer relu3_3
I1001 23:26:16.323279 12439 net.cpp:100] Creating Layer relu3_3
I1001 23:26:16.323284 12439 net.cpp:434] relu3_3 <- conv3_3
I1001 23:26:16.323316 12439 net.cpp:395] relu3_3 -> conv3_3 (in-place)
I1001 23:26:16.323338 12439 net.cpp:150] Setting up relu3_3
I1001 23:26:16.323343 12439 net.cpp:157] Top shape: 8 256 75 75 (11520000)
I1001 23:26:16.323359 12439 net.cpp:165] Memory required for data: 1520640032
I1001 23:26:16.323377 12439 layer_factory.hpp:77] Creating layer pool3
I1001 23:26:16.323395 12439 net.cpp:100] Creating Layer pool3
I1001 23:26:16.323400 12439 net.cpp:434] pool3 <- conv3_3
I1001 23:26:16.323420 12439 net.cpp:408] pool3 -> pool3
I1001 23:26:16.323467 12439 net.cpp:150] Setting up pool3
I1001 23:26:16.323472 12439 net.cpp:157] Top shape: 8 256 38 38 (2957312)
I1001 23:26:16.323490 12439 net.cpp:165] Memory required for data: 1532469280
I1001 23:26:16.323493 12439 layer_factory.hpp:77] Creating layer conv4_1
I1001 23:26:16.323500 12439 net.cpp:100] Creating Layer conv4_1
I1001 23:26:16.323537 12439 net.cpp:434] conv4_1 <- pool3
I1001 23:26:16.323571 12439 net.cpp:408] conv4_1 -> conv4_1
I1001 23:26:16.329823 12439 net.cpp:150] Setting up conv4_1
I1001 23:26:16.329861 12439 net.cpp:157] Top shape: 8 512 38 38 (5914624)
I1001 23:26:16.329864 12439 net.cpp:165] Memory required for data: 1556127776
I1001 23:26:16.329953 12439 layer_factory.hpp:77] Creating layer relu4_1
I1001 23:26:16.329979 12439 net.cpp:100] Creating Layer relu4_1
I1001 23:26:16.329999 12439 net.cpp:434] relu4_1 <- conv4_1
I1001 23:26:16.330020 12439 net.cpp:395] relu4_1 -> conv4_1 (in-place)
I1001 23:26:16.330041 12439 net.cpp:150] Setting up relu4_1
I1001 23:26:16.330046 12439 net.cpp:157] Top shape: 8 512 38 38 (5914624)
I1001 23:26:16.330062 12439 net.cpp:165] Memory required for data: 1579786272
I1001 23:26:16.330080 12439 layer_factory.hpp:77] Creating layer conv4_2
I1001 23:26:16.330114 12439 net.cpp:100] Creating Layer conv4_2
I1001 23:26:16.330118 12439 net.cpp:434] conv4_2 <- conv4_1
I1001 23:26:16.330139 12439 net.cpp:408] conv4_2 -> conv4_2
I1001 23:26:16.343578 12439 net.cpp:150] Setting up conv4_2
I1001 23:26:16.343605 12439 net.cpp:157] Top shape: 8 512 38 38 (5914624)
I1001 23:26:16.343607 12439 net.cpp:165] Memory required for data: 1603444768
I1001 23:26:16.343668 12439 layer_factory.hpp:77] Creating layer relu4_2
I1001 23:26:16.343693 12439 net.cpp:100] Creating Layer relu4_2
I1001 23:26:16.343698 12439 net.cpp:434] relu4_2 <- conv4_2
I1001 23:26:16.343731 12439 net.cpp:395] relu4_2 -> conv4_2 (in-place)
I1001 23:26:16.343755 12439 net.cpp:150] Setting up relu4_2
I1001 23:26:16.343758 12439 net.cpp:157] Top shape: 8 512 38 38 (5914624)
I1001 23:26:16.343775 12439 net.cpp:165] Memory required for data: 1627103264
I1001 23:26:16.343793 12439 layer_factory.hpp:77] Creating layer conv4_3
I1001 23:26:16.343832 12439 net.cpp:100] Creating Layer conv4_3
I1001 23:26:16.343835 12439 net.cpp:434] conv4_3 <- conv4_2
I1001 23:26:16.343858 12439 net.cpp:408] conv4_3 -> conv4_3
I1001 23:26:16.355653 12439 net.cpp:150] Setting up conv4_3
I1001 23:26:16.355695 12439 net.cpp:157] Top shape: 8 512 38 38 (5914624)
I1001 23:26:16.355697 12439 net.cpp:165] Memory required for data: 1650761760
I1001 23:26:16.355708 12439 layer_factory.hpp:77] Creating layer relu4_3
I1001 23:26:16.355829 12439 net.cpp:100] Creating Layer relu4_3
I1001 23:26:16.355849 12439 net.cpp:434] relu4_3 <- conv4_3
I1001 23:26:16.355872 12439 net.cpp:395] relu4_3 -> conv4_3 (in-place)
I1001 23:26:16.355895 12439 net.cpp:150] Setting up relu4_3
I1001 23:26:16.355900 12439 net.cpp:157] Top shape: 8 512 38 38 (5914624)
I1001 23:26:16.355916 12439 net.cpp:165] Memory required for data: 1674420256
I1001 23:26:16.355933 12439 layer_factory.hpp:77] Creating layer conv4_3_relu4_3_0_split
I1001 23:26:16.355968 12439 net.cpp:100] Creating Layer conv4_3_relu4_3_0_split
I1001 23:26:16.355973 12439 net.cpp:434] conv4_3_relu4_3_0_split <- conv4_3
I1001 23:26:16.355993 12439 net.cpp:408] conv4_3_relu4_3_0_split -> conv4_3_relu4_3_0_split_0
I1001 23:26:16.356014 12439 net.cpp:408] conv4_3_relu4_3_0_split -> conv4_3_relu4_3_0_split_1
I1001 23:26:16.356062 12439 net.cpp:150] Setting up conv4_3_relu4_3_0_split
I1001 23:26:16.356067 12439 net.cpp:157] Top shape: 8 512 38 38 (5914624)
I1001 23:26:16.356087 12439 net.cpp:157] Top shape: 8 512 38 38 (5914624)
I1001 23:26:16.356103 12439 net.cpp:165] Memory required for data: 1721737248
I1001 23:26:16.356122 12439 layer_factory.hpp:77] Creating layer pool4
I1001 23:26:16.356143 12439 net.cpp:100] Creating Layer pool4
I1001 23:26:16.356148 12439 net.cpp:434] pool4 <- conv4_3_relu4_3_0_split_0
I1001 23:26:16.356169 12439 net.cpp:408] pool4 -> pool4
I1001 23:26:16.356216 12439 net.cpp:150] Setting up pool4
I1001 23:26:16.356221 12439 net.cpp:157] Top shape: 8 512 19 19 (1478656)
I1001 23:26:16.356252 12439 net.cpp:165] Memory required for data: 1727651872
I1001 23:26:16.356269 12439 layer_factory.hpp:77] Creating layer conv5_1
I1001 23:26:16.356307 12439 net.cpp:100] Creating Layer conv5_1
I1001 23:26:16.356312 12439 net.cpp:434] conv5_1 <- pool4
I1001 23:26:16.356367 12439 net.cpp:408] conv5_1 -> conv5_1
I1001 23:26:16.368285 12439 net.cpp:150] Setting up conv5_1
I1001 23:26:16.368319 12439 net.cpp:157] Top shape: 8 512 19 19 (1478656)
I1001 23:26:16.368320 12439 net.cpp:165] Memory required for data: 1733566496
I1001 23:26:16.368330 12439 layer_factory.hpp:77] Creating layer relu5_1
I1001 23:26:16.368396 12439 net.cpp:100] Creating Layer relu5_1
I1001 23:26:16.368402 12439 net.cpp:434] relu5_1 <- conv5_1
I1001 23:26:16.368422 12439 net.cpp:395] relu5_1 -> conv5_1 (in-place)
I1001 23:26:16.368430 12439 net.cpp:150] Setting up relu5_1
I1001 23:26:16.368449 12439 net.cpp:157] Top shape: 8 512 19 19 (1478656)
I1001 23:26:16.368451 12439 net.cpp:165] Memory required for data: 1739481120
I1001 23:26:16.368474 12439 layer_factory.hpp:77] Creating layer conv5_2
I1001 23:26:16.368497 12439 net.cpp:100] Creating Layer conv5_2
I1001 23:26:16.368502 12439 net.cpp:434] conv5_2 <- conv5_1
I1001 23:26:16.368525 12439 net.cpp:408] conv5_2 -> conv5_2
I1001 23:26:16.381623 12439 net.cpp:150] Setting up conv5_2
I1001 23:26:16.381654 12439 net.cpp:157] Top shape: 8 512 19 19 (1478656)
I1001 23:26:16.381657 12439 net.cpp:165] Memory required for data: 1745395744
I1001 23:26:16.381734 12439 layer_factory.hpp:77] Creating layer relu5_2
I1001 23:26:16.381757 12439 net.cpp:100] Creating Layer relu5_2
I1001 23:26:16.381763 12439 net.cpp:434] relu5_2 <- conv5_2
I1001 23:26:16.381796 12439 net.cpp:395] relu5_2 -> conv5_2 (in-place)
I1001 23:26:16.381819 12439 net.cpp:150] Setting up relu5_2
I1001 23:26:16.381824 12439 net.cpp:157] Top shape: 8 512 19 19 (1478656)
I1001 23:26:16.381839 12439 net.cpp:165] Memory required for data: 1751310368
I1001 23:26:16.381856 12439 layer_factory.hpp:77] Creating layer conv5_3
I1001 23:26:16.381891 12439 net.cpp:100] Creating Layer conv5_3
I1001 23:26:16.381894 12439 net.cpp:434] conv5_3 <- conv5_2
I1001 23:26:16.381913 12439 net.cpp:408] conv5_3 -> conv5_3
I1001 23:26:16.393483 12439 net.cpp:150] Setting up conv5_3
I1001 23:26:16.393512 12439 net.cpp:157] Top shape: 8 512 19 19 (1478656)
I1001 23:26:16.393515 12439 net.cpp:165] Memory required for data: 1757224992
I1001 23:26:16.393569 12439 layer_factory.hpp:77] Creating layer relu5_3
I1001 23:26:16.393595 12439 net.cpp:100] Creating Layer relu5_3
I1001 23:26:16.393600 12439 net.cpp:434] relu5_3 <- conv5_3
I1001 23:26:16.393633 12439 net.cpp:395] relu5_3 -> conv5_3 (in-place)
I1001 23:26:16.393653 12439 net.cpp:150] Setting up relu5_3
I1001 23:26:16.393658 12439 net.cpp:157] Top shape: 8 512 19 19 (1478656)
I1001 23:26:16.393676 12439 net.cpp:165] Memory required for data: 1763139616
I1001 23:26:16.393692 12439 layer_factory.hpp:77] Creating layer pool5
I1001 23:26:16.393723 12439 net.cpp:100] Creating Layer pool5
I1001 23:26:16.393728 12439 net.cpp:434] pool5 <- conv5_3
I1001 23:26:16.393746 12439 net.cpp:408] pool5 -> pool5
I1001 23:26:16.393792 12439 net.cpp:150] Setting up pool5
I1001 23:26:16.393798 12439 net.cpp:157] Top shape: 8 512 19 19 (1478656)
I1001 23:26:16.393816 12439 net.cpp:165] Memory required for data: 1769054240
I1001 23:26:16.393833 12439 layer_factory.hpp:77] Creating layer fc6
I1001 23:26:16.393865 12439 net.cpp:100] Creating Layer fc6
I1001 23:26:16.393870 12439 net.cpp:434] fc6 <- pool5
I1001 23:26:16.393890 12439 net.cpp:408] fc6 -> fc6
I1001 23:26:16.417207 12439 net.cpp:150] Setting up fc6
I1001 23:26:16.417235 12439 net.cpp:157] Top shape: 8 1024 19 19 (2957312)
I1001 23:26:16.417237 12439 net.cpp:165] Memory required for data: 1780883488
I1001 23:26:16.417245 12439 layer_factory.hpp:77] Creating layer relu6
I1001 23:26:16.417309 12439 net.cpp:100] Creating Layer relu6
I1001 23:26:16.417315 12439 net.cpp:434] relu6 <- fc6
I1001 23:26:16.417347 12439 net.cpp:395] relu6 -> fc6 (in-place)
I1001 23:26:16.417368 12439 net.cpp:150] Setting up relu6
I1001 23:26:16.417373 12439 net.cpp:157] Top shape: 8 1024 19 19 (2957312)
I1001 23:26:16.417390 12439 net.cpp:165] Memory required for data: 1792712736
I1001 23:26:16.417407 12439 layer_factory.hpp:77] Creating layer fc7
I1001 23:26:16.417454 12439 net.cpp:100] Creating Layer fc7
I1001 23:26:16.417457 12439 net.cpp:434] fc7 <- fc6
I1001 23:26:16.417479 12439 net.cpp:408] fc7 -> fc7
I1001 23:26:16.422890 12439 net.cpp:150] Setting up fc7
I1001 23:26:16.422919 12439 net.cpp:157] Top shape: 8 1024 19 19 (2957312)
I1001 23:26:16.422921 12439 net.cpp:165] Memory required for data: 1804541984
I1001 23:26:16.422986 12439 layer_factory.hpp:77] Creating layer relu7
I1001 23:26:16.423010 12439 net.cpp:100] Creating Layer relu7
I1001 23:26:16.423015 12439 net.cpp:434] relu7 <- fc7
I1001 23:26:16.423048 12439 net.cpp:395] relu7 -> fc7 (in-place)
I1001 23:26:16.423070 12439 net.cpp:150] Setting up relu7
I1001 23:26:16.423075 12439 net.cpp:157] Top shape: 8 1024 19 19 (2957312)
I1001 23:26:16.423092 12439 net.cpp:165] Memory required for data: 1816371232
I1001 23:26:16.423108 12439 layer_factory.hpp:77] Creating layer fc7_relu7_0_split
I1001 23:26:16.423143 12439 net.cpp:100] Creating Layer fc7_relu7_0_split
I1001 23:26:16.423147 12439 net.cpp:434] fc7_relu7_0_split <- fc7
I1001 23:26:16.423167 12439 net.cpp:408] fc7_relu7_0_split -> fc7_relu7_0_split_0
I1001 23:26:16.423188 12439 net.cpp:408] fc7_relu7_0_split -> fc7_relu7_0_split_1
I1001 23:26:16.423210 12439 net.cpp:408] fc7_relu7_0_split -> fc7_relu7_0_split_2
I1001 23:26:16.423229 12439 net.cpp:408] fc7_relu7_0_split -> fc7_relu7_0_split_3
I1001 23:26:16.423297 12439 net.cpp:150] Setting up fc7_relu7_0_split
I1001 23:26:16.423303 12439 net.cpp:157] Top shape: 8 1024 19 19 (2957312)
I1001 23:26:16.423323 12439 net.cpp:157] Top shape: 8 1024 19 19 (2957312)
I1001 23:26:16.423341 12439 net.cpp:157] Top shape: 8 1024 19 19 (2957312)
I1001 23:26:16.423357 12439 net.cpp:157] Top shape: 8 1024 19 19 (2957312)
I1001 23:26:16.423359 12439 net.cpp:165] Memory required for data: 1863688224
I1001 23:26:16.423379 12439 layer_factory.hpp:77] Creating layer conv6_1
I1001 23:26:16.423416 12439 net.cpp:100] Creating Layer conv6_1
I1001 23:26:16.423421 12439 net.cpp:434] conv6_1 <- fc7_relu7_0_split_0
I1001 23:26:16.423444 12439 net.cpp:408] conv6_1 -> conv6_1
I1001 23:26:16.425431 12439 net.cpp:150] Setting up conv6_1
I1001 23:26:16.425457 12439 net.cpp:157] Top shape: 8 256 19 19 (739328)
I1001 23:26:16.425459 12439 net.cpp:165] Memory required for data: 1866645536
I1001 23:26:16.425523 12439 layer_factory.hpp:77] Creating layer conv6_1_relu
I1001 23:26:16.425547 12439 net.cpp:100] Creating Layer conv6_1_relu
I1001 23:26:16.425554 12439 net.cpp:434] conv6_1_relu <- conv6_1
I1001 23:26:16.425585 12439 net.cpp:395] conv6_1_relu -> conv6_1 (in-place)
I1001 23:26:16.425606 12439 net.cpp:150] Setting up conv6_1_relu
I1001 23:26:16.425611 12439 net.cpp:157] Top shape: 8 256 19 19 (739328)
I1001 23:26:16.425627 12439 net.cpp:165] Memory required for data: 1869602848
I1001 23:26:16.425645 12439 layer_factory.hpp:77] Creating layer conv6_2
I1001 23:26:16.425670 12439 net.cpp:100] Creating Layer conv6_2
I1001 23:26:16.425674 12439 net.cpp:434] conv6_2 <- conv6_1
I1001 23:26:16.425695 12439 net.cpp:408] conv6_2 -> conv6_2
I1001 23:26:16.431710 12439 net.cpp:150] Setting up conv6_2
I1001 23:26:16.431735 12439 net.cpp:157] Top shape: 8 512 10 10 (409600)
I1001 23:26:16.431736 12439 net.cpp:165] Memory required for data: 1871241248
I1001 23:26:16.431807 12439 layer_factory.hpp:77] Creating layer conv6_2_relu
I1001 23:26:16.431834 12439 net.cpp:100] Creating Layer conv6_2_relu
I1001 23:26:16.431839 12439 net.cpp:434] conv6_2_relu <- conv6_2
I1001 23:26:16.431874 12439 net.cpp:395] conv6_2_relu -> conv6_2 (in-place)
I1001 23:26:16.431895 12439 net.cpp:150] Setting up conv6_2_relu
I1001 23:26:16.431900 12439 net.cpp:157] Top shape: 8 512 10 10 (409600)
I1001 23:26:16.431915 12439 net.cpp:165] Memory required for data: 1872879648
I1001 23:26:16.431931 12439 layer_factory.hpp:77] Creating layer conv6_2_conv6_2_relu_0_split
I1001 23:26:16.431964 12439 net.cpp:100] Creating Layer conv6_2_conv6_2_relu_0_split
I1001 23:26:16.431968 12439 net.cpp:434] conv6_2_conv6_2_relu_0_split <- conv6_2
I1001 23:26:16.431989 12439 net.cpp:408] conv6_2_conv6_2_relu_0_split -> conv6_2_conv6_2_relu_0_split_0
I1001 23:26:16.432027 12439 net.cpp:408] conv6_2_conv6_2_relu_0_split -> conv6_2_conv6_2_relu_0_split_1
I1001 23:26:16.432049 12439 net.cpp:408] conv6_2_conv6_2_relu_0_split -> conv6_2_conv6_2_relu_0_split_2
I1001 23:26:16.432067 12439 net.cpp:408] conv6_2_conv6_2_relu_0_split -> conv6_2_conv6_2_relu_0_split_3
I1001 23:26:16.432142 12439 net.cpp:150] Setting up conv6_2_conv6_2_relu_0_split
I1001 23:26:16.432148 12439 net.cpp:157] Top shape: 8 512 10 10 (409600)
I1001 23:26:16.432169 12439 net.cpp:157] Top shape: 8 512 10 10 (409600)
I1001 23:26:16.432186 12439 net.cpp:157] Top shape: 8 512 10 10 (409600)
I1001 23:26:16.432204 12439 net.cpp:157] Top shape: 8 512 10 10 (409600)
I1001 23:26:16.432219 12439 net.cpp:165] Memory required for data: 1879433248
I1001 23:26:16.432245 12439 layer_factory.hpp:77] Creating layer conv7_1
I1001 23:26:16.432269 12439 net.cpp:100] Creating Layer conv7_1
I1001 23:26:16.432274 12439 net.cpp:434] conv7_1 <- conv6_2_conv6_2_relu_0_split_0
I1001 23:26:16.432297 12439 net.cpp:408] conv7_1 -> conv7_1
I1001 23:26:16.432749 12439 net.cpp:150] Setting up conv7_1
I1001 23:26:16.432756 12439 net.cpp:157] Top shape: 8 128 10 10 (102400)
I1001 23:26:16.433346 12439 net.cpp:165] Memory required for data: 1879842848
I1001 23:26:16.433358 12439 layer_factory.hpp:77] Creating layer conv7_1_relu
I1001 23:26:16.433367 12439 net.cpp:100] Creating Layer conv7_1_relu
I1001 23:26:16.433372 12439 net.cpp:434] conv7_1_relu <- conv7_1
I1001 23:26:16.433385 12439 net.cpp:395] conv7_1_relu -> conv7_1 (in-place)
I1001 23:26:16.433393 12439 net.cpp:150] Setting up conv7_1_relu
I1001 23:26:16.433399 12439 net.cpp:157] Top shape: 8 128 10 10 (102400)
I1001 23:26:16.433403 12439 net.cpp:165] Memory required for data: 1880252448
I1001 23:26:16.433405 12439 layer_factory.hpp:77] Creating layer conv7_2
I1001 23:26:16.433414 12439 net.cpp:100] Creating Layer conv7_2
I1001 23:26:16.433418 12439 net.cpp:434] conv7_2 <- conv7_1
I1001 23:26:16.433423 12439 net.cpp:408] conv7_2 -> conv7_2
I1001 23:26:16.436130 12439 net.cpp:150] Setting up conv7_2
I1001 23:26:16.436149 12439 net.cpp:157] Top shape: 8 256 5 5 (51200)
I1001 23:26:16.436152 12439 net.cpp:165] Memory required for data: 1880457248
I1001 23:26:16.436161 12439 layer_factory.hpp:77] Creating layer conv7_2_relu
I1001 23:26:16.436168 12439 net.cpp:100] Creating Layer conv7_2_relu
I1001 23:26:16.436173 12439 net.cpp:434] conv7_2_relu <- conv7_2
I1001 23:26:16.436177 12439 net.cpp:395] conv7_2_relu -> conv7_2 (in-place)
I1001 23:26:16.436183 12439 net.cpp:150] Setting up conv7_2_relu
I1001 23:26:16.436187 12439 net.cpp:157] Top shape: 8 256 5 5 (51200)
I1001 23:26:16.436187 12439 net.cpp:165] Memory required for data: 1880662048
I1001 23:26:16.436189 12439 layer_factory.hpp:77] Creating layer conv7_2_conv7_2_relu_0_split
I1001 23:26:16.436194 12439 net.cpp:100] Creating Layer conv7_2_conv7_2_relu_0_split
I1001 23:26:16.436197 12439 net.cpp:434] conv7_2_conv7_2_relu_0_split <- conv7_2
I1001 23:26:16.436200 12439 net.cpp:408] conv7_2_conv7_2_relu_0_split -> conv7_2_conv7_2_relu_0_split_0
I1001 23:26:16.436205 12439 net.cpp:408] conv7_2_conv7_2_relu_0_split -> conv7_2_conv7_2_relu_0_split_1
I1001 23:26:16.436209 12439 net.cpp:408] conv7_2_conv7_2_relu_0_split -> conv7_2_conv7_2_relu_0_split_2
I1001 23:26:16.436215 12439 net.cpp:408] conv7_2_conv7_2_relu_0_split -> conv7_2_conv7_2_relu_0_split_3
I1001 23:26:16.436358 12439 net.cpp:150] Setting up conv7_2_conv7_2_relu_0_split
I1001 23:26:16.436364 12439 net.cpp:157] Top shape: 8 256 5 5 (51200)
I1001 23:26:16.436367 12439 net.cpp:157] Top shape: 8 256 5 5 (51200)
I1001 23:26:16.436369 12439 net.cpp:157] Top shape: 8 256 5 5 (51200)
I1001 23:26:16.436372 12439 net.cpp:157] Top shape: 8 256 5 5 (51200)
I1001 23:26:16.436373 12439 net.cpp:165] Memory required for data: 1881481248
I1001 23:26:16.436375 12439 layer_factory.hpp:77] Creating layer conv8_1
I1001 23:26:16.436383 12439 net.cpp:100] Creating Layer conv8_1
I1001 23:26:16.436385 12439 net.cpp:434] conv8_1 <- conv7_2_conv7_2_relu_0_split_0
I1001 23:26:16.436421 12439 net.cpp:408] conv8_1 -> conv8_1
I1001 23:26:16.436722 12439 net.cpp:150] Setting up conv8_1
I1001 23:26:16.436728 12439 net.cpp:157] Top shape: 8 128 5 5 (25600)
I1001 23:26:16.436728 12439 net.cpp:165] Memory required for data: 1881583648
I1001 23:26:16.436733 12439 layer_factory.hpp:77] Creating layer conv8_1_relu
I1001 23:26:16.436735 12439 net.cpp:100] Creating Layer conv8_1_relu
I1001 23:26:16.436738 12439 net.cpp:434] conv8_1_relu <- conv8_1
I1001 23:26:16.436740 12439 net.cpp:395] conv8_1_relu -> conv8_1 (in-place)
I1001 23:26:16.436744 12439 net.cpp:150] Setting up conv8_1_relu
I1001 23:26:16.436746 12439 net.cpp:157] Top shape: 8 128 5 5 (25600)
I1001 23:26:16.436748 12439 net.cpp:165] Memory required for data: 1881686048
I1001 23:26:16.436750 12439 layer_factory.hpp:77] Creating layer conv8_2
I1001 23:26:16.436763 12439 net.cpp:100] Creating Layer conv8_2
I1001 23:26:16.436764 12439 net.cpp:434] conv8_2 <- conv8_1
I1001 23:26:16.436769 12439 net.cpp:408] conv8_2 -> conv8_2
I1001 23:26:16.438841 12439 net.cpp:150] Setting up conv8_2
I1001 23:26:16.438858 12439 net.cpp:157] Top shape: 8 256 3 3 (18432)
I1001 23:26:16.438860 12439 net.cpp:165] Memory required for data: 1881759776
I1001 23:26:16.438868 12439 layer_factory.hpp:77] Creating layer conv8_2_relu
I1001 23:26:16.438874 12439 net.cpp:100] Creating Layer conv8_2_relu
I1001 23:26:16.438879 12439 net.cpp:434] conv8_2_relu <- conv8_2
I1001 23:26:16.438882 12439 net.cpp:395] conv8_2_relu -> conv8_2 (in-place)
I1001 23:26:16.439210 12439 net.cpp:150] Setting up conv8_2_relu
I1001 23:26:16.439240 12439 net.cpp:157] Top shape: 8 256 3 3 (18432)
I1001 23:26:16.439244 12439 net.cpp:165] Memory required for data: 1881833504
I1001 23:26:16.439246 12439 layer_factory.hpp:77] Creating layer conv8_2_conv8_2_relu_0_split
I1001 23:26:16.440063 12439 net.cpp:100] Creating Layer conv8_2_conv8_2_relu_0_split
I1001 23:26:16.440073 12439 net.cpp:434] conv8_2_conv8_2_relu_0_split <- conv8_2
I1001 23:26:16.440080 12439 net.cpp:408] conv8_2_conv8_2_relu_0_split -> conv8_2_conv8_2_relu_0_split_0
I1001 23:26:16.440086 12439 net.cpp:408] conv8_2_conv8_2_relu_0_split -> conv8_2_conv8_2_relu_0_split_1
I1001 23:26:16.440090 12439 net.cpp:408] conv8_2_conv8_2_relu_0_split -> conv8_2_conv8_2_relu_0_split_2
I1001 23:26:16.440094 12439 net.cpp:408] conv8_2_conv8_2_relu_0_split -> conv8_2_conv8_2_relu_0_split_3
I1001 23:26:16.440181 12439 net.cpp:150] Setting up conv8_2_conv8_2_relu_0_split
I1001 23:26:16.440186 12439 net.cpp:157] Top shape: 8 256 3 3 (18432)
I1001 23:26:16.440188 12439 net.cpp:157] Top shape: 8 256 3 3 (18432)
I1001 23:26:16.440191 12439 net.cpp:157] Top shape: 8 256 3 3 (18432)
I1001 23:26:16.440193 12439 net.cpp:157] Top shape: 8 256 3 3 (18432)
I1001 23:26:16.440196 12439 net.cpp:165] Memory required for data: 1882128416
I1001 23:26:16.440197 12439 layer_factory.hpp:77] Creating layer conv9_1
I1001 23:26:16.440205 12439 net.cpp:100] Creating Layer conv9_1
I1001 23:26:16.440208 12439 net.cpp:434] conv9_1 <- conv8_2_conv8_2_relu_0_split_0
I1001 23:26:16.440213 12439 net.cpp:408] conv9_1 -> conv9_1
I1001 23:26:16.440526 12439 net.cpp:150] Setting up conv9_1
I1001 23:26:16.440532 12439 net.cpp:157] Top shape: 8 128 3 3 (9216)
I1001 23:26:16.440534 12439 net.cpp:165] Memory required for data: 1882165280
I1001 23:26:16.440539 12439 layer_factory.hpp:77] Creating layer conv9_1_relu
I1001 23:26:16.440542 12439 net.cpp:100] Creating Layer conv9_1_relu
I1001 23:26:16.440544 12439 net.cpp:434] conv9_1_relu <- conv9_1
I1001 23:26:16.440547 12439 net.cpp:395] conv9_1_relu -> conv9_1 (in-place)
I1001 23:26:16.440551 12439 net.cpp:150] Setting up conv9_1_relu
I1001 23:26:16.440556 12439 net.cpp:157] Top shape: 8 128 3 3 (9216)
I1001 23:26:16.440557 12439 net.cpp:165] Memory required for data: 1882202144
I1001 23:26:16.440559 12439 layer_factory.hpp:77] Creating layer conv9_2
I1001 23:26:16.440562 12439 net.cpp:100] Creating Layer conv9_2
I1001 23:26:16.440565 12439 net.cpp:434] conv9_2 <- conv9_1
I1001 23:26:16.440569 12439 net.cpp:408] conv9_2 -> conv9_2
I1001 23:26:16.442606 12439 net.cpp:150] Setting up conv9_2
I1001 23:26:16.442625 12439 net.cpp:157] Top shape: 8 256 1 1 (2048)
I1001 23:26:16.442626 12439 net.cpp:165] Memory required for data: 1882210336
I1001 23:26:16.442632 12439 layer_factory.hpp:77] Creating layer conv9_2_relu
I1001 23:26:16.442641 12439 net.cpp:100] Creating Layer conv9_2_relu
I1001 23:26:16.442643 12439 net.cpp:434] conv9_2_relu <- conv9_2
I1001 23:26:16.442648 12439 net.cpp:395] conv9_2_relu -> conv9_2 (in-place)
I1001 23:26:16.442653 12439 net.cpp:150] Setting up conv9_2_relu
I1001 23:26:16.442656 12439 net.cpp:157] Top shape: 8 256 1 1 (2048)
I1001 23:26:16.442658 12439 net.cpp:165] Memory required for data: 1882218528
I1001 23:26:16.442659 12439 layer_factory.hpp:77] Creating layer conv9_2_conv9_2_relu_0_split
I1001 23:26:16.442663 12439 net.cpp:100] Creating Layer conv9_2_conv9_2_relu_0_split
I1001 23:26:16.442667 12439 net.cpp:434] conv9_2_conv9_2_relu_0_split <- conv9_2
I1001 23:26:16.442670 12439 net.cpp:408] conv9_2_conv9_2_relu_0_split -> conv9_2_conv9_2_relu_0_split_0
I1001 23:26:16.442674 12439 net.cpp:408] conv9_2_conv9_2_relu_0_split -> conv9_2_conv9_2_relu_0_split_1
I1001 23:26:16.442678 12439 net.cpp:408] conv9_2_conv9_2_relu_0_split -> conv9_2_conv9_2_relu_0_split_2
I1001 23:26:16.442716 12439 net.cpp:150] Setting up conv9_2_conv9_2_relu_0_split
I1001 23:26:16.442719 12439 net.cpp:157] Top shape: 8 256 1 1 (2048)
I1001 23:26:16.442723 12439 net.cpp:157] Top shape: 8 256 1 1 (2048)
I1001 23:26:16.442724 12439 net.cpp:157] Top shape: 8 256 1 1 (2048)
I1001 23:26:16.442726 12439 net.cpp:165] Memory required for data: 1882243104
I1001 23:26:16.442728 12439 layer_factory.hpp:77] Creating layer conv4_3_norm
I1001 23:26:16.442734 12439 net.cpp:100] Creating Layer conv4_3_norm
I1001 23:26:16.442736 12439 net.cpp:434] conv4_3_norm <- conv4_3_relu4_3_0_split_1
I1001 23:26:16.442739 12439 net.cpp:408] conv4_3_norm -> conv4_3_norm
I1001 23:26:16.442867 12439 net.cpp:150] Setting up conv4_3_norm
I1001 23:26:16.442872 12439 net.cpp:157] Top shape: 8 512 38 38 (5914624)
I1001 23:26:16.442873 12439 net.cpp:165] Memory required for data: 1905901600
I1001 23:26:16.442875 12439 layer_factory.hpp:77] Creating layer conv4_3_norm_conv4_3_norm_0_split
I1001 23:26:16.442879 12439 net.cpp:100] Creating Layer conv4_3_norm_conv4_3_norm_0_split
I1001 23:26:16.442883 12439 net.cpp:434] conv4_3_norm_conv4_3_norm_0_split <- conv4_3_norm
I1001 23:26:16.442885 12439 net.cpp:408] conv4_3_norm_conv4_3_norm_0_split -> conv4_3_norm_conv4_3_norm_0_split_0
I1001 23:26:16.442889 12439 net.cpp:408] conv4_3_norm_conv4_3_norm_0_split -> conv4_3_norm_conv4_3_norm_0_split_1
I1001 23:26:16.442893 12439 net.cpp:408] conv4_3_norm_conv4_3_norm_0_split -> conv4_3_norm_conv4_3_norm_0_split_2
I1001 23:26:16.442926 12439 net.cpp:150] Setting up conv4_3_norm_conv4_3_norm_0_split
I1001 23:26:16.442929 12439 net.cpp:157] Top shape: 8 512 38 38 (5914624)
I1001 23:26:16.442932 12439 net.cpp:157] Top shape: 8 512 38 38 (5914624)
I1001 23:26:16.442934 12439 net.cpp:157] Top shape: 8 512 38 38 (5914624)
I1001 23:26:16.442936 12439 net.cpp:165] Memory required for data: 1976877088
I1001 23:26:16.442939 12439 layer_factory.hpp:77] Creating layer conv4_3_norm_mbox_loc
I1001 23:26:16.442945 12439 net.cpp:100] Creating Layer conv4_3_norm_mbox_loc
I1001 23:26:16.442948 12439 net.cpp:434] conv4_3_norm_mbox_loc <- conv4_3_norm_conv4_3_norm_0_split_0
I1001 23:26:16.442951 12439 net.cpp:408] conv4_3_norm_mbox_loc -> conv4_3_norm_mbox_loc
I1001 23:26:16.443399 12439 net.cpp:150] Setting up conv4_3_norm_mbox_loc
I1001 23:26:16.443404 12439 net.cpp:157] Top shape: 8 16 38 38 (184832)
I1001 23:26:16.443406 12439 net.cpp:165] Memory required for data: 1977616416
I1001 23:26:16.443409 12439 layer_factory.hpp:77] Creating layer conv4_3_norm_mbox_loc_perm
I1001 23:26:16.443415 12439 net.cpp:100] Creating Layer conv4_3_norm_mbox_loc_perm
I1001 23:26:16.443418 12439 net.cpp:434] conv4_3_norm_mbox_loc_perm <- conv4_3_norm_mbox_loc
I1001 23:26:16.443421 12439 net.cpp:408] conv4_3_norm_mbox_loc_perm -> conv4_3_norm_mbox_loc_perm
I1001 23:26:16.443517 12439 net.cpp:150] Setting up conv4_3_norm_mbox_loc_perm
I1001 23:26:16.443521 12439 net.cpp:157] Top shape: 8 38 38 16 (184832)
I1001 23:26:16.443523 12439 net.cpp:165] Memory required for data: 1978355744
I1001 23:26:16.443526 12439 layer_factory.hpp:77] Creating layer conv4_3_norm_mbox_loc_flat
I1001 23:26:16.443531 12439 net.cpp:100] Creating Layer conv4_3_norm_mbox_loc_flat
I1001 23:26:16.443532 12439 net.cpp:434] conv4_3_norm_mbox_loc_flat <- conv4_3_norm_mbox_loc_perm
I1001 23:26:16.443536 12439 net.cpp:408] conv4_3_norm_mbox_loc_flat -> conv4_3_norm_mbox_loc_flat
I1001 23:26:16.443557 12439 net.cpp:150] Setting up conv4_3_norm_mbox_loc_flat
I1001 23:26:16.443559 12439 net.cpp:157] Top shape: 8 23104 (184832)
I1001 23:26:16.443562 12439 net.cpp:165] Memory required for data: 1979095072
I1001 23:26:16.443563 12439 layer_factory.hpp:77] Creating layer conv4_3_norm_mbox_conf
I1001 23:26:16.443570 12439 net.cpp:100] Creating Layer conv4_3_norm_mbox_conf
I1001 23:26:16.443573 12439 net.cpp:434] conv4_3_norm_mbox_conf <- conv4_3_norm_conv4_3_norm_0_split_1
I1001 23:26:16.443578 12439 net.cpp:408] conv4_3_norm_mbox_conf -> conv4_3_norm_mbox_conf
I1001 23:26:16.443956 12439 net.cpp:150] Setting up conv4_3_norm_mbox_conf
I1001 23:26:16.443960 12439 net.cpp:157] Top shape: 8 12 38 38 (138624)
I1001 23:26:16.443962 12439 net.cpp:165] Memory required for data: 1979649568
I1001 23:26:16.443966 12439 layer_factory.hpp:77] Creating layer conv4_3_norm_mbox_conf_perm
I1001 23:26:16.443970 12439 net.cpp:100] Creating Layer conv4_3_norm_mbox_conf_perm
I1001 23:26:16.443974 12439 net.cpp:434] conv4_3_norm_mbox_conf_perm <- conv4_3_norm_mbox_conf
I1001 23:26:16.443976 12439 net.cpp:408] conv4_3_norm_mbox_conf_perm -> conv4_3_norm_mbox_conf_perm
I1001 23:26:16.444048 12439 net.cpp:150] Setting up conv4_3_norm_mbox_conf_perm
I1001 23:26:16.444051 12439 net.cpp:157] Top shape: 8 38 38 12 (138624)
I1001 23:26:16.444053 12439 net.cpp:165] Memory required for data: 1980204064
I1001 23:26:16.444056 12439 layer_factory.hpp:77] Creating layer conv4_3_norm_mbox_conf_flat
I1001 23:26:16.444059 12439 net.cpp:100] Creating Layer conv4_3_norm_mbox_conf_flat
I1001 23:26:16.444061 12439 net.cpp:434] conv4_3_norm_mbox_conf_flat <- conv4_3_norm_mbox_conf_perm
I1001 23:26:16.444066 12439 net.cpp:408] conv4_3_norm_mbox_conf_flat -> conv4_3_norm_mbox_conf_flat
I1001 23:26:16.444080 12439 net.cpp:150] Setting up conv4_3_norm_mbox_conf_flat
I1001 23:26:16.444083 12439 net.cpp:157] Top shape: 8 17328 (138624)
I1001 23:26:16.444084 12439 net.cpp:165] Memory required for data: 1980758560
I1001 23:26:16.444087 12439 layer_factory.hpp:77] Creating layer conv4_3_norm_mbox_priorbox
I1001 23:26:16.444092 12439 net.cpp:100] Creating Layer conv4_3_norm_mbox_priorbox
I1001 23:26:16.444094 12439 net.cpp:434] conv4_3_norm_mbox_priorbox <- conv4_3_norm_conv4_3_norm_0_split_2
I1001 23:26:16.444098 12439 net.cpp:434] conv4_3_norm_mbox_priorbox <- data_data_0_split_1
I1001 23:26:16.444102 12439 net.cpp:408] conv4_3_norm_mbox_priorbox -> conv4_3_norm_mbox_priorbox
I1001 23:26:16.444118 12439 net.cpp:150] Setting up conv4_3_norm_mbox_priorbox
I1001 23:26:16.444121 12439 net.cpp:157] Top shape: 1 2 23104 (46208)
I1001 23:26:16.444123 12439 net.cpp:165] Memory required for data: 1980943392
I1001 23:26:16.444125 12439 layer_factory.hpp:77] Creating layer fc7_mbox_loc
I1001 23:26:16.444131 12439 net.cpp:100] Creating Layer fc7_mbox_loc
I1001 23:26:16.444134 12439 net.cpp:434] fc7_mbox_loc <- fc7_relu7_0_split_1
I1001 23:26:16.444139 12439 net.cpp:408] fc7_mbox_loc -> fc7_mbox_loc
I1001 23:26:16.445160 12439 net.cpp:150] Setting up fc7_mbox_loc
I1001 23:26:16.445171 12439 net.cpp:157] Top shape: 8 24 19 19 (69312)
I1001 23:26:16.445173 12439 net.cpp:165] Memory required for data: 1981220640
I1001 23:26:16.445178 12439 layer_factory.hpp:77] Creating layer fc7_mbox_loc_perm
I1001 23:26:16.445183 12439 net.cpp:100] Creating Layer fc7_mbox_loc_perm
I1001 23:26:16.445185 12439 net.cpp:434] fc7_mbox_loc_perm <- fc7_mbox_loc
I1001 23:26:16.445207 12439 net.cpp:408] fc7_mbox_loc_perm -> fc7_mbox_loc_perm
I1001 23:26:16.445284 12439 net.cpp:150] Setting up fc7_mbox_loc_perm
I1001 23:26:16.445288 12439 net.cpp:157] Top shape: 8 19 19 24 (69312)
I1001 23:26:16.445289 12439 net.cpp:165] Memory required for data: 1981497888
I1001 23:26:16.445291 12439 layer_factory.hpp:77] Creating layer fc7_mbox_loc_flat
I1001 23:26:16.445296 12439 net.cpp:100] Creating Layer fc7_mbox_loc_flat
I1001 23:26:16.445298 12439 net.cpp:434] fc7_mbox_loc_flat <- fc7_mbox_loc_perm
I1001 23:26:16.445329 12439 net.cpp:408] fc7_mbox_loc_flat -> fc7_mbox_loc_flat
I1001 23:26:16.445349 12439 net.cpp:150] Setting up fc7_mbox_loc_flat
I1001 23:26:16.445353 12439 net.cpp:157] Top shape: 8 8664 (69312)
I1001 23:26:16.445353 12439 net.cpp:165] Memory required for data: 1981775136
I1001 23:26:16.445356 12439 layer_factory.hpp:77] Creating layer fc7_mbox_conf
I1001 23:26:16.445361 12439 net.cpp:100] Creating Layer fc7_mbox_conf
I1001 23:26:16.445364 12439 net.cpp:434] fc7_mbox_conf <- fc7_relu7_0_split_2
I1001 23:26:16.445370 12439 net.cpp:408] fc7_mbox_conf -> fc7_mbox_conf
I1001 23:26:16.446161 12439 net.cpp:150] Setting up fc7_mbox_conf
I1001 23:26:16.446166 12439 net.cpp:157] Top shape: 8 18 19 19 (51984)
I1001 23:26:16.446167 12439 net.cpp:165] Memory required for data: 1981983072
I1001 23:26:16.446171 12439 layer_factory.hpp:77] Creating layer fc7_mbox_conf_perm
I1001 23:26:16.446177 12439 net.cpp:100] Creating Layer fc7_mbox_conf_perm
I1001 23:26:16.446178 12439 net.cpp:434] fc7_mbox_conf_perm <- fc7_mbox_conf
I1001 23:26:16.446182 12439 net.cpp:408] fc7_mbox_conf_perm -> fc7_mbox_conf_perm
I1001 23:26:16.446254 12439 net.cpp:150] Setting up fc7_mbox_conf_perm
I1001 23:26:16.446257 12439 net.cpp:157] Top shape: 8 19 19 18 (51984)
I1001 23:26:16.446259 12439 net.cpp:165] Memory required for data: 1982191008
I1001 23:26:16.446260 12439 layer_factory.hpp:77] Creating layer fc7_mbox_conf_flat
I1001 23:26:16.446264 12439 net.cpp:100] Creating Layer fc7_mbox_conf_flat
I1001 23:26:16.446267 12439 net.cpp:434] fc7_mbox_conf_flat <- fc7_mbox_conf_perm
I1001 23:26:16.446270 12439 net.cpp:408] fc7_mbox_conf_flat -> fc7_mbox_conf_flat
I1001 23:26:16.446285 12439 net.cpp:150] Setting up fc7_mbox_conf_flat
I1001 23:26:16.446288 12439 net.cpp:157] Top shape: 8 6498 (51984)
I1001 23:26:16.446290 12439 net.cpp:165] Memory required for data: 1982398944
I1001 23:26:16.446291 12439 layer_factory.hpp:77] Creating layer fc7_mbox_priorbox
I1001 23:26:16.446296 12439 net.cpp:100] Creating Layer fc7_mbox_priorbox
I1001 23:26:16.446298 12439 net.cpp:434] fc7_mbox_priorbox <- fc7_relu7_0_split_3
I1001 23:26:16.446302 12439 net.cpp:434] fc7_mbox_priorbox <- data_data_0_split_2
I1001 23:26:16.446305 12439 net.cpp:408] fc7_mbox_priorbox -> fc7_mbox_priorbox
I1001 23:26:16.446322 12439 net.cpp:150] Setting up fc7_mbox_priorbox
I1001 23:26:16.446326 12439 net.cpp:157] Top shape: 1 2 8664 (17328)
I1001 23:26:16.446327 12439 net.cpp:165] Memory required for data: 1982468256
I1001 23:26:16.446329 12439 layer_factory.hpp:77] Creating layer conv6_2_mbox_loc
I1001 23:26:16.446336 12439 net.cpp:100] Creating Layer conv6_2_mbox_loc
I1001 23:26:16.446338 12439 net.cpp:434] conv6_2_mbox_loc <- conv6_2_conv6_2_relu_0_split_1
I1001 23:26:16.446343 12439 net.cpp:408] conv6_2_mbox_loc -> conv6_2_mbox_loc
I1001 23:26:16.446913 12439 net.cpp:150] Setting up conv6_2_mbox_loc
I1001 23:26:16.446918 12439 net.cpp:157] Top shape: 8 24 10 10 (19200)
I1001 23:26:16.446920 12439 net.cpp:165] Memory required for data: 1982545056
I1001 23:26:16.446923 12439 layer_factory.hpp:77] Creating layer conv6_2_mbox_loc_perm
I1001 23:26:16.446928 12439 net.cpp:100] Creating Layer conv6_2_mbox_loc_perm
I1001 23:26:16.446930 12439 net.cpp:434] conv6_2_mbox_loc_perm <- conv6_2_mbox_loc
I1001 23:26:16.446934 12439 net.cpp:408] conv6_2_mbox_loc_perm -> conv6_2_mbox_loc_perm
I1001 23:26:16.447006 12439 net.cpp:150] Setting up conv6_2_mbox_loc_perm
I1001 23:26:16.447010 12439 net.cpp:157] Top shape: 8 10 10 24 (19200)
I1001 23:26:16.447012 12439 net.cpp:165] Memory required for data: 1982621856
I1001 23:26:16.447026 12439 layer_factory.hpp:77] Creating layer conv6_2_mbox_loc_flat
I1001 23:26:16.447031 12439 net.cpp:100] Creating Layer conv6_2_mbox_loc_flat
I1001 23:26:16.447032 12439 net.cpp:434] conv6_2_mbox_loc_flat <- conv6_2_mbox_loc_perm
I1001 23:26:16.447036 12439 net.cpp:408] conv6_2_mbox_loc_flat -> conv6_2_mbox_loc_flat
I1001 23:26:16.447052 12439 net.cpp:150] Setting up conv6_2_mbox_loc_flat
I1001 23:26:16.447055 12439 net.cpp:157] Top shape: 8 2400 (19200)
I1001 23:26:16.447057 12439 net.cpp:165] Memory required for data: 1982698656
I1001 23:26:16.447059 12439 layer_factory.hpp:77] Creating layer conv6_2_mbox_conf
I1001 23:26:16.447064 12439 net.cpp:100] Creating Layer conv6_2_mbox_conf
I1001 23:26:16.447067 12439 net.cpp:434] conv6_2_mbox_conf <- conv6_2_conv6_2_relu_0_split_2
I1001 23:26:16.447070 12439 net.cpp:408] conv6_2_mbox_conf -> conv6_2_mbox_conf
I1001 23:26:16.447552 12439 net.cpp:150] Setting up conv6_2_mbox_conf
I1001 23:26:16.447557 12439 net.cpp:157] Top shape: 8 18 10 10 (14400)
I1001 23:26:16.447559 12439 net.cpp:165] Memory required for data: 1982756256
I1001 23:26:16.447562 12439 layer_factory.hpp:77] Creating layer conv6_2_mbox_conf_perm
I1001 23:26:16.447566 12439 net.cpp:100] Creating Layer conv6_2_mbox_conf_perm
I1001 23:26:16.447568 12439 net.cpp:434] conv6_2_mbox_conf_perm <- conv6_2_mbox_conf
I1001 23:26:16.447573 12439 net.cpp:408] conv6_2_mbox_conf_perm -> conv6_2_mbox_conf_perm
I1001 23:26:16.447646 12439 net.cpp:150] Setting up conv6_2_mbox_conf_perm
I1001 23:26:16.447649 12439 net.cpp:157] Top shape: 8 10 10 18 (14400)
I1001 23:26:16.447651 12439 net.cpp:165] Memory required for data: 1982813856
I1001 23:26:16.447654 12439 layer_factory.hpp:77] Creating layer conv6_2_mbox_conf_flat
I1001 23:26:16.447656 12439 net.cpp:100] Creating Layer conv6_2_mbox_conf_flat
I1001 23:26:16.447659 12439 net.cpp:434] conv6_2_mbox_conf_flat <- conv6_2_mbox_conf_perm
I1001 23:26:16.447664 12439 net.cpp:408] conv6_2_mbox_conf_flat -> conv6_2_mbox_conf_flat
I1001 23:26:16.447677 12439 net.cpp:150] Setting up conv6_2_mbox_conf_flat
I1001 23:26:16.447680 12439 net.cpp:157] Top shape: 8 1800 (14400)
I1001 23:26:16.447681 12439 net.cpp:165] Memory required for data: 1982871456
I1001 23:26:16.447683 12439 layer_factory.hpp:77] Creating layer conv6_2_mbox_priorbox
I1001 23:26:16.447688 12439 net.cpp:100] Creating Layer conv6_2_mbox_priorbox
I1001 23:26:16.447690 12439 net.cpp:434] conv6_2_mbox_priorbox <- conv6_2_conv6_2_relu_0_split_3
I1001 23:26:16.447693 12439 net.cpp:434] conv6_2_mbox_priorbox <- data_data_0_split_3
I1001 23:26:16.447697 12439 net.cpp:408] conv6_2_mbox_priorbox -> conv6_2_mbox_priorbox
I1001 23:26:16.447713 12439 net.cpp:150] Setting up conv6_2_mbox_priorbox
I1001 23:26:16.447716 12439 net.cpp:157] Top shape: 1 2 2400 (4800)
I1001 23:26:16.447718 12439 net.cpp:165] Memory required for data: 1982890656
I1001 23:26:16.447721 12439 layer_factory.hpp:77] Creating layer conv7_2_mbox_loc
I1001 23:26:16.447726 12439 net.cpp:100] Creating Layer conv7_2_mbox_loc
I1001 23:26:16.447729 12439 net.cpp:434] conv7_2_mbox_loc <- conv7_2_conv7_2_relu_0_split_1
I1001 23:26:16.447732 12439 net.cpp:408] conv7_2_mbox_loc -> conv7_2_mbox_loc
I1001 23:26:16.448102 12439 net.cpp:150] Setting up conv7_2_mbox_loc
I1001 23:26:16.448107 12439 net.cpp:157] Top shape: 8 24 5 5 (4800)
I1001 23:26:16.448107 12439 net.cpp:165] Memory required for data: 1982909856
I1001 23:26:16.448112 12439 layer_factory.hpp:77] Creating layer conv7_2_mbox_loc_perm
I1001 23:26:16.448115 12439 net.cpp:100] Creating Layer conv7_2_mbox_loc_perm
I1001 23:26:16.448118 12439 net.cpp:434] conv7_2_mbox_loc_perm <- conv7_2_mbox_loc
I1001 23:26:16.448122 12439 net.cpp:408] conv7_2_mbox_loc_perm -> conv7_2_mbox_loc_perm
I1001 23:26:16.448194 12439 net.cpp:150] Setting up conv7_2_mbox_loc_perm
I1001 23:26:16.448197 12439 net.cpp:157] Top shape: 8 5 5 24 (4800)
I1001 23:26:16.448199 12439 net.cpp:165] Memory required for data: 1982929056
I1001 23:26:16.448201 12439 layer_factory.hpp:77] Creating layer conv7_2_mbox_loc_flat
I1001 23:26:16.448212 12439 net.cpp:100] Creating Layer conv7_2_mbox_loc_flat
I1001 23:26:16.448215 12439 net.cpp:434] conv7_2_mbox_loc_flat <- conv7_2_mbox_loc_perm
I1001 23:26:16.448218 12439 net.cpp:408] conv7_2_mbox_loc_flat -> conv7_2_mbox_loc_flat
I1001 23:26:16.448246 12439 net.cpp:150] Setting up conv7_2_mbox_loc_flat
I1001 23:26:16.448251 12439 net.cpp:157] Top shape: 8 600 (4800)
I1001 23:26:16.448251 12439 net.cpp:165] Memory required for data: 1982948256
I1001 23:26:16.448253 12439 layer_factory.hpp:77] Creating layer conv7_2_mbox_conf
I1001 23:26:16.448259 12439 net.cpp:100] Creating Layer conv7_2_mbox_conf
I1001 23:26:16.448262 12439 net.cpp:434] conv7_2_mbox_conf <- conv7_2_conv7_2_relu_0_split_2
I1001 23:26:16.448266 12439 net.cpp:408] conv7_2_mbox_conf -> conv7_2_mbox_conf
I1001 23:26:16.448588 12439 net.cpp:150] Setting up conv7_2_mbox_conf
I1001 23:26:16.448592 12439 net.cpp:157] Top shape: 8 18 5 5 (3600)
I1001 23:26:16.448595 12439 net.cpp:165] Memory required for data: 1982962656
I1001 23:26:16.448597 12439 layer_factory.hpp:77] Creating layer conv7_2_mbox_conf_perm
I1001 23:26:16.448602 12439 net.cpp:100] Creating Layer conv7_2_mbox_conf_perm
I1001 23:26:16.448604 12439 net.cpp:434] conv7_2_mbox_conf_perm <- conv7_2_mbox_conf
I1001 23:26:16.448607 12439 net.cpp:408] conv7_2_mbox_conf_perm -> conv7_2_mbox_conf_perm
I1001 23:26:16.448680 12439 net.cpp:150] Setting up conv7_2_mbox_conf_perm
I1001 23:26:16.448684 12439 net.cpp:157] Top shape: 8 5 5 18 (3600)
I1001 23:26:16.448686 12439 net.cpp:165] Memory required for data: 1982977056
I1001 23:26:16.448688 12439 layer_factory.hpp:77] Creating layer conv7_2_mbox_conf_flat
I1001 23:26:16.448693 12439 net.cpp:100] Creating Layer conv7_2_mbox_conf_flat
I1001 23:26:16.448694 12439 net.cpp:434] conv7_2_mbox_conf_flat <- conv7_2_mbox_conf_perm
I1001 23:26:16.448698 12439 net.cpp:408] conv7_2_mbox_conf_flat -> conv7_2_mbox_conf_flat
I1001 23:26:16.448712 12439 net.cpp:150] Setting up conv7_2_mbox_conf_flat
I1001 23:26:16.448715 12439 net.cpp:157] Top shape: 8 450 (3600)
I1001 23:26:16.448717 12439 net.cpp:165] Memory required for data: 1982991456
I1001 23:26:16.448719 12439 layer_factory.hpp:77] Creating layer conv7_2_mbox_priorbox
I1001 23:26:16.448724 12439 net.cpp:100] Creating Layer conv7_2_mbox_priorbox
I1001 23:26:16.448725 12439 net.cpp:434] conv7_2_mbox_priorbox <- conv7_2_conv7_2_relu_0_split_3
I1001 23:26:16.448729 12439 net.cpp:434] conv7_2_mbox_priorbox <- data_data_0_split_4
I1001 23:26:16.448731 12439 net.cpp:408] conv7_2_mbox_priorbox -> conv7_2_mbox_priorbox
I1001 23:26:16.448747 12439 net.cpp:150] Setting up conv7_2_mbox_priorbox
I1001 23:26:16.448750 12439 net.cpp:157] Top shape: 1 2 600 (1200)
I1001 23:26:16.448752 12439 net.cpp:165] Memory required for data: 1982996256
I1001 23:26:16.448755 12439 layer_factory.hpp:77] Creating layer conv8_2_mbox_loc
I1001 23:26:16.448760 12439 net.cpp:100] Creating Layer conv8_2_mbox_loc
I1001 23:26:16.448762 12439 net.cpp:434] conv8_2_mbox_loc <- conv8_2_conv8_2_relu_0_split_1
I1001 23:26:16.448766 12439 net.cpp:408] conv8_2_mbox_loc -> conv8_2_mbox_loc
I1001 23:26:16.449069 12439 net.cpp:150] Setting up conv8_2_mbox_loc
I1001 23:26:16.449072 12439 net.cpp:157] Top shape: 8 16 3 3 (1152)
I1001 23:26:16.449074 12439 net.cpp:165] Memory required for data: 1983000864
I1001 23:26:16.449081 12439 layer_factory.hpp:77] Creating layer conv8_2_mbox_loc_perm
I1001 23:26:16.449085 12439 net.cpp:100] Creating Layer conv8_2_mbox_loc_perm
I1001 23:26:16.449088 12439 net.cpp:434] conv8_2_mbox_loc_perm <- conv8_2_mbox_loc
I1001 23:26:16.449091 12439 net.cpp:408] conv8_2_mbox_loc_perm -> conv8_2_mbox_loc_perm
I1001 23:26:16.449164 12439 net.cpp:150] Setting up conv8_2_mbox_loc_perm
I1001 23:26:16.449167 12439 net.cpp:157] Top shape: 8 3 3 16 (1152)
I1001 23:26:16.449169 12439 net.cpp:165] Memory required for data: 1983005472
I1001 23:26:16.449172 12439 layer_factory.hpp:77] Creating layer conv8_2_mbox_loc_flat
I1001 23:26:16.449174 12439 net.cpp:100] Creating Layer conv8_2_mbox_loc_flat
I1001 23:26:16.449185 12439 net.cpp:434] conv8_2_mbox_loc_flat <- conv8_2_mbox_loc_perm
I1001 23:26:16.449189 12439 net.cpp:408] conv8_2_mbox_loc_flat -> conv8_2_mbox_loc_flat
I1001 23:26:16.449206 12439 net.cpp:150] Setting up conv8_2_mbox_loc_flat
I1001 23:26:16.449209 12439 net.cpp:157] Top shape: 8 144 (1152)
I1001 23:26:16.449210 12439 net.cpp:165] Memory required for data: 1983010080
I1001 23:26:16.449213 12439 layer_factory.hpp:77] Creating layer conv8_2_mbox_conf
I1001 23:26:16.449218 12439 net.cpp:100] Creating Layer conv8_2_mbox_conf
I1001 23:26:16.449220 12439 net.cpp:434] conv8_2_mbox_conf <- conv8_2_conv8_2_relu_0_split_2
I1001 23:26:16.449224 12439 net.cpp:408] conv8_2_mbox_conf -> conv8_2_mbox_conf
I1001 23:26:16.449493 12439 net.cpp:150] Setting up conv8_2_mbox_conf
I1001 23:26:16.449496 12439 net.cpp:157] Top shape: 8 12 3 3 (864)
I1001 23:26:16.449498 12439 net.cpp:165] Memory required for data: 1983013536
I1001 23:26:16.449502 12439 layer_factory.hpp:77] Creating layer conv8_2_mbox_conf_perm
I1001 23:26:16.449506 12439 net.cpp:100] Creating Layer conv8_2_mbox_conf_perm
I1001 23:26:16.449508 12439 net.cpp:434] conv8_2_mbox_conf_perm <- conv8_2_mbox_conf
I1001 23:26:16.449512 12439 net.cpp:408] conv8_2_mbox_conf_perm -> conv8_2_mbox_conf_perm
I1001 23:26:16.449584 12439 net.cpp:150] Setting up conv8_2_mbox_conf_perm
I1001 23:26:16.449586 12439 net.cpp:157] Top shape: 8 3 3 12 (864)
I1001 23:26:16.449589 12439 net.cpp:165] Memory required for data: 1983016992
I1001 23:26:16.449590 12439 layer_factory.hpp:77] Creating layer conv8_2_mbox_conf_flat
I1001 23:26:16.449594 12439 net.cpp:100] Creating Layer conv8_2_mbox_conf_flat
I1001 23:26:16.449596 12439 net.cpp:434] conv8_2_mbox_conf_flat <- conv8_2_mbox_conf_perm
I1001 23:26:16.449600 12439 net.cpp:408] conv8_2_mbox_conf_flat -> conv8_2_mbox_conf_flat
I1001 23:26:16.449615 12439 net.cpp:150] Setting up conv8_2_mbox_conf_flat
I1001 23:26:16.449617 12439 net.cpp:157] Top shape: 8 108 (864)
I1001 23:26:16.449620 12439 net.cpp:165] Memory required for data: 1983020448
I1001 23:26:16.449621 12439 layer_factory.hpp:77] Creating layer conv8_2_mbox_priorbox
I1001 23:26:16.449626 12439 net.cpp:100] Creating Layer conv8_2_mbox_priorbox
I1001 23:26:16.449628 12439 net.cpp:434] conv8_2_mbox_priorbox <- conv8_2_conv8_2_relu_0_split_3
I1001 23:26:16.449631 12439 net.cpp:434] conv8_2_mbox_priorbox <- data_data_0_split_5
I1001 23:26:16.449635 12439 net.cpp:408] conv8_2_mbox_priorbox -> conv8_2_mbox_priorbox
I1001 23:26:16.449653 12439 net.cpp:150] Setting up conv8_2_mbox_priorbox
I1001 23:26:16.449656 12439 net.cpp:157] Top shape: 1 2 144 (288)
I1001 23:26:16.449657 12439 net.cpp:165] Memory required for data: 1983021600
I1001 23:26:16.449659 12439 layer_factory.hpp:77] Creating layer conv9_2_mbox_loc
I1001 23:26:16.449666 12439 net.cpp:100] Creating Layer conv9_2_mbox_loc
I1001 23:26:16.449667 12439 net.cpp:434] conv9_2_mbox_loc <- conv9_2_conv9_2_relu_0_split_0
I1001 23:26:16.449671 12439 net.cpp:408] conv9_2_mbox_loc -> conv9_2_mbox_loc
I1001 23:26:16.449971 12439 net.cpp:150] Setting up conv9_2_mbox_loc
I1001 23:26:16.449975 12439 net.cpp:157] Top shape: 8 16 1 1 (128)
I1001 23:26:16.449976 12439 net.cpp:165] Memory required for data: 1983022112
I1001 23:26:16.449980 12439 layer_factory.hpp:77] Creating layer conv9_2_mbox_loc_perm
I1001 23:26:16.449985 12439 net.cpp:100] Creating Layer conv9_2_mbox_loc_perm
I1001 23:26:16.449986 12439 net.cpp:434] conv9_2_mbox_loc_perm <- conv9_2_mbox_loc
I1001 23:26:16.449990 12439 net.cpp:408] conv9_2_mbox_loc_perm -> conv9_2_mbox_loc_perm
I1001 23:26:16.450060 12439 net.cpp:150] Setting up conv9_2_mbox_loc_perm
I1001 23:26:16.450063 12439 net.cpp:157] Top shape: 8 1 1 16 (128)
I1001 23:26:16.450065 12439 net.cpp:165] Memory required for data: 1983022624
I1001 23:26:16.450067 12439 layer_factory.hpp:77] Creating layer conv9_2_mbox_loc_flat
I1001 23:26:16.450071 12439 net.cpp:100] Creating Layer conv9_2_mbox_loc_flat
I1001 23:26:16.450074 12439 net.cpp:434] conv9_2_mbox_loc_flat <- conv9_2_mbox_loc_perm
I1001 23:26:16.450078 12439 net.cpp:408] conv9_2_mbox_loc_flat -> conv9_2_mbox_loc_flat
I1001 23:26:16.450100 12439 net.cpp:150] Setting up conv9_2_mbox_loc_flat
I1001 23:26:16.450103 12439 net.cpp:157] Top shape: 8 16 (128)
I1001 23:26:16.450105 12439 net.cpp:165] Memory required for data: 1983023136
I1001 23:26:16.450107 12439 layer_factory.hpp:77] Creating layer conv9_2_mbox_conf
I1001 23:26:16.450112 12439 net.cpp:100] Creating Layer conv9_2_mbox_conf
I1001 23:26:16.450115 12439 net.cpp:434] conv9_2_mbox_conf <- conv9_2_conv9_2_relu_0_split_1
I1001 23:26:16.450119 12439 net.cpp:408] conv9_2_mbox_conf -> conv9_2_mbox_conf
I1001 23:26:16.450387 12439 net.cpp:150] Setting up conv9_2_mbox_conf
I1001 23:26:16.450392 12439 net.cpp:157] Top shape: 8 12 1 1 (96)
I1001 23:26:16.450393 12439 net.cpp:165] Memory required for data: 1983023520
I1001 23:26:16.450397 12439 layer_factory.hpp:77] Creating layer conv9_2_mbox_conf_perm
I1001 23:26:16.450400 12439 net.cpp:100] Creating Layer conv9_2_mbox_conf_perm
I1001 23:26:16.450403 12439 net.cpp:434] conv9_2_mbox_conf_perm <- conv9_2_mbox_conf
I1001 23:26:16.450407 12439 net.cpp:408] conv9_2_mbox_conf_perm -> conv9_2_mbox_conf_perm
I1001 23:26:16.450476 12439 net.cpp:150] Setting up conv9_2_mbox_conf_perm
I1001 23:26:16.450480 12439 net.cpp:157] Top shape: 8 1 1 12 (96)
I1001 23:26:16.450481 12439 net.cpp:165] Memory required for data: 1983023904
I1001 23:26:16.450484 12439 layer_factory.hpp:77] Creating layer conv9_2_mbox_conf_flat
I1001 23:26:16.450489 12439 net.cpp:100] Creating Layer conv9_2_mbox_conf_flat
I1001 23:26:16.450490 12439 net.cpp:434] conv9_2_mbox_conf_flat <- conv9_2_mbox_conf_perm
I1001 23:26:16.450493 12439 net.cpp:408] conv9_2_mbox_conf_flat -> conv9_2_mbox_conf_flat
I1001 23:26:16.450508 12439 net.cpp:150] Setting up conv9_2_mbox_conf_flat
I1001 23:26:16.450510 12439 net.cpp:157] Top shape: 8 12 (96)
I1001 23:26:16.450512 12439 net.cpp:165] Memory required for data: 1983024288
I1001 23:26:16.450515 12439 layer_factory.hpp:77] Creating layer conv9_2_mbox_priorbox
I1001 23:26:16.450518 12439 net.cpp:100] Creating Layer conv9_2_mbox_priorbox
I1001 23:26:16.450520 12439 net.cpp:434] conv9_2_mbox_priorbox <- conv9_2_conv9_2_relu_0_split_2
I1001 23:26:16.450523 12439 net.cpp:434] conv9_2_mbox_priorbox <- data_data_0_split_6
I1001 23:26:16.450528 12439 net.cpp:408] conv9_2_mbox_priorbox -> conv9_2_mbox_priorbox
I1001 23:26:16.450543 12439 net.cpp:150] Setting up conv9_2_mbox_priorbox
I1001 23:26:16.450546 12439 net.cpp:157] Top shape: 1 2 16 (32)
I1001 23:26:16.450548 12439 net.cpp:165] Memory required for data: 1983024416
I1001 23:26:16.450551 12439 layer_factory.hpp:77] Creating layer mbox_loc
I1001 23:26:16.450554 12439 net.cpp:100] Creating Layer mbox_loc
I1001 23:26:16.450557 12439 net.cpp:434] mbox_loc <- conv4_3_norm_mbox_loc_flat
I1001 23:26:16.450561 12439 net.cpp:434] mbox_loc <- fc7_mbox_loc_flat
I1001 23:26:16.450563 12439 net.cpp:434] mbox_loc <- conv6_2_mbox_loc_flat
I1001 23:26:16.450567 12439 net.cpp:434] mbox_loc <- conv7_2_mbox_loc_flat
I1001 23:26:16.450568 12439 net.cpp:434] mbox_loc <- conv8_2_mbox_loc_flat
I1001 23:26:16.450572 12439 net.cpp:434] mbox_loc <- conv9_2_mbox_loc_flat
I1001 23:26:16.450574 12439 net.cpp:408] mbox_loc -> mbox_loc
I1001 23:26:16.450592 12439 net.cpp:150] Setting up mbox_loc
I1001 23:26:16.450594 12439 net.cpp:157] Top shape: 8 34928 (279424)
I1001 23:26:16.450597 12439 net.cpp:165] Memory required for data: 1984142112
I1001 23:26:16.450598 12439 layer_factory.hpp:77] Creating layer mbox_conf
I1001 23:26:16.450601 12439 net.cpp:100] Creating Layer mbox_conf
I1001 23:26:16.450604 12439 net.cpp:434] mbox_conf <- conv4_3_norm_mbox_conf_flat
I1001 23:26:16.450608 12439 net.cpp:434] mbox_conf <- fc7_mbox_conf_flat
I1001 23:26:16.450609 12439 net.cpp:434] mbox_conf <- conv6_2_mbox_conf_flat
I1001 23:26:16.450613 12439 net.cpp:434] mbox_conf <- conv7_2_mbox_conf_flat
I1001 23:26:16.450615 12439 net.cpp:434] mbox_conf <- conv8_2_mbox_conf_flat
I1001 23:26:16.450618 12439 net.cpp:434] mbox_conf <- conv9_2_mbox_conf_flat
I1001 23:26:16.450621 12439 net.cpp:408] mbox_conf -> mbox_conf
I1001 23:26:16.450645 12439 net.cpp:150] Setting up mbox_conf
I1001 23:26:16.450649 12439 net.cpp:157] Top shape: 8 26196 (209568)
I1001 23:26:16.450651 12439 net.cpp:165] Memory required for data: 1984980384
I1001 23:26:16.450654 12439 layer_factory.hpp:77] Creating layer mbox_priorbox
I1001 23:26:16.450656 12439 net.cpp:100] Creating Layer mbox_priorbox
I1001 23:26:16.450659 12439 net.cpp:434] mbox_priorbox <- conv4_3_norm_mbox_priorbox
I1001 23:26:16.450661 12439 net.cpp:434] mbox_priorbox <- fc7_mbox_priorbox
I1001 23:26:16.450664 12439 net.cpp:434] mbox_priorbox <- conv6_2_mbox_priorbox
I1001 23:26:16.450667 12439 net.cpp:434] mbox_priorbox <- conv7_2_mbox_priorbox
I1001 23:26:16.450670 12439 net.cpp:434] mbox_priorbox <- conv8_2_mbox_priorbox
I1001 23:26:16.450672 12439 net.cpp:434] mbox_priorbox <- conv9_2_mbox_priorbox
I1001 23:26:16.450675 12439 net.cpp:408] mbox_priorbox -> mbox_priorbox
I1001 23:26:16.450690 12439 net.cpp:150] Setting up mbox_priorbox
I1001 23:26:16.450693 12439 net.cpp:157] Top shape: 1 2 34928 (69856)
I1001 23:26:16.450695 12439 net.cpp:165] Memory required for data: 1985259808
I1001 23:26:16.450696 12439 layer_factory.hpp:77] Creating layer mbox_conf_reshape
I1001 23:26:16.450701 12439 net.cpp:100] Creating Layer mbox_conf_reshape
I1001 23:26:16.450703 12439 net.cpp:434] mbox_conf_reshape <- mbox_conf
I1001 23:26:16.450707 12439 net.cpp:408] mbox_conf_reshape -> mbox_conf_reshape
I1001 23:26:16.450731 12439 net.cpp:150] Setting up mbox_conf_reshape
I1001 23:26:16.450734 12439 net.cpp:157] Top shape: 8 8732 3 (209568)
I1001 23:26:16.450736 12439 net.cpp:165] Memory required for data: 1986098080
I1001 23:26:16.450738 12439 layer_factory.hpp:77] Creating layer mbox_conf_softmax
I1001 23:26:16.450742 12439 net.cpp:100] Creating Layer mbox_conf_softmax
I1001 23:26:16.450743 12439 net.cpp:434] mbox_conf_softmax <- mbox_conf_reshape
I1001 23:26:16.450747 12439 net.cpp:408] mbox_conf_softmax -> mbox_conf_softmax
I1001 23:26:16.450791 12439 net.cpp:150] Setting up mbox_conf_softmax
I1001 23:26:16.450795 12439 net.cpp:157] Top shape: 8 8732 3 (209568)
I1001 23:26:16.450796 12439 net.cpp:165] Memory required for data: 1986936352
I1001 23:26:16.450798 12439 layer_factory.hpp:77] Creating layer mbox_conf_flatten
I1001 23:26:16.450801 12439 net.cpp:100] Creating Layer mbox_conf_flatten
I1001 23:26:16.450803 12439 net.cpp:434] mbox_conf_flatten <- mbox_conf_softmax
I1001 23:26:16.450808 12439 net.cpp:408] mbox_conf_flatten -> mbox_conf_flatten
I1001 23:26:16.450824 12439 net.cpp:150] Setting up mbox_conf_flatten
I1001 23:26:16.450826 12439 net.cpp:157] Top shape: 8 26196 (209568)
I1001 23:26:16.450829 12439 net.cpp:165] Memory required for data: 1987774624
I1001 23:26:16.450830 12439 layer_factory.hpp:77] Creating layer detection_out
I1001 23:26:16.450839 12439 net.cpp:100] Creating Layer detection_out
I1001 23:26:16.450841 12439 net.cpp:434] detection_out <- mbox_loc
I1001 23:26:16.450845 12439 net.cpp:434] detection_out <- mbox_conf_flatten
I1001 23:26:16.450846 12439 net.cpp:434] detection_out <- mbox_priorbox
I1001 23:26:16.450850 12439 net.cpp:408] detection_out -> detection_out
W1001 23:26:16.450886 12439 detection_output_layer.cpp:49] Failed to create directory: /home/rjperias/data/VOCdevkit/results/VOC2007/SSD_300x300/Main
I1001 23:26:16.451172 12439 net.cpp:150] Setting up detection_out
I1001 23:26:16.451179 12439 net.cpp:157] Top shape: 1 1 1 7 (7)
I1001 23:26:16.451179 12439 net.cpp:165] Memory required for data: 1987774652
I1001 23:26:16.451182 12439 layer_factory.hpp:77] Creating layer detection_eval
I1001 23:26:16.451187 12439 net.cpp:100] Creating Layer detection_eval
I1001 23:26:16.451189 12439 net.cpp:434] detection_eval <- detection_out
I1001 23:26:16.451192 12439 net.cpp:434] detection_eval <- label
I1001 23:26:16.451196 12439 net.cpp:408] detection_eval -> detection_eval
I1001 23:26:16.451252 12439 net.cpp:150] Setting up detection_eval
I1001 23:26:16.451256 12439 net.cpp:157] Top shape: 1 1 3 5 (15)
I1001 23:26:16.451258 12439 net.cpp:165] Memory required for data: 1987774712
I1001 23:26:16.451272 12439 net.cpp:228] detection_eval does not need backward computation.
I1001 23:26:16.451277 12439 net.cpp:228] detection_out does not need backward computation.
I1001 23:26:16.451279 12439 net.cpp:228] mbox_conf_flatten does not need backward computation.
I1001 23:26:16.451282 12439 net.cpp:228] mbox_conf_softmax does not need backward computation.
…
